offline_prototype_3_ds_as_sampling/trained_models/ae_model_ransomware_file_extension_hide.pth (torch, 17151 bytes, 16 tensors)

0.weight f4 [23, 46]
000000 c0 3f 0c 3e 68 fa 8c bd 07 6a f8 bd f5 ce 7b bd
       0.13696194 -0.06883699 -0.12129598 -0.061476666
000010 8d 7a 0c 3e 50 6a b3 3d 36 69 5b 3d 2c 1b 1b 3d
       0.13718624 0.08760512 0.053567134 0.03786771
000020 ed e3 66 3d ce 7b 38 be 0e f1 1e 3d 5f ed 10 3e
       0.05636971 -0.18015978 0.038804106 0.1415305
000030 1d ac d2 3d 42 ff e8 b9 b7 b6 99 3d db a0 a9 bb
       0.10286734 -0.0004444067 0.07505553 -0.005176646
000040 9e b3 01 be ec ff 0a 3e 9c 39 45 3e 9f 87 97 bd
       -0.12666175 0.13574189 0.19260257 -0.073989145
000050 33 dd 1b 3e b1 b2 ac bd e4 6e 60 bd bb 18 f6 bb
       0.152211 -0.0843252 -0.054793254 -0.0075102723
000060 7b 31 9f 3c cb 5d 1f 3d 8e be 9e 3d b6 e3 6b 3d
       0.019432774 0.038907807 0.07751189 0.05759021
000070 10 90 0d 3e 14 c1 19 3b 73 13 b1 bd c7 be 2f bd
       0.13824487 0.002346103 -0.08646288 -0.04290655
000080 90 73 1b bd a1 90 84 bc dd af 84 3d 93 7f 29 bd
       -0.037952006 -0.016182246 0.06478856 -0.04138143
000090 57 dc b8 bd d4 5f a8 bc 84 81 9f 3d 02 d4 98 bc
       -0.090264015 -0.020553507 0.07788375 -0.01865578
0000a0 62 70 c0 bd 87 dc 93 bd 1e d0 ab bd 35 ab 95 bd
       -0.09396435 -0.07219797 -0.083893046 -0.07308046
0000b0 f8 96 74 bd ff 66 ad 3d 91 a3 e6 3c 90 31 d0 3d
       -0.059714288 0.084669106 0.028154166 0.10165703
0000c0 fb 0d e4 bd 56 8b c5 3c f5 81 eb bc 13 6f e1 bd
       -0.11135479 0.024114292 -0.028748492 -0.11007514
0000d0 41 26 15 bb 7a 82 bd 3d 66 05 c4 bd df 04 47 be
       -0.0022758397 0.09253402 -0.09571342 -0.19435452
0000e0 31 bf 2b be 4b 18 8b bd 99 02 6d 3d 7e 02 ad 3d
       -0.16772152 -0.06791743 0.057863805 0.08447741
0000f0 7e ce fa 3d 02 ee b7 bd 86 f8 b4 bd 73 a1 40 3d
       0.122464165 -0.08980943 -0.088364646 0.04702897
000100 ab 7d 02 be 22 7d 0a 3d 54 0d ff bd 0c bc c6 bd
       -0.12743251 0.033810742 -0.12453714 -0.09703836
000110 bc 24 0c 3d c1 98 a1 bd f9 eb b7 3d 36 d3 24 be
       0.03421472 -0.078904636 0.08980555 -0.16096196
000120 2d 4f a4 bc c2 09 40 3d 4c 27 6b bd d0 6c 50 3c
       -0.020057285 0.046884306 -0.057410523 0.012721255
000130 2b 80 b0 3b 86 a7 be bd 2c 55 0a be a5 1c 2d 3d
       0.0053863726 -0.09309296 -0.13509053 0.042263646
000140 5d 97 fb bd d4 4b e9 3c 71 b3 43 3d 88 69 b1 3d
       -0.1228473 0.02847854 0.04777855 0.086627066
000150 8b 40 2c 3d f1 f3 fd bd 45 c9 fb 3c e2 13 8f 3c
       0.04205374 -0.12400044 0.030735621 0.017465536
000160 d0 0d 3c 3c c4 59 25 3d 03 2d 34 bd 2c a6 36 b9
       0.0114779025 0.04036881 -0.04398824 -0.00017418776
000170 9f 9f a1 bd e7 d6 97 3d 71 c5 ac 3d 6d c8 ad bd
       -0.078917734 0.07414036 0.084360965 -0.08485494
000180 19 41 fa 3c ae 8a 07 be 2a cd 8c bd 74 cb 02 be
       0.03054862 -0.13236496 -0.068750694 -0.12772924
000190 56 46 eb 3d 0b 6f de bd 25 61 81 3c d9 26 b2 bc
       0.11488025 -0.108610235 0.015793392 -0.02174704
0001a0 1b 63 79 bd d8 ad e6 bd 69 d3 ae 3c a8 f2 0e 3e
       -0.06088553 -0.11263627 0.021341043 0.13959754
0001b0 c6 97 d0 bd 23 0d a0 3d 8f 5a b0 bd fd 9d 0d be
       -0.101851985 0.07815006 -0.08611023 -0.13829799
0001c0 94 7d dc bd a0 26 d7 bd a7 ad b8 bd 7a 11 b8 bc
       -0.107661396 -0.10505414 -0.090174966 -0.022469271
0001d0 30 7c fa bc 7a c2 b0 bd 1b 92 f8 bd aa 76 80 3d
       -0.030576795 -0.086308435 -0.121372424 0.062726334
0001e0 a5 f3 e1 3d fb d5 32 3d f7 2f db bd 92 52 09 3d
       0.110328 0.0436611 -0.10702508 0.03352601
0001f0 60 2a d1 3d 67 48 71 3a 00 c5 f2 3c e6 68 c7 3b
       0.102131605 0.0009204209 0.029634953 0.006085503
000200 1b c8 ae 3c 95 bf 2c 3c aa c9 71 3d 6b 58 8b bd
       0.021335652 0.010543724 0.059030212 -0.06803974
000210 dc 3b dc 3d 4f 05 0c bd 17 e6 ad bd 0d 56 08 3e
       0.10753605 -0.03418475 -0.08491152 0.13314076
000220 68 7e e4 3d af 00 64 3e 40 ac c0 bc bd 9f 8a ba
       0.111569226 0.22265886 -0.023519635 -0.001057617
000230 57 6d bf 3d ff cd d8 3d 32 71 18 3e f0 74 7b 3c
       0.09347027 0.10586166 0.1488693 0.015347704
000240 9a 8a 9d 3c 03 1a 5a 3d 19 b6 0f be e6 29 32 3c
       0.01923113 0.053247463 -0.14034308 0.010874247
000250 08 9b d5 bb 67 cd 8f 3d a7 6f 42 3e a4 d6 d9 3d
       -0.0065187253 0.07021599 0.18987904 0.106366426
000260 69 c4 62 3d 69 3e 08 3e cd cb 89 3c 78 03 8b 3c
       0.055363093 0.13305058 0.016820813 0.016969427
000270 cb 8c 16 3e 55 7d 48 3e 15 bb c2 bd 0b 98 b7 3c
       0.14702146 0.1957906 -0.09508339 0.022411367
000280 7c f1 86 bd b9 e4 66 bd 7a 29 79 3c 9b 48 3c 3e
       -0.06589028 -0.05637047 0.015207643 0.18387072
000290 a6 2d bd 3d 2d ba 08 be c9 47 ad 3d 81 62 9c 3c
       0.092372224 -0.1335227 0.084609576 0.01908994
0002a0 da 1b 33 3c 55 94 8d bd 7d 2c 5b 3e 08 e4 9e bd
       0.010931933 -0.06913058 0.2140369 -0.07758337
0002b0 59 b6 c3 bd 5a 56 75 be 54 30 ce bc 76 03 10 bd
       -0.095562644 -0.23958722 -0.025169529 -0.03515955
0002c0 92 ae 64 3d e7 06 c4 3d 86 b1 b3 bd 0a b0 d1 3d
       0.055830546 0.09571629 -0.08774094 0.10238655
0002d0 c2 9b ac 3d 8c af 90 3d 38 85 17 bc 54 b5 5b bd
       0.08428146 0.07064733 -0.00924807 -0.053639725
0002e0 a0 23 f5 3c 34 a9 2a 3d ce 21 c4 bd 41 5f 0c be
       0.029924214 0.04166527 -0.0957676 -0.13708211
0002f0 d1 28 65 bc cc e0 ef 3d a4 60 28 3e 05 a4 1f 3d
       -0.013986782 0.117127985 0.16443115 0.03897478
000300 dd c8 09 bd f1 60 6d 3d 33 a5 0b be 76 33 7b bd
       -0.033638824 0.05795378 -0.13637237 -0.061328374
000310 b6 b2 ab bc 24 3c a9 bd 5c dd 5e 3d 16 87 fd 3c
       -0.02095924 -0.08263424 0.054410324 0.030948203
000320 0c c6 b4 3d 1d 7a d1 bd c4 50 0b be 39 89 2b 3d
       0.08826837 -0.102283694 -0.13605028 0.041878913
000330 2c e5 ae 3c 48 a5 4e 3d 0f 3a 19 be fc ad b6 3d
       0.021349512 0.050450593 -0.14963554 0.08919904
000340 90 cc 12 3c 01 fa f7 bd 57 6d 99 bd 5a cc 6e bd
       0.008959904 -0.12108231 -0.07491558 -0.058300354
000350 10 81 24 3d f2 15 59 3d ba 66 d7 3d ce d5 c7 3d
       0.040162146 0.052999444 0.105176404 0.09757577
000360 37 5a 2c be 14 b2 de 3a 42 ae 4a bd 33 82 d9 bd
       -0.16831289 0.0016990327 -0.04948259 -0.10620537
000370 0f 9b 1d 3d 19 5a 5c bd 20 fa 98 bb e1 83 58 bd
       0.038477954 -0.05379686 -0.004668489 -0.052860145
000380 28 9b c0 bd 4f a6 00 3e 06 41 00 3e 73 16 50 3c
       -0.09404594 0.12563442 0.12524804 0.012700665
000390 4b d4 e9 3d 4d b8 89 3d a5 55 01 3b 03 5e b7 bd
       0.11417445 0.06724606 0.0019734886 -0.08953478
0003a0 f9 8c 05 3e 52 cd 25 3d 12 76 4d 3d 50 b1 c3 bc
       0.13042058 0.04047901 0.05016143 -0.02388826
0003b0 29 fe 85 bc 4e a8 59 3c 67 62 80 3d 60 59 cc 3d
       -0.016356545 0.013284756 0.06268769 0.099779844
0003c0 c2 3a 34 be 20 9e 9d bc e3 52 c1 3d f9 59 5b bd
       -0.1760054 -0.019240439 0.094396375 -0.0535526
0003d0 eb b4 e0 bd 89 5a 75 3d f9 88 a0 bd 79 b9 21 3e
       -0.10972007 0.059900794 -0.078386255 0.15793408
0003e0 29 24 21 3e 2d e0 11 3e 0b b7 0d bd e5 88 4a 3d
       0.1573645 0.14245673 -0.03459839 0.04944696
0003f0 c7 5a 0f 3d 7f 6f 92 3b 7f 4c ab 3c b7 66 00 3e
       0.03499868 0.004468858 0.0209105 0.12539183

0.bias f4 [23]
000000 65 47 06 bc 50 43 8c bd f1 3d 8c bd 2b 16 09 bd
       -0.008195733 -0.06848776 -0.06847752 -0.033468407
000010 a1 cf 13 3b 14 37 e9 bd a7 5e 03 bd 10 b8 64 3d
       0.0022554176 -0.113874584 -0.03207269 0.0558396
000020 de 54 5b 3d 5c 74 e4 3d 90 4e 17 bc e0 6e e0 3d
       0.053547733 0.11155006 -0.009235039 0.10958648
000030 04 37 21 3d 0c c0 78 bd 64 3c 06 3e 30 ca ba bd
       0.039359108 -0.060730025 0.13108975 -0.091205955
000040 9c 48 7f 3c d0 72 0b be a8 25 0a 3e 6c 05 d6 bd
       0.015581276 -0.13618016 0.13490927 -0.10450253
000050 25 b8 8b 3d c8 65 dd 3d 2a a1 c6 bc
       0.06822232 0.10810429 -0.02424677

1.weight f4 [23]
000000 5b 50 6c 3f 85 d8 79 3f c9 04 6d 3f 16 b8 7b 3f
       0.9231011 0.9759601 0.92585427 0.9832777
000010 41 1c 70 3f a8 92 78 3f a8 7b 6f 3f e7 d8 71 3f
       0.9379311 0.9709878 0.9354806 0.9447159
000020 24 9e 6c 3f d3 bd 6c 3f 57 36 68 3f 87 34 70 3f
       0.92428803 0.9247715 0.90707916 0.9383015
000030 36 17 6d 3f 9c e3 76 3f c8 2d 77 3f 35 1a 7e 3f
       0.9261354 0.96441054 0.9655423 0.9925874
000040 64 3d 7e 3f 04 32 70 3f db d9 75 3f 59 77 6c 3f
       0.99312425 0.9382632 0.96035546 0.9236961
000050 d3 85 71 3f 52 2a 6a 3f b9 21 75 3f
       0.94344825 0.91470826 0.9575458

1.bias f4 [23]
000000 5e c5 8a bd b2 2e af bc 37 e2 d5 3c e9 2e d8 bd
       -0.06775926 -0.02138457 0.026108844 -0.105558224
000010 b8 e9 47 3d e6 72 54 bc 7d 35 8a 3c 0c cc d1 bb
       0.048806876 -0.012966847 0.016871208 -0.006402498
000020 1d 3b 7a 3d 8c f6 cb 3b 23 06 09 3d da 45 09 bc
       0.06109153 0.006224459 0.033453118 -0.00837847
000030 7d ba 84 3d c2 a5 c9 3c e0 65 6d bd 24 03 0a bd
       0.06480882 0.024615172 -0.057958484 -0.0336944
000040 db 58 aa bd d2 76 50 3d 82 f4 c4 3b b3 e2 93 bd
       -0.08317729 0.050894566 0.006010593 -0.07220974
000050 76 1a 4d 3d c3 62 86 3c 16 72 88 3b
       0.050074063 0.016404515 0.0041639907

1.running_mean f4 [23]
000000 94 5a 82 bd e0 4e a2 be 42 60 82 be a9 27 35 3e
       -0.06364933 -0.31700802 -0.25464064 0.1769091
000010 31 73 bd 3d bf 64 3b bd c9 b3 c8 be ab f7 71 be
       0.09250487 -0.045750376 -0.39199665 -0.23629634
000020 f6 b6 ae bc 8e 15 56 be 0b a7 a8 bd de 2f a7 be
       -0.021327477 -0.2090666 -0.08234986 -0.32653707
000030 2d d7 9e be 62 88 c2 bc e1 74 d6 3e 82 ad 3a 3d
       -0.3102354 -0.023746673 0.41886047 0.045575626
000040 b9 b5 64 3e da 07 8d be 0a e9 fc 3e f4 ed 45 3d
       0.22334947 -0.27545053 0.49396545 0.048322633
000050 10 62 20 3f 4f 66 5c be e2 73 b9 bd
       0.6264963 -0.21523403 -0.09055306

1.running_var f4 [23]
000000 c9 1d 66 3c 9e 7e d7 3b 64 27 a4 3b 6f c9 f7 3b
       0.014045187 0.0065763732 0.0050095785 0.0075618546
000010 87 2c 43 3b a9 08 0d 3c 27 0e 22 3c 74 1e ac 3b
       0.002978118 0.008608022 0.0098910695 0.0052526537
000020 a2 99 da 3b 3e 51 3a 3c e0 ab 62 3c a7 c3 31 3c
       0.0066711465 0.011371909 0.0138349235 0.01084987
000030 a3 34 b7 3b 80 82 c2 3b e5 f4 81 3c d5 ae 52 3c
       0.0055909916 0.005935967 0.015863845 0.012859066
000040 9d 44 db 3b 47 ec 9e 3b e9 86 f0 3b 53 b1 0b 3c
       0.006691529 0.004849944 0.0073403013 0.008526164
000050 8e 3e 19 3c d0 84 ba 3b aa 51 c2 3b
       0.009353293 0.005692102 0.0059301453

3.weight f4 [11, 23]
000000 41 4d 0f be 18 4d 0e be bc bf 68 3d 0a 98 94 bd
       -0.13994314 -0.13896596 0.056823477 -0.07255562
000010 bd fd 05 3d 2a 95 c3 bd 42 3b c3 3d dc 17 42 be
       0.032712687 -0.09549935 0.09532787 -0.18954414
000020 ec b7 c2 bd 24 87 ac bd eb 01 9b bd a7 43 87 bc
       -0.095077366 -0.084242135 -0.07568725 -0.016511751
000030 5c dc e8 3d 55 ae 98 bd 9f bf 34 bd 95 7f f1 3d
       0.11370155 -0.07455126 -0.044128057 0.117919125
000040 c5 be cc 3c d9 16 cd ba b3 c0 8e 3d bc 1f e3 bc
       0.02499331 -0.0015647068 0.06970348 -0.027725093
000050 49 58 1d 3e b0 46 1d bd 54 eb 51 3e 7e 14 02 3e
       0.1536571 -0.03839749 0.20499927 0.1270313
000060 34 ac 0f 3e fb eb 2d bd 70 7f 1e bd 5b 80 7f 3d
       0.14030534 -0.042461377 -0.038695753 0.06237827
000070 da 02 41 be 94 32 df 3c 24 b3 06 be b2 2e 3b 3c
       -0.18848744 0.027245797 -0.13154274 0.011424707
000080 66 28 9e 39 e4 fe 6b 3d 59 d5 b5 bd a9 05 75 bb
       0.00030166208 0.05761613 -0.088785835 -0.0037387407
000090 58 d0 64 be ea c4 a7 3d 2b 81 2b be 80 fe ee bd
       -0.22345102 0.08191855 -0.16748492 -0.11669636
0000a0 c0 fd bc 3d ff c3 7d bd 0d a1 47 be fe 41 81 bc
       0.092280865 -0.061954495 -0.1949503 -0.015778538
0000b0 da b2 93 3d e4 6e d0 3c ff 7b 55 bd 8a d8 f9 3c
       0.072118476 0.025443502 -0.052120205 0.030498762
0000c0 26 14 cd bd 35 16 81 bc ca 99 af 3c 9f d3 89 3d
       -0.10013609 -0.01575766 0.021435637 0.06729817
0000d0 c5 63 7e 3d 01 96 e5 bd 94 f7 f4 3d 5c 8f 06 be
       0.062106866 -0.112102516 0.11961284 -0.13140625
0000e0 0e 57 9d 3d d7 ad da bc 43 ab 96 3d 76 df 24 3d
       0.0768262 -0.026694221 0.07356884 0.04025217
0000f0 be 90 98 bc 3a 91 56 be 0a b2 71 3d d9 3b 15 3d
       -0.018623706 -0.20953837 0.059007682 0.03643403
000100 bc 98 6d bd 8f 65 a6 3d da c9 8c bd a8 54 02 3e
       -0.058006987 0.081248395 -0.06874438 0.12727606
000110 7c f1 15 3e 90 4d 26 3e 2a 6f 60 bd 5d 09 c9 bd
       0.146429 0.16240525 -0.054793514 -0.09816239
000120 25 8e a4 3e 55 c4 85 be 9b 78 58 3e 8f 39 f9 bc
       0.32139698 -0.26126352 0.21139757 -0.030422954
000130 a9 e8 26 3d 75 56 60 be 6c ae bb 3d 04 07 1b 3e
       0.040749226 -0.2190798 0.09164128 0.15139395
000140 7a e5 51 3e d5 5c ed 3d 15 78 51 bc 9e d2 47 3e
       0.20497695 0.11589972 -0.012784977 0.19513938
000150 31 b3 01 be b9 de 85 3e 6c 37 b4 bd 19 19 33 be
       -0.12666012 0.26146486 -0.087996334 -0.17490043
000160 78 cb 35 3e cc e4 ce bd ba 83 07 3d 15 cf 03 bd
       0.17753398 -0.10102233 0.03308461 -0.03217991
000170 98 04 7e bd 5c 5d ee bd 74 1e 8e 3d 80 99 1f be
       -0.0620161 -0.11638901 0.06939402 -0.155859
000180 ef 0c 5c 3d 95 e0 16 be 66 8f d7 3d ca ee 15 be
       0.053723272 -0.14734109 0.10525398 -0.14641872
000190 6b 5f f5 bd a6 e1 09 3e c3 c4 b0 3d a5 d1 95 bc
       -0.1198109 0.13464984 0.08631279 -0.018288443
0001a0 08 d6 8d 3c d9 36 15 3d 38 13 85 be 5e c6 11 bd
       0.017313972 0.03642926 -0.25991225 -0.03558957
0001b0 24 f0 2b be ab 90 b3 bd 91 fb 79 3d b9 e3 b2 3d
       -0.16790825 -0.087678276 0.061030928 0.08734841
0001c0 2b d7 c1 3c 24 f1 3c 3d d7 f5 85 3c 2e 14 58 bd
       0.02366217 0.046128407 0.016352577 -0.05275362
0001d0 d8 ea e6 bd 1b d1 06 bd 48 69 aa bc c1 d0 3d bc
       -0.11275262 -0.032914262 -0.020802155 -0.011585415
0001e0 5d 63 0a be 1e 66 33 3e 7b c1 b9 3d ef 13 9c 3c
       -0.13514467 0.17519423 0.090701066 0.019052474
0001f0 35 41 0a be 16 eb 3d 3e 59 8d 15 bd d5 69 15 3d
       -0.13501437 0.1854671 -0.036511753 0.036477882
000200 14 54 d1 3d ae 7d 3f 3e 36 0a 02 be 95 d1 89 3d
       0.10221115 0.18700287 -0.12699208 0.06729428
000210 c3 c0 61 bd 3c 28 11 3d aa 10 8d 3c e1 22 98 3d
       -0.055115473 0.03543876 0.01721986 0.074285276
000220 14 7a 16 be 68 d3 ab bd ce d0 df bc c3 12 43 bc
       -0.14695007 -0.08389932 -0.027321246 -0.011906329
000230 56 30 a0 bc 0b eb 4c bd 7b ed a0 bd bb f3 84 bd
       -0.019554298 -0.050028842 -0.07857796 -0.064918004
000240 dc 6e 3f be 6b 24 51 be fb ae 25 be 39 a6 d4 3d
       -0.18694633 -0.20424049 -0.16180031 0.10383267
000250 ac d4 92 3c 55 51 1d 3e fc 53 14 bd 0a 4f 00 bc
       0.017923675 0.15363057 -0.036212906 -0.007831344
000260 ea 56 52 be 84 36 73 be 22 b1 df 3d 1f d1 bd bd
       -0.20540968 -0.23751265 0.10922457 -0.09268402
000270 ed d2 97 bd 8a 72 d2 3d 84 bb 13 3d 03 be 44 3d
       -0.07413278 0.10275753 0.0360675 0.04803277
000280 f0 95 01 3e ea 71 7b bd 36 24 dc 3d 4e d8 27 bd
       0.12654853 -0.061387934 0.10749094 -0.04097777
000290 53 cc cd 3d 6e 29 6b 3d f0 fe a8 bd bd d8 d8 3d
       0.100487374 0.057412557 -0.082517505 0.105882145
0002a0 c5 02 f4 bd 88 d1 0e bd 4f 00 96 3d a8 fe 46 3c
       -0.11914591 -0.034867793 0.073242776 0.012145676
0002b0 b0 77 e3 3c cf b1 2b bd d1 8a 7e bd e3 7f 18 be
       0.027767032 -0.04191762 -0.062144104 -0.14892535
0002c0 b3 0c f2 3d 45 0c 74 be da 3a 65 3d 2f e3 2c bd
       0.118188284 -0.23832805 0.05596433 -0.042208847
0002d0 aa 19 9d 3d 79 88 df 3b e8 d5 e9 3b 49 e4 4a ba
       0.07670911 0.0068216887 0.0071360953 -0.00077397056
0002e0 8c 62 16 be a2 55 21 3d 3d 9f ca bd b9 8b 0d be
       -0.1468603 0.039388306 -0.098936535 -0.13822831
0002f0 e6 f8 dc 3c a3 d2 f5 3c 8c 9e f3 3d 2c de 0d 3d
       0.026974153 0.030007666 0.11895475 0.034635708
000300 56 5c ec 3d 82 d2 39 bd eb 70 00 bd ef c5 8c bd
       0.11541049 -0.04536677 -0.031357687 -0.0687369
000310 9c d4 18 be 84 20 e1 bd c3 67 68 3c 26 59 d8 3c
       -0.14924854 -0.1099253 0.014184895 0.026409697
000320 dc 61 ae 3d 86 58 85 bb e6 3b d8 3d 23 42 aa bd
       0.08514759 -0.0040693907 0.105583 -0.08313396
000330 03 77 d1 3d 1a 01 81 bd 7f 1d d1 3d db 49 28 3e
       0.10227778 -0.06299038 0.10210704 0.16434424
000340 65 5e 32 3c 1e 3c 8b 3d f0 fb 4c bd 91 0f c6 ba
       0.010886763 0.06798576 -0.050044954 -0.001511084
000350 2c d6 51 3d 69 86 85 3c d2 20 19 3d 70 a8 27 3e
       0.05122964 0.016299443 0.037384816 0.16372848
000360 37 cb 09 3e ff d3 6b 3d 2d e6 fb bc 5c 6a cf 3d
       0.13456427 0.057575222 -0.030749405 0.10127708
000370 f5 e8 eb ba 11 73 1b bb 6a af bf bd 43 7f d3 3d
       -0.0017998504 -0.0023719708 -0.093596295 0.103270076
000380 b3 b1 58 be db 43 13 be 0f 84 4c be 19 57 ef 3d
       -0.21161537 -0.14381354 -0.19972251 0.116865344
000390 93 2b 4d be 62 6b a2 bd 58 52 5b 3c 25 2f 92 3d
       -0.20036153 -0.07930638 0.0133863315 0.07137898
0003a0 4e a9 9a 3d 7a 43 a7 bd 63 21 0e be a6 19 46 3e
       0.075518236 -0.08167167 -0.13879924 0.19345722
0003b0 c6 ff 61 bd de e7 fd bd 3d 7b 8c bd 22 bf 23 3e
       -0.055175565 -0.12397741 -0.06859443 0.1599088
0003c0 56 80 ed 3d c9 6a 3b be 6d 09 0e 3d 58 84 a8 bd
       0.11596744 -0.18302454 0.034676958 -0.082283676
0003d0 86 11 d9 3d 40 ca c0 3c 68 72 ca bd 63 ae 69 3d
       0.105990455 0.02353394 -0.098851025 0.057051074
0003e0 c6 5d 9d 3d ac ec 36 bd 0f 1a c7 3c ba 8f 5a bd
       0.076839015 -0.0446593 0.024304418 -0.053359725
0003f0 c3 61 93 bd
       -0.07196381

3.bias f4 [11]
000000 12 2b c2 3b 2e 5c 25 3e d4 69 98 3c bb 1c 65 be
       0.0059255445 0.16148445 0.01860515 -0.22374241
000010 97 1f 00 3e bf bd 05 3e 35 64 82 be 84 48 78 be
       0.1251205 0.13060664 -0.25467077 -0.24246413
000020 32 76 c9 bd 13 b8 08 bd f4 8a 78 be
       -0.09836997 -0.03337867 -0.24271756

5.weight f4 [23, 11]
000000 ae cc 8d be 18 83 50 be 36 0d a9 3e f7 91 9e be
       -0.2769522 -0.20362508 0.33017892 -0.30970737
000010 fc 06 24 3e 4f d8 4f 3d 54 82 0e 3c 18 ea a2 bd
       0.1601829 0.050743397 0.008698065 -0.07954806
000020 56 d2 08 3e f6 fa 8f bc 64 b3 b3 bd 25 4b 2c 3e
       0.13361487 -0.017575722 -0.087744504 0.1682554
000030 18 79 65 be b5 40 9d bd 31 fb 58 3e 42 8b 8c 3e
       -0.22409475 -0.076783575 0.21189572 0.27449995
000040 73 67 49 bd b5 6e 0f 3d a1 e7 8b bc 8f 15 52 3d
       -0.049170922 0.035017688 -0.017078223 0.05129009
000050 2b df fa bd c4 dc 92 be 9f 03 cb bd 84 5a fd ba
       -0.12249597 -0.28684056 -0.099128 -0.0019329344
000060 89 f4 60 3e 67 fa 8c be 27 ce ba 3e 2e 4f 4d 3d
       0.21968283 -0.27534792 0.36485407 0.05012434
000070 7a 3a 87 bd b4 e0 79 3d e5 c4 47 be fc 18 1f 3e
       -0.066029504 0.06100531 -0.19508703 0.15536875
000080 e8 14 50 bd c5 59 b1 3c 1b 75 c1 3c a4 34 d9 bd
       -0.050801188 0.02164925 0.02361541 -0.106057435
000090 d0 05 84 3e 6c 0d f9 bb 52 56 51 be 72 ab 43 3e
       0.25785685 -0.007600477 -0.20443085 0.1910837
0000a0 53 38 55 3e b9 ef 6b be 35 64 07 be c2 b5 24 be
       0.20822267 -0.23040666 -0.1322182 -0.1608496
0000b0 46 57 82 bc 9f fc 64 bd 3a e3 23 3e 50 d8 13 be
       -0.015910756 -0.05590498 0.16004649 -0.14437985
0000c0 86 d2 94 3e d6 be c1 bd aa f8 43 be d5 65 63 3e
       0.29066867 -0.09460227 -0.19137827 0.22206815
0000d0 6e a2 78 bc ac 9a 61 3d bf 30 8c be be 0b c0 bd
       -0.015175445 0.055079147 -0.2738094 -0.0937724
0000e0 8c d4 c5 bd 5b e1 9a 3d 9e 8e a2 3e e2 0e 7a 3e
       -0.09659681 0.075625144 0.31749433 0.2441974
0000f0 52 28 66 be 23 74 84 3e 8a 0e c1 bd b6 c9 d7 3c
       -0.22476318 0.25869855 -0.09426601 0.0263413
000100 08 9f ec bd 25 42 64 be c1 d9 c0 bc aa 95 a6 3b
       -0.1155377 -0.22290857 -0.023541333 0.0050837593
000110 92 a1 5c be e4 89 f7 3d 44 18 ab bd d9 7e a0 3d
       -0.21546009 0.120868474 -0.08354238 0.07836694
000120 85 4f 72 3d 63 6a 82 be e9 42 50 bd b6 53 0f bd
       0.059157867 -0.25471792 -0.05084506 -0.034991942
000130 cf 61 cd 3c 1a 2c f5 bd e0 d8 c4 bc 9b 77 8c 3d
       0.025071053 -0.11971302 -0.024029195 0.068587504
000140 4e 28 4e be b8 d6 26 3e bb 67 7f be ea e2 f8 3d
       -0.20132563 0.16292846 -0.24941914 0.121526554
000150 7d 90 2b be a3 c9 b3 3e bb 62 c1 bd 7b e6 3c 3e
       -0.16754337 0.35114774 -0.094426595 0.18447296
000160 9f cd c3 3c d1 ce 7e 3e a5 c6 45 be 36 7b 88 be
       0.023901759 0.24883582 -0.19314058 -0.26656502
000170 29 26 64 3d 29 5c 50 3e c9 81 7d 3e dc 53 41 3e
       0.055700455 0.20347656 0.2475654 0.18879646
000180 f8 a4 6a 3e cf 8e 4e 3e 74 5d 48 3e 5e 20 a2 3e
       0.22914493 0.20171665 0.195669 0.3166532
000190 b6 97 26 3e 88 fc e3 3d a5 54 91 3e 63 38 51 be
       0.1626881 0.11132151 0.2838489 -0.20431666
0001a0 0a bc 40 be a5 b3 08 3e f9 3e 6b be 67 78 09 be
       -0.18821731 0.13349779 -0.22973241 -0.13424836
0001b0 1e 79 20 be 54 b5 89 3e 1c ac 47 3d 41 44 85 3e
       -0.15671203 0.26896155 0.04874812 0.26028636
0001c0 cf eb 87 3e 45 f4 5a be 75 87 84 3e 4e 99 41 3e
       0.26547095 -0.21382244 0.25884596 0.18906137
0001d0 97 02 9a 3e 6b 57 96 be 4f 1a 06 3c d1 32 4c be
       0.300801 -0.2936357 0.008184983 -0.1994126
0001e0 18 fd 22 3e c8 14 34 3e fb 72 26 3c 88 bd 1b 3e
       0.1591686 0.17586052 0.010159249 0.15209019
0001f0 c4 1e 80 be be d1 72 bd 4c 62 c2 3e 32 b6 20 3e
       -0.25023472 -0.059282057 0.3796562 0.15694502
000200 5c 39 64 3e b4 2c d8 bd f6 0a 77 bc 4b 55 5c be
       0.22287506 -0.105554014 -0.015078297 -0.21516912
000210 9a bd 12 be fd 4d 94 be 61 08 ce 3d 60 f2 a3 be
       -0.1433014 -0.2896575 0.10060192 -0.32020855
000220 9b e2 52 3e 4c 65 b5 bc 77 85 91 3c 06 59 5e bd
       0.20594256 -0.022143029 0.017763836 -0.054284118
000230 69 93 88 bd 8e d2 4f be 68 8a 97 bd eb 8a fe bc
       -0.06668741 -0.20295164 -0.07399446 -0.0310721
000240 9b 33 13 3e 16 52 48 3e f6 2a a7 3e 81 7c 00 be
       0.14375155 0.19562563 0.32649964 -0.12547494
000250 a1 5f 26 3e ee f3 1c be b1 0c 5d be f8 17 7c 3d
       0.16247417 -0.15327427 -0.21586873 0.061546296
000260 cf 47 2c 3c ed 08 aa bd 11 bf 9c 3d 68 15 ed 3c
       0.010515167 -0.08302484 0.076536305 0.028940871
000270 83 9c af 3d 97 d5 8d 3e 17 e2 85 3d ab 64 9c 3d
       0.08574774 0.2770202 0.06537264 0.076363884
000280 10 e0 61 bd eb 59 ee 3b 7b 73 c3 bb ea 96 7d be
       -0.055145323 0.0072739027 -0.005964694 -0.247646
000290 79 bc 61 3e 19 de 12 bd da ec e7 bd 48 b5 52 be
       0.22044553 -0.03585634 -0.11324473 -0.20576966
0002a0 18 9f 9c be 60 6e 09 bd db e1 b8 3d 53 43 30 3e
       -0.3059013 -0.033552527 0.090274535 0.17213182
0002b0 8c 6e 55 be b6 2a 8b 3e 93 56 00 3d b2 44 32 be
       -0.20842952 0.27181023 0.031332564 -0.17409018
0002c0 8d 27 e9 bd e5 54 90 3d cb 16 30 bd ca 13 4d be
       -0.11384497 0.07047442 -0.042990487 -0.2002708
0002d0 53 89 07 3e a3 b3 0f 3e e5 d8 84 be 2a 21 0c be
       0.13235979 0.1403337 -0.25946727 -0.13684526
0002e0 a3 f9 3b bd cb 6d 99 bc ed 4a 1a 3d 8e 5d 66 3e
       -0.04589237 -0.018729111 0.03766911 0.22496626
0002f0 fa 6a ef bd 28 dc 97 be 64 b6 2d be b7 a1 fc bd
       -0.11690326 -0.29660153 -0.16964108 -0.12335532
000300 c1 52 36 be 10 b8 95 3e 71 a9 82 bd ee 33 ee bd
       -0.17805006 0.2924199 -0.06379975 -0.116309986
000310 58 7b 34 3e 8a 3a a1 be 2f 04 39 3e 1a d8 36 3e
       0.17625177 -0.31489974 0.18068002 0.17855874
000320 61 7a 1c be a7 63 81 be 89 94 99 3d eb 1d 59 3d
       -0.15281059 -0.2527134 0.07499034 0.053007048
000330 a8 a3 15 3d 24 b9 1f bc 04 cb 1e be 53 51 a0 be
       0.036533028 -0.009748731 -0.15507132 -0.31312045
000340 a2 84 1f bd 73 98 02 be 7d 1c af 3e 18 53 6f be
       -0.038944848 -0.12753467 0.34201422 -0.23371542
000350 1f d7 82 3e 85 07 28 be 41 23 b7 bd 7d 74 da bc
       0.2555475 -0.16409118 -0.08942271 -0.026666874
000360 6b 17 b0 bd e7 b6 1a 3e cc c3 62 bd 18 f6 38 be
       -0.085982166 0.15108834 -0.055362508 -0.18062627
000370 55 1f 7e 3d 9a dc ce bd 82 db 7c bd e7 10 22 3e
       0.0620416 -0.1010067 -0.061732776 0.1582676
000380 7c 6e 22 3d 12 c6 4d be 0d f4 80 3e 2b 49 cd 3d
       0.039656147 -0.20095089 0.25186196 0.10023721
000390 72 5e 13 be 96 b9 63 bd df 7c 90 bd 07 01 62 3e
       -0.14391497 -0.05559691 -0.07055067 0.22070704
0003a0 61 ca 64 3e 2a 4b a2 be 81 da 4d be 71 78 27 3e
       0.22342826 -0.3169797 -0.20102884 0.16354539
0003b0 c0 fb 3e be 52 8d 3d be 18 fb 09 be 0f 1e 97 3d
       -0.18650723 -0.1851094 -0.13474691 0.0737878
0003c0 0d e2 69 be de 3e 4c 3d c5 72 89 bd 58 46 8a be
       -0.22840138 0.049864642 -0.06711344 -0.27006793
0003d0 4f 9b cd bc c9 3f ea 3d f9 2c 09 be 68 a8 47 3d
       -0.025098471 0.11437947 -0.13396062 0.04874459
0003e0 b8 ce af 3e 4b 76 85 be 8f ee 36 3d dc bd 56 be
       0.343374 -0.26066813 0.0446611 -0.20970863
0003f0 f7 4a 47 3e
       0.1946219

5.bias f4 [23]
000000 58 81 04 3d ac c0 b1 3d ac 7c 24 3e f4 c5 80 3d
       0.032349914 0.08679327 0.16063184 0.062877566
000010 94 2f 6b 3e bc 3c 8d bd 84 7b 68 be 72 bd 6f be
       0.22967368 -0.0689635 -0.22703367 -0.23412111
000020 07 0a 52 be 88 fa b3 bd ca 43 24 be 76 13 97 3e
       -0.20511638 -0.087880194 -0.16041484 0.29507035
000030 79 db 6a be 78 92 54 3e 8d 4d 8d be 80 06 b0 3c
       -0.22935285 0.20758998 -0.2759823 0.021487474
000040 45 f8 45 be d8 10 56 3e f4 f7 be bd 08 cf 8f 3e
       -0.19332989 0.20904863 -0.09324637 0.2808764
000050 2c 3a a1 3d 60 f9 78 3e b8 12 91 3d
       0.078724235 0.24313879 0.070836484

6.weight f4 [23]
000000 6a 74 71 3f c9 5b 48 3f 0a ad 64 3f ea 2f 6c 3f
       0.9431826 0.78265053 0.89326537 0.9226061
000010 eb 8d 62 3f 19 af 51 3f f3 e9 62 3f 57 8a 71 3f
       0.884978 0.819078 0.8863823 0.94351715
000020 a3 ba 6c 3f d0 8b 63 3f b0 53 61 3f 8d 44 69 3f
       0.92472285 0.8888521 0.8801832 0.91120225
000030 6e 2a 75 3f d9 4a 61 3f 98 c9 78 3f 42 c8 64 3f
       0.9576787 0.88004833 0.9718261 0.8936807
000040 79 45 7e 3f fa 08 5d 3f 96 cc 66 3f 56 2f 68 3f
       0.99324757 0.8634182 0.90155923 0.9069723
000050 ad dd 55 3f 7e 84 76 3f 42 4c 47 3f
       0.83541375 0.9629592 0.77850735

6.bias f4 [23]
000000 86 62 09 3d 45 4d 26 3c 69 37 f7 3d 41 6a 5d be
       0.033541225 0.010150258 0.120711155 -0.21622564
000010 7e 26 d7 3d f8 f4 a9 be 07 7a 16 3d 44 29 be 3d
       0.10505389 -0.3319471 0.036737468 0.092852145
000020 d4 1a c0 3e dd 00 d0 bd ab 9d 3f 3e 66 fd 79 3e
       0.37520468 -0.10156415 0.1871249 0.2441307
000030 7e e7 14 3d 30 7a f0 3d aa 5a 0d be 1a a0 0c 3e
       0.03635358 0.117420554 -0.13804117 0.13732949
000040 42 cb d8 3d 6d 0f d3 3e 82 dd 52 3e 72 7b 1e 3d
       0.10585643 0.41222706 0.20592311 0.038691945
000050 c1 2b 0a bd cf 2c 48 3e 6e d8 07 3f
       -0.033733133 0.19548343 0.5306462

6.running_mean f4 [23]
000000 6a a0 b2 3c b6 a7 f4 3d be f8 4f 3e 15 8d 3c 3d
       0.021805007 0.11946051 0.20309731 0.046032984
000010 02 8e 8a 3e e3 2f 66 bd 18 de 5d be d1 a4 94 be
       0.27061468 -0.056198012 -0.21666753 -0.29031995
000020 93 96 80 be b2 7c be bd 48 f3 fd bd e5 b7 99 3e
       -0.2511488 -0.093011275 -0.12399918 0.30023113
000030 39 ed 83 be 77 51 99 3e 3b b0 7c be ae dc ab bc
       -0.25766924 0.29944965 -0.24676602 -0.020979252
000040 a4 d6 0d be d5 16 16 3e 1c 9d a4 bd 53 cf a5 3e
       -0.1385141 0.14657147 -0.08037779 0.32384738
000050 47 cf 16 3d 0f be 88 3e cc 3e aa bb
       0.03681877 0.26707503 -0.0051954743

6.running_var f4 [23]
000000 11 ca 1f 3d 48 88 85 3c bd a8 1c 3d a0 58 d3 3c
       0.039011065 0.016300336 0.03824686 0.025799096
000010 a8 14 8d 3c 90 1f 1b 3d 2c 1d 33 3c f6 84 d8 3c
       0.017221764 0.037871897 0.010932248 0.026430588
000020 74 e3 12 3d 64 03 fa 3c 56 ba ee 3c 1e 2c d1 3c
       0.035861447 0.030519195 0.029141586 0.025533732
000030 0b c1 2d 3d 3a 22 52 3d 01 69 01 3d c0 57 18 3d
       0.04242043 0.051302172 0.03159428 0.03719306
000040 51 d5 80 3c 04 d0 77 3c a8 b7 16 3d c2 8c ce 3c
       0.015726717 0.015125278 0.036796242 0.025213603
000050 28 4b 1c 3c 54 9f 13 3d 86 d5 7e 3c
       0.009539403 0.03604062 0.015553838

8.weight f4 [46, 23]
000000 6d 00 27 be 6f b8 04 be 0d ef 0a 3d b4 4c 0f 3d
       -0.16308756 -0.12960981 0.033919383 0.03498526
000010 ab 82 84 3c ab 80 b9 bd d9 0b b1 3c 3f fb db 3d
       0.016175589 -0.090577446 0.021612095 0.10741281
000020 ae bd ad 3b fb ca 35 3d 68 8d 1d 3e b9 0a e9 3d
       0.0053021526 0.04438303 0.15385973 0.11378998
000030 45 33 ba bd 23 42 c2 3d 95 03 68 be f9 2a 11 3e
       -0.0909181 0.09485271 -0.22657616 0.14176549
000040 3c ee 9e 3d 0e c6 62 bb fb c0 fe bc 09 27 cb 3d
       0.07760283 -0.0034602913 -0.03109788 0.09919555
000050 c7 8b 01 3e 76 23 55 bc 23 06 9b 3d 6a 3f eb 3d
       0.12650977 -0.013008943 0.0756953 0.11486705
000060 36 2d f6 bd 53 55 3a bc 90 14 15 3e ff b4 7d 3d
       -0.12020342 -0.011372882 0.14558625 0.06194019
000070 34 e3 f4 bd c1 8e 3a bd ae b3 28 be 46 1e be 3d
       -0.11957398 -0.045546297 -0.16474792 0.09283118
000080 11 92 be 3c 0d ff 54 ba 0d be 15 bd 91 11 89 bc
       0.02326301 -0.0008125164 -0.0365582 -0.01673201
000090 a8 b1 e9 bc 6c 55 b2 3d bb 20 d2 bd 38 ff 14 3d
       -0.028527096 0.08707699 -0.10260149 0.036376208
0000a0 44 e1 be 3d 3f 2a 0a bd 2b 6a 6f 3d 4d 24 ff bd
       0.0932031 -0.033731695 0.05845086 -0.12458096
0000b0 ee f1 29 3e ac 4f f5 3d 3c de f2 3d 19 0b 9b bd
       0.16596195 0.11978087 0.11858794 -0.07570476
0000c0 bb 31 00 3e b5 84 6c 3d 50 ee dd bd 8d db e4 3d
       0.1251897 0.057743747 -0.1083647 0.111746885
0000d0 95 c2 cc 3d 6f bb 30 3d 89 31 80 bd 35 82 77 bd
       0.09998051 0.0431475 -0.06259448 -0.06042691
0000e0 14 aa f9 bd 6e 68 0b 3e 84 c8 1e be 3d 3d 01 be
       -0.12190643 0.13614056 -0.15506178 -0.12621017
0000f0 0c 0e ea 3d 70 be fa bd 29 bf fd bd 09 b2 38 3d
       0.114284605 -0.12243354 -0.123899765 0.045091663
000100 85 a3 2a 3c 6e ed e2 3c dd c1 19 be af b9 79 3e
       0.010414963 0.027701106 -0.15015359 0.24387239
000110 13 d4 10 bb 46 ac 81 3d 55 f7 0f 3e af 6c 05 3e
       -0.0022099062 0.06331687 0.14059193 0.13029741
000120 70 64 15 be cc f6 2d be 6a b1 e1 3c 0e 88 8e 3c
       -0.14589095 -0.16988677 0.027550418 0.01739886
000130 3f fd 7d 3d 07 a8 98 3d fe 96 2b bd 1e dd 07 bd
       0.062009092 0.07453924 -0.041892044 -0.03316986
000140 83 b3 b4 3c 26 9a b9 bd 10 e7 f1 bd 39 a7 74 3c
       0.022058254 -0.090626046 -0.1181165 0.014932447
000150 54 3c 82 be 4b 59 4a 3d ec 47 d8 3d 18 cb dc 3d
       -0.25436652 0.049401563 0.10560593 0.107809246
000160 62 13 15 3e 54 85 68 bd 52 c6 c9 bc 5b 9b 68 3d
       0.14558175 -0.056767777 -0.0246307 0.056788784
000170 0a 31 b4 3d 2c 92 ae 3d b0 ff a6 3d 57 d9 cc 3d
       0.08798416 0.08523974 0.08154237 0.10002392
000180 92 46 01 3d 99 89 a7 bd 45 8a b3 bd 6e 9b b1 bd
       0.03156144 -0.081805415 -0.08766607 -0.08672224
000190 23 9d 2a 3d 97 97 10 3d 4e e6 15 bc 91 07 0a bd
       0.041653764 0.035300817 -0.009149147 -0.033698622
0001a0 fa 3f e6 bd 6b 16 e4 3d f5 d7 4f 3d ac 1f 03 3d
       -0.11242671 0.111370884 0.050743062 0.032012627
0001b0 f7 0d a5 3c cf fe ab bc 7b 0b e3 3c 66 c2 06 be
       0.02014826 -0.020995526 0.027715435 -0.13160095
0001c0 79 66 cd bd 2b c4 7e 3d d7 fe 2e 3e 1c b6 fa bd
       -0.10029311 0.0621988 0.17089401 -0.12241766
0001d0 1f 57 01 be 1c 38 03 3e 7a 85 3a be 9e cd ac 3b
       -0.1263089 0.12814373 -0.1821498 0.005273535
0001e0 4c c8 a4 bc 88 ae ea bd 58 b7 6f bc 7e ca eb bd
       -0.02011504 -0.114590704 -0.014631115 -0.11513232
0001f0 e5 7d 88 bd de a6 95 bc a5 fa 7d bd 30 0f 1e be
       -0.066646375 -0.018268045 -0.06200661 -0.15435481
000200 9e 9a 45 be a4 a1 0d be 55 28 98 3d ad 4f 8f bd
       -0.19297263 -0.13831192 0.07429568 -0.06997619
000210 a7 54 8d bd df d0 5b bd 30 c7 ee bd 32 e2 82 3c
       -0.06900912 -0.053665992 -0.11659086 0.015976999
000220 c6 c8 1a 3d 5e 85 39 bb c2 a5 eb bd ca 36 04 be
       0.03778913 -0.0028308253 -0.11506225 -0.12911525
000230 91 02 3a 3d 8d 25 2f 3c b9 99 fc 3c 1a f1 cd 3d
       0.045412604 0.010690105 0.03083502 0.10055752
000240 27 4b 71 bd e6 ad c3 bd 48 35 5e bd 9d 86 ea bd
       -0.05890956 -0.09554653 -0.05425003 -0.11451457
000250 df 6f dd 3c fc e6 65 3d ee b7 98 bd 01 b5 3b 3d
       0.027030883 0.056128487 -0.07456957 0.045826916
000260 a4 7c 5e 3d 43 00 d3 3d da d5 e3 bd 3a 26 10 3d
       0.054318085 0.10302784 -0.11124773 0.035192706
000270 4e 88 05 bd 14 82 10 3e 22 d4 03 be 37 2a 85 3e
       -0.032600693 0.14112121 -0.12873891 0.2600877
000280 95 56 a0 3d 02 45 b3 3d 71 fd 01 3e 71 ec 4f 3d
       0.07829014 0.087533966 0.12694336 0.050762597
000290 58 0b 99 bd 68 63 7b be 9d 3e 71 be 59 1f 90 3e
       -0.07472867 -0.24549639 -0.23559041 0.28148916
0002a0 40 bc 9d be 43 45 d9 3d ca 1d 0d be cd 73 5b 3c
       -0.30807686 0.10608914 -0.13780895 0.013394308
0002b0 da c5 d0 3e bc a1 90 be 9a ae ed 3e 49 82 2c be
       0.4077595 -0.28248394 0.46422273 -0.16846575
0002c0 6e bb 03 3e c6 96 1d be b1 34 7e 3e 87 1c bd 3c
       0.12864468 -0.15389547 0.24824788 0.023084892
0002d0 4f 58 3d 3e 02 f8 48 be 16 e6 3c be 15 b6 4b be
       0.18490718 -0.19625857 -0.18447146 -0.19893678
0002e0 d5 f9 5e 3d 99 68 af bc f6 e1 2c be d4 22 17 bb
       0.054437477 -0.02141218 -0.16883072 -0.002306153
0002f0 55 4d a4 3d a5 d0 93 bd 38 e2 1b ba 57 dc 40 be
       0.080225624 -0.0721753 -0.000594649 -0.18834053
000300 e8 83 c2 3d 97 06 01 be 3a 80 df 3d 1b 72 d7 bd
       0.09497815 -0.1260017 0.10913129 -0.10519811
000310 d1 64 24 3e 3d 8d 1b be b8 dd be bd 32 16 23 be
       0.16054083 -0.15190597 -0.09319633 -0.15926436
000320 29 de 88 bd 55 22 65 3c 59 c2 15 be 8f e5 53 be
       -0.06682999 0.013985236 -0.14624919 -0.20693038
000330 f8 e0 80 be 36 28 9e 3d ad 40 24 3d f5 15 eb bd
       -0.25171638 0.077225134 0.040100742 -0.11478797
000340 d7 a9 be 3d c8 3b 03 be a7 66 e3 bd 0f b0 9b 3c
       0.09309738 -0.12815773 -0.11103564 0.01900485
000350 71 3c a6 bb 66 85 0a 3e b2 0a 88 3d f1 f2 c9 3c
       -0.005073123 0.1352745 0.06642665 0.024651976
000360 36 88 e6 bd a6 c1 e8 3d 33 83 38 3e 42 b6 64 bc
       -0.11256449 0.113650605 0.18018799 -0.013959469
000370 ef 8b 8a 3d da 57 9a bc 46 c6 83 3e 60 2c 9c 3d
       0.067649715 -0.018840719 0.25737208 0.07625651
000380 d4 5e 8d bd 76 56 37 3d d2 fd 0f be 97 4c 55 3d
       -0.06902853 0.04476019 -0.14061669 0.052074995
000390 e1 a1 5c 3d 0b 16 42 3e aa e9 5a bd 13 2e 57 3e
       0.053865317 0.18953721 -0.053445496 0.2101367
0003a0 d5 d8 b5 bd 8a 5d 4a bd f4 3d 31 bd da 24 fc bd
       -0.08879248 -0.049405612 -0.043271974 -0.123117164
0003b0 63 c7 03 3d 7c d4 c1 bc 89 ce c8 3d 50 72 26 be
       0.032172572 -0.02366089 0.098050185 -0.16254544
0003c0 c0 ee 1c 3e 09 9a 1e 3e 26 10 a2 3d 59 0f aa 3c
       0.15325451 0.15488447 0.07913236 0.020759271
0003d0 7c 2d 2f 3e 32 2c 45 3e 35 6e 8b 3c 51 d5 20 bd
       0.17107195 0.1925514 0.017020324 -0.039265934
0003e0 e8 3a 62 3d 38 c0 a2 bd a0 ef 38 be db fb 88 3d
       0.05523196 -0.07946819 -0.1806016 0.066886626
0003f0 e8 41 94 3e 24 25 f9 bd 38 26 0b be a8 0b 5d be
       0.28956532 -0.12165287 -0.13588798 -0.21586478

8.bias f4 [46]
000000 0b e2 6f 3c 62 01 66 3e 00 b5 25 3e 63 e8 1b 3d
       0.014641295 0.22461465 0.16182327 0.038063418
000010 77 49 a3 3d ed 1a 8e 3d 79 47 07 3e 24 a8 cc 3e
       0.07972997 0.069387294 0.13210858 0.3997203
000020 cd a1 fd bc cb e4 b7 3e b9 6d 83 3e e2 5b 2a 3e
       -0.030960942 0.35916743 0.2566965 0.16636613
000030 4e 07 57 bd a2 d9 c3 3d d8 2b 26 3f 31 ef fb 3e
       -0.0524972 0.095629945 0.6491065 0.49205926
000040 68 fc 2b 3f 12 8f a9 3d 8a f9 74 3e d6 70 2a 3f
       0.67182016 0.082792416 0.23923317 0.66578424
000050 37 a3 73 3e d6 57 40 3f 47 b5 1a 3f e7 cb 6d 3e
       0.2379273 0.75134027 0.6043286 0.23222314
000060 8f 2a fe 3d 3c 96 0d 3e 6c c8 48 3e 32 93 3b 3e
       0.12410461 0.13826841 0.19607705 0.1831787
000070 ee 51 13 3e d9 d7 a5 3e c2 9b f3 3d 15 e1 6c 3e
       0.14386722 0.3239124 0.11894943 0.23132737
000080 f2 fd 4d bd 83 71 36 3f c4 49 93 3e 67 eb 43 3e
       -0.05029101 0.71266955 0.28767216 0.19132768
000090 bf 0b b4 3c 4a 5b 72 3d d4 47 63 3e 43 b5 1b bd
       0.021978257 0.05916909 0.22195369 -0.03801466
0000a0 97 60 35 3d 0b b7 0c 3e b5 fb 58 3d 74 82 6e 3d
       0.04428157 0.137417 0.05297442 0.05822988
0000b0 a2 0b f1 bc 44 a9 a2 3e
       -0.029424492 0.31769764
