offline_prototype_3_ds_as_sampling/trained_models/ae_model_cnc_ip_shuffle.pth (torch, 17151 bytes, 16 tensors)

0.weight f4 [23, 46]
000000 ab 3e c5 3d b0 64 17 be de 8d 46 3d 00 f5 fa bd
       0.096310936 -0.14784503 0.04847514 -0.12253761
000010 1b 85 c4 bd 6a e5 ce bc dd 80 26 3d 3b 2a 13 3e
       -0.095957 -0.025255878 0.040650237 0.14371578
000020 60 d5 2c 3d fd 76 67 bd a8 0d 97 bd 48 ec 3f bd
       0.042195678 -0.05650996 -0.073756516 -0.046856195
000030 f3 2e 5f 3c b4 c5 5e bd 56 eb ac 3d ed 41 cc bb
       0.013622033 -0.054387763 0.08443324 -0.006233445
000040 6d 58 49 bd f1 48 5a 3d ca 60 31 3d ea 31 ce bc
       -0.049156595 0.05329222 0.043305196 -0.025170285
000050 fc a8 d8 bc bb 4e 19 be 4f e6 fc 3c c8 4c 4e 3c
       -0.026447766 -0.1497144 0.030871538 0.012591548
000060 ba 96 09 3e b9 4b b6 bd 5f cd 25 bd a6 06 92 bc
       0.13436404 -0.08901162 -0.04047906 -0.017825436
000070 ba 69 fe 3d ab 29 9a 3d 6b 71 1d bd 99 90 30 bd
       0.124225095 0.07527479 -0.038438242 -0.04310665
000080 4a 25 d5 bd 2a 43 eb bd 14 bc 1b 3d 4f c6 31 bd
       -0.10407503 -0.1148742 0.038021162 -0.043402012
000090 a6 d7 5d 3d fb 21 50 be 48 d5 bb 3d 53 bb d6 bd
       0.054160737 -0.20325463 0.091715395 -0.10484948
0000a0 0f 32 82 3c 9c 5f 00 be e0 99 da 3b 6a 02 e8 3d
       0.01589301 -0.12536472 0.0066711754 0.113285854
0000b0 a2 84 14 3e 99 cf cf bd 47 f3 d5 3c bc 1d bc 3d
       0.1450372 -0.10147018 0.02611698 0.09185359
0000c0 bb 5b ac bb ed e0 be bd 68 d6 8c 3d 7c 96 77 bd
       -0.0052599586 -0.09320245 0.06876832 -0.060446247
0000d0 0f c9 d0 3d d3 e6 8b bd 93 69 d6 bd 34 60 f1 bd
       0.10194599 -0.068311356 -0.104693554 -0.117859274
0000e0 80 d9 10 3e f4 a1 54 bd f9 e6 c4 3d 59 e5 e6 3c
       0.1414547 -0.051912263 0.09614367 0.028185533
0000f0 c5 15 d5 3c ae f5 1e bd f6 bc 86 bd fb 95 ff 3d
       0.026011357 -0.038808517 -0.0657901 0.124797784
000100 e9 13 bd bb 6b f1 16 bd 7e 52 bc bc f4 5c 31 bd
       -0.0057701957 -0.036851328 -0.022988554 -0.043301538
000110 28 ef 91 bc d8 cc 98 bd 1f 40 f3 3d ea a0 cf bd
       -0.017814234 -0.07460946 0.118774645 -0.10138114
000120 df ee c4 3d 0a a0 1f bd f0 17 08 3e a2 ec d7 bd
       0.096158735 -0.038970985 0.13290381 -0.10543181
000130 53 ef 82 bd f1 f5 12 3e 58 a2 b7 3d 57 1c 14 3d
       -0.06393304 0.14351632 0.089665115 0.03615984
000140 51 d2 54 bd db 6c 85 3d 64 b5 42 3c e2 a8 39 be
       -0.051958386 0.06514903 0.011884067 -0.1813083
000150 71 25 f7 bd f8 8d 43 bd b6 c0 95 3d e6 77 8f 3d
       -0.12067688 -0.047742814 0.07312147 0.07005291
000160 4c 34 ae bd f0 32 3b be 32 d7 8a 3d 0b 98 2e be
       -0.085060686 -0.1828115 0.067793265 -0.17050187
000170 00 f7 d4 bd 58 31 83 bc 20 42 9e 3d c4 cc a9 3d
       -0.10398674 -0.01601474 0.07727456 0.08291009
000180 22 8d ba bd ee 93 bb 3d 96 35 70 3d e9 dc ba 3c
       -0.0910895 0.09159075 0.058644854 0.022810416
000190 47 5e d5 bc 90 ea dc 3d c5 94 37 bc 55 3d a7 bd
       -0.026045932 0.10786927 -0.011204903 -0.08165995
0001a0 d8 8d 7f 3d f7 08 93 3d 5d 62 0c be c4 4b 04 3c
       0.062391132 0.07179444 -0.13709398 0.008074705
0001b0 db eb 4b bd d4 57 68 3d 1d 79 9d bd 00 05 34 3b
       -0.049785476 0.056724384 -0.07689116 0.00274688
0001c0 8c a4 8d bc 51 1c 33 be ae 82 ca bd 37 58 d7 3d
       -0.017290376 -0.1749127 -0.098882064 0.105148725
0001d0 36 77 16 bd 44 9b bb bd ba a1 ab bc 6a 3d 18 be
       -0.036734782 -0.09160474 -0.02095114 -0.14867178
0001e0 0b f4 9d bd 32 81 21 3e 85 14 d3 3c 95 77 d7 3d
       -0.07712563 0.1577194 0.02576662 0.10520855
0001f0 2a ea f4 bd 0e b7 66 3d d0 2a 98 3d 58 8c a7 bc
       -0.11958726 0.05632692 0.07430041 -0.020452663
000200 9e 8b c5 3d 39 03 80 3e b6 d3 f6 3b 4e b1 86 3d
       0.096457705 0.2500246 0.007532562 0.06576787
000210 df 76 1e bd 3c 23 f8 3d 5c 36 0c be 13 cd c0 bd
       -0.038687583 0.121160954 -0.13692611 -0.09414115
000220 aa d4 61 bd 0e ac 89 bc 01 19 6b bd c1 32 1b 3d
       -0.055134453 -0.016805675 -0.057396892 0.0378902
000230 60 05 90 3d 96 d1 b7 3d 6e 87 5d 3b 66 01 62 3b
       0.07032275 0.08975522 0.0033802646 0.0034485697
000240 5e ce 57 bd 90 7f 44 3e c5 0c 10 be a3 ba 4c bd
       -0.05268704 0.19189286 -0.14067371 -0.04998268
000250 0f bb d9 bb 9c 46 0f bd 43 0d cf bc 22 09 5e 3d
       -0.0066446136 -0.034979448 -0.025274878 0.05420793
000260 d6 86 c3 bd 40 02 b2 bd e9 3f e9 3d 4d 8f 04 3e
       -0.09547202 -0.086918354 0.11389143 0.1294529
000270 cc 4b 97 bd 3d 0f 97 3c c1 db 42 3d a6 be 6e bd
       -0.07387504 0.018439883 0.047572855 -0.058287285
000280 07 89 ff bd 36 49 fc ba 16 a4 80 bd ac a3 c3 bd
       -0.12477308 -0.0019247893 -0.06281297 -0.09552702
000290 64 9f b2 bd fa 97 f0 3b f9 21 3c bc 71 4f b9 3d
       -0.087218076 0.007342336 -0.011482709 0.09048355
0002a0 8a 54 dd 3d 63 32 0b 3d 68 40 03 bd 02 32 92 bd
       0.1080714 0.0339836 -0.032043844 -0.071384445
0002b0 f3 ed a3 3d 20 c6 8c 3d b5 e6 0e 3e 0f 09 ad 3d
       0.080043696 0.06873727 0.13955195 0.084489934
0002c0 e9 00 92 bd 0d cb dc 3d fe b8 f3 bd 27 f3 7c bd
       -0.0712908 0.10780916 -0.11900519 -0.061755326
0002d0 a0 c0 97 3c 1a 15 a8 3c b2 11 a3 bd c5 da e6 3c
       0.018524468 0.020517875 -0.079623595 0.02818049
0002e0 83 20 25 3d ba 64 96 bc 3f 0b 3b 3d 6c 7c ca 3d
       0.04031421 -0.018358577 0.045665022 0.09887013
0002f0 02 aa 49 bd de 1c eb 3d c9 0c e3 ba 51 bb 62 be
       -0.049234398 0.11480115 -0.0017322536 -0.22141768
000300 a9 ca 08 3e fb 5f b7 3d 49 03 72 bc e2 2e 69 bc
       0.13358559 0.08953854 -0.014771291 -0.014232369
000310 30 78 21 bd 54 cf d8 3c 4c 00 34 bd 59 1f 1c bd
       -0.03942126 0.02646605 -0.043945596 -0.038115833
000320 8a 91 80 3d 38 6d 8d bc d7 1c 19 be 7b 51 cc 3d
       0.062777594 -0.017263994 -0.14952408 0.09976479
000330 1f 5a 07 be dd 82 34 3d c3 62 db bd c0 c9 25 bd
       -0.13217972 0.044070113 -0.10712197 -0.040475607
000340 4d c0 22 3d d6 3e 3b bd 49 eb 7a bd c5 f4 4e bd
       0.039734174 -0.045714222 -0.06125954 -0.0505264
000350 3d 63 ac 3c 59 44 a4 3d 37 83 be bd a0 e7 24 3d
       0.021043414 0.08020849 -0.09302371 0.040259957
000360 ef 9f 90 3d dc d7 0a 3e 0f 16 b9 bd 18 dd 98 3d
       0.07061755 0.13558906 -0.090374105 0.07464045
000370 ab d9 1f 3d fa 9e 07 be f6 e1 85 3d 36 6c 4e bd
       0.039025944 -0.13244238 0.06537239 -0.050396167
000380 6c dd 86 bc 6a c7 63 bc 06 25 d9 bd ed a8 ab bd
       -0.016463004 -0.0139025245 -0.10602765 -0.083818294
000390 da 6f b9 3d b0 79 2a 3d 21 45 a4 3d 32 c3 d2 3c
       0.09054537 0.041619956 0.08020998 0.025727842
0003a0 a9 ec c4 bd e2 d3 e7 3d c1 8d c0 bc db 66 5d 3d
       -0.09615452 0.1131971 -0.023505094 0.05405317
0003b0 6c a0 d9 bc f0 57 fc bc 49 04 93 bd 56 1a ae bc
       -0.026565753 -0.03080365 -0.07178552 -0.021252792
0003c0 36 96 67 3d 1a fa a3 3d f9 9c 9b bd 51 a6 53 bc
       0.056539737 0.080066875 -0.075982995 -0.012918071
0003d0 af a7 f9 bd 69 0e 7d bc 4b 4d 48 3d 45 65 09 bc
       -0.12190186 -0.01544533 0.048901837 -0.008385961
0003e0 d6 a8 d2 3d d4 60 34 3b 93 52 2a bd bb d1 06 be
       0.10286109 0.0027523534 -0.041582655 -0.13165943
0003f0 30 8a ef bd a5 19 8d bd c6 62 7b bc 9b 8d 83 3d
       -0.11696279 -0.06889657 -0.015343374 0.064234935

0.bias f4 [23]
000000 82 3c 0f 3e 4e 10 65 bd dc 33 6d bd 6d 55 85 3b
       0.13987926 -0.055923752 -0.057910785 0.0040690214
000010 aa 79 d9 bd 93 5b 71 bc a8 7d a4 3d af 69 9f bc
       -0.10618909 -0.014731306 0.080317795 -0.019459574
000020 3a 93 0a be 19 e4 48 bb 60 9c e9 3d 61 1f 8d bd
       -0.13532725 -0.0030653535 0.11406779 -0.06890751
000030 6e 04 16 be 81 6a 59 bb 70 9d 1e 3c d8 46 a1 bd
       -0.14650127 -0.0033175054 0.009681091 -0.078748405
000040 02 21 dc bd cc 12 da bd 2f de 9a bd 70 4c ed bd
       -0.10748483 -0.106481165 -0.075619094 -0.11586845
000050 08 9f d7 bc 82 50 bc bd d9 b8 12 be
       -0.02632095 -0.09195043 -0.14328326

1.weight f4 [23]
000000 55 23 7c 3f 19 27 70 3f 35 ec 81 3f 66 0a 73 3f
       0.9849141 0.9380966 1.015021 0.9493774
000010 e7 ed 73 3f 60 07 79 3f 59 3d 73 3f 90 51 6a 3f
       0.95284885 0.9727688 0.95015484 0.91530704
000020 fb 48 81 3f 73 fd 70 3f 22 fd 75 3f 32 a4 81 3f
       1.0100397 0.9413673 0.96089375 1.0128233
000030 6d 62 6f 3f 76 57 6e 3f b6 bf 78 3f 34 b3 77 3f
       0.9350956 0.93102205 0.9716753 0.9675782
000040 09 2d 7d 3f 2f c0 84 3f d1 92 6e 3f 47 46 77 3f
       0.98896843 1.037115 0.93192774 0.9659161
000050 fa bd 79 3f 75 2d 73 3f 0f 50 84 3f
       0.97555506 0.94991237 1.0336932

1.bias f4 [23]
000000 2d 6c 80 3d 23 86 01 3c 7e 04 96 3c 75 9e c5 3b
       0.06270633 0.007905516 0.018312689 0.0060308524
000010 05 82 30 3d b1 0a 2f 3c 3c 6a 53 3c 20 5b 10 bd
       0.043092746 0.010683701 0.012903746 -0.035243154
000020 c8 f4 e6 3d d1 4e 92 bc c0 65 51 3d 46 42 c4 3c
       0.11277157 -0.017859848 0.051122427 0.023957383
000030 74 00 83 3d 29 63 8d 3d 4d 7f 13 3d 4d 95 ab 3c
       0.06396571 0.06903679 0.036010075 0.020945216
000040 c4 34 89 3d 5d cf 5d 3d 59 cb 05 bd e8 59 36 3d
       0.06699517 0.054152835 -0.03266463 0.044519335
000050 3f a3 2f bc e9 a2 0e 3c 2a be 04 bc
       -0.010720073 0.008705833 -0.008101979

1.running_mean f4 [23]
000000 49 73 8a bd 16 dc 5e be 69 67 5d be c4 9d 05 bd
       -0.0676027 -0.21763644 -0.21621479 -0.03262116
000010 4b e1 a4 bd 71 ca 43 be 91 21 54 be 85 6f 21 3e
       -0.08050784 -0.19120194 -0.2071593 0.15765198
000020 27 fb 13 3e 8a 20 88 3d 00 a3 05 3f 24 c8 54 be
       0.14451276 0.06646831 0.52201843 -0.20779473
000030 cf 43 7f bd e0 a1 4c be 6f 53 58 3d ef 0f 55 3e
       -0.062320527 -0.19983625 0.052813943 0.2080686
000040 30 1a b9 3b fe c6 02 3e d8 1c 71 be 40 76 46 3d
       0.0056488737 0.12771222 -0.2354616 0.048452616
000050 9f 7e 0d be c0 22 fb 3c e9 f2 0a bf
       -0.13817833 0.030656219 -0.542769

1.running_var f4 [23]
000000 49 ce 5e 3b 93 26 f9 3b ed 0a 83 3b bf 24 a1 3b
       0.0033997467 0.0076034754 0.003999105 0.0049177106
000010 1a 0e ff 3b 41 a6 f0 3b 50 1e ed 3b c7 8d 3c 3c
       0.0077836635 0.0073440378 0.0072362795 0.011508412
000020 eb 46 92 3b 5e e7 a6 3b 33 fd 19 3c 24 a4 64 3b
       0.0044640205 0.005093499 0.009398746 0.0034887874
000030 8f 18 6c 3b 0a a8 5d 3c 79 cd e2 3b 37 6c ae 3b
       0.003602538 0.013528833 0.006921467 0.005322959
000040 94 8b cf 3b 82 32 38 3c e1 0c 57 3c b1 55 9b 3b
       0.0063337777 0.011242511 0.013125629 0.00474044
000050 3d 87 60 3b 34 17 14 3c c6 c7 04 3c
       0.0034260296 0.009038735 0.00810427

3.weight f4 [11, 23]
000000 b0 27 c2 bd b1 e0 8f bd 87 d0 1d 3e 50 83 35 bd
       -0.09480226 -0.07025278 0.15411578 -0.044314682
000010 47 39 f0 3d 62 e0 b9 3d fe c8 fe bc 0d 6e 3c be
       0.11729675 0.09076001 -0.0311017 -0.18401356
000020 eb 78 29 3e 28 69 18 3d db d3 17 be d5 41 9d 3d
       0.16550033 0.03720966 -0.1482691 0.07678572
000030 fd 09 a8 3d 02 91 28 3e 86 8b ea 3d 02 cb 01 3d
       0.0820503 0.16461566 0.11452393 0.031687744
000040 6e 5e 55 bd 64 17 f6 3d 32 d5 20 be 17 0b 2e be
       -0.05209201 0.1201618 -0.15706328 -0.16996418
000050 fb c9 b8 3d cf 8a e0 3d 87 5b 56 3e e9 f0 32 3d
       0.090229 0.10963976 0.20933352 0.04368678
000060 dd 99 53 be 46 7d fa 3d 34 a0 3a 3e e9 9f 5e bd
       -0.20664163 0.12230925 0.18225175 -0.05435172
000070 b4 c5 d9 bd d6 e2 e1 bc c2 9e 34 3d e9 fe 04 3e
       -0.10633412 -0.027573984 0.044096716 0.12987866
000080 c4 44 b7 3d ba 23 0c be 3d ef 8b 3d eb ae e5 bd
       0.08948663 -0.13685504 0.068327405 -0.112150036
000090 da 60 35 be b0 b2 40 3c 04 34 c3 3c ba de f2 3d
       -0.17712727 0.011761352 0.023828514 0.11858888
0000a0 63 1a 9d 3d fc 61 06 3e 8c 3c 02 bc fc a3 93 bc
       0.076710485 0.13123316 -0.007949006 -0.01802253
0000b0 ed 62 16 3d 19 cd be 3d 0f 1b cf 3d 2a 60 08 3d
       0.036715437 0.09316463 0.10112583 0.033294834
0000c0 d8 26 94 bd 59 d6 39 bb ad 6a 02 be 9e 3e b5 bd
       -0.07233971 -0.002835652 -0.12736006 -0.08849834
0000d0 f6 ba 8a 3c cf 10 80 be 5d 8f dd bc b5 a8 c8 3d
       0.016934853 -0.25012824 -0.0270459 0.09797803
0000e0 bd 11 93 3d 48 8d a5 3d f1 3a 02 be ea 80 01 3b
       0.07181118 0.08083588 -0.12717797 0.0019760677
0000f0 dd 28 4d 3d 7b f7 94 bd f1 60 c1 3d fd 2b 6c bd
       0.0500878 -0.07273766 0.09442318 -0.057659138
000100 2a 0d 18 bd 5d 57 82 3d 94 62 b2 bd 76 4e 8a 3d
       -0.03712193 0.063643195 -0.087102085 0.067532465
000110 02 d6 dd 3d e8 97 00 3d f2 57 5d bd 95 12 32 be
       0.108318344 0.03139487 -0.05403895 -0.17389901
000120 2a 59 a3 bc d0 c1 81 3c 7c bd 49 bd 30 48 99 3d
       -0.019939978 0.015839487 -0.049252972 0.07484472
000130 d1 50 19 be 17 93 bb bc 99 9f 17 3e b2 e5 e3 3d
       -0.14972235 -0.022897286 0.14806975 0.11127795
000140 e9 e6 24 be 3b c0 17 3b 00 3a 1f 3d 87 0b 73 3d
       -0.1610371 0.002315535 0.038873672 0.059337165
000150 ae 71 20 be 3e b7 c1 bd aa a8 be bd 92 6a 26 bd
       -0.15668365 -0.09458779 -0.09309514 -0.040628977
000160 58 97 27 3e 57 2a c9 3d 36 26 a8 3d ac 3c 6d bd
       0.16366327 0.09822529 0.08210413 -0.05791919
000170 3f a6 b0 3d 90 bb 8e 3d de 21 16 bd dc 31 c8 3d
       0.08625459 0.069693685 -0.036653392 0.09775135
000180 cc 7b db bd bf ce e0 bd 46 3d 99 3d be 82 42 bd
       -0.10716972 -0.10976934 0.0748239 -0.047487967
000190 ff 07 3e bc bc 8f 80 bd 9d ba 49 bc 75 2d 1d 3e
       -0.011598586 -0.06277415 -0.0123125585 0.15349372
0001a0 74 4e 94 3c 71 27 40 bd 93 ac 0b 3e a1 d8 83 bd
       0.018103816 -0.046912614 0.1364005 -0.06437803
0001b0 d9 97 fd 3c 66 f6 c1 bd 87 10 58 bd cb 7c 12 3d
       0.030956196 -0.09470825 -0.052750137 0.035763543
0001c0 d4 de 8b 3c 33 93 c4 bd 40 d8 84 3d e1 e2 8e 3b
       0.017074026 -0.095983885 0.06486559 0.004360542
0001d0 d6 c7 81 bd a9 34 08 3e 0b 4c 18 3e 3c 6e 6c be
       -0.06336944 0.13301338 0.14872758 -0.23088926
0001e0 fd 5a 29 3e 63 90 d6 bd ac 9c 28 bd 05 dd 5a 3e
       0.16538616 -0.10476758 -0.04116504 0.21373375
0001f0 53 19 0e 3e e1 da da 3d d9 f1 36 3e 12 5d 1b be
       0.13876848 0.10686279 0.17865695 -0.15172222
000200 7e a2 1c 3e b2 c2 10 be 05 3d 15 be 53 f9 65 3c
       0.15296361 -0.1413677 -0.14574058 0.014036494
000210 4a 29 89 3e d3 be 92 3d 83 b1 c9 bd 45 e2 7b 3c
       0.26789314 0.07165303 -0.09848311 0.015373771
000220 82 e4 5f bc ad 12 25 be f4 59 11 3e 66 f1 d3 bd
       -0.01366532 -0.16120405 0.1419447 -0.103487775
000230 2a c7 4b 3e bb c8 07 3d 4e 4b ea bd 85 05 3d 3e
       0.19900194 0.033150416 -0.114401445 0.18459137
000240 db 95 48 be 9c 93 00 be 70 d0 1e 3e 94 57 04 3d
       -0.19588415 -0.12556309 0.155092 0.032310084
000250 66 89 7e 3d f3 d7 5d 3e 52 fb 9f 3d a7 7c 3a 3e
       0.062142752 0.2166441 0.078116074 0.18211614
000260 01 7c 55 3d b9 8e 6c bd 56 8d b5 3d c6 8b 36 3e
       0.052120212 -0.0577533 0.08864848 0.17826757
000270 16 35 f9 bd a2 c1 63 be ad 7f ca bc d7 b8 43 bd
       -0.121683285 -0.22241834 -0.024719084 -0.0477837
000280 07 b6 92 3d 60 16 22 bd 5a c3 29 be cc b3 6e 3d
       0.07163625 -0.03957212 -0.16578427 0.058276936
000290 bd 60 16 3e c8 8d 28 3e fd 4a 1d 3d a2 a7 ca bd
       0.1468534 0.16460335 0.038401593 -0.09895255
0002a0 32 dc 09 3d 92 eb 2c 3e 6e 75 22 bc b4 40 a5 3d
       0.03365726 0.16886738 -0.009915693 0.08068982
0002b0 f1 e5 a3 bc d4 6c 53 be 59 08 c7 3d 6c 91 48 bd
       -0.020007106 -0.20646983 0.09718389 -0.04896681
0002c0 bb 4a d1 bc bc 4e d1 bd 69 e7 e6 3d c6 41 06 3d
       -0.02554833 -0.102200955 0.11274607 0.03277757
0002d0 fb ce 9e 3d 64 04 b4 3b af 45 65 bc ae 43 5a be
       0.07754322 0.0054936875 -0.013993665 -0.2131488
0002e0 85 b8 0e be e3 c5 42 3d 41 a4 77 3d d2 70 f5 bd
       -0.13937576 0.047552 0.06045938 -0.119844094
0002f0 a5 32 c6 bd 87 41 27 be 2d 71 4d 3d 96 90 ba bc
       -0.096776284 -0.1633359 0.05015676 -0.022774022
000300 9e 8b 8c 3d 83 6d b0 3b 7f 90 90 3d 29 21 d4 3d
       0.06862567 0.0053841486 0.070588104 0.10357887
000310 1e 7c 8c bb a8 86 81 3b f4 fa 17 3a a2 64 8b bc
       -0.004287257 0.00395282 0.0005797588 -0.017015759
000320 10 c1 fc 3d 36 bf 80 bd 08 df d6 3b a7 05 2a be
       0.12341511 -0.062864706 0.006557349 -0.16603719
000330 84 0a c9 3d 69 b3 7f 3d a5 38 d1 3b cb 51 a9 ba
       0.09816459 0.06242696 0.0063849264 -0.0012918053
000340 1a dd a8 bd 05 87 8c bd 79 6c 39 bd b1 16 e7 bc
       -0.08245297 -0.068616904 -0.045269463 -0.028209062
000350 7e b5 82 bb 24 75 dc 3d 92 42 29 be 2d 2c 72 ba
       -0.0039889207 0.1076453 -0.16529301 -0.000923815
000360 a9 bb 11 be f6 0d a2 3d fe 47 1c be b4 67 7b 3d
       -0.14231743 0.07912819 -0.15261838 0.061378196
000370 d6 da 3e bc a2 0a 89 3c da 83 b5 3c c1 ac e0 b9
       -0.011648854 0.016728703 0.022157598 -0.0004285332
000380 ea 22 2f 3e 8a 0c f1 bc 8a 17 55 bb 91 f1 9a 3b
       0.17103162 -0.029424924 -0.003251525 0.004728504
000390 6e 1f ee 3d 8e ea ff bd f3 4c f4 3d 7e 62 0f 3d
       0.116270885 -0.1249591 0.119287394 0.03500604
0003a0 11 8a e7 bc 65 01 04 be 34 84 65 3e b4 5d 22 3e
       -0.028264077 -0.12891157 0.22413713 0.15856057
0003b0 48 2d 94 3d 67 eb b4 bd c5 56 0b be 70 1f 4f bc
       0.07235199 -0.08833962 -0.13607319 -0.012641773
0003c0 15 9d 75 bd c5 96 cd bc 23 7f 61 bd 12 11 96 3d
       -0.05996426 -0.025096307 -0.055052888 0.07327475
0003d0 14 83 82 3d 7e 08 ee bd e6 65 b0 3d a8 70 0b bd
       0.063726574 -0.116227135 0.086131856 -0.034042984
0003e0 32 e8 32 3d dc d6 a0 3c 2e b9 1f 3b 78 31 60 bd
       0.04367847 0.019633703 0.002437185 -0.054734677
0003f0 93 17 01 3d
       0.031516623

3.bias f4 [11]
000000 4f 74 74 3e 4c 28 18 3e dc 46 17 be 81 d8 21 be
       0.23872493 0.14859122 -0.14773124 -0.15805246
000010 4d 9e 47 be 26 2c b7 be e5 59 a7 3e 1e e6 83 bd
       -0.1949398 -0.3577587 0.32685772 -0.06440376
000020 ae 3e 5f bd b9 79 04 3f c8 64 48 3e
       -0.054503135 0.51748234 0.19569695

5.weight f4 [23, 11]
000000 14 b9 5a be e3 28 ea 3d 89 60 5d be 0a 89 d7 bd
       -0.21359664 0.1143358 -0.21618856 -0.10524185
000010 2a 6d 9d be fe db 8e bd a6 fa 6d bd b5 a4 55 3e
       -0.30747348 -0.06975554 -0.058100365 0.20863612
000020 c8 2c 86 3e 1c 90 b1 3c 01 19 9d 3b 42 68 bb bd
       0.2620604 0.021675162 0.0047942405 -0.09150745
000030 01 fd 7c 3d 58 05 d2 3d 21 ce 4e bb 9f d4 d7 3d
       0.06176472 0.102549255 -0.0031555968 0.10538601
000040 16 b9 17 be 00 e6 31 3e 0c 2d 4f bd 00 c1 13 3e
       -0.14816698 0.17372894 -0.05058007 0.14429092
000050 11 06 7d 3d e5 67 e9 be a0 40 9e bd c3 a4 37 3e
       0.061773364 -0.45587078 -0.0772717 0.17933945
000060 fd 01 f1 3c 0f 64 0c bd fc 32 6f 3d 33 a8 20 be
       0.029419893 -0.03427511 0.058398232 -0.15689163
000070 23 fe 88 be 88 79 04 be fa fb 8b be 0c 2a 74 3e
       -0.2675639 -0.12936985 -0.2734068 0.23844165
000080 bc 29 62 3d 98 8f ed 3c a1 4c 83 be 1a 7b b5 bd
       0.055215582 0.028999135 -0.256444 -0.088613704
000090 45 c2 58 3e 93 74 d0 3c e4 9a a8 3d c2 1d e1 3d
       0.21167858 0.025446212 0.08232668 0.10992004
0000a0 10 cc 23 bd 22 e5 11 3e 88 8c 94 be bc 4d 6b bd
       -0.03998953 0.14247563 -0.29013467 -0.05744718
0000b0 c9 e4 e5 bd aa 50 1b 3e 85 9c ad 3d 7a 81 bc bd
       -0.11225278 0.1516749 0.08477119 -0.09204383
0000c0 ad 6c 8d 3d 8a 0d 1a 3e 8b 3b a7 be 15 a7 78 3e
       0.06905494 0.15044227 -0.32662615 0.24282487
0000d0 a6 0e b0 3d dc df 63 3e c2 ea 08 3d d6 fb 8a 3e
       0.08596544 0.22253364 0.033427007 0.2714526
0000e0 6b 31 d4 3d 4f 07 81 be ca d5 06 be 0a 16 7a 3d
       0.10360988 -0.2520089 -0.13167492 0.061056174
0000f0 38 5a 13 3e 33 96 81 3e f2 21 81 be 6b cb 42 3e
       0.14389884 0.25309905 -0.2522121 0.1902291
000100 18 61 a7 3e df 9f 9f 3d 76 7b 5a 3e ed 2a 5a 3e
       0.32691264 0.07794165 0.21336159 0.21305437
000110 1e 52 a6 bc 43 0b 13 3e 15 8f 8d 3d f5 e4 ea 3d
       -0.020302828 0.14359765 0.06912056 0.11469451
000120 2a 8a 24 be 07 b4 35 bd 8a 9a b8 bc 28 95 92 be
       -0.1606833 -0.04436114 -0.022534627 -0.28629422
000130 ab b5 20 3e 05 38 ad bd 76 ef a1 be 3b 23 5c 3e
       0.15694301 -0.084579505 -0.31628007 0.21497814
000140 e1 ee 75 be 74 63 91 3c 7f aa 82 be e1 43 63 bd
       -0.24016906 0.017747618 -0.25520703 -0.055484656
000150 35 f2 ed 3d 6a cf ab bd 64 47 8e be dc 9b 42 3b
       0.11618463 -0.083891705 -0.27788842 0.002969495
000160 06 9e 93 3e 9c 57 06 be 6b f8 3a be cd 48 ac bd
       0.288315 -0.13119358 -0.18258826 -0.08412323
000170 da 4b 99 bd d2 bd 9a 3d bc f9 77 be 61 57 b0 bd
       -0.07485171 0.075557366 -0.2421636 -0.08610416
000180 7f cd 52 bd 8a a2 40 be e4 7c 40 be 3e cf 8c be
       -0.051465508 -0.18812004 -0.18797642 -0.27501863
000190 c3 83 17 be c7 01 4f be e2 5d 7c 3c 3d be 06 be
       -0.14796357 -0.20215522 0.015403243 -0.13158508
0001a0 87 5e 8c be 19 88 0c bd 48 aa 64 3e 82 0b 71 be
       -0.2741587 -0.03430948 0.22330582 -0.23539546
0001b0 af 65 9d bd e4 53 0a 3c 08 3b 95 be f6 e9 d8 3d
       -0.0768541 0.008442853 -0.291466 0.105914995
0001c0 9b 52 46 be 59 ad c6 3c 6b 2f f7 3d 09 70 26 3d
       -0.19367449 0.02425258 0.12069591 0.04063419
0001d0 0f dd 55 be d7 80 6f 3d ca 3e 6c be f9 49 51 bd
       -0.20885108 0.05847248 -0.23070827 -0.051095936
0001e0 20 b2 c5 bd 61 ce 2a be 62 b7 4d 3d 36 59 8d 3e
       -0.09653115 -0.1668029 0.050223716 0.27607125
0001f0 80 8b 2b be 58 31 49 be d4 cc 9d be 9b c1 23 be
       -0.16752434 -0.1964773 -0.30820334 -0.15991823
000200 89 91 e7 bd 49 5e 1b 3e 42 55 cc 3d c0 bf 2b 3e
       -0.113070555 0.15172686 0.09977199 0.16772366
000210 6b d4 24 3e 99 7e 28 be 82 e4 3e be 88 be 6b be
       0.16096656 -0.16454543 -0.18641856 -0.230219
000220 61 06 8d 3e 65 79 9b bc 64 c5 c9 3d e3 1a 8d 3e
       0.2754393 -0.018978784 0.098521024 0.27559575
000230 d8 db 7d be 84 d9 4f be 9b 1f 6e be ef 50 ef bb
       -0.24790895 -0.2029782 -0.23254244 -0.007303349
000240 28 44 87 be 5e 07 96 bc 96 5a 40 3e 74 6b 9b 3d
       -0.26419187 -0.01831406 0.18784556 0.075888544
000250 66 ba 34 3e bc 55 ac 3e 46 1a c5 bd 65 b5 8d 3e
       0.1764923 0.3365916 -0.09624152 0.27677456
000260 14 46 87 be 03 d2 b4 3d b5 d0 be bd 7e 50 73 3c
       -0.26420653 0.08829119 -0.093171515 0.014850734
000270 0f 5d 8c 3d 46 8a 3d be 35 3e a1 3e fa 63 20 3e
       0.06853687 -0.18509778 0.31492773 0.15663138
000280 bf 33 9b be c6 43 75 be 0f b8 11 be 79 45 a7 3d
       -0.30312917 -0.23951635 -0.14230369 0.08167548
000290 8d 4c 36 bd b1 ef 61 be 94 b5 90 be 41 66 6e 3e
       -0.0445066 -0.22064091 -0.28263533 0.23281194
0002a0 cb ae 9d bc 49 fc 86 bd cb cf 9a be 96 fd e4 bd
       -0.019248387 -0.06591088 -0.30236658 -0.1118118
0002b0 d3 32 46 be 73 19 bc 3d b4 f1 2d be 5a 76 64 3d
       -0.19355325 0.091845416 -0.16986734 0.05577693
0002c0 83 16 80 3b 04 2c fa bd d6 c8 04 3e 54 fa 7b bd
       0.0039089336 -0.122154266 0.12967238 -0.06151803
0002d0 f8 9c a8 bd 99 0a ad be 16 8b 9e bd 6e f8 12 bd
       -0.082330644 -0.33797148 -0.07741372 -0.035881452
0002e0 db b8 a6 be a1 69 f1 3d f3 91 e7 3d 7d e1 62 be
       -0.3256291 0.11787725 0.113071345 -0.2215633
0002f0 87 2d 54 3e 70 97 2f 3e 93 25 76 3e 37 1a f4 bd
       0.20720492 0.17147613 0.24037771 -0.119190626
000300 d6 4f fd 3a 5f c6 6f be 69 ca 40 3c 95 37 53 3e
       0.0019326161 -0.23415516 0.011767008 0.20626672
000310 88 31 1e bd bb b9 f0 bd 74 95 28 be f2 15 20 bd
       -0.038621455 -0.11754175 -0.16463262 -0.03908343
000320 2f ae 68 3e 72 a7 22 be 3b 2d a1 bd 22 1d 22 be
       0.22722696 -0.15884188 -0.07869955 -0.15831426
000330 df 13 3e 3e 59 3c 91 3e f1 47 5b 3e fe 73 7a 3d
       0.18562268 0.28366354 0.21414162 0.061145775
000340 10 3d b2 be 37 c7 2a be 77 fb af 3d de 8f 03 be
       -0.34812212 -0.16677557 0.08592885 -0.1284785
000350 2a 59 d8 bc 36 7d de 3d e1 b1 b3 3d df 24 80 be
       -0.026409704 0.10863726 0.08774162 -0.2502813
000360 8d 45 36 3e b3 e3 51 3d 4a a5 76 3d 89 80 00 be
       0.17799969 0.05124254 0.060216226 -0.12549032
000370 11 f5 77 bd c7 96 03 be a9 73 06 be 37 2a 87 3d
       -0.060536448 -0.12850486 -0.13130058 0.06599849
000380 e8 39 2b 3e 26 b0 92 be a0 af 0a bd 20 5b 0d be
       0.16721308 -0.28650016 -0.033858895 -0.13804293
000390 78 50 91 3e 3b e8 40 ba 1d 2f bc 3d ac c8 59 bd
       0.28381705 -0.0007358824 0.09188674 -0.05316989
0003a0 02 74 5c be cc df 46 3e 9b db 82 3e ff 5f a8 be
       -0.21528628 0.19421309 0.2555817 -0.3288574
0003b0 ef 43 2b be e2 99 c6 bc 99 a8 52 3e 7f 0a ba bd
       -0.16725133 -0.024243299 0.20572127 -0.09084033
0003c0 f9 84 8d 3e c8 d2 56 3e 1e 57 10 be 2f d6 68 bd
       0.27640513 0.20978844 -0.14095733 -0.056844886
0003d0 13 d7 dd 3d e0 3a d3 bc c1 d7 20 be ec cf 94 be
       0.10832038 -0.02578491 -0.15707304 -0.29064882
0003e0 4c 77 71 be a6 f6 85 bc 22 6a d1 bb 05 cf 6f 3e
       -0.23580664 -0.016352963 -0.006390826 0.23418815
0003f0 b6 31 bf bd
       -0.093356535

5.bias f4 [23]
000000 a2 c8 0c 3e 68 5a 0a be 34 9f 2b 3e cc 9b 7b 3e
       0.1374841 -0.1351105 0.1675995 0.2457115
000010 3e 7a 54 be d8 10 9e 3d c0 57 87 3d 20 4c df 3c
       -0.20749757 0.077180564 0.06608534 0.027257979
000020 4c 50 7a 3e 82 1c 02 3e b6 f1 ba bd 64 55 d1 3d
       0.24444693 0.12706187 -0.09128134 0.10221365
000030 00 62 e8 3c e7 26 2a be 64 43 6b 3e de ec 27 3e
       0.028367043 -0.16616403 0.22974926 0.16398951
000040 ea fc 10 3e c6 55 66 be 4a a5 1c 3e f4 89 7c 3e
       0.14158979 -0.22493657 0.15297428 0.24662
000050 6f 5c 14 be de 26 43 3e 40 6d f1 bc
       -0.14488386 0.19057795 -0.02947104

6.weight f4 [23]
000000 9e a8 3e 3f 8f 42 5a 3f 3c 27 59 3f a0 88 31 3f
       0.7447604 0.8525781 0.8482549 0.693491
000010 c2 e3 51 3f 32 ea 57 3f 94 44 3d 3f a8 ee 65 3f
       0.81988156 0.8434173 0.73932767 0.89817286
000020 31 e4 2e 3f bf bc 79 3f f9 7f 73 3f be ed 73 3f
       0.6831694 0.9755363 0.95117146 0.9528464
000030 54 bb 57 3f eb 90 50 3f ce 94 76 3f 7d 13 62 3f
       0.84270215 0.8147113 0.9632081 0.88310987
000040 da 30 69 3f 5d cd 6c 3f 33 db 45 3f f3 36 5d 3f
       0.91090167 0.9250086 0.77287596 0.8641197
000050 a9 5b 61 3f f5 d8 5d 3f c8 9d 69 3f
       0.8803049 0.86659175 0.9125638

6.bias f4 [23]
000000 ec 05 01 be 32 72 80 3e 67 00 35 3d 6f f8 1b bd
       -0.12599915 0.25087124 0.044189837 -0.03807872
000010 3f 00 b2 3d a2 c6 a2 3e 04 59 36 3e 5c cc b9 3e
       0.08691453 0.3179217 0.17807394 0.36288726
000020 1f 01 43 3e 0c 0a 4e 3e 97 7a 1a 3d 08 a2 93 3c
       0.19043396 0.2012102 0.037714567 0.018021598
000030 4d c4 98 3e 9f 6a 2f 3d 65 de e4 bd 5a f3 c0 bd
       0.29837266 0.04282629 -0.11175231 -0.094214156
000040 53 95 c4 bd 73 9b 2c 3e 04 34 38 3e 0e f5 85 3b
       -0.09598794 0.16856174 0.17988592 0.0040880507
000050 67 ac 1b 3e 5a 99 a3 bc 71 76 1b 3e
       0.15202485 -0.019970585 0.151819

6.running_mean f4 [23]
000000 04 35 b2 3d 58 55 22 be 84 91 01 3e 07 8a 1b 3e
       0.08701518 -0.15852869 0.12653166 0.15189372
000010 b0 bf 97 be 84 a7 e9 3e d0 e2 26 3d 06 8a 51 be
       -0.29638433 0.45635617 0.04074365 -0.20462808
000020 a0 5d 04 3e 8a 6f f2 bc ed 88 9a be da 27 77 3c
       0.1292634 -0.029594202 -0.3018259 0.015085185
000030 bb fa 13 bb 91 b5 09 be 0e 84 6e 3d 6f 88 d2 bd
       -0.0022579867 -0.13448168 0.058231406 -0.10279929
000040 63 a8 05 3e b2 8e d9 be f2 07 ef 3d fb 70 ab 3d
       0.13052516 -0.4249168 0.11671437 0.08371159
000050 01 f4 61 be c5 87 7f 3e db b7 20 be
       -0.22065736 0.24954136 -0.15695135

6.running_var f4 [23]
000000 9a a6 91 3c 99 b0 92 3c 29 81 de 3d 0f f5 9f 3c
       0.017779637 0.017906474 0.10864479 0.019526033
000010 5e 04 4a 3d 38 9d 16 3e 36 b1 b6 3c 4a 86 8d 3d
       0.04932057 0.14708412 0.022301298 0.06910379
000020 f9 fa 3e 3c 17 93 ac 3d b3 83 89 3d ed 19 13 3e
       0.011656516 0.08426493 0.06714573 0.14365359
000030 ec 81 44 3d 38 c1 ae 3d 3a 24 7d 3d 8a 46 43 3e
       0.047975466 0.08532947 0.061802126 0.19069877
000040 82 b5 9c 3d 8c ce 90 3d 0a 9b 8b 3c eb cd 27 3d
       0.07651807 0.07070646 0.017041702 0.040967863
000050 c5 cf 82 3d 0f eb 33 3d dc d8 33 3e
       0.06387285 0.04392534 0.17563194

8.weight f4 [46, 23]
000000 28 47 4d be be 89 56 3c 99 57 65 bc 35 77 24 3e
       -0.20046675 0.013094364 -0.013997936 0.16061099
000010 40 80 a9 bb 8f 98 89 bd c5 dd 1d 3d f3 ad 33 bd
       -0.0051727593 -0.06718551 0.038541574 -0.043867063
000020 fb 7d ae bd de 18 f1 3c b5 47 43 3e ed fe 2b bd
       -0.085201226 0.029430803 0.19070323 -0.041991163
000030 8b 09 81 bc 35 65 1c bc 97 93 e1 bd 65 1d ca bc
       -0.01575162 -0.009545614 -0.11014479 -0.02467222
000040 39 97 91 3b 98 f3 93 3c 2c 02 84 bd 09 c1 71 3d
       0.004443076 0.01806049 -0.06445727 0.059021983
000050 8a ba 54 be 51 28 ac 3e 7d df 32 bd 54 61 c1 bd
       -0.20774284 0.3362451 -0.043670166 -0.09442392
000060 f8 60 79 3d 42 0e b6 bd 61 a4 c8 3c c1 e1 9d bd
       0.060883492 -0.08889438 0.024492444 -0.07709075
000070 6f 32 4e 3d 6d 6c b1 3c 46 78 0e 3e 54 6d 18 bd
       0.050341066 0.021658147 0.13913068 -0.03721364
000080 fc ac dd bd cc be 91 bd 48 d0 15 3e a6 62 a8 3d
       -0.1082401 -0.0711647 0.14630234 0.08221941
000090 35 c5 00 be db c6 f8 bd f7 56 32 be c0 77 b3 3b
       -0.12575229 -0.12147304 -0.17415987 0.005476922
0000a0 43 15 c2 3c c4 eb 8f bd 73 41 3f 3e 5e 01 c4 bd
       0.023691779 -0.070273906 0.1867731 -0.09570573
0000b0 a6 d1 98 3b 95 99 73 3e 25 76 64 3d 33 9a 6a 3d
       0.004663664 0.23789056 0.055776734 0.057275962
0000c0 b8 25 07 3e e3 d6 56 bd 9c 18 2c bc b9 3d 60 3d
       0.13197982 -0.052451026 -0.010503914 0.054746363
0000d0 2f 02 0f bd 0b 6b 65 3d fb 4c 40 3d 82 99 42 3d
       -0.03491419 0.056010287 0.046948414 0.047509678
0000e0 54 91 ab bd 1d 9c 1d be f5 9a 22 3b de 44 78 3d
       -0.083773285 -0.15391584 0.00248116 0.060612552
0000f0 7c 99 cf bc 5b 21 a5 bd 5d 5e 29 3e 67 78 86 3d
       -0.025341742 -0.08063003 0.16539903 0.06565934
000100 89 97 13 bd eb 93 6a bc fd e3 8d bd a9 fb 0a bd
       -0.036033187 -0.014317493 -0.06928251 -0.033931408
000110 08 04 63 3d c7 ec c8 3d d1 76 d1 3c 99 90 c4 3d
       0.055423766 0.09810787 0.025569351 0.09597892
000120 73 96 fc bc 7e 51 d0 3d 8e de 85 bd 0b be 8b 3d
       -0.030833459 0.101717934 -0.065365896 0.06823357
000130 a5 1f 24 bc 51 ce 82 bd 7e 4e 49 3d dd 43 07 be
       -0.01001731 -0.06387008 0.04914712 -0.13209482
000140 30 45 d3 bc 1d c9 12 3e 62 77 88 bd 88 aa 44 3c
       -0.025789827 0.14334531 -0.066633955 0.012003548
000150 03 fa 14 3e 35 1a d1 3d 78 7b 0e be 69 ce 1f bd
       0.14548497 0.10210077 -0.13914287 -0.039015207
000160 05 30 a6 bd 05 66 92 bd 23 0a 3c be 01 11 f7 3d
       -0.08114628 -0.07148365 -0.18363242 0.1206379
000170 e2 1a 81 3c f9 b5 49 3d f7 0e 1c 3e f4 e1 a5 3c
       0.015759889 0.04924581 0.15240084 0.020249344
000180 77 14 2a 3e 85 32 50 be 3b ab 41 3d fb d9 d9 3d
       0.16609369 -0.20331772 0.04728244 0.106372796
000190 30 2b 92 3b 55 bf d7 bc 2b 62 1d be 35 bd 44 bc
       0.0044607148 -0.026336351 -0.1536948 -0.012008001
0001a0 81 e8 9b 3d 12 d3 10 3e c0 89 11 be b4 5c d5 bd
       0.07612706 0.14143017 -0.14212704 -0.10418072
0001b0 44 16 3a be d8 90 c6 bd a2 bb 06 3e 23 5c 08 3e
       -0.18172556 -0.096955955 0.13157514 0.13316397
0001c0 a7 8e 41 3e 1e e3 72 bd be 77 2d 3d 80 ee 3d 3d
       0.18902074 -0.059298627 0.042350523 0.04637003
0001d0 bd ca 95 3d 7a 7b a6 bd e1 0e 0e 3c 1e 53 a5 bd
       0.0731406 -0.0812902 0.00867054 -0.08072494
0001e0 2f 9c cd bd 3b dd 03 3c 2d 66 6a bd 1b 45 53 3c
       -0.10039555 0.008048351 -0.05722635 0.012894894
0001f0 42 83 46 3c 8f 38 e9 3d b6 5a 82 bc 11 bc bf bc
       0.012116255 0.11387741 -0.015912395 -0.023405107
000200 2b a5 dd 3d f4 24 38 3d 81 66 24 be d2 2b 3e bd
       0.10822519 0.044957116 -0.16054727 -0.04642851
000210 d1 27 2e bc 46 5a b9 bd d1 e3 e8 bd 0e 00 f1 bc
       -0.01062961 -0.090504214 -0.113715775 -0.029418971
000220 ab a0 a0 3d af 43 2d 3e ad 4b bc 3d 99 f8 1f 3d
       0.07843145 0.1692035 0.091941215 0.03905544
000230 98 3e f9 bd 1c da 20 be d1 c6 19 be e9 1d 17 bd
       -0.12170142 -0.15708202 -0.15017249 -0.03689376
000240 cb 7b 08 bd f7 31 4f bd 84 00 5f 3d 61 2e dc bd
       -0.033321183 -0.05058476 0.05444385 -0.107510336
000250 bc 4c c9 bc c2 6a da 3d 41 64 97 3d a3 ab e7 3d
       -0.024572723 0.10664894 0.07392169 0.11312034
000260 5b 1c 11 be 5a 48 e6 3d e4 83 cf 3d a7 12 d8 3c
       -0.14170973 0.11244269 0.10132578 0.026376082
000270 55 c2 53 bd 69 30 56 3e 14 bd 83 bd be c1 45 3d
       -0.051699 0.20916905 -0.06432548 0.04828047
000280 27 04 a6 3d 6a a8 8e bd a6 46 1e 3e 17 32 a9 3d
       0.08106261 -0.06965716 0.15456638 0.08261507
000290 61 34 6b be c1 bb 4a 3e 8c 3e b2 3d 4d 30 f7 bd
       -0.229692 0.19798185 0.08703336 -0.120697595
0002a0 cf e4 92 3d 39 60 99 be d1 16 c2 bd cd 4b 3f 3e
       0.07172548 -0.29956225 -0.09477008 0.1868126
0002b0 ea dd 5e 3d 44 1d ee bc c9 0d 25 3e 51 ed c6 3d
       0.054410852 -0.02906669 0.1611854 0.09713233
0002c0 94 2a d4 bc 95 53 82 bd 57 03 e0 bd 8b 71 30 3e
       -0.02589921 -0.06363598 -0.10938137 0.17230813
0002d0 3c d5 23 3c e6 ec 16 3e 0f df 09 be c2 75 40 3e
       0.0099995695 0.14738807 -0.13463996 0.18794921
0002e0 9f 34 96 bd 07 a5 2f 3d 2f c6 0a be bc b7 97 3d
       -0.073342554 0.04288199 -0.13552164 0.074080914
0002f0 eb 7f 84 3d 50 b0 b9 bd 77 37 18 3d e1 97 f9 bd
       0.06469711 -0.09066832 0.03716227 -0.12187172
000300 ff 93 df bc 14 77 0b 3e 88 e8 03 bd be e7 82 bd
       -0.02729225 0.13619643 -0.03220418 -0.063918576
000310 0a 5f df bd 27 e9 ea 3d cf 24 86 3b 7f 53 1c be
       -0.10906799 0.114702515 0.0040937434 -0.15266226
000320 49 6e 80 bd 21 b9 db bd ff c5 cc bd 5a 33 d2 3d
       -0.06271035 -0.1072867 -0.09998702 0.10263701
000330 50 11 7f 3d 29 5d d7 bd f1 62 e5 3d 8b d2 19 3e
       0.06227237 -0.10515816 0.11200512 0.15021722
000340 7b ae 71 3d 59 b3 d2 bd 38 14 a2 bd ba 6b db 3c
       0.05900429 -0.10288114 -0.07914013 0.026784766
000350 84 a0 39 bd 89 e5 a1 3b 07 7a 88 3d ca 0e a6 3d
       -0.045319095 0.004940693 0.066639 0.081082895
000360 54 ba 12 bd 83 97 07 3e 9d 56 92 3d ae 42 a7 3d
       -0.035822228 0.13241391 0.071454264 0.08167015
000370 fe 93 39 3d b8 94 dc bd 03 67 4a 3c a9 c2 77 3d
       0.045307152 -0.10770553 0.0123536615 0.060488377
000380 2e b9 06 3d c7 ac 84 3d 87 60 8b bd 2b d7 0c bd
       0.032891445 0.06478267 -0.068055205 -0.034384888
000390 3a 93 93 3d fb 56 c7 3d a1 5c db 3d d4 ca 4c 3c
       0.072058156 0.09733387 0.10711027 0.01249953
0003a0 67 09 99 bc 90 40 f4 3c 3a c8 08 bd c1 bf 1c 3d
       -0.018681241 0.029815942 -0.033394076 0.03826881
0003b0 9e d6 89 3c fd f5 c5 3d 38 07 43 3d 3c c2 31 bd
       0.01682597 0.09666059 0.047614306 -0.043398127
0003c0 64 b4 aa 3d 58 e3 30 be 01 96 c9 3c 67 36 40 bd
       0.08335188 -0.17274225 0.02460766 -0.046926882
0003d0 80 93 9e bd 2c 6f 73 bc 91 4d 51 3d 86 ee ef 3d
       -0.07742977 -0.014858048 0.051099364 0.117154166
0003e0 85 a6 cb 3d df d8 ad bc 1e c8 fb bc db a4 8d 3d
       0.099438705 -0.021221576 -0.030735072 0.06916209
0003f0 68 5a 33 3e 78 9d 30 3d fb 9a bb 3d 3f cd 55 3d
       0.17514956 0.043118924 0.091604196 0.05219769

8.bias f4 [46]
000000 c7 b6 4a 3e 99 fb 8e 3e b0 b5 be 3d 53 e7 f0 3d
       0.19796287 0.2792633 0.09311998 0.117628716
000010 aa 22 f0 3c 99 ab 0b 3d 83 50 53 3e 30 5d d9 3e
       0.029313404 0.034099195 0.20636182 0.4245391
000020 42 21 d0 3d b6 7d d1 3e 8b 73 b7 3e 3e 41 a2 3d
       0.101625934 0.40916222 0.3583034 0.079226
000030 d9 14 98 bc 95 de 08 be f6 8d 32 3f 85 a4 14 3f
       -0.018564628 -0.13366158 0.69747865 0.58063537
000040 c4 34 23 3f ab d1 01 3e 05 fe 2d 3e 00 7e 29 3f
       0.6375239 0.12677638 0.16991432 0.66207886
000050 2c 23 a3 3d ab 69 3f 3f f1 84 e4 3e 88 e9 b2 3e
       0.07965693 0.7477061 0.44632676 0.34943795
000060 9e 28 c0 3d 19 e1 db 3d d6 af c6 3d 97 fd 06 3d
       0.09382747 0.10736293 0.09701507 0.032956686
000070 75 2c 04 3e 1a 8a aa 3e 5b 58 de 3c c9 9c d8 3d
       0.12907584 0.33308488 0.02714174 0.105767794
000080 4e 20 c2 3c 7f cf 4a 3f 5f f6 36 3e 39 c4 95 3e
       0.023697045 0.79222864 0.1786742 0.29251269
000090 70 2c 73 bc 99 c0 19 3e 4d 49 5b 3d d6 99 f2 3d
       -0.014842138 0.15014876 0.053536702 0.11845748
0000a0 88 d5 0e 3d 48 89 64 3d 79 83 bb bd 3b ca c3 3d
       0.034871608 0.055794984 -0.09155936 0.09560057
0000b0 56 06 b6 3d ce e6 02 3f
       0.08887927 0.5113343
