offline_prototype_3_ds_as_sampling/trained_models/ae_model_all_ds_as.pth (torch, 7167 bytes, 16 tensors)

0.weight f4 [8, 15]
0	0x3e5457c5	0.20736606
1	0xbe983dee	-0.2973475
2	0xbe3418b3	-0.17587547
3	0x3d610fda	0.054946758
4	0x3e81ab08	0.253258
5	0xbd83d5d0	-0.06437266
6	0xbe9381fe	-0.28810114
7	0x3c9c37a7	0.019069506
8	0x3d365329	0.0445129
9	0x3c91fb70	0.01782009
10	0xbd2781c4	-0.04089524
11	0x3e3cf3e0	0.18452406
12	0x3d52cbd0	0.051463902
13	0x3d0db459	0.03459582
14	0x3d1f4135	0.038880546
15	0xbe430464	-0.19044644
16	0x3d0cfcbf	0.034420725
17	0x3d8887ff	0.06666564
18	0x3ddb8898	0.107194126
19	0x3d594f7e	0.053054325
20	0x3b464399	0.0030252694
21	0xbda18d30	-0.078882575
22	0xbe0a2c17	-0.13493381
23	0xbeb519c5	-0.35371223
24	0xbe2aeca5	-0.16691835
25	0x3e63c35b	0.22242491
26	0xbe3f4431	-0.18678357
27	0xbd387ec7	-0.04504278
28	0x3cf490d5	0.029854218
29	0xbcc4752f	-0.023981659
30	0xbeb19d99	-0.3469055
31	0x3ea6a674	0.3254887
32	0x3e1ba6ac	0.15200299
33	0xbe61b8a0	-0.22043085
34	0xbdec57d2	-0.11540188
35	0x3d89768b	0.067120634
36	0x3d293841	0.041313414
37	0x3bdcc4cd	0.0067373277
38	0x3d9a296c	0.07527432
39	0x3cdd2779	0.026996361
40	0x3de00a97	0.1093952
41	0xbdca6750	-0.098829865
42	0xbd0e0ab3	-0.034678172
43	0xbc6fb3d8	-0.01463028
44	0x3b9339e6	0.004492986
45	0xbd046df6	-0.03233143
46	0x3ed23921	0.4105921
47	0xbcc4b6c1	-0.024012925
48	0xbe2a6fc6	-0.166442
49	0x3e536bfc	0.20646662
50	0x3e0378b8	0.1283902
51	0x3e27f686	0.16402635
52	0xbe4bde56	-0.19909033
53	0xbd36a254	-0.044588402
54	0x3d210fef	0.039321836
55	0xbdae3e9e	-0.08508037
56	0xbdc03d9f	-0.09386753
57	0xbd989153	-0.074495934
58	0x3d862a25	0.06551007
59	0x3c88c55e	0.016695675
60	0x3d1db33c	0.03850101
61	0x3e718bf1	0.2358854
62	0xbce02464	-0.027361102
63	0xbd95b12e	-0.07309185
64	0xbe938315	-0.28810945
65	0xbeb7aac6	-0.35872477
66	0xbe51e6d6	-0.20498213
67	0x3e5b1361	0.21394111
68	0x3e266461	0.16249229
69	0xbdb9cfa2	-0.09072806
70	0x3cebc09e	0.02877837
71	0xbdf3b9b5	-0.11900655
72	0xbd0792a8	-0.033098847
73	0xbd57e0ef	-0.052704748
74	0xbd28149e	-0.041035287
75	0xbdc714e3	-0.09720781
76	0xbe698b1b	-0.22806971
77	0xbdd62263	-0.104557775
78	0x3d2be8f3	0.041970205
79	0xbe834981	-0.25642017
80	0xbebaff1d	-0.3652276
81	0x3d32f3a6	0.043689393
82	0xbe92a6a4	-0.28642762
83	0xbe297c8b	-0.16551416
84	0x3aa4acd4	0.0012563714
85	0xbbfc87f5	-0.007706637
86	0x3e18363e	0.14864442
87	0x3cc03c65	0.023466298
88	0x3cca8a56	0.024724167
89	0x3db13742	0.08653118
90	0xbe730b2e	-0.23734733
91	0xbe8fa875	-0.2805821
92	0xbd8aacdb	-0.06771251
93	0x3e485e78	0.19567287
94	0xbdc7ac47	-0.09749656
95	0x3eb1f304	0.3475572
96	0xbd8d32f1	-0.06894482
97	0x3df384b9	0.11890549
98	0xbe3f2094	-0.18664771
99	0x3e35426a	0.17701116
100	0x3a32233a	0.00067954103
101	0x3de967b0	0.1139673
102	0xbc92bed4	-0.01791326
103	0x3c251469	0.010075667
104	0x3dd3659a	0.10322113
105	0xbea1e191	-0.31617406
106	0x3e49cbbe	0.19706628
107	0x3e2ad096	0.16681132
108	0xbe27451d	-0.16334958
109	0x3e0878ee	0.13327381
110	0xbe3df229	-0.18549408
111	0xbea27147	-0.3172705
112	0x3df21683	0.118207
113	0x3d8efa52	0.069813386
114	0xbd8ff5f8	-0.07029337
115	0x3e1cdbbb	0.15318196
116	0xbdc9bbd2	-0.09850277
117	0xbcd2421e	-0.025666293
118	0xbd3ab61a	-0.04558382
119	0xbb228516	-0.0024798564

0.bias f4 [8]
0	0x3e0838a4	0.13302857
1	0xbe2833eb	-0.16426055
2	0xbe827b19	-0.2548454
3	0xbc42ef3c	-0.011897858
4	0xbdfed2ba	-0.12442537
5	0x3e7aa946	0.24478635
6	0x3dca59c0	0.098804
7	0x3cdcab40	0.026937127

1.weight f4 [8]
0	0x3f824d9b	1.0179933
1	0x3f821b8e	1.0164659
2	0x3f672af4	0.90299916
3	0x3f091ec6	0.5356258
4	0x3f5b0894	0.85559964
5	0x3eaef833	0.34173736
6	0x3f1f3179	0.62184864
7	0x3f0560a8	0.5210061

1.bias f4 [8]
0	0xbda5e2a1	-0.08099867
1	0xbeeb0e99	-0.45909575
2	0xbddc0d7b	-0.10744759
3	0x3eb43b92	0.352017
4	0x3dc5d8a0	0.096604586
5	0x3ee9b0e5	0.45642772
6	0x3e8c3f90	0.27392244
7	0x3eae3817	0.34027168

1.running_mean f4 [8]
0	0x3df32e18	0.11874026
1	0xbe269ea2	-0.16271451
2	0xbe2f053e	-0.17091843
3	0x3d357a93	0.04430635
4	0xbdfde5f4	-0.12397376
5	0x3e7e867b	0.24855988
6	0x3e09ffd8	0.13476503
7	0x3d9c96c5	0.076459445

1.running_var f4 [8]
0	0x3deb92a2	0.11502577
1	0x3d4cc7e9	0.049995337
2	0x3e3c2b99	0.18376006
3	0x3d895d8e	0.06707297
4	0x3d2e30c4	0.042526975
5	0x3d2f0d7e	0.042737477
6	0x3dbd23bd	0.09235332
7	0x3e1b6cad	0.15178175

3.weight f4 [4, 8]
0	0xbdefacea	-0.117029026
1	0x3c8d7435	0.017267326
2	0x3e79aa63	0.24381404
3	0xbe8bec89	-0.273289
4	0xbdf09df0	-0.11748874
5	0x3dc81a87	0.09770685
6	0x3d7fa033	0.062408637
7	0xbee7992a	-0.45234042
8	0x3e9103a0	0.28323078
9	0xbe9cfe3e	-0.3066272
10	0xbe374e2c	-0.17900914
11	0x3d695f1c	0.05697547
12	0x3d1311c6	0.035905622
13	0xbe2a0e34	-0.1660698
14	0xbd7d411a	-0.061829664
15	0xbdd2f467	-0.10300522
16	0x3d364577	0.04449984
17	0x3b5de8dc	0.0033860719
18	0xbe2b8ab5	-0.16752131
19	0x3dbe645a	0.09296484
20	0xbea0ec8a	-0.31430465
21	0xbeda2d65	-0.42612758
22	0x3e134dac	0.14385098
23	0x3dfaf225	0.12253217
24	0x3b70ec8b	0.0036762084
25	0xbc40ce98	-0.011768006
26	0xbdbcbe95	-0.09216038
27	0xbe438f6f	-0.19097684
28	0xbc0d65a7	-0.008630193
29	0x3de41b75	0.111380495
30	0x3cf555c0	0.029948115
31	0x3dfa0eae	0.12209831

3.bias f4 [4]
0	0x3e9e4585	0.30912414
1	0x3f1af9ce	0.6053742
2	0x3e1bedc5	0.1522742
3	0x3d96201e	0.073303446

5.weight f4 [8, 4]
0	0x3df76c2a	0.120811775
1	0x3f2a050e	0.6641396
2	0xbe16f7ea	-0.14743009
3	0x3e54061a	0.20705453
4	0x3e69ed47	0.2284442
5	0xbd669ce0	-0.05630195
6	0x3edc1da4	0.42991364
7	0x3e068762	0.13137582
8	0xbc8b7d24	-0.017027445
9	0xbec4d71f	-0.38445374
10	0x3cbd7b86	0.02313019
11	0xbee3504d	-0.44397202
12	0x3e5fdff8	0.21862781
13	0x3f310cbd	0.6916006
14	0xbe43a54d	-0.19106026
15	0xbe614707	-0.21999751
16	0xbe470917	-0.19437061
17	0xbce940c1	-0.02847326
18	0xbf056a4b	-0.52115315
19	0x3e4318fb	0.19052498
20	0xbe8a08bb	-0.26959786
21	0xbd8a01fa	-0.06738658
22	0x3d9ac898	0.075577915
23	0x3eafed66	0.34360808
24	0xbeb748fc	-0.3579787
25	0x3d8980a4	0.067139894
26	0x3ea3600c	0.31909215
27	0xbea4d132	-0.32190853
28	0xbee70792	-0.45122963
29	0x3ed5fa66	0.417926
30	0xbe819a88	-0.2531321
31	0xbe909d99	-0.28245237

5.bias f4 [8]
0	0x3bf4ab86	0.0074667362
1	0x3e115c40	0.14195347
2	0xbe9b24dd	-0.30301562
3	0x3eaa9050	0.33313227
4	0x3e21d93c	0.15805525
5	0x3e0396e0	0.12850523
6	0xbe5a68a8	-0.21328986
7	0x3ea131b8	0.31483245

6.weight f4 [8]
0	0x40080a9a	2.125647
1	0x3f8211a4	1.0161633
2	0x3fab9d58	1.3407393
3	0x401362ee	2.3029132
4	0x3f824ced	1.0179726
5	0x3f502424	0.81305146
6	0x3ecf279a	0.404599
7	0x3f542fc9	0.82885414

6.bias f4 [8]
0	0xbf2e2f82	-0.6804124
1	0x3eca09f6	0.39460725
2	0x3c3ebfed	0.011642438
3	0x3f3b8101	0.7324372
4	0xbec73bdd	-0.3891286
5	0x3eca97b8	0.39568877
6	0x3f8368a6	1.0266311
7	0x3e394c46	0.18095502

6.running_mean f4 [8]
0	0x3e93a272	0.28834873
1	0x3e21c07d	0.15796085
2	0xbef4b429	-0.477937
3	0x3f1cb8aa	0.61219275
4	0x3dfd5a00	0.12370682
5	0x3dc8b8ec	0.09800896
6	0xbe65ed20	-0.22453737
7	0x3ed80a9c	0.42195594

6.running_var f4 [8]
0	0x3d13ecd3	0.036114525
1	0x3b501bcd	0.0031754852
2	0x3c48c896	0.012254855
3	0x3d22822e	0.03967493
4	0x3b2bec2c	0.0026233299
5	0x3a2eeabf	0.0006672553
6	0x3b74cf8e	0.0037355158
7	0x3ca3eb65	0.020009706

8.weight f4 [15, 8]
0	0xbf587923	-0.8455984
1	0xbcf6f792	-0.030147348
2	0xbd165c04	-0.036708847
3	0x3f656069	0.89600235
4	0x3c34eb1f	0.011042385
5	0xbd08aea6	-0.033369683
6	0x3d2440ba	0.04010079
7	0xbd3afc83	-0.04565097
8	0xbf05ecce	-0.5231446
9	0xbe7baf5a	-0.2457861
10	0x3ed3b5e0	0.41349697
11	0x3d6abdd8	0.057309955
12	0x3e70b0f6	0.23505005
13	0xbe48ae76	-0.19597802
14	0x3f479579	0.7796245
15	0x3f13e109	0.5776525
16	0x3f186aa0	0.59537697
17	0x3d9bc175	0.076052584
18	0xbdb42115	-0.087953724
19	0xbf2d1575	-0.67610866
20	0x3d9862d8	0.07440728
21	0xbdc5c26b	-0.09656223
22	0x3e1f8b74	0.15580541
23	0x3d93d715	0.07218758
24	0x3ddf9392	0.10916819
25	0x3ea8c219	0.32960585
26	0xbc48460c	-0.012223732
27	0x3e0b935f	0.13630436
28	0x3e47a0e7	0.19494973
29	0x3bfd6e0f	0.0077340673
30	0xbe39bb77	-0.18137918
31	0xbea3d98d	-0.32001916
32	0x3e85b410	0.2611394
33	0xbca4fa44	-0.020138867
34	0xbda06467	-0.0783165
35	0xbe14cd83	-0.14531521
36	0xbefc9804	-0.4933473
37	0x3ea34d69	0.31894997
38	0x3f332ddf	0.6999187
39	0x3e29c533	0.16579132
40	0xbe3cf6b7	-0.18453489
41	0x3ed2586e	0.41083091
42	0x3dfa4bc4	0.122214824
43	0x3e4edcdf	0.20201443
44	0x3e0a89e8	0.1352917
45	0xbea9571e	-0.33074278
46	0x3f00f944	0.5038035
47	0xbed03ad4	-0.40669882
48	0xbe9ec692	-0.31010872
49	0xbe03ad79	-0.12859143
50	0x3d18300d	0.0371552
51	0xbd8b3010	-0.067962766
52	0xbe8e032c	-0.27736795
53	0xbf0c0fae	-0.54711425
54	0x3db202de	0.08691953
55	0xbe42d9c5	-0.19028385
56	0xbf0a7ab9	-0.5409351
57	0x3e443670	0.19161391
58	0xbe2ea4d0	-0.17055058
59	0xbe32f59e	-0.17476508
60	0x3ec35d5c	0.38157165
61	0x3e39652e	0.18105003
62	0x3cdff7b5	0.027339796
63	0x3e4ed47c	0.20198244
64	0x3ecb7d99	0.3974426
65	0xbd8e1cd9	-0.06939096
66	0xbf11d5f6	-0.56967103
67	0xbe975322	-0.29555613
68	0x3e70f02a	0.23529115
69	0xbdf5539a	-0.11978836
70	0x3eab651c	0.33475578
71	0xbe58c315	-0.21168168
72	0x3d9d5f2e	0.0768417
73	0x3d472e8e	0.048628382
74	0xbd8fd921	-0.07023836
75	0xbe00fbae	-0.12596008
76	0xbdf84d56	-0.12124126
77	0xbd481d26	-0.048855923
78	0xbb6b6719	-0.0035919605
79	0x3da0dcb6	0.07854597
80	0xbf0ccd9b	-0.5500123
81	0x3d89acf2	0.0672244
82	0x3eadea0a	0.3396762
83	0xbf849097	-1.0356625
84	0x3d0f8818	0.0350419
85	0x3d5c4f39	0.05378649
86	0x3b4ad850	0.0030951686
87	0x3df083f2	0.117439166
88	0x3c53ca9c	0.012926724
89	0xbd9332fd	-0.071874596
90	0xbd20d18f	-0.03926235
91	0xbd389494	-0.04506357
92	0xbd8311e3	-0.06399896
93	0xbd254450	-0.04034835
94	0x3d9c27a3	0.076247476
95	0xbd01c345	-0.031680364
96	0xb8f3f7b8	-0.00011633284
97	0xbd63f608	-0.055654556
98	0xbb2f3ebe	-0.0026740278
99	0xba8cb59a	-0.0010735274
100	0xbd42d02d	-0.047561813
101	0xbcbc46c1	-0.022982957
102	0x3d7b61ee	0.06137269
103	0xbd3fb11b	-0.04679976
104	0x3b80ae4a	0.003927027
105	0xbd540649	-0.051763806
106	0xbb933549	-0.004492436
107	0xbd143c36	-0.036190234
108	0xbdd0f138	-0.10202259
109	0x3b6355d0	0.00346886
110	0xbac18f9b	-0.0014767529
111	0x3df37b7b	0.118887864
112	0xbd2138c2	-0.03936077
113	0xbcaf9174	-0.021431662
114	0x3c6fc241	0.014633716
115	0x3c36cdfa	0.011157507
116	0xbd486097	-0.04892024
117	0x3b05e773	0.0020432144
118	0xbd0037e9	-0.03130332
119	0x3d3b8263	0.045778643

8.bias f4 [15]
0	0xbf216d72	-0.63057625
1	0xbf35154e	-0.70735633
2	0x3e8a2f17	0.26989052
3	0xbf26d548	-0.6516919
4	0xbf488ae7	-0.7833695
5	0xbf06f83e	-0.5272254
6	0x3ed750da	0.42053872
7	0xbe80e966	-0.2517807
8	0x3ea3ac5b	0.31967434
9	0x3e12f3fb	0.14350884
10	0xbf4644c6	-0.7744869
11	0xbdf79ae6	-0.120900914
12	0xbdaaee1f	-0.08346199
13	0x3d9eed96	0.0776016
14	0x3d486f7d	0.04893445
