offline_prototype_3_ds_as_sampling/trained_models/ae_model_ransomware_directory_trap.pth (torch, 17151 bytes, 16 tensors)

0.weight f4 [23, 46]
000000 78 b5 0d be 68 57 26 bd d5 e7 79 3d 8b 6d 93 3d
       -0.13838756 -0.0406107 0.061012108 0.07198628
000010 91 a4 ba ba 2f b4 53 bd 42 6d d0 3d 3b f3 0d 3c
       -0.0014239718 -0.05168551 0.10177089 0.008663948
000020 83 ce 51 3c cf 6f 8e 3d c1 66 58 3d 2d d3 42 3d
       0.012805584 0.069549195 0.05283237 0.047564674
000030 ce 92 d3 3c 6c 31 eb bd e6 70 1f 3e af 79 69 3d
       0.025826838 -0.11484036 0.15570411 0.057000812
000040 8d 97 59 bd ee ed fa bd fc 29 53 3d 15 40 fa 3d
       -0.053123046 -0.12252413 0.05155371 0.12219254
000050 e3 2e c4 bd 29 3c 59 bd 2c 16 3a bb 94 d2 86 3c
       -0.095792554 -0.05303589 -0.0028394563 0.016457833
000060 f6 57 90 3d 3f 90 16 bd 92 97 99 3a eb 59 05 bd
       0.07048027 -0.036758658 0.0011718145 -0.032556456
000070 72 1b e7 3d 33 08 08 bd 8d c4 70 bd 5f 30 50 bd
       0.11284532 -0.033210944 -0.058781195 -0.05082738
000080 92 75 30 be f5 19 a2 bd 53 1f c2 bd 7f 24 4e bd
       -0.1723235 -0.07915107 -0.09478631 -0.050327774
000090 b6 78 37 be 36 19 65 be 47 c6 d1 3d cc b3 50 3d
       -0.17917141 -0.22372898 0.102428965 0.050952718
0000a0 e5 de 1a 3d 57 cb 19 bd 52 ef 8a 3d 49 71 b4 3d
       0.037810225 -0.037547436 0.06783928 0.0881067
0000b0 2d 43 8e bd 20 9d 80 3d 35 ec 92 bd 81 7d 05 bd
       -0.069464065 0.06279969 -0.07173959 -0.032590393
0000c0 5b a0 40 3c 33 27 b7 3d 3b 61 27 be c8 b4 a6 3d
       0.011756982 0.089430235 -0.16345684 0.0813995
0000d0 4f 3f b1 bd 97 71 c0 bd 0f 1f 05 3e 0a 83 0a be
       -0.08654653 -0.093966655 0.13000129 -0.1352655
0000e0 68 75 e1 bc 98 93 c0 3d 0d 5f b7 bd 97 54 ac bb
       -0.027521804 0.09403151 -0.089536764 -0.0052591073
0000f0 2e f2 31 bd c9 93 ea bd 01 12 b0 3d 95 69 b9 bd
       -0.04344385 -0.11453969 0.08597184 -0.09053341
000100 4e f3 02 bd 6c 95 26 be 24 13 59 bd 48 c2 c5 bc
       -0.031970315 -0.16267937 -0.05299677 -0.024140492
000110 b8 64 91 3d bd ad 25 3b 5e 2d 0d 3d 23 71 96 3d
       0.07099289 0.0025280558 0.034467094 0.07345798
000120 0a dc cf 3d d3 f7 2c bd 8c c8 2b bd 01 4b de bd
       0.10149391 -0.04222853 -0.041939303 -0.108541496
000130 3a 57 29 bb 77 47 5f 3d 31 b3 44 3d 4e 92 a5 3d
       -0.0025839345 0.054511514 0.048022453 0.08084546
000140 fd 24 11 be 90 ee 24 3b d1 58 06 3d c7 2c 86 3e
       -0.14174266 0.0025166608 0.032799546 0.26206037
000150 21 ca 14 bd 6d 92 b9 3c 15 bb 7f bc b4 c2 67 3d
       -0.036325578 0.022652829 -0.015608569 0.056582168
000160 44 b5 8c bd d6 a5 e3 3d cb 0d 1b be 07 30 ce bd
       -0.06870511 0.11115615 -0.1514198 -0.10067754
000170 0f 68 25 bd 44 70 0f bc 40 db 68 bd dd 23 bf 3d
       -0.04038244 -0.008754794 -0.056849718 0.09333012
000180 1c 2d dc 3d c5 33 8a 3d 20 33 44 bd 45 38 c6 3c
       0.107507914 0.067481555 -0.04790032 0.024196753
000190 a2 f3 ed bc 3f 02 37 bd dd 5e c0 3d a1 d8 c0 bc
       -0.029046837 -0.044679876 0.09393094 -0.023540797
0001a0 5e 47 9d 3d 34 eb 84 bd 1c 51 a6 bd 59 c7 34 3e
       0.07679628 -0.06490174 -0.08120939 0.1765417
0001b0 3a cb 25 bd b7 cb e8 3c 5c f4 17 3e ed d6 af 3d
       -0.040477015 0.028417451 0.1483931 0.08585916
0001c0 51 73 8f 3b c8 cc b2 3d b2 67 a1 bc 9a a0 bb 3c
       0.0043777605 0.08730465 -0.019702766 0.02290373
0001d0 ee 02 42 bc c1 ed 11 3d 1f 77 34 3d 4d 7c a0 bc
       -0.011841519 0.03562713 0.044058915 -0.019590521
0001e0 cf bf dc 3d 4a 58 4f be d6 e8 63 3b 02 ed 12 be
       0.10778772 -0.20248523 0.0034776232 -0.14348224
0001f0 7c 53 be 3e 10 c2 8d bd 40 df 08 bd 5e 9c dc 3c
       0.3717307 -0.0692178 -0.033416033 0.02693003
000200 26 7e 38 3d a6 37 0f bd be 89 ca 3d bc e9 d6 bd
       0.04504218 -0.03496518 0.098895535 -0.104938
000210 cf 69 11 be 5e 5a 29 3d 78 14 8d 3c 28 ef 92 bd
       -0.14200519 0.041345946 0.017221674 -0.07174522
000220 17 8c 6b bd d4 8a fd 3c 0e 17 1c be 4c 59 8f bd
       -0.057506647 0.030949987 -0.1524317 -0.06999454
000230 de c5 c5 3d 43 0d c8 bd 6c b5 6c bb d8 4d f1 bb
       0.09656881 -0.097681545 -0.0036118878 -0.007364016
000240 4d 0d f6 3d 2a df 01 be be bf 06 3e 0d 11 a1 bc
       0.12014256 -0.12682787 0.13159081 -0.01966145
000250 7a 7b a1 3d 4c 8b 8a bc dc 82 0d be d1 bb fe bd
       0.078848794 -0.016912125 -0.1381945 -0.12438167
000260 46 ca d7 3c 18 22 d0 3d 50 7d fd bd 08 a3 51 bd
       0.026341569 0.10162753 -0.12377417 -0.05118087
000270 f3 a6 20 bd 00 83 d2 3d f3 fc e2 3d b9 a5 f6 bd
       -0.039221715 0.102788925 0.110834025 -0.12043328
000280 eb 94 33 bd 69 7d c9 3d 51 30 21 bd 1b 87 90 bd
       -0.04384319 0.09838373 -0.03935272 -0.07057019
000290 f8 70 fc bd 24 81 89 bd 6b 2f d5 3d dc cb 65 3d
       -0.123262346 -0.06714085 0.10409435 0.05610262
0002a0 c4 70 6b 3d 78 66 79 bd 3b ae 53 bd 83 55 c7 bc
       0.05748059 -0.060888737 -0.05167983 -0.024332767
0002b0 44 2a 87 bd 28 f1 57 bd 26 83 fd bd bf 59 5c be
       -0.065998584 -0.05272022 -0.1237853 -0.2151861
0002c0 e8 26 1a 3e 8b d4 31 3d 5b 02 66 3d 47 08 c8 bd
       0.15053904 0.043415587 0.05615459 -0.09767204
0002d0 20 86 cf 3c 25 19 04 be 59 20 f8 bc cf 92 85 bd
       0.02533251 -0.12900217 -0.030288862 -0.06522142
0002e0 22 83 f4 3c 72 1d 82 3d 12 f2 89 bd b0 35 c9 3d
       0.029847685 0.063532725 -0.067356244 0.09824693
0002f0 3c f5 df bd 32 61 d5 3c 60 5f 16 be 26 a8 93 3d
       -0.109354466 0.026047323 -0.1468482 0.07209806
000300 0f c1 df 3c 1d 17 d8 3d 0b d2 93 3c 34 6f 13 bd
       0.027313737 0.105512835 0.018044492 -0.035994723
000310 fe 3f 56 3d a9 cb 1d bd 5d 21 e5 bd ce be a7 3d
       0.05230712 -0.038524304 -0.11188004 0.0819069
000320 2d 81 da 3a 74 60 93 bd fa 1a 97 3d 77 9b fe 3d
       0.0016670577 -0.07196131 0.07378192 0.12431996
000330 fa 64 13 3c aa c8 10 bb fe 07 3b 3d ee 2c 67 3c
       0.008996243 -0.0022092261 0.04566192 0.014109833
000340 d8 1d 16 3d d5 1f 05 bc d9 e6 06 be 1a 22 a5 bc
       0.036649555 -0.008125265 -0.13173999 -0.020157862
000350 ac 26 26 3b 52 bf aa 3c 3a d6 20 3c f5 76 9a bd
       0.002535264 0.020843182 0.009816701 -0.075422205
000360 ff ef 13 bc 10 ec 12 bd 87 cc 8f bd 5e e2 0b 3d
       -0.0090293875 -0.035869658 -0.07021432 0.034151427
000370 a9 60 08 be 05 40 65 be f3 79 66 3d da c7 0f bb
       -0.13318123 -0.22387703 0.056268644 -0.002193919
000380 8f d8 4e 3d db f1 4e bd 02 39 b8 3d c4 ad 41 be
       0.050499495 -0.05052362 0.089952484 -0.18913943
000390 e2 38 c7 bc f2 d5 94 bd 71 23 a1 bd 4d 1e 99 3d
       -0.024319116 -0.07267369 -0.07868088 0.074764825
0003a0 a1 cd 9e bb 55 f9 df bd 4c 4a 29 3c 58 57 84 ba
       -0.00484629 -0.10936228 0.010332655 -0.0010096831
0003b0 8b ec 64 bd 99 32 0a be 08 b8 d5 3d 6c 79 1a 3d
       -0.055889647 -0.13495864 0.10435492 0.037713453
0003c0 6e 31 b1 3d f4 93 63 bd 37 81 e4 bd 02 4b 19 3d
       0.08652006 -0.05556102 -0.11157458 0.03742505
0003d0 4f a1 ef 3c 40 ad 00 bd 1d 40 ca 3c ba 4e 9a 3d
       0.029251723 -0.031415224 0.024688775 0.07534547
0003e0 33 ee b2 bd de f1 85 bd 6b 75 1a be 46 36 a9 3d
       -0.08736839 -0.06540273 -0.15083854 0.08262305
0003f0 2a 31 ab 3d a4 99 5d 3d 4e 86 e8 bc e7 d0 d6 bb
       0.08358987 0.0541016 -0.028384354 -0.006555665

0.bias f4 [23]
000000 1c ac 00 3e 86 6f 09 3e f1 e6 f4 3d 46 f7 ae 3d
       0.12565655 0.13421449 0.11958111 0.085432574
000010 dc 0b 60 bd 98 8b 40 bd 3a bc 8d 3d 5c cd d6 3d
       -0.05469881 -0.047008127 0.06920667 0.10488388
000020 a8 f2 36 bd b0 54 c5 3c 04 09 c5 bd 72 8b 87 3d
       -0.04466501 0.024088234 -0.0962086 0.06618394
000030 92 ea ac bd ae bc 11 be 10 28 43 bd 12 c6 0b 3e
       -0.08443178 -0.14232132 -0.04764563 0.13649777
000040 f2 58 5d bd 8c 6c a4 3d 82 fc 84 bd 78 ad 5d 3d
       -0.054039903 0.08028516 -0.064934745 0.05412051
000050 98 4a 2c 3d dc 8b fe 3d 38 65 d4 3d
       0.042063326 0.1242902 0.103708684

1.weight f4 [23]
000000 51 94 7d 3f e0 da 63 3f b6 21 68 3f 13 a3 6f 3f
       0.9905444 0.8900585 0.9067644 0.93608207
000010 f5 12 75 3f 28 8d 78 3f 9d 2f 6e 3f b8 ae 7e 3f
       0.9573205 0.9709039 0.930414 0.9948535
000020 60 88 6e 3f ee 53 65 3f 10 99 5d 3f ff 33 66 3f
       0.9317684 0.8958119 0.8656168 0.8992309
000030 c6 1b 70 3f 33 45 61 3f 4f 4a 6c 3f 0c 3c 73 3f
       0.9379238 0.87996215 0.92300886 0.950135
000040 bc d0 7a 3f 44 c2 5f 3f 49 02 72 3f d8 bb 7d 3f
       0.97974753 0.874058 0.94534737 0.9911475
000050 80 ee 67 3f d1 21 6a 3f 2c fe 7a 3f
       0.905983 0.9145785 0.98044086

1.bias f4 [23]
000000 e1 4e 4d 3d 9a a2 70 3d bc f8 9e bd 85 e9 0b 3d
       0.050124053 0.05874882 -0.07762286 0.03415825
000010 b3 3d 9c bc 2d da 70 3c 5c 89 af be b5 99 06 bd
       -0.01907239 0.014700455 -0.34284484 -0.03286143
000020 c3 9d c4 3d 80 11 a9 be 40 e2 9c bb 88 ac 36 be
       0.09600403 -0.33021164 -0.0047877133 -0.17839253
000030 f7 47 2f bd ec ec 2e bc 06 8f 7b 3d 36 33 d8 3b
       -0.04279324 -0.010676604 0.061415695 0.0065979017
000040 78 c6 74 bd 1b 30 e1 3c cb a2 02 3d 2a 15 1b bd
       -0.059759587 0.027488759 0.031893533 -0.03786198
000050 db b3 9a 3d 87 a1 52 bd 4d f1 17 3d
       0.07553836 -0.051423576 0.037095357

1.running_mean f4 [23]
000000 ac dd 5a 3e 5d 59 48 be 4c 90 6b 3e 7d 23 07 be
       0.21373624 -0.1956534 0.23004264 -0.13197131
000010 97 22 09 bd 6a ae 74 be 35 e1 06 3e fd e0 20 3e
       -0.033480253 -0.23894659 0.13171847 0.15710826
000020 86 c4 33 bf c2 ad 4d 3e f6 ba 73 be 1f 27 1b 3e
       -0.70221746 0.20085815 -0.23801789 0.15151642
000030 77 ed 27 3b 6c 69 e5 3c 34 ac e8 be ac ba f8 3e
       0.0025623718 0.02800437 -0.4544388 0.4857992
000040 bd 75 83 be c7 cd de bb 6f 2b 0a 3f a9 36 ad 3d
       -0.25675765 -0.006799433 0.53972524 0.08457691
000050 64 e8 76 bc 2d ff a5 3e e0 ba ff bc
       -0.015070055 0.32421246 -0.031217039

1.running_var f4 [23]
000000 2a cd 38 3b b8 bd 69 3b 95 10 93 3b d0 d4 1d 3c
       0.002819846 0.003566606 0.0044880607 0.009633258
000010 f4 b9 1c 3c aa bd 76 3c 56 54 fe 3b 76 1a f8 3c
       0.009565819 0.015059868 0.0077615185 0.030286055
000020 e2 b2 cf 3b 8d 2a dd 3b 7d f8 00 3c 7a 7c 90 3b
       0.006338463 0.006749457 0.007871744 0.00440937
000030 f7 63 2c 3c 8e dd 5f 3c da 46 51 3c 70 75 19 3c
       0.01052188 0.013663663 0.01277324 0.009366378
000040 74 57 4d 3c 50 09 05 3c 2c 18 c6 3b c8 85 97 3c
       0.0125330575 0.008119896 0.006045362 0.018496409
000050 fb 30 ef 3b 63 c1 46 3c a6 8c 05 3c
       0.00729954 0.012131068 0.008151209

3.weight f4 [11, 23]
000000 6c 22 04 be ea 56 e4 3d 86 30 ba 3d d2 89 96 3d
       -0.12903756 0.1114939 0.09091286 0.07350506
000010 64 37 68 3d 9a 7c 8d 3d 0d 45 8c 3e 83 70 9d bc
       0.05669345 0.069085315 0.27396432 -0.019218689
000020 90 97 41 3c 20 5b 8a 3e a1 b4 20 be fc b2 96 3d
       0.0118159205 0.27022648 -0.15693904 0.07358357
000030 eb 3e 8c 3d 88 ef ba bd 1a 0d 58 bd f5 5e e3 bd
       0.06847938 -0.09127718 -0.05274687 -0.11102096
000040 16 ee 8e 3b e4 7d ef bc 63 a5 7d be 1d fc e3 3d
       0.004361878 -0.029234834 -0.24770121 0.11132071
000050 b7 28 31 bd d2 cb b1 bb 1e c0 ed 3d d6 ba 8b 3d
       -0.04325172 -0.0054259086 0.11608909 0.068227455
000060 6e 1b ab 3c 99 d1 6f bd 76 79 0e 3e e1 05 00 3e
       0.020887103 -0.058549497 0.13913521 0.12502243
000070 83 67 13 be 18 25 6b bd 6d 9c 38 3c 4e 20 cf bd
       -0.14394955 -0.057408422 0.011267764 -0.101135835
000080 1e 57 ee 39 d6 72 af bd 5d 09 bd 3c a0 0e e2 3d
       0.00045459805 -0.08566825 0.023075754 0.11037946
000090 af 33 1f 3d 9a b6 ce 3d b2 d4 17 be 28 e6 5b bd
       0.03886765 0.10093422 -0.1482723 -0.05368629
0000a0 50 e8 4f 3d f7 d0 e2 3c fb f6 d5 3d e8 1d bc 3b
       0.05075866 0.027687533 0.104474984 0.00574087
0000b0 f4 8e f3 bd da 19 d8 bb 38 7a f5 bd df c0 b7 3d
       -0.118925005 -0.0065948786 -0.11986202 0.08972334
0000c0 66 69 a0 3c de 5f 6e 3d a0 37 a1 bd 29 95 95 bd
       0.019581508 0.058196895 -0.07871938 -0.07303841
0000d0 17 75 be 3c 93 8b 00 3c 2e 29 b5 bd 50 eb 43 3e
       0.023249192 0.007845777 -0.08845745 0.19132733
0000e0 a4 ad 55 bd 03 6f b1 3d a4 1a 96 bd d8 ac d1 3d
       -0.05216755 0.08663752 -0.073293 0.102380455
0000f0 be e3 0c 3e 0d 34 9b bd f9 ab 75 bd 9e 8d 1d 3e
       0.13758752 -0.07578287 -0.05997846 0.15386054
000100 d4 92 8b bd 1e a6 b3 bd 73 b8 27 3e e3 2b 87 3d
       -0.068151146 -0.08771919 0.16378956 0.066001676
000110 73 34 42 3d 6f 41 f1 3c 1c b2 29 bc 20 24 84 3d
       0.0474133 0.029450146 -0.010357406 0.06452203
000120 24 db 93 3d af 69 56 3e 99 b4 1d be b1 75 60 3e
       0.07219532 0.20938753 -0.15400924 0.21919896
000130 6a e8 5c be 86 fa b8 bd 85 e2 88 3e b4 f1 19 3d
       -0.21573034 -0.090321586 0.2673532 0.03758402
000140 c7 fa 2d 3e aa e5 7f 3d fc d7 1c be a8 93 6b 3e
       0.16990195 0.062474884 -0.15316767 0.23005545
000150 fd 55 11 bd ec fa 19 3e 01 d4 01 3e 53 cf 0a bd
       -0.035482395 0.15037125 0.1267853 -0.033889126
000160 8b cc 3d bd 65 bf 40 3e c2 b4 13 bd 18 87 00 bd
       -0.046337646 0.18823011 -0.036061056 -0.031378835
000170 18 dd 1b 3e 25 98 53 3c a1 f8 35 3e 3f 17 c4 3c
       0.1522106 0.012914692 0.17770626 0.023936866
000180 7e 1a 05 be 91 3f e9 3c ab db 1e 3e fb ea 6d 3b
       -0.12998387 0.028472694 0.15513484 0.003630339
000190 61 be 26 3e 32 8d 82 3a 2f 13 53 3d fb 94 8d bc
       0.16283561 0.0009960292 0.051531967 -0.017282953
0001a0 27 72 ee 3c eb 22 b6 bd 97 fb 95 bd 30 6f b9 bc
       0.029107166 -0.08893379 -0.073233776 -0.022636026
0001b0 f9 70 f5 bc 2b 28 32 be 54 e6 ba bc c4 14 a5 bd
       -0.029961096 -0.17398135 -0.022814907 -0.08060601
0001c0 5d 9b eb 3d 55 6a bc bc 58 b7 31 3e ca b4 8b bd
       0.115042426 -0.022999922 0.17355096 -0.06821592
0001d0 cd 5d 41 bd ea a6 d5 3c f8 8c 50 bd a8 08 07 3e
       -0.047208596 0.026080567 -0.05091569 0.13186896
0001e0 a0 b5 16 3d 6b 6c e0 3c fc be b1 bd 12 99 4d 3c
       0.036794305 0.027395448 -0.086790055 0.012548702
0001f0 5a 24 11 be 21 9e dc bc 27 7c 82 3d 66 7b ec bc
       -0.14174023 -0.02693087 0.063713364 -0.028867435
000200 5f 25 b6 3d 2a 84 f9 3d 12 03 4b 3d 3a 82 4d be
       0.08893847 0.121834114 0.049563475 -0.20069209
000210 db 95 da bc e6 1a 0a 3c 4d 42 90 bc fe ba 02 3d
       -0.026682785 0.008429265 -0.01760974 0.03191661
000220 b2 9a 14 bd c2 a4 bb bd 4a 5b f2 39 38 cf 02 3c
       -0.03628034 -0.091622844 0.00046225853 0.007983975
000230 7b 35 5c bd cc 97 75 bd e2 37 fe bd 53 e4 94 3d
       -0.05376194 -0.059959218 -0.124130026 0.07270112
000240 71 92 8c bd 6a e8 82 3e 20 72 48 3e e3 1d 33 3d
       -0.06863869 0.25567943 0.19574785 0.043729674
000250 6e 1d 2e bd 5c ef 94 3d 06 22 5f 3c b0 73 9c bd
       -0.042508535 0.07272217 0.013618952 -0.07639253
000260 a2 3d b5 bc 7f e3 18 be 90 ee cd 3d b1 63 17 be
       -0.022124115 -0.14930533 0.10055268 -0.14784123
000270 75 23 89 bd a6 34 00 be 5e 1e f2 3c 5b 25 7a bd
       -0.06696216 -0.12520084 0.029555496 -0.06107078
000280 26 04 8e 3d 48 b2 25 3e 31 64 e8 bd 59 59 98 3d
       0.06934385 0.1618129 -0.11347235 0.07438917
000290 c1 6f c3 bd 10 de af 3d 8d 79 b7 bd 0e f8 05 be
       -0.095428 0.08587277 -0.08958731 -0.13082907
0002a0 55 f3 00 3e 3e 11 fe 3d 99 0c c3 3a 75 f5 df bd
       0.12592824 0.124056324 0.0014881074 -0.10935489
0002b0 fa c5 78 3d 0e 08 84 3a 41 af db 3d e9 92 34 3e
       0.06073568 0.0010073201 0.107267864 0.17634167
0002c0 a6 ff 03 be f1 12 b0 3c ce d0 ec bd 7e cf d4 bc
       -0.12890491 0.021493407 -0.11563264 -0.025977846
0002d0 02 2f 6b 3d 64 a8 38 bc 1e 03 fe bd 46 b6 a7 bd
       0.057417877 -0.011270616 -0.12402938 -0.08189063
0002e0 9c 5f e4 3d 2a ca 1d be 96 94 7f be cc 35 60 3c
       0.111510485 -0.1540915 -0.24959025 0.013684701
0002f0 ca a5 2c 3e 3d 6d db 3d d7 49 9d bd 01 1c 0d be
       0.16860119 0.10714195 -0.076800995 -0.13780214
000300 3c 89 bf bb 81 1d a8 bc 70 3d ed bd 94 de f9 3c
       -0.005845217 -0.020521881 -0.11583984 0.030501641
000310 8e 8c d3 3d 9d e4 fb bd ee 3e 30 be 81 60 c0 bc
       0.10329543 -0.12299464 -0.17211506 -0.023483517
000320 d8 cc 1b 3d a2 d3 4a 3e 7c a6 0f be 32 bb 07 be
       0.03803715 0.19807294 -0.14028352 -0.13255003
000330 e5 cc 84 3d 86 2a b5 3b 57 19 6a bd ee e7 73 3b
       0.06484393 0.005528751 -0.057153072 0.0037217098
000340 10 3b 96 bd 4e a0 43 3c f9 65 6b bd 62 c4 c8 3c
       -0.07335484 0.011940075 -0.057470296 0.024507705
000350 c2 0c 36 be b9 88 98 3e a7 0e fe bd 2a 26 e6 3c
       -0.17778304 0.2979181 -0.124051385 0.02809437
000360 9c 0b 8f 3e 86 86 fa bc 24 39 98 3e 2a f8 97 3c
       0.27938545 -0.030581724 0.29731095 0.018550951
000370 5c 14 57 3c 55 d8 d8 3d 65 0c 22 bc 32 38 90 bd
       0.013127413 0.10588137 -0.00989065 -0.070419684
000380 86 80 f1 3d f2 75 0d be e8 5c 96 bd 75 00 9e 3c
       0.11792092 -0.13814524 -0.07341939 0.019287327
000390 cd 57 0a 3e 3b 0b f8 bd a4 5a 0d 3e dc f8 74 bd
       0.13510056 -0.12111517 0.13804108 -0.059807643
0003a0 6a f6 93 3b 55 26 c0 3a fd 51 db 3d 34 bc 0d 3e
       0.004515459 0.0014659861 0.107089974 0.13841325
0003b0 c0 4e 00 be 54 73 66 bd 40 ca 2f 3e 50 bc 58 be
       -0.1253004 -0.05626233 0.17166996 -0.21165586
0003c0 f3 13 57 3c e4 4f cc 3d a7 28 08 3d 4e 91 49 bd
       0.013127315 0.099761754 0.033241894 -0.04921084
0003d0 ff 0e 8e bd ce e3 12 3d ae 75 bd 3d 33 b1 3f 3d
       -0.06936454 0.035861783 0.09250961 0.04679985
0003e0 38 e7 35 be ec ed b9 3d e2 92 bc 3b d9 c7 b3 bd
       -0.17763984 0.09078583 0.0057548145 -0.08778352
0003f0 95 61 41 3d
       0.047212202

3.bias f4 [11]
000000 35 78 3b bc 26 a0 40 3e 3d de ce bb 56 28 c8 3d
       -0.011442234 0.18811092 -0.006313114 0.097733185
000010 a3 ae 09 3b 26 a9 89 3e 78 5a 0e 3d 10 e1 03 be
       0.0021008633 0.26886863 0.034754246 -0.12878823
000020 6d 57 5c bd 68 30 0b 3e 9f 70 d8 3d
       -0.053794313 0.13592684 0.10568356

5.weight f4 [23, 11]
000000 f9 fb 11 3e e1 63 17 be 5a 93 0f be 05 a1 b1 3d
       0.14256276 -0.14784195 -0.14021054 0.0867329
000010 24 74 be be f8 36 59 be 6c c3 04 be 3e 2b 6a be
       -0.37197983 -0.21212375 -0.12965173 -0.22868058
000020 f5 67 83 3e 6f a2 ac be 54 2f cd bc 93 6f 6c 3d
       0.2566525 -0.33717677 -0.025046982 0.057723593
000030 de 49 48 bd 2a 76 5f 3e 7d 5a 3b 3e 74 78 39 3e
       -0.04889857 0.2182242 0.18296237 0.18112355
000040 b7 70 6b 3c 38 84 36 3e 6c a7 3b be a3 8f 2f 3e
       0.014370135 0.17823875 -0.18325585 0.17144637
000050 4a 1b 9d 3d d4 7d 3b be 6c 0c 58 bc 89 6a b3 bd
       0.076712206 -0.18309718 -0.013186555 -0.08760554
000060 12 ef 2e 3e 83 63 87 be 73 e4 1d 3d f8 e2 59 3e
       0.17083386 -0.2644311 0.038547944 0.21277988
000070 5a 5c 18 be 28 a9 7c bd 06 b2 d9 bd ce b1 28 be
       -0.1487898 -0.061684757 -0.106296584 -0.16474077
000080 e4 b5 99 3d b5 8b 65 3d 19 5b a0 3e e8 7b c0 3c
       0.07505396 0.056041438 0.31319502 0.023496583
000090 20 9d 55 be 64 b2 14 be 2a d7 de 3d e3 c7 89 bc
       -0.2086072 -0.14521176 0.10880883 -0.016818946
0000a0 f7 d6 22 3e ca aa 80 3e 59 13 fc 3d 8c 5c 79 be
       0.15902315 0.25130302 0.12308378 -0.2435171
0000b0 98 4c ad bd 4c 05 e6 bc 92 23 c5 bd 65 64 b4 3c
       -0.08461875 -0.028078698 -0.09625925 0.022020528
0000c0 00 31 64 3e 88 88 89 be 4f 96 86 3e 51 87 06 3d
       0.22284317 -0.26861978 0.2628655 0.03284389
0000d0 a8 87 36 3e f6 51 9d bb 48 25 ac be 8e 46 4f be
       0.17825186 -0.0048010303 -0.33622193 -0.20241758
0000e0 8a 60 06 be 30 ac 6b be b4 45 a0 3e 64 5d 4c 3d
       -0.13122764 -0.23014903 0.3130318 0.04989375
0000f0 81 8f 44 3e 35 b2 c6 3c b6 32 ea 3c aa cd 6d 3c
       0.19195367 0.024254898 0.028588634 0.014514366
000100 b2 0b 3a 3e b5 bc 31 be e2 e7 fc bd 67 c8 cc bb
       0.18168524 -0.17357142 -0.12348916 -0.0062494758
000110 9f 2a 90 be 87 38 a3 be cb 4f 2f 3e 4a 0e 97 3d
       -0.28157517 -0.31879064 0.17120282 0.07375772
000120 5c 49 55 be a6 c2 fc 3d f1 db 97 3c 5f 86 a5 bd
       -0.20828766 0.12341814 0.018537493 -0.0808227
000130 6f 55 99 3e 7a 46 fb bc 91 43 a9 bd 93 1b bc bd
       0.29947993 -0.030673254 -0.082648404 -0.09184947
000140 62 a4 8a be 4f f8 6a be 32 fa ed bd fa 41 87 be
       -0.2707854 -0.22946285 -0.116199866 -0.26417524
000150 52 da 3b bc 23 03 77 3e cf 49 71 be 77 24 3f 3e
       -0.011465626 0.2412229 -0.23563312 0.18666254
000160 c5 92 96 bc a1 95 61 bd 5a c1 94 be 7b fe 81 3d
       -0.018380532 -0.055074338 -0.29053766 0.063473664
000170 83 d3 0b 3a cf cd ae 3c 7a 03 96 be 07 52 6c bd
       0.0005333947 0.021338372 -0.29299527 -0.057695415
000180 ab 42 b0 3d 31 b8 b1 bd f7 19 d9 3c dd f5 21 be
       0.08606466 -0.0867771 0.026501639 -0.15816446
000190 c7 87 a8 be c7 27 77 3e be 6d 38 be 1e 98 7e be
       -0.3291609 0.24136268 -0.18010613 -0.24862716
0001a0 f5 61 4d 3e 5c 5b a1 bb 74 3d 28 bd 20 c7 54 be
       0.20056899 -0.004924221 -0.04107423 -0.20779085
0001b0 dc 2c c0 be 08 53 10 3e e1 cf 70 be b3 35 4f 3d
       -0.37534225 0.14094174 -0.235168 0.05058832
0001c0 b9 5f 1d be f3 c5 7e 3c 1b c6 92 be 0a 03 47 be
       -0.15368547 0.015550124 -0.28666767 -0.19434753
0001d0 7e 61 1d 3d d3 52 4d be f5 96 17 3e 5f 56 40 bd
       0.038423054 -0.20051126 0.1480368 -0.04695737
0001e0 87 1e 86 3d 93 29 f7 3d 88 57 92 be f7 54 f9 bd
       0.065487914 0.120684765 -0.28582406 -0.12174409
0001f0 4d 5a a2 3e 39 ad 18 bd 2c 06 64 be fe 20 5c be
       0.3170952 -0.037274573 -0.2226798 -0.2149696
000200 d9 0b eb 3d 49 61 80 be 60 5a 81 3e bf 2e 7d 3d
       0.11476869 -0.25074223 0.25264263 0.06181216
000210 43 4f 12 3d f1 f0 21 3e a9 fd ad 3e 9d f3 29 3e
       0.03572012 0.15814568 0.3398259 0.16596837
000220 a9 cd 6e 3e 69 18 e0 bd 72 08 75 bc 17 dd fa 3d
       0.2332064 -0.10942156 -0.014955627 0.12249201
000230 85 9d 3f be 82 22 74 3d c4 ec e7 bc 86 20 83 be
       -0.18712433 0.05960322 -0.02831114 -0.2561075
000240 09 8e 8b be df 59 0b 3e 5f 84 a0 be 96 15 19 3d
       -0.27256802 0.13608502 -0.3135099 0.0373741
000250 12 35 41 be 58 a9 22 be 83 fb c9 bd 29 3a 16 be
       -0.18867901 -0.15884912 -0.09862425 -0.14670624
000260 21 4a c3 3e 1a 24 41 bb 20 35 57 3e d4 b1 38 3e
       0.38142493 -0.002947098 0.2101636 0.18036586
000270 dc 58 82 3e 0a 4c 77 bd e0 a0 32 3d 06 d3 02 3e
       0.2545842 -0.06037525 0.043610454 0.12775812
000280 e6 54 2e be bb da 7e be 1c d9 9c bd 6f ee 4e 3e
       -0.17024574 -0.24888127 -0.07658598 0.20208143
000290 78 ca 87 3d c2 92 4f 3e 0c 6c 79 3e 30 38 3a 3e
       0.06630415 0.20270827 0.24357623 0.18185496
0002a0 9a 42 8f 3e f6 4d 23 3e 81 0d 0d be 98 c5 17 3d
       0.279805 0.15947708 -0.13774683 0.037053674
0002b0 a3 d6 45 be ae 06 90 bd bf a9 9a 3e b3 a6 f5 3d
       -0.19320159 -0.07032524 0.3020763 0.11994686
0002c0 c2 8f 97 3c c5 67 64 be 9c c4 5f 3e 5f 93 d4 3d
       0.018501166 -0.2230521 0.21852344 0.10379671
0002d0 34 f1 1a 3e c6 fa 8f be 35 1e 07 be e4 68 5d be
       0.15131074 -0.28121012 -0.13195117 -0.21622044
0002e0 82 14 58 be 70 4a 05 3e b4 67 60 3c 4e c6 91 3e
       -0.21101573 0.13016677 0.0136966 0.28471607
0002f0 a1 01 d5 3d 3b 8b 94 3e 8d d9 34 3e 98 1d 23 3e
       0.10400701 0.29012474 0.17661114 0.15929258
000300 21 38 0c be 94 33 8d be 82 de 16 3e 5e 0a 20 bd
       -0.13693286 -0.27578413 0.14733317 -0.039072387
000310 f5 04 1c 3e b1 ac 36 3e 8c 17 9f 3e df 95 ba 3d
       0.15236266 0.17839314 0.31072652 0.09110617
000320 db 40 82 3c 58 ed 5e 3d f0 84 a1 bc 80 f4 e9 3c
       0.015900066 0.054425567 -0.01971671 0.02855897
000330 ca ad 67 be 20 a0 8b be 3d c3 f4 3d 15 c4 8b 3e
       -0.22624889 -0.27270603 0.11951301 0.27298036
000340 2c d0 a9 3c 9e 5a 52 3e fe 9c 13 3e 9f 83 4b be
       0.020729147 0.2054238 0.14415357 -0.19874428
000350 b5 df 7d 3e ee 96 c9 3d f8 5c 7a 3c cb 31 a7 be
       0.24792369 0.09843241 0.015280955 -0.32655177
000360 14 a0 19 be 28 6f 73 bd a9 97 68 3e 69 cf ec 3c
       -0.15002471 -0.05943218 0.22714104 0.028907495
000370 f9 90 8d be 29 0f 50 bd 64 cb 00 3e 32 4d 57 be
       -0.27649668 -0.050795708 0.12577587 -0.21025541
000380 b6 f1 81 3e df 6e 05 3e 1a c5 94 3c d4 6c 1c 3e
       0.25379723 0.13030575 0.018160392 0.1527589
000390 51 35 80 3e ab 40 49 be e6 be b5 ba af d2 0e be
       0.25040677 -0.19653575 -0.0013866096 -0.13947557
0003a0 86 21 8b be cf a2 71 3e 77 3f c1 3e 3c 3e bc bd
       -0.27174014 0.23597263 0.37743732 -0.09191558
0003b0 e8 61 80 3d 95 ea b2 bd cd c8 36 3d 12 a3 18 be
       0.06268674 -0.08736149 0.044625092 -0.14905956
0003c0 62 57 8d 3e bd cc c9 bd 76 29 f0 3d 91 27 2d be
       0.2760573 -0.09853504 0.11726658 -0.16909625
0003d0 8f c7 5b be 3b 35 91 be 49 4e d2 bd e9 98 23 bb
       -0.21462844 -0.28360924 -0.10268838 -0.0024962968
0003e0 10 a0 1d 3c 0a 2e 50 3d 8d 9b 9c 3e dc 1a 99 3c
       0.009620681 0.050825156 0.30587426 0.018689565
0003f0 a4 9b 11 3e
       0.14219528

5.bias f4 [23]
000000 58 3d be 3d c4 46 81 be 00 f7 7e 3e 08 d6 52 3e
       0.09289044 -0.25249302 0.2489891 0.20589459
000010 c0 86 ac bc 70 bf 33 be 58 53 90 be 5d e5 8a be
       -0.021060348 -0.17553496 -0.28188586 -0.27128115
000020 de ee 4a 3e 34 82 8f be 48 a4 e3 3d dc a6 a9 bd
       0.19817683 -0.28029025 0.111153185 -0.08283779
000030 9c a5 c4 3d 98 45 87 3e f4 e2 92 3d 94 13 6d be
       0.096019 0.26420283 0.07172194 -0.23152
000040 91 1d 96 be 7e a9 2d 3e 62 40 0e 3e 3a 98 44 be
       -0.29319432 0.16959187 0.13891748 -0.19198695
000050 00 f9 aa 3c 6c d2 0d 3e 1e 2e 95 3e
       0.020870686 0.13849801 0.29136747

6.weight f4 [23]
000000 43 5d 51 3f 39 71 55 3f df e2 73 3f 51 11 02 3f
       0.8178293 0.8337589 0.9526805 0.5080767
000010 fa c9 1b 3f 0d f3 3e 3f c0 c9 60 3f ef 7e 6a 3f
       0.60855067 0.74589616 0.87807846 0.91599935
000020 3b 41 47 3f 74 49 56 3f 84 f9 6e 3f 54 36 6d 3f
       0.7783391 0.8370583 0.9334948 0.92661023
000030 8c 05 5f 3f 4b 94 45 3f b6 37 62 3f f8 ec 80 3f
       0.8711784 0.771794 0.8836626 1.0072317
000040 c9 76 50 3f 91 2e 8a 3f bf 98 85 3f 52 9d 6a 3f
       0.8143125 1.0795461 1.043724 0.916463
000050 15 27 57 3f e5 47 5c 3f 13 49 67 3f
       0.8404401 0.860472 0.9034588

6.bias f4 [23]
000000 d1 5c 48 3e bc 0e 3e be 73 f7 d0 3e fe 15 d6 3e
       0.19566657 -0.18560308 0.4081379 0.41813654
000010 4b 61 fb 3e 43 45 9e 3e 56 fd 28 3e d3 9f cc 3c
       0.49097666 0.30912217 0.1650289 0.024978554
000020 00 ae 89 3e 18 bc 33 3d af 8f a5 3d bd 6a 15 bd
       0.26890564 0.043880552 0.08084046 -0.036478747
000030 fa b9 af bd 80 de f5 3e e4 7a 18 3d 5c 8d b3 be
       -0.08580394 0.48021317 0.037226573 -0.35068786
000040 a8 21 d4 3d f8 6c 79 be dc f4 1f be 09 57 02 be
       0.10357982 -0.24357975 -0.1562075 -0.12728514
000050 a4 3b be 3d 35 d9 44 be 74 22 fa 3c
       0.09288719 -0.19223483 0.030534007

6.running_mean f4 [23]
000000 14 8a 86 bc b7 08 65 be e4 fe 64 3e 2a ef 34 3e
       -0.016423263 -0.22366606 0.22362858 0.17669359
000010 e3 7f ec bd d9 1d 0d be 66 c4 94 be 1f 9a be be
       -0.1154783 -0.13780917 -0.2905609 -0.3722696
000020 04 93 38 3e 7c 57 b6 be dc 93 90 3d 3d ad 86 bd
       0.18024832 -0.3561362 0.07059452 -0.06576011
000030 d4 df 27 3e 6c 17 3b 3e 09 21 2a 3e 80 7a 95 bd
       0.16393977 0.18270653 0.16614164 -0.07298756
000040 06 84 9b be f1 d7 89 3e 9f e9 57 3e 87 9d b4 bd
       -0.30374163 0.26922563 0.21085213 -0.088191085
000050 6d fd d9 bc 63 b6 39 3e c5 93 68 3e
       -0.0266101 0.18135981 0.2271262

6.running_var f4 [23]
000000 53 16 4c 3d 1b 07 57 3d 06 42 21 3d 13 dc 0a 3c
       0.049825978 0.05249701 0.039369605 0.008475321
000010 f2 ba 3a 3c 7a 3f a4 3c 4c 66 a5 3d 06 f1 f8 3d
       0.01139711 0.0200498 0.08076152 0.121553466
000020 09 14 5f 3c b6 5f 14 3e 14 ac 27 3d 9a 53 c2 3d
       0.013615617 0.14489636 0.04093559 0.09488602
000030 45 8d 57 3d 18 81 47 3c 2a ed 41 3d 06 59 3b 3e
       0.05262496 0.012176774 0.047345318 0.18295678
000040 0f f7 26 3d 1a 52 ee 3d 8a 65 b0 3d 69 8a a5 3d
       0.040762957 0.116367534 0.08613117 0.0808304
000050 ee 8c 82 3d bd 84 bd 3d b4 c8 91 3c
       0.063745365 0.092538334 0.017795898

8.weight f4 [46, 23]
000000 a9 e2 4e 3d 96 94 38 3e e7 e4 53 3d bc a2 51 bc
       0.05050913 0.18025431 0.05173197 -0.012795147
000010 ff ed 86 bd 75 23 ca 3e c1 d2 42 bb 68 e1 3e be
       -0.06588363 0.39480177 -0.002972767 -0.18640673
000020 96 17 0c 3e 53 0f 51 3e e7 50 a6 3d 76 70 3c 3d
       0.13680872 0.20416002 0.081209 0.04600569
000030 57 19 b3 bd a5 af ac 3a 60 86 0f 3d a6 9b a2 bd
       -0.087450676 0.0013174905 0.03504026 -0.07939844
000040 34 ff f1 bd 52 a8 e5 bc 87 97 68 be 69 b0 43 be
       -0.11816254 -0.028034363 -0.22714053 -0.19110264
000050 30 5f 5f 3b 07 03 6d 3e 21 10 72 be 5e 95 27 3e
       0.0034083836 0.23145686 -0.23638965 0.16365573
000060 dd 38 c7 3d da 0d 21 bd de 5c 48 3d c8 12 c5 3c
       0.09727643 -0.03931985 0.04891669 0.024056807
000070 1a 72 c2 3d 83 e0 31 3e 22 07 64 bd 6c 5f e1 bb
       0.094944194 0.173708 -0.055670865 -0.0068778303
000080 f0 e8 dd 3d 41 89 1d be 69 cf cd bd 19 bc 2b be
       0.10835445 -0.1538439 -0.10049326 -0.16770972
000090 ea 3a 3e 3d c7 b3 15 bd e8 a2 d5 bb c7 27 06 3e
       0.046442904 -0.036548402 -0.006519664 0.13101111
0000a0 7e 1f 60 3d 95 55 35 be b5 bd cf 3d 0e 59 c5 3c
       0.054717533 -0.17708428 0.101436056 0.024090316
0000b0 8e 71 70 3d 80 db ee 3c d8 37 25 bd 94 81 10 3d
       0.058702044 0.0291574 -0.04033646 0.035279825
0000c0 da ee 24 3c fe a7 73 3c b8 bd 0e bd 5e f3 f6 bd
       0.010066712 0.014871595 -0.0348489 -0.12058137
0000d0 2c 96 fc 3b 84 86 0e be ff a9 4d bc 79 a7 1d 3e
       0.0077083316 -0.13918501 -0.012552737 0.15395917
0000e0 88 09 2f 3d 2a 8f 05 3e d3 29 f3 3d 92 d5 5b 3d
       0.0427337 0.13042894 0.11873212 0.053670473
0000f0 22 38 cf bd 45 57 7e bd 2d c6 86 bd 7c d5 20 be
       -0.10118128 -0.062094945 -0.06580768 -0.15706438
000100 ea 91 8b 3d c1 c6 ef 3c b3 5a 07 be b0 f5 f5 3d
       0.0681494 0.029269578 -0.13218193 0.12009752
000110 2b 08 3e 3d cc 4b 76 3d 08 b6 db bd 80 ac f6 bd
       0.04639451 0.06013088 -0.10728079 -0.120446205
000120 cd 44 3d bc a6 da c0 bb 07 b6 f4 bc 4c 11 f6 3d
       -0.011552048 -0.00588544 -0.029871954 0.12015018
000130 24 be d2 bd 79 1b 37 bc df ca 54 3e 6e 28 de 3b
       -0.10290173 -0.011175984 0.20780514 0.006779722
000140 02 6a 83 bd 64 80 d8 3d 94 95 96 3d 29 b3 de 3c
       -0.06416704 0.105713636 0.073527485 0.02718504
000150 40 50 0d 3e 8a 8c f0 bd 1c e3 74 be 0b cd 87 3d
       0.13800144 -0.11745556 -0.2391476 0.06630906
000160 fd fd cf 3d 59 91 14 3d 55 98 db 3d 44 c7 e4 bc
       0.10155866 0.036271427 0.107224144 -0.027927049
000170 d0 b5 75 bc 32 68 2a be 50 45 2c be aa a9 4f 3d
       -0.014996961 -0.1664131 -0.16823316 0.050698914
000180 4e 11 20 3b 85 a5 ab 3d c5 70 4b 3d 94 a7 92 bd
       0.0024424377 0.0838118 0.049668092 -0.07160869
000190 60 e2 e6 3d 5b 24 38 3d ad ef 1b bd c6 4f 1a be
       0.11273646 0.044956546 -0.03807037 -0.15069494
0001a0 12 c9 b1 3c 90 05 ac 3d 7a f4 3a be e5 dd 86 be
       0.021702323 0.083994985 -0.18257323 -0.26341167
0001b0 e1 66 c8 bd d5 fe 29 be 36 be 0b be 94 7b dc bd
       -0.097852476 -0.16601117 -0.13646778 -0.10765758
0001c0 aa dc 36 be 9d c1 bb bd 68 e2 60 bd 29 a7 3a bd
       -0.17857614 -0.09167788 -0.054903418 -0.045569573
0001d0 36 79 10 be e6 22 9e bc fa 00 dc bc 69 34 16 3c
       -0.14108738 -0.01930375 -0.026855934 0.009167769
0001e0 ee 8d ee 3d cb d5 b8 3d 57 cb 07 3e d6 84 e4 bd
       0.11648165 0.09025153 0.13261162 -0.11158149
0001f0 ea b4 a4 bd 0e 7e 74 3d eb 4b 1b be f0 6b 21 be
       -0.08042319 0.059690528 -0.15165679 -0.15763831
000200 9f 1f 99 ba c5 47 ea 3d a1 d3 2c 3e b7 b4 87 bb
       -0.0011682397 0.1143947 0.16877605 -0.004141416
000210 b2 01 70 3d cc 77 9f bc 30 47 d2 3b 40 81 05 be
       0.058595367 -0.019466303 0.0064171776 -0.13037586
000220 f2 4f b1 bc c7 40 07 bd 34 11 df bc 75 89 88 3d
       -0.021644566 -0.03302076 -0.027229883 0.06666843
000230 28 51 96 bd 67 d6 5e 3c 89 a0 b3 3a 00 fa 4f bd
       -0.07339698 0.013600922 0.0013704459 -0.050775528
000240 2a b1 ff 3c 54 3f d6 3d 51 cf e1 3d 8f 7c 29 3e
       0.031212408 0.10461298 0.110258706 0.16551422
000250 96 46 80 bc a9 0d f4 bd ff 97 80 bb c8 ad 9e 3d
       -0.015658658 -0.11916668 -0.0039243693 0.0774799
000260 93 2c 89 bd 12 89 2a 3e b1 d8 e2 3d 0c 01 1c be
       -0.06697955 0.1665385 0.11076487 -0.15234774
000270 c1 21 39 bd 47 fc cd 3c f7 37 8c 3d 63 07 cb 3d
       -0.045198206 0.02514471 0.06846612 0.09913518
000280 53 e8 ae bd 78 e2 46 be 01 e7 9e bd a9 ac 9b 3e
       -0.08540406 -0.19422328 -0.07758904 0.30405167
000290 dd 66 a9 3e 35 b8 a1 bd d2 04 ac 3d d0 39 15 3e
       0.3308629 -0.07896463 0.08399357 0.14572835
0002a0 56 d9 68 3d b6 b3 ea 3d 8c a5 3c be 74 b4 c1 be
       0.056847893 0.114600584 -0.18422526 -0.37832987
0002b0 f6 a2 a1 be a5 a9 6e 3e da 66 07 3e bf 4e a1 3e
       -0.31569642 0.23306902 0.13222829 0.3150539
0002c0 a6 b8 34 bc 4f 33 c8 be 9a 16 20 bd 13 72 76 3c
       -0.011030352 -0.39101645 -0.039084055 0.015041846
0002d0 db b3 5b 3e cb 36 45 3e 99 10 8f 3c e5 91 27 bc
       0.21455328 0.19259183 0.017463969 -0.010227655
0002e0 28 4d dc bd d3 6e 13 3e 3e 0a aa 3d 05 00 1e bc
       -0.10756904 0.14397745 0.08302735 -0.009643559
0002f0 11 27 5c 3d b0 ec 02 be 62 2e 8f bc 28 3c 12 be
       0.053748194 -0.12785602 -0.017478172 -0.1428076
000300 ac a3 06 3e 3f c3 b3 3c ac f5 5f 3e b8 0a 97 3d
       0.13148373 0.021943687 0.2187106 0.07375091
000310 2e 2e 23 be ed 6a 58 3c d7 4d 29 3d 49 00 a1 bd
       -0.15935585 0.013209087 0.041334 -0.078613825
000320 98 20 ba bd 84 31 61 3d bd f0 cd bc a4 55 9a 3c
       -0.09088248 0.054978862 -0.025139207 0.018839665
000330 5e b5 93 3d 85 6d 0c 3e 2f 49 cc bd e3 9c a4 3c
       0.072123274 0.13713653 -0.09974896 0.02009434
000340 8e e5 d2 bd 0d e0 04 3e 34 54 46 3d 2f 7a 89 3d
       -0.1029769 0.12976094 0.048420146 0.06712758
000350 99 8f 0a 3e a1 44 7a bc 38 b7 84 3d 55 e9 9b 3d
       0.1353134 -0.0152751515 0.06480259 0.07612864
000360 f4 99 26 be 0b 00 e9 3d 8c a8 bc bd 02 27 7f 3d
       -0.16269666 0.11376961 -0.09211835 0.06229306
000370 33 8a 63 3c f0 12 b1 bd 0c 42 c1 3c f3 64 d6 3d
       0.01388793 -0.0864619 0.023591064 0.10468473
000380 97 8f 0c bd cf f3 d5 3d 29 5e 05 bc f2 64 1f bc
       -0.034316625 0.104468934 -0.008140125 -0.009728657
000390 8d ee 90 bd 98 f3 90 bd 89 78 50 3d c8 63 0f be
       -0.0707675 -0.07077712 0.0508962 -0.14002907
0003a0 2f 4b 33 bc a6 49 2a 3d 5d 88 b7 3d 00 5a c0 3d
       -0.010943218 0.041574143 0.08961556 0.09392166
0003b0 fa 88 3c bd 2f 14 fa 3d 1e e2 db 3d 48 18 86 3d
       -0.04602907 0.12210881 0.10736488 0.065476
0003c0 09 ae 98 3d 7f aa be 3c be 64 07 3e ee 9c bc 3c
       0.074550696 0.023274658 0.13222024 0.023024049
0003d0 f0 13 d6 3d d8 6e 37 be 68 72 39 bc 5a 45 e0 bd
       0.104530215 -0.17913377 -0.0113187805 -0.10950728
0003e0 fe bb ab 39 1b d4 b1 3d 58 f3 1d 3e 73 7d 5d 3d
       0.00032755727 0.08683034 0.1542486 0.054074716
0003f0 90 60 bf bd ed 56 29 3d 61 25 25 be b5 0d f8 bd
       -0.0934459 0.041342665 -0.1612754 -0.121119894

8.bias f4 [46]
000000 87 72 af 3d c8 f4 71 3e b7 29 54 3e 6d 09 e8 3d
       0.08566766 0.23628533 0.20719038 0.11329923
000010 9e a2 6b 3d 6f 96 12 3d db 7a 17 3e f8 2f cf 3e
       0.05752813 0.035787996 0.1479296 0.40466285
000020 65 41 68 bd 1c 09 da 3e e8 69 b3 3e ff 8c e0 bc
       -0.05670299 0.42585075 0.35041738 -0.027410982
000030 39 e4 e2 3c 1f 17 28 bd d2 15 31 3f 56 8e 37 3f
       0.027696716 -0.041037675 0.6917392 0.7170156
000040 b4 c4 2d 3f 68 ff a6 3d 72 3e 6b 3c fd 01 54 3f
       0.6787827 0.081541836 0.01435815 0.82815534
000050 33 27 d0 3d 6d d8 3c 3f 61 3f 01 3f c9 9c 56 3e
       0.10163727 0.7376774 0.50487334 0.20958246
000060 70 75 e9 3d 70 10 1a 3e 16 d0 2c 3e 8e 0b 73 3e
       0.113993526 0.15045333 0.16876253 0.23734877
000070 d3 80 12 3e cd b3 be 3e f3 35 7d 3d 4b 86 09 3e
       0.14306955 0.37246552 0.061819028 0.13430135
000080 4f a5 cf bc 47 18 40 3f ca 58 24 3e e3 e8 38 3e
       -0.02534738 0.75037044 0.16049495 0.18057589
000090 ed 9e 90 bd 33 bb 84 3d 27 6a db bc b8 11 d8 3c
       -0.07061563 0.06481018 -0.026784016 0.026375636
0000a0 7d 85 15 3a d4 4f c8 3b 77 5c 29 3d 99 0c 56 3d
       0.000570379 0.006113032 0.041347947 0.052258108
0000b0 48 14 0d 3c 70 6a d7 3e
       0.008610792 0.42073393
