offline_prototype_3_ds_as_sampling/trained_models/ae_model_ransomware_directory_trap.pth (torch, 7167 bytes, 16 tensors)

0.weight f4 [8, 15]
00000000: fcec 743e 4437 d63e 5a06 583d e314 10bd
00000010: 7e5f 4bbd 0ebe 9c3d 09d4 8a3d 9859 693e
00000020: 6e07 84bd 1909 5abd 1b11 d33d 6193 15be
00000030: 5cd2 ad3c d85e 3ebd 9e4d d8bd a8e7 333d
00000040: 0c68 19be b157 443c 6a74 5f3e c335 9d3e
00000050: 0610 3a3e 1b4f 373d 1416 27be dca3 e6bb
00000060: 26c1 5bbd cacd 013e dcef 583d 5e52 203d
00000070: e005 a4bd a3d7 0b3e 1854 353d 8758 92bd
00000080: 191f bfbc 5357 813d 7db2 aa3e 74b8 d1bc
00000090: 8212 bcbe 28a6 093e 28a3 75bd 1950 cf3c
000000a0: e570 8abd a075 acbc 37ce 87bd c3d2 683c
000000b0: 3453 913d 258a 6fbe 1acf a43d 9968 3f3c
000000c0: f66c 143e 7906 c63b 352a d8bd 5338 f73c
000000d0: 590d ebbd a3fc 98be 8105 abbe 7aec 1ebe
000000e0: 621f c9bd 1d3a e6bd 8fa1 1f3e 90d4 9bbd
000000f0: 0ab4 9fbe a351 06bd 63db 4b3e 6b50 353e
00000100: 5fb2 16be aa47 5a3e 9d61 883e 1e10 cf3d
00000110: a144 d4bc 6d01 3fbd e9a8 b73c ef40 eabd
00000120: ba9a ddbd a337 2e3e c90d acbd 0b32 eabc
00000130: a218 b4be 3246 e8bd 96f1 883d 2096 4cbe
00000140: 9e14 9ebd 0fcc f1bd a569 803e 9963 203d
00000150: 456d 1cbe e244 373e af70 64bd b85c 8fbd
00000160: 2766 b13d 9271 f83c 6dbd fe3d 6672 4d3e
00000170: 2b9c 5bbe b1e3 0abd 280c acbd 451b a2be
00000180: 45f6 9a3c 5e7d c33d 402a 173e 157a 3abe
00000190: 325c 3c3e 36bd ad3d 3335 283e 56e5 38be
000001a0: 2f80 5cbd 7dad 8c3e 23b7 9f3e d439 19be
000001b0: bb16 803d 0fb9 5f3d f6af 1bbd a6db 663d
000001c0: 377d 893d 2748 57bd c2e8 963d 5291 c33d
000001d0: a3c2 413e 53ba 673d a19b 47be 768f debd
0.23918527 0.4183904 0.052740432 -0.03517617 -0.049651615 0.076534376 0.06778724 0.22788084
-0.064467296 -0.053231332 0.10305997 -0.14607002 0.021218471 -0.04647717 -0.10561679 0.043922096
-0.14981097 0.011983798 0.21821752 0.3070508 0.18170175 0.044753175 -0.16317016 -0.0070385765
-0.053650998 0.12676159 0.052963123 0.03914105 -0.08008933 0.13656478 0.04426965 -0.071457915
-0.023330258 0.06315484 0.333393 -0.02560065 -0.3673287 0.1344229 -0.05997005 0.025306748
-0.06759814 -0.021052182 -0.06631129 0.014210406 0.07095948 -0.23392542 0.08047314 0.011682653
0.1449469 0.006043252 -0.10554925 0.030178225 -0.11477155 -0.29880247 -0.33402637 -0.15519896
-0.09820439 -0.11241553 0.15588973 -0.076089025 -0.31192046 -0.0327927 0.19907908 0.17706458
-0.1471648 0.213164 0.26636973 0.10110496 -0.025911631 -0.04663222 0.02241941 -0.11438166
-0.108205274 0.17013411 -0.08401067 -0.028588315 -0.35175043 -0.11341514 0.06686704 -0.19979143
-0.07718776 -0.11806499 0.250806 0.039157484 -0.15276058 0.1789737 -0.055771526 -0.070001066
0.08662062 0.030327592 0.12438474 0.20063171 -0.21446292 -0.03390855 -0.08400756 -0.3166143
0.018916259 0.09545396 0.14762211 -0.18210633 0.18394545 0.08483355 0.16426544 -0.18056235
-0.053833183 0.2747611 0.3119441 -0.14963466 0.062543355 0.054619845 -0.038009606 0.056361817
0.06713336 -0.052559044 0.07368614 0.09549202 0.18921904 0.056574177 -0.19492961 -0.10867207

0.bias f4 [8]
00000000: f4d5 cd3d 82ef 66be 88fb b53d 2044 d73c
00000010: fdb0 37be ec2b 623e 984a 713e 58c1 623d
0.10050574 -0.22552302 0.088858664 0.026277602 -0.1793861 0.22087067 0.23563612 0.05536017

1.weight f4 [8]
00000000: 01b8 753f aec8 753f cafe 343f c8ea 613f
00000010: cabb 463f 3cff 5c3f 7aa0 7a3f 5ac8 853f
0.9598389 0.9600934 0.7070128 0.8824887 0.77630293 0.86326957 0.9790112 1.0451767

1.bias f4 [8]
00000000: 9701 7f3c c254 c73c 9fcc 103e f764 343e
00000010: 87e3 e23d 0fa7 5a3e ee26 3f3e 8df3 453e
0.015564344 0.024332408 0.14140557 0.1761664 0.11078554 0.2135279 0.18667194 0.19331188

1.running_mean f4 [8]
00000000: f976 c9bd a03f 9bbe ecc8 e33c 99b1 5c3e
00000010: d319 453e 8323 443e 523e dcbc a765 9abe
-0.09837145 -0.3032198 0.027805768 0.21552123 0.19248132 0.19154172 -0.026885185 -0.3015568

1.running_var f4 [8]
00000000: bee7 883d a801 a53c 4096 9c3c a06a 373c
00000010: 6cf3 a33c 82bc 3d3d 7797 0e3d c69a 133d
0.06684826 0.020142391 0.019114614 0.011194855 0.020013534 0.046322353 0.034812417 0.036036275

3.weight f4 [4, 8]
00000000: ce0d c23d ce77 5f3c 56a0 25bd c235 fa3d
00000010: 9d70 2bbc 3e81 88bd f480 843d 28a2 233e
00000020: 6ebb 69be 3bda bbbd 9f18 653c 334d 8d3c
00000030: 88c2 8abe f52f bf3d a3d6 4a3e a658 3bbd
00000040: 1cd4 3bbe 3b2c d1bd b15d 27be bb5b 053e
00000050: aa26 ba3c 6f8e a53d a14f e63d 2b09 1dbe
00000060: ffbc eabd a7aa 8b3d 0162 97be bc02 4dbe
00000070: 2e22 a4bd 5e08 a63c b3bd 113d 4f99 cb3d
0.09475289 0.0136394035 -0.04043611 0.12217285 -0.010463861 -0.06665276 0.06469908 0.15979826
-0.22825405 -0.091724835 0.013982921 0.017248726 -0.2710154 0.09335319 0.1980844 -0.04573884
-0.18342632 -0.102135144 -0.16344334 0.13023274 0.022723515 0.08083808 0.11245657 -0.15335529
-0.114618294 0.06819659 -0.2956696 -0.20020574 -0.08014332 0.020267662 0.035581302 0.09941351

3.bias f4 [4]
00000000: aa8b ba3e 3b97 7b3e dbd0 723e 9911 5c3c
0.3643468 0.24569409 0.23712485 0.01343193

5.weight f4 [8, 4]
00000000: ab1d b13e ea3a b5be 8a34 c73e 6cdb 91be
00000010: ccac bebe 5aa0 4ebe aa1a 283e 608a afbe
00000020: 909f 5a3e 9ac8 78be 8e45 c13e 507f cb3d
00000030: b5b4 6f3e da4d 933e 333c d7be 4b53 f3bd
00000040: 0ac5 6f3e e1c5 c0bc 73c4 013f 10c4 09bf
00000050: e0fc 07be 5563 f1be 9f47 07bf 315f b8be
00000060: 1c91 343c 78dc 363e 26db 1dbe 54ff 12be
00000070: 5a68 d3be b7f0 cc3e 0f5a 9c3e e1b8 5a3e
0.34592947 -0.3539651 0.38907272 -0.28487718 -0.3724121 -0.20178357 0.16416422 -0.3428526
0.21349931 -0.24295273 0.3774838 0.09936392 0.23408778 0.28770334 -0.42038116 -0.11881121
0.23415008 -0.023531856 0.5069038 -0.5381479 -0.13280058 -0.47146097 -0.5284366 -0.36010125
0.011020925 0.1785754 -0.1541563 -0.14355212 -0.4129055 0.400274 0.3053746 0.21359588

5.bias f4 [8]
00000000: f825 a63c 58f4 433e 2481 583e 1102 713e
00000010: c017 47be 28ba d13d a99d 6f3e 9e28 b93e
0.020281777 0.19136178 0.21143013 0.23535945 -0.19442654 0.102405846 0.23399986 0.361638

6.weight f4 [8]
00000000: d25f 543f 15e0 983f 25da 433f caca 4d3f
00000010: f829 503f 2755 533f b055 4c3f e8a1 743f
0.8295871 1.1943384 0.7650474 0.80387557 0.8131404 0.8255181 0.7981825 0.9555955

6.bias f4 [8]
00000000: 0bbf 98bd 139e 603e 4a22 003f a379 99bd
00000010: 56ab 3c3e 82bd 0d3d a628 e03e 731b 243e
-0.074583136 0.219353 0.5005232 -0.074939035 0.18424734 0.034604557 0.43781012 0.16026096

6.running_mean f4 [8]
00000000: d654 1e3e a12c 883d c68c 9a3e bdf9 9b3e
00000010: cc1d 06bd 2495 80bd 2d39 7b3e d8a3 9a3e
0.1546205 0.06649137 0.30185527 0.30463973 -0.03274326 -0.06278446 0.2453353 0.30203128

6.running_var f4 [8]
00000000: 8e4c d83b e689 3e3c a325 593b fdec 0c3c
00000010: 8d58 ca3b 9254 493c 419d 303a 2160 b63c
0.006600923 0.011629557 0.0033134005 0.008601424 0.006175107 0.01228823 0.00067373 0.022262635

8.weight f4 [15, 8]
00000000: 45cf 273e 5b81 853c 9fba 87be b42c 803d
00000010: 2383 613d b18e 73bd f479 c6bd 3dae 3fbd
00000020: 4d4c 27be 4c2e 3bbf 0929 cd3e 942a ea3e
00000030: c03f 85bd 7990 d13d 0e88 1dbc aa8d 8dbe
00000040: d05b 273d 775e 063d 067e 14bb 5cb2 1c3d
00000050: 9a69 d7bd b05c 083e 59b2 cfbd a2a5 6cbc
00000060: 3785 cb3e e51e e53e f9e1 acbe 52e2 22be
00000070: 287d 32bd 422b 973c def8 c9bd ee11 4fbe
00000080: 815c 543d faa6 9bbe 7641 ccbe ea58 79be
00000090: 0dc3 4c3d 4bbb 393e de10 9f3e c7d3 afbe
000000a0: 18c9 443e 42ae 0a3e dcbd 313d d55c 96be
000000b0: 313d 57be 2ac7 c93e 3473 79be f37e c1be
000000c0: 2337 febd 8a2e 97be aff0 853e 0d0b abbe
000000d0: 521e 57be 1553 55be e1b5 a7be 2497 46be
000000e0: 3382 a33e a4fa 8b3e 5d5d 04be 21a4 203e
000000f0: 1a50 33be 7162 3d3e 52d3 873d d16c 803e
00000100: a1a0 ec3d b68c 91bc 81bd adbc 9dd8 0a3e
00000110: 5a64 11bf 56c5 0fbe 51dc ebbc a785 863e
00000120: f9bd c0bd ee9a 983d e9d1 48bd 6d50 f13d
00000130: 9655 3abe 23eb c23d 9210 e3bd 6306 8b3d
00000140: 81ac e53d 3d08 82bc 1438 38be 6c2c 2c3e
00000150: 3cbc 563d 9075 6a3b 86f8 d1bd 7512 29be
00000160: f416 ef3d 9c07 32be c22a 3ebe 9ba9 f33c
00000170: 81b8 8c3d 401e 48bd 9b93 babd f95b bd3d
00000180: 293e 0b3e dd6d 15be 4e30 9fbe 82a0 ec3d
00000190: 7f94 053d 1f0a f8bd c7fa 0dbe b49f 593d
000001a0: 126c 373e 03fb b63c c2ae 60be a145 88bd
000001b0: ecf6 bb3d d895 05be 63dc 48bc e93b 3fbe
000001c0: 0ac2 763c a855 b6bc fe64 a8bd 982a dc3c
000001d0: fddb 3d3d 6b3c ae3c 80c0 eabc 1f86 f43c
0.16387661 0.016297033 -0.26509568 0.062585264 0.055056702 -0.059462253 -0.096912295 -0.046797026
-0.163377 -0.7311752 0.4007037 0.4573561 -0.065063 0.10232634 -0.0096149575 -0.27647144
0.040859044 0.032804932 -0.0022658124 0.038256034 -0.10518189 0.13316607 -0.10141439 -0.014443787
0.39750072 0.44750133 -0.33766153 -0.15906647 -0.04357639 0.018453244 -0.09861921 -0.20221683
0.05184603 -0.3040083 -0.39893693 -0.24350324 0.049990702 0.18137853 0.31067556 -0.3434126
0.19217336 0.13543037 0.043393955 -0.293677 -0.21019436 0.39409763 -0.24360353 -0.37792167
-0.1241286 -0.29527694 0.2616019 -0.3340687 -0.2100766 -0.20832475 -0.3275595 -0.19393593
0.31935272 0.2733966 -0.1292624 0.1568761 -0.17511025 0.18494584 0.06632103 0.2508302
0.11554075 -0.017767292 -0.021208527 0.13559194 -0.5679375 -0.14040121 -0.028791578 0.26273844
-0.094112344 0.074514255 -0.04902831 0.11782918 -0.18196711 0.09517505 -0.11087145 0.067883275
0.11214543 -0.015873069 -0.17990142 0.1681382 0.052425608 0.003577564 -0.1025248 -0.16510947
0.116743 -0.17385715 -0.18570998 0.02974396 0.06871129 -0.048856974 -0.09110185 0.09246058
0.13597931 -0.14592691 -0.3109154 0.11554052 0.03261232 -0.121113054 -0.13865195 0.05313082
0.1791232 0.022336489 -0.21941665 -0.06653906 0.09177956 -0.13045442 -0.012259576 -0.18675198
0.015060911 -0.022257641 -0.08222388 0.026875779 0.046352375 0.021269044 -0.028656244 0.02984911

8.bias f4 [15]
00000000: 3a7d 1bbf 55e9 fd3d 1177 da3e 09d8 e9be
00000010: 7902 583e 22bc 923e 6ed4 d53e c12d 75be
00000020: 6b68 523d 0e34 c83d 3bae 5dbc 94ad 83bd
00000030: 6874 ba3d 7516 4b3e d125 653d
-0.60737956 0.1239802 0.42668965 -0.45672634 0.21094693 0.2865916 0.41763633 -0.23943235
0.051369112 0.09775554 -0.013530309 -0.06429592 0.09104234 0.19832785 0.055944268
