offline_prototype_3_ds_as_sampling/trained_models/ae_model_all_ds_as.pth (torch, 7935 bytes, 16 tensors)

0.weight f4 [10, 20]
00000000: 0735 8ebe 3222 333d 0f74 90be a960 da3e
00000010: fafa c9bc bde9 adbc fe8c a13d 403b a2bc
00000020: 440a 663c bb9e c5bd 6e07 6a3c 7d7e b63d
00000030: 93f9 aa3d e1ac 473d 6b58 7ebd 93a5 aabd
00000040: 76b5 f5ba 9c8e 5a3c 246c 95bb 91a1 80bc
00000050: b063 3f3e 1fcd 523c de1a cabd 460b 483c
00000060: 3a5d b7be 107a 083e ecbd 88be c813 233d
00000070: eeb7 68bd c985 333c 6d94 8cbc f494 46bd
00000080: accf c03c f181 9c3d 45c6 b53d b137 c93e
00000090: ab99 95bc 1989 383d d561 873c 9142 df3d
000000a0: fcc3 4d3e d040 f5bd 1b1f d43d 1f38 fabe
000000b0: b52b d3bd c06b 2d3c 3d12 01bc 469b 963d
000000c0: 065a a5bd 7ba4 c5bd e10a ee3d 21c2 873c
000000d0: a973 40bd 9fd9 903c 2c7a 373c 91e1 abba
000000e0: 7ed6 04bd 6cf6 2e3d f05f 193b afaa 9e3c
000000f0: 848d c03e a0ce 5b3c 5a4f af3e 92f2 8f3e
00000100: a0d1 1abe 82a8 c93d af99 263e 3ff0 203b
00000110: 0ab2 6e3d 31a0 503c b9c5 afbc ce56 5d3a
00000120: b65d 8dbc 2de8 8b3d 47dc 273c b76f 803d
00000130: 3576 e9bc a39e f33c 0090 c9bc 4b28 933b
00000140: f001 c8be 0c4a 503e 0f04 423e 0496 8fbd
00000150: b978 fcbd 0417 e53d da80 4cbe b40e cd3d
00000160: bf48 82bc ad74 58bd 6aab 53bd dce3 093d
00000170: d72d 88bd ef3e 78bd ee1a 79bd 2802 8cbd
00000180: f791 19bd b258 ab3c 572e 443d fb41 ec3c
00000190: 5ab6 a8bd ad9d 97bd b436 bf3d 07b2 e43d
000001a0: 5e4f 5a3e 7662 b6be c48f f5bc 2fac d1bd
000001b0: 6c43 8c3d 6db1 893c 3dad 20bd 39c9 0abd
000001c0: e376 37bb cf4b 503d 753c ddbd 0698 9abe
000001d0: e536 983d 21d7 393d 859d 40bd 7c3c 9fbd
000001e0: f3b4 e5bd 6b1c 273d d310 af3e 1f21 4b3e
000001f0: 6aa6 b53d 00a3 c83d 5321 303e 4992 06bd
00000200: 200f 03be 2ed2 c7bd 3409 82bd 87c1 35bd
00000210: 42e8 11bc 6a61 15be 4e97 1a3e 2f89 c43d
00000220: 987c 23bc a4aa cdbc 9331 3ebe 8182 fabd
00000230: 8725 423e 272b 203e 4bc3 e0be 319f 01be
00000240: f203 87bb 344c 19be 3abf 76bd 7fb6 f8bd
00000250: 0623 c43c 38ae 78bd 6204 90bd 22f6 3abd
00000260: 586b b33d f7db fbbd 575c ad3d 4a69 4f3d
00000270: 715b 45bd 35e3 723d b22d ceba 51e4 b6bc
00000280: 092a a5be 2715 75bd ad22 85be 7779 49be
00000290: 5ab4 603d 396b a5bd 2ccc dbbd 4fef b43d
000002a0: 56b5 efbd 06a1 fcbd 1746 7d3d eb7f 0d3d
000002b0: 1770 2b3c 5c34 8a3b 4e3b 94bc 578a 0fbe
000002c0: 34bf fa3c 6ab8 873c 7af5 80bd 5079 3abd
000002d0: 2526 1abe 35bb 4b3d 9245 ae3d 213f 92bd
000002e0: 8679 94be 0d99 05be 211e 9f3e cc6b e0bd
000002f0: 2149 023e fbf5 cfbc ed77 d5bc 5f86 043d
00000300: d0c2 4f3d d8f3 bfbd 18fb 08bc bd1a b3bd
00000310: 06fb 223d eacb bb3c 90bd 523c c4f7 44bd
-0.27774832 0.043733783 -0.28213546 0.4265187 -0.024655808 -0.02122962 0.0788822 -0.019803643
0.014040533 -0.09649416 0.014283998 0.089108445 0.08348384 0.048748855 -0.06209604 -0.08332362
-0.0018746096 0.013339665 -0.0045600105 -0.01570204 0.18690372 0.0128662875 -0.09868406 0.012209719
-0.35813314 0.13327813 -0.267074 0.039813787 -0.056816034 0.01095719 -0.017160619 -0.048481897
0.023536526 0.07641972 0.088757075 0.39300302 -0.018261751 0.04505262 0.016526142 0.109013684
0.20094293 -0.11975253 0.103574954 -0.48870942 -0.10311071 0.010584772 -0.0078778835 0.07353835
-0.08073811 -0.09650513 0.11623169 0.01657206 -0.046985302 0.017681895 0.011198562 -0.0013113489
-0.03243112 0.042715475 0.002340313 0.019368498 0.37607968 0.013415962 0.34240228 0.28114754
-0.15119028 0.098465934 0.16269563 0.002455726 0.05827526 0.012733505 -0.021456586 0.0008443416
-0.017256599 0.068313934 0.010245389 0.06271308 -0.028498748 0.02973873 -0.024604797 0.0044908873
-0.39063978 0.20340747 0.1894686 -0.07011035 -0.123277135 0.111860305 -0.19971028 0.1001257
-0.015903829 -0.052845646 -0.051677145 0.03366457 -0.06649368 -0.060606893 -0.060816698 -0.06836349
-0.03749272 0.020916317 0.047895756 0.028840056 -0.08237906 -0.07403121 0.09336606 0.111667685
0.21319339 -0.35621995 -0.02997578 -0.102379195 0.06848797 0.016808236 -0.039227713 -0.033883307
-0.0027994446 0.050853547 -0.10802547 -0.3019411 0.07432345 0.04537118 -0.047025222 -0.07775208
-0.11216154 0.040798586 0.34192523 0.19836853 0.088696316 0.09796715 0.17200212 -0.032854352
-0.12798738 -0.097568855 -0.063494116 -0.044374015 -0.008905472 -0.14587942 0.1509678 0.09596478
-0.009978436 -0.025105782 -0.18573599 -0.12231923 0.18959628 0.15641461 -0.43898997 -0.12658383
-0.0041203434 -0.14970475 -0.06024096 -0.12144183 0.023942482 -0.060713023 -0.07032086 -0.045644887
0.087607086 -0.12297814 0.08464878 0.05063752 -0.04818291 0.059298713 -0.0015730171 -0.022325667
-0.32258633 -0.059834626 -0.26003018 -0.19675241 0.054859497 -0.08077092 -0.10732302 0.08834707
-0.11704509 -0.123354 0.06183442 0.03454582 0.010463736 0.0042176675 -0.018094685 -0.14017616
0.03060875 0.016567428 -0.06296821 -0.04552585 -0.15053613 0.04973908 0.08509363 -0.07140947
-0.28998965 -0.13046665 0.31077674 -0.109580606 0.12723209 -0.025385847 -0.026058162 0.03235471
0.050722897 -0.093726814 -0.008360647 -0.08745334 0.039790176 0.022924382 0.012862578 -0.04808785

0.bias f4 [10]
00000000: be76 4abe 2001 0dbd 6ad8 10be 747f 45bd
00000010: 9aba 5f3e fb8c 793b 208e fa3c 6f87 f9bc
00000020: fabf 123e b4bd 0dbe
-0.19771859 -0.0344249 -0.14145055 -0.048217252 0.21848527 0.0038078416 0.030585349 -0.030460088
0.14331046 -0.13841897

1.weight f4 [10]
00000000: 26bc 5b3f bce0 f03e f507 413f 78d8 443f
00000010: 5c59 5a3f e8ca 423f df1c 5f3f 1032 503f
00000020: 5823 643f c056 6c3e
0.85833967 0.4704646 0.75402766 0.76892805 0.852926 0.7609086 0.8715343 0.8132639
0.8911643 0.23079967

1.bias f4 [10]
00000000: bf34 3b3e a6f8 2d3c 300d 7a3e ab88 983d
00000010: 8496 863d 75c6 6a3e fd15 a43d 8db3 6a3e
00000020: e57e 1c3d 5cef 113f
0.1828184 0.010618364 0.24419093 0.07447942 0.06571677 0.22927268 0.080120064 0.22920056
0.038206954 0.5700586

1.running_mean f4 [10]
00000000: 82ca 3dbe d0b7 2abd d0fc 19be 804a 58bd
00000010: 32b9 573e 177f c93c 0c4d 053d 5c28 72bd
00000020: 6273 1a3e b8a8 11be
-0.18534282 -0.041679204 -0.15037847 -0.052805424 0.2106674 0.024596734 0.03254418 -0.05912052
0.15083078 -0.14224517

1.running_var f4 [10]
00000000: edcf 333d ea33 843c a7b2 0a3d 060d 703d
00000010: 5d44 6f3d 7a83 d33b 4b58 933c cde1 d23c
00000020: d7fd 2c3d bc1f 443c
0.043899465 0.016138036 0.033861782 0.05860617 0.058414806 0.006454882 0.017986437 0.025742436
0.042234268 0.011970457

3.weight f4 [5, 10]
00000000: 90bb 94bb e5e7 5dbe d1cd b3bc 13d7 223e
00000010: c0c9 9ebe 1764 363d a6fb 4dbd e193 153e
00000020: fba9 52be 040c 01bd 8b46 babd 1ae1 18be
00000030: 9687 413e e3f9 06be be8d f6bd 7e92 a53b
00000040: 88a7 0cbd 7d98 8d3d c458 483e 7c62 803d
00000050: c7f0 c53d f549 a6bd 5825 2dbe 05ea 93bc
00000060: d1d6 b7bd 71ef db3d 8ac7 ffbc a165 0b3e
00000070: d431 893d 798c 55be 5291 3b3d 3f26 8a3e
00000080: 6709 8abc 4efc c83b 4fba 9dbd 83d4 33be
00000090: 9cc9 debc fd0a 053d b622 c93b b441 143e
000000a0: 79b1 06bd b3d8 d23c f4a4 233d 4015 c1bc
000000b0: e23d 0e3d 957f fabc da81 b53b a5be 75bd
000000c0: c3b4 38ba 2ce3 c7be
-0.0045389608 -0.21670492 -0.021948727 0.15902357 -0.31013298 0.044529047 -0.05028882 0.14607193
-0.20572655 -0.0315056 -0.09095486 -0.1492962 0.18899378 -0.13181262 -0.12038754 0.0050528636
-0.034339458 0.069138505 0.19565111 0.062687844 0.09665065 -0.08119575 -0.16908777 -0.018055925
-0.0897652 0.10739029 -0.031223077 0.13612987 0.06698957 -0.20854367 0.045792885 0.26982304
-0.016850187 0.0061335927 -0.07701551 -0.17561536 -0.027195744 0.032481182 0.006138171 0.14478189
-0.032884095 0.025738096 0.039952233 -0.023569703 0.034726985 -0.030578414 0.005539161 -0.059996266
-0.00070459786 -0.39040506

3.bias f4 [5]
00000000: 3d27 253f fc5a 103e eb2b 043e fe26 5a3e
00000010: e24a f03d
0.64513 0.14097208 0.12907378 0.21303937 0.11733033

5.weight f4 [10, 5]
00000000: 9aac 543c 784d 353c 4595 d1bc f48c 343d
00000010: 57de 05bf e0e1 373f 81c5 983e 91a9 acbe
00000020: fc98 90bc b64e 903e cfd9 4ebd 9d50 5bbe
00000030: de19 9ebe e891 7d3e 2219 1cbd 2074 3d3b
00000040: c32c 223e 4d15 993e 3daf c93e 7870 fd3d
00000050: b108 a23b 04c7 f53d f59d 81be e337 ebbe
00000060: ca36 8cbe 368c b2bd 6e7c c2be aff0 8c3e
00000070: 5e78 08bc f170 fdbd 305c abbc 9513 fc3b
00000080: c6a6 b0be b569 dc3e 4a8b 103e 97a2 513c
00000090: a2c2 873d c75b 583e b9c5 9b3e ca76 993d
000000a0: 9458 513e 0079 b7be 2984 74be 1fce 81bd
000000b0: 855d 133e 76c0 49bd d641 a53e 5273 b6be
000000c0: cea0 ae3c 6c05 5b3e
0.012980605 0.011065833 -0.025583873 0.044079736 -0.5229239 0.7182903 0.29838184 -0.3372312
-0.017651074 0.28185052 -0.050500687 -0.2141747 -0.3087911 0.2476269 -0.038109906 0.0028908327
0.15837388 0.29899064 0.3939151 0.12374967 0.0049448838 0.1200085 -0.25315824 -0.45941076
-0.2738555 -0.08718149 -0.37985557 0.27527377 -0.008329479 -0.123750575 -0.020917982 0.007692764
-0.34502238 0.43049398 0.14115635 0.012795112 0.0662892 0.2112876 0.30424288 0.0749336
0.20443946 -0.35834503 -0.2387854 -0.063381426 0.14391144 -0.04925581 0.3227679 -0.35634857
0.021316912 0.21388787

5.bias f4 [10]
00000000: be7f e03d 207f d23e 4170 ec3c f8fb 04bd
00000010: c418 d5bd f2c5 c7be 60de bcbc 2c32 81be
00000020: 71c0 e6bd 7cb1 9c3e
0.10961865 0.41112614 0.02886212 -0.03246686 -0.10405114 -0.39018208 -0.023055255 -0.2523359
-0.11267174 0.3060416

6.weight f4 [10]
00000000: 43fe ba3e 3c38 403f 9087 d33e 4e5e 3f3f
00000010: ef29 593f 58e4 223f 7e7d a13f 8c5d 383f
00000020: 4c88 093f a9f8 4c3f
0.3652211 0.75085807 0.41314363 0.7475327 0.8482961 0.63629675 1.2616422 0.7201774
0.537236 0.80066925

6.bias f4 [10]
00000000: f16e 2f3f 4155 db3e bc65 243f 3f6d c53d
00000010: 345c 113f 9221 d43e 7a72 43be 87c0 fc3d
00000020: 4bd2 f53e 8f89 473e
0.6852866 0.4283848 0.64217734 0.09639978 0.56781316 0.41431862 -0.19086638 0.12341409
0.48012003 0.19486068

6.running_mean f4 [10]
00000000: c4a2 0c3e e227 393f 9e38 ac3b 3186 6a3d
00000010: 062f 24be 00c5 eabe 5fd1 4a3c 8a1f 3ebe
00000020: 7800 c2bd b41f 9b3e
0.13733965 0.7232648 0.0052557727 0.05725688 -0.16033563 -0.45853424 0.0123790195 -0.18566719
-0.09472746 0.30297625

6.running_var f4 [10]
00000000: 3a22 5c39 d03f e23c fe39 123b e7ec 4a3b
00000010: eae6 6e3b b499 283b 2a7f 9c3b 5633 e33a
00000020: ebd3 643b f067 323b
0.00020993585 0.027618319 0.0022312398 0.0030963959 0.0036453553 0.002572638 0.0047759013 0.0017334025
0.0034916352 0.0027222596

8.weight f4 [20, 10]
00000000: e5a3 06be 74a3 293f a2ed d8bc 3a37 a83d
00000010: 7754 8cbc 1e3a 9d39 7533 1e3e 2856 373e
00000020: fc87 ea3e 6125 083e e2dc 03bd 3714 67bd
00000030: 5092 873d eeb8 4ebb 7b42 62bd 51e7 b73e
00000040: 933d 4dbd 15bc a8bd b87b 863e 1bf6 90be
00000050: 20c8 3fbe 4890 f0bd 44e6 bd3e e1c7 5abe
00000060: d116 023f 1b64 303d 0dcc 663e 77c4 fcbe
00000070: 01a0 043f 32b8 133e 628c 453d 1ecf efbd
00000080: 622a e2bd 2da0 8fbe a95a 22be f553 fb3e
00000090: 6364 60bb 93ea 903e 917d f43e 99ec e4be
000000a0: 1112 ecbe 6892 c33d 9d75 a3be 9d1c b53c
000000b0: af6e 51bc f07d 80bd a518 16be 9f8a 0d3c
000000c0: 2f30 983d b0fc 1bbe 88f1 9cbe d2d2 25bd
000000d0: 5870 3f3f cbc4 28bd bb52 68be 97f5 e9bd
000000e0: e080 a6be 3506 ef3d 3a30 91bc a013 26be
000000f0: 8a54 e23e d32b 5c3e 1ab3 873e 61b6 37be
00000100: fd4b 32be dd13 58be b92f 33be 359d 9cbd
00000110: 8090 5d3c 2ec4 11be 0a55 8fbe 204d 10be
00000120: c109 ff3d c88e bb3d 4ab7 06be 2f3c d1bc
00000130: 48e9 91bd 481e debd 432e 18bd ed2f 3f3e
00000140: dcdd 603e 3262 913d 3e2c 2f3d 375b bebd
00000150: 409a 1abe 737a 66bd 31d2 1cbf 7fbf a6be
00000160: 3746 9f3c 44a0 cabd b1b2 193e 9070 1c3d
00000170: 924d 79bd b5ef 2ebe 543d e7bc bc9b 32be
00000180: 2004 1dbf 5ee2 ccbe 1961 83be 46b6 b2be
00000190: 9f7e 9fbc d4af e33b 37f9 153c e814 263e
000001a0: abdb c13c aa28 22bd 73be dcbc a27b aebd
000001b0: f164 2e3c 81db 133e 9494 723c 177b 4dbd
000001c0: 7022 823c 450c 993d 581e a5bd 6997 503d
000001d0: 5a5d 88bd 75b7 ecbc b599 0d3e ec37 453e
000001e0: 5e1b 993d 8154 68bc d707 30be 6273 7fbd
000001f0: f0d6 553d 3e5f 4f3d 55a2 a13b b6e3 193e
00000200: f45c 363d f472 1d3e c2ac 3abd f659 50bd
00000210: b7e7 bcbd 6b96 25bd b7b2 d23b 4c6c 4c3c
00000220: 5397 2a3d 0139 f73c 49dc c23c efb9 423d
00000230: 7907 b13c 5af7 2f3c 6a2b 643d fe54 683e
00000240: ffe0 a53c 910d 123d 0a94 24bd 94a8 06be
00000250: 068c 8c3c 34ac c53c 5295 cfbc 7bb5 89bc
00000260: bf57 6d3d cc55 133d 6183 683c 7bae 9fbc
00000270: 7312 ac3c 9f42 2fbd 24c9 28bd 126e 90bd
00000280: 380a cabc dc49 45bc 4d30 163c 296d ec3d
00000290: 7999 5ebd 91f5 24bd 88ef 133d d283 5fbe
000002a0: e27f c13c b299 a0bc f5d0 963c c0d6 21bd
000002b0: e3a7 9abd 71eb 1ebd 36ed 743b 7e30 a63c
000002c0: 7bcb 10bc 3e30 c13d 0974 8c3d 2777 7c3d
000002d0: 5898 29bb cf5e 5d3c def6 243c b00c 75bc
000002e0: 67e5 74bc 095e 123d 99e6 863b 359a a13b
000002f0: 2dd0 9a3a 1de7 513d ba76 24bc b6c9 07bd
00000300: 24b7 27bd 207c 86be e250 9fbc abdd 33bd
00000310: 4f5f 0b3d d9a3 633e b736 34bc 736f 9dbc
-0.13148458 0.66265035 -0.0264805 0.08213659 -0.01713012 0.00029988674 0.15449317 0.1790396
0.45806873 0.13295509 -0.032193072 -0.056415763 0.06619704 -0.0031543332 -0.055239182 0.35918668
-0.05010755 -0.08238999 0.26266265 -0.28312764 -0.18728685 -0.117462695 0.3708974 -0.2136531
0.50816065 0.043064218 0.22538777 -0.4936864 0.51806647 0.14425734 0.048229583 -0.11709426
-0.1104324 -0.28051892 -0.15854897 0.49087492 -0.0034239523 0.28303966 0.4775205 -0.4471176
-0.46107534 0.09549409 -0.3192567 0.02210837 -0.012782737 -0.06274021 -0.14657839 0.008639007
0.07431065 -0.15233111 -0.30653024 -0.040484257 0.747808 -0.0412033 -0.22687809 -0.11423796
-0.325202 0.11671106 -0.017723192 -0.16218424 0.44205123 0.21501093 0.2650383 -0.17940666
-0.174118 -0.21101327 -0.17498673 -0.07647172 0.013523221 -0.14234993 -0.27994567 -0.14091921
0.12453032 0.09158093 -0.13155857 -0.025541393 -0.07124573 -0.108456194 -0.037153494 0.18670626
0.21959633 0.070988074 0.042766802 -0.092947416 -0.15097904 -0.05626912 -0.61258227 -0.32567975
0.01944266 -0.098938495 0.15009572 0.038193285 -0.060864992 -0.17083628 -0.028227486 -0.1744222
-0.6133442 -0.40016454 -0.25660017 -0.3490469 -0.019469557 0.0069484506 0.009153656 0.16218913
0.023664316 -0.03958956 -0.026946282 -0.08519675 0.0106441835 0.14439203 0.014805932 -0.050166216
0.015885562 0.07473043 -0.08062428 0.050925646 -0.066584304 -0.028896073 0.13828166 0.19259614
0.07475923 -0.014180304 -0.1719049 -0.062365897 0.052206933 0.05062794 0.0049326816 0.15028271
0.04452224 0.15375882 -0.04557491 -0.050867043 -0.092238836 -0.040426653 0.006429996 0.012476992
0.04164822 0.030178549 0.02378668 0.0475406 0.021610009 0.010740126 0.055705465 0.22688672
0.020248888 0.03565747 -0.040180244 -0.13150245 0.017156612 0.024129964 -0.025339756 -0.01681017
0.05794501 0.035970494 0.014191479 -0.019492378 0.021004891 -0.042788144 -0.041207448 -0.07052244
-0.024663076 -0.012041535 0.009166789 0.11544258 -0.05434558 -0.040273253 0.036117107 -0.21827629
0.02362055 -0.019604538 0.018410185 -0.039511442 -0.07551553 -0.038798753 0.0037372834 0.020286795
-0.008837576 0.094330296 0.068580694 0.06163707 -0.0025878157 0.013511374 0.010068623 -0.014956638
-0.014947272 0.03573421 0.004116845 0.004931713 0.0011811309 0.051245797 -0.010038072 -0.03315135
-0.04094614 -0.26266575 -0.019447748 -0.04391257 0.03402644 0.22230472 -0.010999373 -0.019218182

8.bias f4 [20]
00000000: 42df 1fbf 50fc efbe 6bbd 23bf 3770 5fbe
00000010: d676 d23e 46a9 833d be6b 5fbe 5a09 283e
00000020: 1d38 ccbb 3f0c 6e3e b39c a8bd 8452 9cbd
00000030: 7b01 a2bd f0b2 8a3d 3734 00be 2e5c d23c
00000040: e849 b83d fb89 1bbc b963 a7bc ea7f ae3d
-0.6245004 -0.46872187 -0.63960904 -0.2182015 0.4110629 0.06428771 -0.21818444 0.16409817
-0.006232275 0.23246859 -0.08233013 -0.07632926 -0.079104386 0.06772411 -0.12519918 0.02567872
0.089984715 -0.009493346 -0.020433294 0.085204914
