offline_prototype_3_ds_as_sampling/trained_models/ae_model_ds.pth (torch, 25407 bytes, 16 tensors)

0.weight f4 [30, 60]
000000 4e 5f e9 3d 24 93 72 3e 70 87 33 bd 3b 9c 7b 3d
       0.11395131 0.23688942 -0.043830335 0.06142829
000010 b2 a5 25 3a 6c 70 3e bc d4 0c 43 3b 8f d1 10 3e
       0.0006318941 -0.011623483 0.0029762285 0.1414244
000020 d8 1f 17 3e 29 bf 26 bd 58 3c a8 3d 92 db c5 bc
       0.14758241 -0.04070965 0.08214635 -0.02415255
000030 f4 84 d9 3d 55 a5 73 bd 38 a7 c1 bd 44 d7 5d bd
       0.10621062 -0.059483845 -0.094557226 -0.05416037
000040 7f 4d eb 3d ee c1 a4 3d f8 6c bc bc 50 f0 2a 3d
       0.114893906 0.08044802 -0.02300118 0.041733086
000050 23 6e a7 bc 98 3e 3b bd 9e 57 d5 bc b8 37 78 3d
       -0.02043826 -0.04571399 -0.026042756 0.060600013
000060 6b b1 1d bd 6e 9e 1a bd e1 1c 6c bd f7 21 c0 3b
       -0.038499277 -0.037748747 -0.05764473 0.005863424
000070 29 e2 53 bc 36 66 c3 bd b2 97 1a 3d 11 0e 6e bd
       -0.012932339 -0.095409796 0.037742324 -0.058118884
000080 dd 8d a6 3d 46 8c 6c bd 0b 39 86 bd 2e f1 86 3d
       0.08132527 -0.057750963 -0.06553849 0.0658897
000090 72 c9 9f 3b ae 08 8d 3d 65 ed 30 3d 1e ff 62 bd
       0.004876309 0.06886421 0.043195147 -0.05541908
0000a0 db c1 8e 3d 69 9b 19 bd ad 09 73 3d 0e ef bd 3d
       0.06970569 -0.037501726 0.0593354 0.09274112
0000b0 70 8d 9c 3d dc 47 99 bd a5 81 2c 3d 64 3e 92 3c
       0.076441646 -0.07484409 0.042115826 0.017852016
0000c0 f7 3a 92 3d 70 72 89 bd e5 41 02 be c5 6b 1d bd
       0.07140153 -0.0671128 -0.1272045 -0.038432855
0000d0 16 14 ce bd ba a4 ca 3d 26 e7 22 3d 42 e6 6d 3d
       -0.10062425 0.098947 0.03977122 0.05808092
0000e0 98 35 3c 3d 07 3a 18 bc f8 b8 c9 3d 68 01 bc bd
       0.04594955 -0.009291179 0.09849733 -0.09179956
0000f0 37 80 ce 3c c6 e8 26 be fd 97 9a 3d 51 4f f2 bc
       0.025207622 -0.16299734 0.07548521 -0.029578837
000100 19 f0 c8 3d 07 1d f8 bb f2 75 22 3e ae ff 32 bd
       0.0981142 -0.0075718197 0.15865305 -0.043700866
000110 19 d9 5c bd 63 be 5b bd ae ab e7 3d 87 75 79 3d
       -0.053917978 -0.053648364 0.11312042 0.0609031
000120 1a 54 bc 3d 93 70 f4 bd a0 eb 2a be d4 96 ae bd
       0.091957286 -0.11935534 -0.16691446 -0.08524862
000130 aa 54 99 bd e8 3e 88 bc a2 52 67 3d 6b 4e a7 3d
       -0.074868515 -0.016631559 0.05647529 0.08169254
000140 ae 60 80 3d 07 cd 93 bd 69 e9 3b 3d 11 10 6a bd
       0.0626844 -0.0721684 0.045876894 -0.05714423
000150 fc db ea 3d 9d cb 6d 3d c2 8c a4 3d 40 45 7f bd
       0.1146774 0.05805551 0.0803466 -0.0623219
000160 80 47 b7 bd e7 b6 84 3d cd ea 8f 3c 0e fe 61 bd
       -0.089491844 0.06480198 0.017568016 -0.055173926
000170 db 71 31 3d c7 6a 5e 3d 66 e2 97 bd 3f 74 58 bd
       0.04332147 0.05430105 -0.07416229 -0.052845236
000180 b5 7d a1 3d 72 0c 41 bd f0 72 e5 bc ac 57 d8 bd
       0.07885305 -0.04713101 -0.028008908 -0.10563597
000190 a3 c2 4c bd 65 8f 23 3c 1d 18 8a bc 72 8b b1 bd
       -0.049990308 0.009982918 -0.016857201 -0.08669175
0001a0 8b 67 6e 3c e7 cf b0 bd 6b 2c 02 be d4 f7 93 bd
       0.014551054 -0.08633404 -0.12712257 -0.07225004
0001b0 90 64 b5 bd 2a 7c c0 bd 44 e3 03 3e f1 0b c8 3c
       -0.088570714 -0.093986824 0.12879664 0.024419757
0001c0 89 29 28 3d e9 70 e0 bd e7 9c b0 bd c7 9f 2b bd
       0.041055236 -0.10959036 -0.08623677 -0.041900422
0001d0 37 22 8c 3c 0b 79 da bd cc 78 6f bd 26 0f 90 bd
       0.017106159 -0.10667618 -0.05846481 -0.07034139
0001e0 f0 e0 9c bd 55 83 5b be 4f e9 53 bd f3 b2 b8 ba
       -0.07660091 -0.21436818 -0.051736172 -0.0014091417
0001f0 fa 35 9e bd 65 1b c4 3b f0 85 bf bc 22 ea 50 be
       -0.07725139 0.005984711 -0.023379296 -0.20401815
000200 66 9d d6 3d ce 7c ab bc 04 fb bb 3d 4e 8d d5 3c
       0.1047924 -0.020933535 0.09178737 0.026068356
000210 74 e9 0d bd 30 36 f2 3d a9 4f 77 3d 96 f9 8d bd
       -0.034646466 0.11826742 0.060378704 -0.0693237
000220 1d cd ed bd 9a 80 99 bc 85 d9 8d 3d 5b 20 10 bd
       -0.11611388 -0.01873808 0.06926254 -0.035187107
000230 8d 6f 89 bc 2f 3d b6 bd 10 09 bd 3d 30 e0 05 be
       -0.016776824 -0.088983886 0.09230244 -0.13073802
000240 46 c2 c4 bb e2 e3 c3 3b 38 69 8c 3d 8b fa 56 3c
       -0.0060046045 0.0059780935 0.068560064 0.013121258
000250 76 5b d1 3d 6e 9c bd bd 35 ba 08 3d eb 94 7a bd
       0.10222523 -0.09258352 0.033380706 -0.061177175
000260 9f 8b 9d bb 16 71 ae bd 55 62 ed 3d d6 7b 5f bd
       -0.004807904 -0.08517663 0.11591021 -0.05456146
000270 69 6a 5b 3d b7 de 08 3d 9b 34 11 3d 1c 64 89 bd
       0.053568278 0.033415522 0.03545056 -0.067085475
000280 5b 0e b2 3d de 1f 94 3c c0 33 92 3b b2 5d dd bd
       0.08694144 0.018081602 0.0044617355 -0.108088866
000290 81 bc 26 3d 39 cf 77 bc c7 d4 3c bd 39 30 dd 3d
       0.040707115 -0.015125089 -0.046101358 0.10800213
0002a0 ab de e6 3c 4d 92 84 bd 39 f5 6e bd 5c 28 94 bc
       0.028182348 -0.06473217 -0.05833933 -0.018085651
0002b0 a4 ae 8d 3d ba ce 46 bd e4 93 7a bd ee bb 3c bd
       0.06918076 -0.048536994 -0.061176196 -0.04607766
0002c0 5b 3b cb bd 76 63 5a 3d 1e ff bd 3d de 14 f6 bd
       -0.099234305 0.05331751 0.09277175 -0.12015699
0002d0 ec 6e e0 3c a0 a4 76 3e d1 f2 66 bc 0a 51 10 bd
       0.027396642 0.24086237 -0.014095978 -0.035233535
0002e0 f9 41 c4 3d 3e 0b ec 3d 20 15 db 3d a1 3e 01 bd
       0.09582896 0.11525582 0.10697389 -0.03155387
0002f0 00 c6 9b 3b e8 64 f1 3c e6 72 41 bd ab 69 e4 bd
       0.004753828 0.029467061 -0.047228716 -0.11152967
000300 30 09 0a 3e 78 b3 9b 3d f0 7c 8d 3c 39 38 8e 3d
       0.13480067 0.0760259 0.017271489 0.06944317
000310 08 cf 62 3c e8 50 10 3d 16 0c 80 3d de b1 31 3c
       0.013843305 0.03523341 0.06252305 0.0108456295
000320 c9 6d c4 bd 19 44 1a bd 16 d1 4d 3d b2 1e 3c bd
       -0.09591252 -0.0376626 0.050248228 -0.04592771
000330 3a f3 03 bd 9f 71 5c bd d8 7c b6 bc 89 d0 91 bc
       -0.03221438 -0.053819295 -0.022276327 -0.017799633
000340 b7 d9 64 bc 5e 10 1d 3d c7 0b 6a 3d 11 3a 0a 3d
       -0.013967923 0.038345687 0.057140138 0.033746783
000350 a0 88 d9 bd 6e 94 a8 bd 05 4b 85 bb 5e dc 06 3e
       -0.10621762 -0.08231436 -0.004067781 0.13170001
000360 68 21 1a 3d b4 c1 76 3c bb 97 90 3b 80 08 4e bd
       0.037629515 0.015060831 0.004412619 -0.050301075
000370 d2 31 32 bd d0 27 3c 3d a2 2f a2 bd ef f7 d8 bc
       -0.043504544 0.045936406 -0.079192415 -0.026485411
000380 41 16 b5 bd 9c f9 ac 3d f8 8f 5d 3d 68 8b d1 3c
       -0.08842135 0.08446047 0.054092377 0.02557917
000390 f9 d4 e5 bd 4a 09 f8 bd 5e 32 c2 bd 7f 08 c1 3d
       -0.11222262 -0.12111147 -0.09482263 0.094254486
0003a0 5d d6 71 3d 26 af a7 3d f3 46 a6 3d 2f 2d ed 3c
       0.059042323 0.08187704 0.08119001 0.02895221
0003b0 2b ad 49 3a 96 61 ab bd 9a 9c db bd 57 b9 ed bd
       0.00076933455 -0.083682224 -0.10723229 -0.116076164
0003c0 0d b7 91 bb 08 3c 67 be aa b4 85 bd f9 eb 8c bd
       -0.00444687 -0.22581494 -0.065285996 -0.06880946
0003d0 8c f1 60 bc b5 c1 26 be 23 87 0d be 0f c5 94 3d
       -0.013729464 -0.16284831 -0.13821082 0.072641484
0003e0 c2 57 c5 bb bc 53 91 3d 87 58 db bc 9d 3e ac bd
       -0.0060224244 0.07096049 -0.026775612 -0.0841038
0003f0 1d 75 fe 3c c0 0f 88 bc 45 03 db bc 03 65 26 be
       0.031061703 -0.016609073 -0.026734957 -0.1624947

0.bias f4 [30]
000000 3e a7 94 bd 64 85 c8 bd 60 89 9a 3d eb 30 92 bc
       -0.072584614 -0.09791067 0.075457335 -0.017845592
000010 a4 36 5e bc 12 d2 09 bd 7a 42 7f bd 38 22 bc 3c
       -0.013562832 -0.033647604 -0.062319256 0.022965536
000020 10 6b cb 3d 0e 3d 99 bd bd af ca 3b 90 13 c9 bd
       0.0993253 -0.074823484 0.0061855004 -0.098181844
000030 e0 f2 77 bd 1c 14 e8 3d fb 6b b1 3a 86 b2 fe 3d
       -0.060534358 0.113319606 0.0013536209 0.124363944
000040 f8 4a b9 bc 79 1b 90 bd 2b f9 9d bd 76 56 ea 3d
       -0.022618756 -0.0703649 -0.07713541 0.11442272
000050 1a 51 cb bd dc c0 8a 3d b8 72 03 3d d8 0c 1c 3d
       -0.09927578 0.06775066 0.032091826 0.038098186
000060 be 2e 95 3d 0c 58 0a bd 28 99 a3 3d 65 a6 d2 bd
       0.07284306 -0.033775374 0.079881966 -0.102856435
000070 f6 0c 3a bd 6e 8c c1 3d
       -0.045422517 0.09450613

1.weight f4 [30]
000000 b3 8b 6e 3f 11 95 77 3f 28 96 6e 3f 57 4a 74 3f
       0.93181914 0.9671183 0.9319787 0.95425934
000010 3f a4 75 3f e1 69 6f 3f 3c 6b 6c 3f 4b f0 73 3f
       0.95953745 0.93520933 0.92351127 0.9528853
000020 05 25 70 3f fa 63 69 3f 1c e6 77 3f c9 d0 73 3f
       0.9380649 0.9116818 0.96835494 0.95240456
000030 47 2e 67 3f 49 df 6e 3f 4d 15 71 3f 1d 25 72 3f
       0.9030499 0.93309456 0.9417313 0.9458788
000040 27 4f 7a 3f b2 3e 72 3f 2e 6e 6d 3f 23 49 72 3f
       0.97777027 0.94626915 0.92746246 0.9464285
000050 5c 6b 76 3f 0c 44 7a 3f 01 87 78 3f fe 88 68 3f
       0.9625757 0.9776008 0.97081 0.90834033
000060 fc 39 7a 3f a8 ba 6f 3f 91 1c 88 3f f6 46 75 3f
       0.9774473 0.9364419 1.0633718 0.958114
000070 26 74 66 3f 57 09 69 3f
       0.9002098 0.91029876

1.bias f4 [30]
000000 42 e2 1c 3d 92 ea 83 bc ed 79 ce 3c c2 e6 08 3d
       0.038301714 -0.016103063 0.025204623 0.033423193
000010 06 59 82 3d 8b 65 40 3d ef ff 2f 3d fc 9f 1a 3d
       0.06364636 0.04697184 0.042968687 0.03775023
000020 b3 63 ed 3c cd 70 51 3d bb 6b 39 3d 9f d7 27 3d
       0.028978204 0.051132966 0.045268755 0.040977117
000030 42 48 02 3d d5 c7 1e 3d dc d2 d1 3c 76 23 5d 3d
       0.03180719 0.038764793 0.02561324 0.053988896
000040 41 62 3d 3d 8b f5 24 3d 4e 88 b5 3d 3a 74 ac 3d
       0.04623628 0.04027323 0.08863889 0.08420606
000050 32 9b bf 3d 0d a6 14 3d 6c 80 94 3d 90 60 35 3d
       0.09355773 0.03629117 0.07251057 0.044281542
000060 bb 22 92 3d 0b 62 0e 3d 95 2d 9a 3c 36 db c4 3c
       0.071355306 0.03476147 0.018820563 0.02403031
000070 d3 52 84 3c 7e 3e 8a 3d
       0.016152775 0.06750201

1.running_mean f4 [30]
000000 d8 53 1a be ec 59 19 bd 08 95 02 3e ef 03 f4 bc
       -0.15071046 -0.03743927 0.12752163 -0.029787032
000010 67 ce 7f bd c4 83 82 bc 39 7d 0d bd 0f 68 d5 bc
       -0.0624527 -0.015931971 -0.03454325 -0.026050596
000020 da 6d 8a 3d 2a 1f 26 3c d2 82 90 bc 31 5e 08 3c
       0.06759234 0.010139266 -0.017640505 0.008323238
000030 97 df 89 bd ab fa 0c 3e ce 66 59 bd b1 32 48 ba
       -0.067320995 0.13767497 -0.053076558 -0.0007636948
000040 d1 ed 42 3b 4a a1 55 3d 80 6a 59 3d ef bd 80 3d
       0.00297438 0.05215577 0.053080082 0.06286227
000050 86 a7 58 3b 1a a1 36 bc 24 04 a1 3d 0c 04 1a bd
       0.0033058836 -0.011146808 0.07862118 -0.037601516
000060 fc f8 16 3e 42 28 a5 bd 41 20 d9 3d c8 11 3b bd
       0.14743418 -0.08064319 0.10601855 -0.045671254
000070 80 12 c1 bd 9d 92 d1 3d
       -0.09427357 0.102330424

1.running_var f4 [30]
000000 63 49 a6 3c fd e1 15 3c 6c f7 b1 3c 61 0c b2 3c
       0.020298665 0.009148118 0.021724425 0.021734418
000010 02 8a 8a 3c b9 7f 1d 3c b8 ef eb 3b e9 e2 d0 3b
       0.01691151 0.009612971 0.0072002076 0.006374706
000020 b1 50 2d 3c 90 5b 45 3c 78 f3 8a 3c 2e 33 06 3c
       0.01057832 0.012045756 0.016961798 0.008190913
000030 78 85 b0 3c 70 37 af 3b 41 2b c8 3c 20 3a 6a 3c
       0.021548018 0.005347185 0.024434688 0.014296085
000040 0e 03 19 3c a3 bd 61 3c 4f a8 5a 3c f0 0b 0f 3c
       0.009339107 0.013778123 0.013345792 0.008730873
000050 51 13 8b 3c 0e ad a0 3c 65 78 f6 3b a5 0b 9a 3c
       0.016976984 0.019613769 0.0075216764 0.01880438
000060 9e 58 91 3c d9 c3 14 3c 5d 23 35 3c 0c c9 f6 3b
       0.017742451 0.009079897 0.011055795 0.007531291
000070 b8 27 82 3c 08 47 d0 3b
       0.01588808 0.006356124

3.weight f4 [15, 30]
000000 41 96 2e bd ce c0 8b 3c b8 28 97 bb 0e b8 8a bd
       -0.042623762 0.01705971 -0.0046130084 -0.06773387
000010 59 05 af 3d a5 19 4a 3c 27 67 55 bc 2f 2b 16 3b
       0.08545942 0.012335216 -0.013025082 0.0022913923
000020 73 b0 37 3d b2 f0 7f bd 9b 26 4c bd cb 43 13 3e
       0.04484601 -0.062485404 -0.049841505 0.1438133
000030 f1 39 f3 3c 0d b3 b8 3c f2 ee 05 be 72 19 3a 3d
       0.029690715 0.022546316 -0.13079432 0.045434423
000040 a5 37 c3 3d cb cd 67 bc 56 05 df 3d 0c 51 12 be
       0.09532098 -0.014148186 0.108896896 -0.1428873
000050 a9 47 23 3c ee 21 14 be 9c 96 b0 3d 85 13 a5 3d
       0.009965816 -0.14466068 0.086224765 0.08060364
000060 68 1e 98 3d 32 8f 0b 3e 00 6c 21 be da 56 24 be
       0.074276745 0.13628843 -0.15763855 -0.16048756
000070 a7 14 e1 bd 21 89 39 3d d7 e1 9e bc ac 39 42 be
       -0.10990267 0.045296792 -0.019394798 -0.18967313
000080 df b7 35 3d b2 2a 22 3e 2c 86 52 be e7 dc 07 3e
       0.044364806 0.158366 -0.20558995 0.13267861
000090 b8 5a 82 bc c8 43 32 3d 3d 45 9f 3d 40 20 c0 3d
       -0.015912399 0.043521672 0.07776878 0.09381151
0000a0 9a 0e 01 3d 0e a8 84 3c ab a4 fe 3c 64 58 df bc
       0.031508066 0.016193416 0.03108438 -0.027263828
0000b0 96 37 2b be 57 1c 98 3a 97 69 2b be 06 c3 8d 3d
       -0.16720423 0.0011605126 -0.16739498 0.069219634
0000c0 73 82 99 bc c2 b2 0d bd 30 e4 ff bd d3 51 16 3d
       -0.01873896 -0.034594305 -0.12494695 0.036699127
0000d0 71 01 ae 3d f6 ff 01 3e 82 6a 06 3e c3 6c b4 bd
       0.08496369 0.12695298 0.13126567 -0.08809807
0000e0 47 58 21 3c c4 c9 e2 bd ab 94 cf bc 8c 38 46 3c
       0.009847707 -0.1107364 -0.025339445 0.012098443
0000f0 6a 93 08 3e 19 b4 af 3d ea 86 dd bd c3 5e bf 3c
       0.13337484 0.08579273 -0.108167484 0.023360616
000100 06 3c 43 bd dc b5 51 bd e1 fa 40 3d 3d da 99 3b
       -0.047664665 -0.051198825 0.047114257 0.0046952055
000110 98 56 bf 3d ae ef 3e bc e0 9c 9d ba 5f 60 8f bd
       0.09342688 -0.011653824 -0.0012024902 -0.07000803
000120 b5 91 26 bd 42 64 81 3d 5e af 0f 3e 8e 8d 59 3d
       -0.0406663 0.06317951 0.14031741 0.053113513
000130 af 56 d9 bd 8b df 39 3d b3 44 b6 bd 55 07 7f 3d
       -0.10612237 0.045379203 -0.08899822 0.06226285
000140 d0 ce 2d be 29 7c 17 bc 90 56 a4 3d 88 b1 e4 bd
       -0.16973424 -0.009245911 0.08024323 -0.11166674
000150 3b 2c 31 be 4d d7 b1 3d 60 1d 89 3d d4 f7 b0 bd
       -0.17302029 0.086836435 0.06695056 -0.086410195
000160 6f 3e b2 3d fb ff 60 bd 12 1e 8f 3d ff 78 9b bd
       0.087033145 -0.054931622 0.06988157 -0.075914375
000170 2e 1e 66 bc d1 39 b5 3d 55 26 b8 3d af 55 09 bc
       -0.014045281 0.08848918 0.08991686 -0.008382245
000180 7d e3 9f 3d e3 03 98 bd f1 b8 83 3d 6b e9 ab 3d
       0.07807062 -0.07422616 0.06431759 0.0839413
000190 1d b8 6f be 67 a3 c1 bd 25 db f5 bd 15 34 26 3d
       -0.23410077 -0.09454995 -0.12004689 0.040577013
0001a0 58 b7 b0 bd 2a 4a cc bd 4f c2 15 3e 5b cb 92 bd
       -0.0862872 -0.09975083 0.14624904 -0.07167693
0001b0 3c 1f 01 3e c1 a6 d2 bc 1c 3b 35 3e 9d 9c 07 bd
       0.12609571 -0.02571428 0.1769833 -0.033108342
0001c0 fa 08 36 3d 28 16 d0 3c 93 d3 0c 3d 58 ab af 3d
       0.044442154 0.02540119 0.03438146 0.08577603
0001d0 80 27 f6 bd bc 9d d6 bd 16 91 10 3e 8e ec d6 bd
       -0.12019253 -0.10479304 0.14117846 -0.10494338
0001e0 e9 e0 8c bc 59 c4 07 3d 1c dd 4b bd 56 b4 6b 3c
       -0.01719709 0.033146236 -0.049771413 0.014386257
0001f0 64 4d a2 bd 3f 58 3f 3d 33 fb 45 bc 13 39 90 3d
       -0.07924917 0.046715017 -0.012083816 0.07042136
000200 af 57 ea 3d f4 1c 85 bd 0c c2 d3 3d ac 0f b7 3d
       0.114425056 -0.06499663 0.10339746 0.08938536
000210 f2 a2 84 3d 72 9d 5d 3c 5b 95 de bc 15 f4 40 be
       0.06476392 0.013526307 -0.027170828 -0.1884311
000220 00 e2 b2 bd f6 15 78 3d 8c 41 2b bd c2 ae c9 3c
       -0.08734512 0.06056782 -0.041810557 0.024619464
000230 a2 fc 0a 3e 26 ec 24 bd be c2 0b be 6f 0e 35 be
       0.13572934 -0.04026427 -0.13648507 -0.17681287
000240 58 ca e2 bd ee 97 dc 3d bf 77 21 be 68 6b 33 bd
       -0.1107375 0.10771166 -0.15768336 -0.043803602
000250 e4 04 9c bb b1 d9 68 3d b0 d9 31 3e 88 c0 e5 bb
       -0.004761325 0.05684823 0.17368197 -0.007011477
000260 55 e6 cd 3d 70 68 ca 3d e4 eb ea bb 34 19 40 3c
       0.10053698 0.09883201 -0.0071692336 0.011724759
000270 c8 0a ea bd 5e 48 01 bd a1 fc fb bc b3 7f 8e 3d
       -0.114278376 -0.031563155 -0.030760111 0.069579504
000280 ec 39 1f 3d 6f 7e bb 3c b0 c0 2f 3d fe f3 11 3c
       0.038873598 0.022887437 0.04290837 0.00890827
000290 6e cf 4c be aa d9 36 3c e7 63 e5 3b 96 3a 21 3e
       -0.20001003 0.011160294 0.0070004347 0.15745005
0002a0 e8 77 ca bd 39 11 cf bd a6 00 8c bb 35 1a 95 bd
       -0.098861516 -0.10110707 -0.0042725382 -0.07280389
0002b0 81 bc dc 3d bf 12 61 bd 33 58 d3 3c d1 05 d3 bd
       0.10778142 -0.05494952 0.025798893 -0.10303844
0002c0 d3 63 b9 bd fd a3 06 3d 6d 8a 28 3d 9c ed 63 bd
       -0.09052243 0.032871235 0.041147638 -0.055646524
0002d0 28 73 e4 3d 91 71 a7 bd 88 6c 4f be 80 f7 f2 bc
       0.11154777 -0.08175958 -0.20256245 -0.029659033
0002e0 37 e1 df bc 39 f5 eb bc d7 0b 6a 3d 4e 1e 01 be
       -0.02732907 -0.028803455 0.057140198 -0.12609217
0002f0 3c 00 a2 bd 9d fa 98 3d 01 58 f5 3c 11 1a 42 3c
       -0.07910201 0.07469676 0.02994919 0.011847035
000300 a0 89 0d bb 65 e8 b5 bd e5 41 9c 3d 65 58 ec 3c
       -0.0021596923 -0.08882216 0.07629756 0.028850744
000310 6e 5c 07 be 73 b6 95 bd cb 45 2c 3d 8a f3 5c 3c
       -0.13218853 -0.0731019 0.042058747 0.013485799
000320 50 d0 79 3d d0 18 0b 3e 0f 5e a0 3c a4 b1 58 bd
       0.060989678 0.13583684 0.0195761 -0.052903786
000330 f8 79 88 3d 40 1c 95 bc f7 03 83 bd 68 ee b2 bd
       0.06663889 -0.018201947 -0.063972406 -0.08736879
000340 86 24 35 3c ce 44 6b 3d 5e 59 9e 3c 33 a7 24 be
       0.011056071 0.057438664 0.019329723 -0.16079406
000350 f1 d2 a9 bd b1 f5 42 be da 47 83 3d 75 e6 7d 3c
       -0.08292187 -0.19039036 0.06410189 0.01549684
000360 75 bf 23 3c af 52 28 3e 14 0c 40 3d 73 7d 33 bd
       0.009994377 0.16437791 0.04688652 -0.04382081
000370 e2 4d 4c bd 61 5e 20 3d b7 25 0d 3e 15 53 2a be
       -0.049878962 0.039152507 0.13783918 -0.16633256
000380 a6 5c fb bc c9 67 4d bd c1 4e 1a 3c 6c 56 df 3d
       -0.030683827 -0.050147805 0.00941819 0.109051555
000390 37 86 fa bd 6d 92 07 be bc 61 d6 bc 09 08 a9 3d
       -0.12232631 -0.13239451 -0.02616965 0.08253486
0003a0 37 1e 55 3e 25 2a 9d bb 42 ea b0 3d cc f3 44 3b
       0.20812307 -0.004796284 0.08638431 0.003005254
0003b0 87 2c 30 3e 72 0f 00 be 92 9a 4e 3c 4b b3 d7 bd
       0.17204486 -0.12505892 0.012610095 -0.10532244
0003c0 e9 92 50 bc 17 15 12 3d 39 ca af bd 14 65 a7 3d
       -0.012730339 0.035664644 -0.08583493 0.08173576
0003d0 8f 1b e3 3c a3 32 26 bc 67 2e a0 bd ed 3a 73 3d
       0.027723102 -0.010143909 -0.078213505 0.059382368
0003e0 39 08 30 bc fb d1 22 3c cc be 1f bd 9c cc 9e 3d
       -0.010744148 0.009937759 -0.039000317 0.0775387
0003f0 98 ef 97 3d f0 ad ee bb 01 e0 47 bc cb f1 72 3d
       0.07418746 -0.0072839186 -0.012199403 0.059312623

3.bias f4 [15]
000000 ba cc 04 bc 61 37 f4 ba a7 ab 53 be 52 b3 8a 3d
       -0.008105451 -0.0018632227 -0.20670949 0.06772484
000010 5e 95 9a 3d 26 08 35 bd 57 8c 73 3e 99 3b 93 3d
       0.07548021 -0.044197224 0.23784004 0.07189102
000020 e8 25 6b bd aa 73 37 3e 53 5b 95 3e cd 50 0d 3e
       -0.057409197 0.17915216 0.29171237 0.13800354
000030 f2 cd 47 bc d0 67 8d bd ba 78 16 3e
       -0.012195097 -0.06904566 0.14694491

5.weight f4 [30, 15]
000000 89 ed 25 3e 2b 02 46 3e 31 4a 0d be 5b 5b 32 be
       0.16203894 0.19336765 -0.13797833 -0.17417662
000010 0a 29 8c be a2 c5 bb bd 19 a2 b2 bc f4 95 02 be
       -0.2737506 -0.09168555 -0.02180581 -0.12752515
000020 a5 bf db bd d5 5d 83 3d 6a 4f 92 be 91 7b 37 be
       -0.10729913 0.064143814 -0.28576213 -0.1791823
000030 17 47 f6 bd 54 ae 0c be ae cf 3d 3e aa d3 5e 3d
       -0.12025278 -0.13738376 0.18536255 0.054401077
000040 26 cb cd bd d9 97 8e 3d 37 37 94 3d 01 42 0d be
       -0.10048513 0.069625564 0.07237094 -0.1379471
000050 53 7c 25 be 91 47 8a be 40 80 6d be da 49 9d 3d
       -0.16160707 -0.27007726 -0.23193455 0.07680102
000060 aa bf 61 be 82 84 ad bc bb d6 36 3d 6f f0 41 3e
       -0.2204577 -0.021181349 0.044638377 0.18939374
000070 a6 e1 40 3e a1 8e 15 3d bc 1f f9 ba ae 35 0a be
       0.18836078 0.036512975 -0.001900665 -0.1349704
000080 e7 96 91 3d 82 98 36 bc 2d 8e a9 bd 1a 43 f5 bd
       0.071088605 -0.011144759 -0.08279071 -0.11975689
000090 cb 23 12 be 4f f8 5b be c7 f9 19 3e d8 b1 a8 3d
       -0.14271466 -0.21481441 0.15036689 0.08237046
0000a0 ae 88 59 be e3 f4 b9 3d 18 86 e6 bd b1 bd 42 bc
       -0.21243545 0.090799116 -0.11256045 -0.011886046
0000b0 06 d9 b3 3c 00 bf 34 3e 91 68 8e 3d a2 b2 46 be
       0.02195407 0.17650986 0.06953538 -0.1940408
0000c0 d1 e9 48 bc ae 3f 7a 3d 50 5c 3e 3d 28 a8 0a 3d
       -0.012262777 0.061095886 0.046474755 0.033851773
0000d0 99 9f 8f bd e4 7c 25 bd 04 aa 42 be 3c 78 15 be
       -0.07012863 -0.040402308 -0.19010168 -0.14596647
0000e0 6d 9e b9 3d 11 b7 24 3e e9 96 c6 3d c5 8f 01 be
       0.090634204 0.1608546 0.096967526 -0.126525
0000f0 a7 72 95 bc b2 10 2f 3e 14 ee 9c 3d e5 ac 01 3e
       -0.018243147 0.17096213 0.07662597 0.1266361
000100 67 5b c4 3d 87 d3 ff bb 3e 84 84 be c0 e1 ea 3d
       0.09587746 -0.0078071984 -0.25882143 0.1146884
000110 f4 3a 35 bc 8c e5 18 3e 8a 69 88 3e 3d ef bf bc
       -0.011061419 0.14931315 0.2664302 -0.023429507
000120 bf 13 2f 3e 8d 02 02 be 66 92 6f 3e 54 f5 38 3e
       0.17097376 -0.12696286 0.2339569 0.18062335
000130 1e 77 ad bd 33 5c 12 be af 1a 09 be 14 d5 9b bd
       -0.084699854 -0.14292984 -0.13389085 -0.07609001
000140 e7 35 19 3d 0c 12 6b be 76 95 cf 3c 86 74 7a bd
       0.03740492 -0.22956103 0.025339823 -0.06114628
000150 a3 b7 85 bc 46 ee 3e be ca ca 55 bb 9f ff 99 be
       -0.016322916 -0.18645582 -0.0032622092 -0.30077836
000160 c5 ec b7 bd b9 6c 9f 3d c2 42 d5 3d 9d 5f 7d 3e
       -0.08980707 0.07784409 0.10413124 0.24743505
000170 99 99 87 be c6 ea 97 3d 36 ae 00 be 28 b2 54 be
       -0.26484373 0.07417826 -0.12566456 -0.20771086
000180 be b3 29 be ac d5 4b be 86 0a 4d be b2 c0 48 be
       -0.16572472 -0.19905728 -0.20023546 -0.19604757
000190 d4 85 8e bd 4d 5d 50 3e b9 12 fc 3d e4 ee 11 be
       -0.069591194 0.20348091 0.123082586 -0.14251286
0001a0 c2 58 2e be 9b b8 3c be 0a d0 9b bd 5b a8 c0 bd
       -0.17026046 -0.18429796 -0.0760804 -0.09407111
0001b0 62 ce 32 3e 81 69 03 3e f8 9f c7 bd 6b a8 1f 3e
       0.17461541 0.12833215 -0.097473085 0.1559159
0001c0 b5 34 71 be bd a8 53 be a1 2b 0d 3e a0 30 5b be
       -0.23555262 -0.20669837 0.13786174 -0.21405268
0001d0 ed 0d ef 3d 2e 28 da 3d 7a 77 00 be c9 a8 e1 bd
       0.11672578 0.10652195 -0.12545577 -0.11018521
0001e0 10 38 de 3d 06 2c 26 be 0a 43 59 3e d9 bf 1c be
       0.10850537 -0.16227731 0.2121698 -0.15307559
0001f0 48 59 10 3e e0 ef 35 be bf 66 60 be 9f de 98 3c
       0.14096558 -0.17767286 -0.21914195 0.018660842
000200 88 0b 0d 3e e9 14 05 3e 17 23 5a 3e de 38 b5 bd
       0.1377393 0.12996258 0.21302448 -0.08848737
000210 ed 20 f0 bd bb 20 15 3d 6b d6 e7 bd 85 97 8b 3c
       -0.1172503 0.036408167 -0.11320194 0.017040024
000220 b0 7b 5a be 8d 44 14 be 60 bc 02 3e f8 f4 d1 bd
       -0.21336246 -0.14479275 0.12767172 -0.10251802
000230 08 75 4e 3e 63 20 d8 3d 91 5e 77 3d 26 9e 94 3e
       0.20161831 0.10553052 0.06039292 0.29026908
000240 c5 d8 7c be 08 c8 2d be 20 a6 a8 3d 78 73 fc 3c
       -0.24692066 -0.16970837 0.08234811 0.030816779
000250 d7 d5 3f be e0 c3 7e 3c 68 1a ad bd 8d 5b 00 3d
       -0.18733917 0.01554963 -0.08452302 0.03133731
000260 8d 57 35 3e 12 f0 99 bc 5f fc 3e 3d 7c 34 b0 bd
       0.17709179 -0.018791232 0.0466274 -0.086037606
000270 d2 35 ef 3c d8 63 0e 3e 60 b5 8f 3d 29 ae f7 bd
       0.029200468 0.13905275 0.070170164 -0.12093765
000280 10 37 60 be 7b 35 52 3e fe 43 6d 3e 4e a5 71 3e
       -0.21896005 0.20528214 0.23170468 0.23598215
000290 4f b4 20 be b6 d6 7d 3e 4c b4 3e 3c 07 8a 26 3e
       -0.15693782 0.24788937 0.011639666 0.16263591
0002a0 65 4d 69 3e 3c f6 96 bc ad f8 3c bc 0c 72 1d 3e
       0.2278343 -0.01842796 -0.011533898 0.15375537
0002b0 99 f3 26 be 71 16 28 3e 7c 5f 0a be a8 5a 00 be
       -0.16303863 0.1641481 -0.13512987 -0.12534583
0002c0 17 b7 c2 be 20 01 15 be df e3 c6 3d 2e 41 8b bd
       -0.3803031 -0.1455121 0.09711432 -0.067995414
0002d0 f2 8f 66 be ee e0 16 3e 16 4c d2 3d 4f b1 9e 3a
       -0.22515848 0.14734241 0.102684185 0.0012107285
0002e0 cd 10 52 be 12 64 59 bd 49 7a 0c be 24 c5 b5 3d
       -0.20514221 -0.05307395 -0.13718523 0.08875492
0002f0 7b a7 11 bd 0b 28 0a be 98 57 89 be 04 1f 97 bd
       -0.035560112 -0.13491838 -0.2682464 -0.07378963
000300 28 5a 00 3e 08 bf 04 3e 27 84 51 3d b1 e5 eb bd
       0.12534392 0.12963498 0.05115142 -0.115184195
000310 f4 d1 38 3e a5 f0 46 bc aa 7f 44 be b8 ab 28 be
       0.18048841 -0.012142335 -0.19189325 -0.16471756
000320 1a 91 ae bd 2d 38 3a 3e 41 59 10 3e a4 6a 62 3e
       -0.0852377 0.18185492 0.14096548 0.22110993
000330 87 c4 39 bd bb 7b 97 3d 4a 2b 58 bd 6f 2b fc bd
       -0.04535344 0.073966466 -0.05277566 -0.12312972
000340 76 e8 33 be e5 f4 12 be 4c cb 83 be 6b e3 9a be
       -0.17569146 -0.14351232 -0.2574104 -0.3025163
000350 24 cc e4 bc 2c 17 d6 bd 1a 68 50 bd 53 bb cc bd
       -0.027929373 -0.104536384 -0.05088053 -0.09996667
000360 14 41 28 3e 9d 47 a1 bd 25 53 fe 3d ed 75 66 bc
       0.16431075 -0.07874987 0.12418202 -0.014066202
000370 76 82 57 be 09 7a 75 3d 40 7d b1 3d 49 2e 83 3e
       -0.2104586 0.059930835 0.08666468 0.2562125
000380 6e 44 bc 3c 86 b2 5a 3e da c0 12 be 98 5d 5e be
       0.022981849 0.21357164 -0.1433138 -0.2171539
000390 4c 3b 19 3e 9a f0 90 3c 14 f0 9b 3e 80 14 cd bc
       0.14964026 0.017692853 0.30456603 -0.02503419
0003a0 03 3b 35 be 65 04 29 3e 41 ae 93 3e be fc 21 3e
       -0.17698292 0.16505583 0.28843883 0.1581907
0003b0 6c b2 91 3b b1 44 08 bd a9 52 bb bd a4 8e fa 3d
       0.0044463184 -0.033268634 -0.091466255 0.12234238
0003c0 1d 99 b7 bd c2 5c cd bb d3 27 48 3e 9c d8 7d 3c
       -0.08964751 -0.006267161 0.19546442 0.015493538
0003d0 d4 9d f6 bd 0a fb 4d 3e 45 7f dd 3d f2 fb 56 be
       -0.12041822 0.20115295 0.1081529 -0.20994547
0003e0 f7 b6 4b 3e 67 c7 79 3d 9e 7b 1f be ef 3a 3c be
       0.19894014 0.06098118 -0.155745 -0.18381856
0003f0 9f 0f 1a 3d af f1 85 be eb f8 1e bd 0a d8 55 3e
       0.037612554 -0.26160952 -0.038811605 0.20883194

5.bias f4 [30]
000000 c0 64 d1 3d 04 2a 7c be 62 19 5b 3e 82 de dc bd
       0.10224295 -0.24625403 0.21396402 -0.107846275
000010 f2 cf 64 3e 5e d9 59 3e 34 ff c3 3d 17 b5 83 3e
       0.2234495 0.21274325 0.095701605 0.25724098
000020 44 d2 17 3e 76 10 1b 3e 16 90 b3 bd 20 39 75 3e
       0.14826304 0.15142998 -0.087677166 0.23947573
000030 f0 97 8a 3d e2 36 1c 3e b4 20 6f bd 1a 7b 3f 3e
       0.06767261 0.15255311 -0.058380798 0.18699303
000040 c4 8b 6a 3e f1 97 4a be b0 c0 58 3e 83 bc 2e be
       0.22904879 -0.19784524 0.21167254 -0.17064099
000050 84 07 36 be 9f f3 5c be a4 cc 98 3d f6 83 46 be
       -0.17776304 -0.21577309 0.07460907 -0.19386277
000060 12 0e c7 bd 6f e8 04 be dc 53 8d 3d 64 c9 81 be
       -0.097194806 -0.12979291 0.069007605 -0.2534896
000070 7a 6b f2 bd 08 94 f7 3a
       -0.11836906 0.0018888721

6.weight f4 [30]
000000 a9 ba 66 3f 33 7a 6f 3f a1 bb 6a 3f 55 62 6d 3f
       0.9012857 0.93545836 0.9169255 0.9272817
000010 bb 73 6f 3f bc d0 70 3f 1c 90 78 3f bf 3c 68 3f
       0.93535966 0.94068503 0.97094893 0.9071769
000020 f1 17 65 3f 94 ff 63 3f 86 73 6b 3f 09 d1 64 3f
       0.89489657 0.89061856 0.9197315 0.8938146
000030 f4 69 60 3f de 53 5d 3f cf 55 61 3f 99 64 43 3f
       0.8766167 0.86456096 0.8802156 0.76325375
000040 45 18 57 3f b0 2b 6e 3f 52 e6 69 3f cd aa 80 3f
       0.8402141 0.9303541 0.91367066 1.0052124
000050 2d 40 5f 3f da 7e 5a 3f 7f f2 67 3f 5b f3 71 3f
       0.872073 0.8534981 0.90604395 0.94511956
000060 fd 7a 78 3f 75 c1 36 3f 0e 44 41 3f 56 81 5c 3f
       0.97062665 0.7138894 0.7549447 0.8613485
000070 e1 72 4c 3f 74 4d 60 3f
       0.7986279 0.87618184

6.bias f4 [30]
000000 7e c7 f3 3d 6d 61 bd 3c 52 04 6e bd e1 70 1f 3e
       0.119032845 0.023117745 -0.05810959 0.15570404
000010 d5 36 1a bd 3a 31 03 3e 52 84 95 3d b1 d9 57 3d
       -0.03764995 0.12811747 0.07300629 0.05269784
000020 f4 33 8c bc 25 90 af 3d 5b 38 f7 3d 68 68 fb 3d
       -0.017114617 0.08572415 0.12071296 0.12275773
000030 7a c4 20 bc 0d bd a8 3d cf a1 72 3e ca 60 3d 3e
       -0.009812469 0.082391836 0.23694538 0.18493953
000040 60 c1 8b 3c 65 9f 96 3e bd 64 c0 3d 6f bf 2d bd
       0.017059982 0.29418483 0.09394214 -0.042418893
000050 8e 8b 71 bc 27 0e fd 3b 2d fd 90 3d fc c4 a1 3d
       -0.014742745 0.0077226344 0.070795394 0.078989
000060 df 35 66 3e 6e 7f fd 3d 21 1b 3b 3d da bc 2d 3e
       0.22481488 0.12377821 0.04568017 0.16966572
000070 2a ff 22 3e 19 f0 a7 bc
       0.1591765 -0.02050023

6.running_mean f4 [30]
000000 00 e1 f7 3c fa 44 b9 be 1b 2c 05 3e 58 c4 34 be
       0.030258656 -0.36185437 0.13005106 -0.17653024
000010 08 08 b1 3e c7 36 0b 3e f9 bc 16 3d 36 77 8d 3e
       0.3457644 0.13595115 0.036801312 0.27630013
000020 64 42 24 3e 57 47 9b 3d b5 26 3a be 75 79 06 3e
       0.16040951 0.07581966 -0.18178828 0.1313227
000030 e8 1d 89 bd 7a a7 19 3e f8 41 f6 bd 7e a4 a1 3e
       -0.06695157 0.15005293 -0.12024301 0.3157081
000040 26 0e 24 3e 62 80 80 be 77 a2 1b 3e d6 81 91 be
       0.16021022 -0.25097948 0.15198694 -0.2841937
000050 fb 69 43 be 1c 32 92 be f3 2f ee bc 4e 81 aa be
       -0.19083397 -0.28553855 -0.029075598 -0.33301777
000060 ca d3 38 be 8e 9b 3f be 88 df 46 3e 28 47 99 be
       -0.18049541 -0.18711683 0.19421208 -0.299371
000070 45 aa e5 bd 0d eb 9d 3d
       -0.11214117 0.07710848

6.running_var f4 [30]
000000 27 a0 ff 3c e2 a8 c9 3c 12 bd d3 3c 05 d5 bb 3c
       0.031204296 0.024616662 0.025846992 0.022928724
000010 5b 90 0b 3d 03 f7 7e 3c b4 7b e2 3c d2 48 04 3d
       0.034073215 0.015561822 0.027646877 0.03229601
000020 6c c3 dc 3c 0b dc d8 3c 2f 48 72 3c c7 0c a0 3c
       0.026948653 0.026472112 0.014787718 0.019537343
000030 d4 63 e9 3c 73 0a 96 3c 9a 22 8a 3c 4f 0e a3 3c
       0.028489985 0.01831553 0.016862202 0.019904284
000040 a0 bc 5a 3c 37 0e 21 3c 93 56 4f 3c d2 96 dc 3c
       0.013350636 0.009830049 0.012654918 0.026927385
000050 68 df 27 3c 83 91 64 3c a2 14 f8 3c 1f 8c cd 3c
       0.010246135 0.013950708 0.030283276 0.025091229
000060 9b 05 a3 3c c1 7c 64 3c 7e 65 60 3d 22 a7 3f 3c
       0.019900134 0.013945759 0.05478429 0.011697562
000070 f9 4b 89 3c 92 00 0d 3d
       0.01675986 0.034424372

8.weight f4 [60, 30]
000000 d8 6a e8 3b e2 c0 04 be cd 4c 53 3d 5c c6 3f bd
       0.007092815 -0.12964204 0.051586915 -0.04682003
000010 92 ed 47 bc 1b a0 eb bc 24 87 9c bd 30 e5 68 3d
       -0.012202637 -0.028762868 -0.076429635 0.056859195
000020 dd 16 76 bd 0a e9 64 bd 60 0a 5b 3d b3 53 8d bd
       -0.060080398 -0.055886306 0.05347669 -0.0690073
000030 be e8 52 3d 62 91 90 bd 33 21 b2 bd f1 c2 29 bd
       0.05149149 -0.070589796 -0.086977385 -0.041445676
000040 3d ab a4 bc 49 ad 25 bd 9b db 99 bd 88 e6 9e 3c
       -0.020101184 -0.04044846 -0.075125895 0.019397035
000050 28 25 17 3d 21 ab a4 3d e2 30 b5 3d e9 a5 fd 3d
       0.03690067 0.08040453 0.08847214 0.123851605
000060 de b1 a7 3c ac 0e 8c 3b 6d f8 d9 3d 1b 03 73 3d
       0.020470556 0.00427421 0.106430866 0.059329133
000070 25 6a 01 be ab 68 51 3d 41 4a 98 bd f8 57 58 bd
       -0.12638147 0.05112521 -0.07436038 -0.05281827
000080 3e 5d 53 be cf 66 93 3e b0 3c c0 3d 86 fe 33 be
       -0.20641038 0.28789374 0.09386575 -0.17577562
000090 07 cc 10 be b2 00 78 be d7 74 1f 3d 16 e3 95 bd
       -0.1414033 -0.24219015 0.038929787 -0.07318704
0000a0 78 cc b0 3b 27 b2 32 3e 83 2d ad bd 9d 0e f3 bd
       0.0053954683 0.17450772 -0.08455946 -0.11868022
0000b0 19 36 ec 3d 3e 55 22 3e 57 2e 1d bd fc e3 fd 3d
       0.11533756 0.1585283 -0.03837427 0.12397
0000c0 67 a8 a1 bc bc 6f 33 be db fe 69 3d 73 97 63 3e
       -0.01973362 -0.17523092 0.057127815 0.22225742
0000d0 1d 15 4f 3d f8 71 d0 3d 47 2d 42 be fd 5b d5 3e
       0.050557245 0.10177988 -0.18962584 0.41671744
0000e0 55 76 3b 3d c7 86 26 bd 80 f7 9e 3e c6 de cc bd
       0.045767147 -0.040655877 0.31048203 -0.10003428
0000f0 d7 89 93 3d 6d 76 d6 3d f4 4d 20 be 3f b3 94 be
       0.07204025 0.10471807 -0.15654737 -0.29043004
000100 f4 b5 b6 3c 49 2b 0d 3e ad 6d 1b be fb 56 2a be
       0.022303559 0.13786043 -0.15178557 -0.16634743
000110 28 97 73 3d 62 bb 05 3d e4 6e 3c be 25 71 42 3e
       0.059470326 0.032649405 -0.18401676 0.18988474
000120 17 26 ec 3d f6 88 03 3e 49 3c fe 3d 77 f7 16 be
       0.115307026 0.12845215 0.12413842 -0.14742838
000130 6e eb f4 3d b7 e1 fc 3d 55 aa af ba 39 91 fb 3d
       0.11958967 0.12347739 -0.0013402203 0.122835584
000140 36 a1 fd 3d dc 6a 35 3e 7a 44 f9 bd d9 05 71 bd
       0.12384264 0.17716545 -0.12171264 -0.058843467
000150 48 e7 28 bd f4 a1 cf bd 16 87 63 be ea de 4c 3e
       -0.041236192 -0.10138312 -0.222195 0.2000691
000160 5f cf 92 3d 16 03 8d bc 9f 25 c1 3d bc 01 78 3d
       0.07168459 -0.017213386 0.09431004 0.06054853
000170 7b a8 80 bc 59 41 c5 3d cb 95 aa bd 3f 18 e8 3d
       -0.015705338 0.09631605 -0.08329352 0.113327496
000180 26 c4 b9 3d 97 24 df 3d 51 a0 eb 3d 59 85 8b bc
       0.090706155 0.10895651 0.11505187 -0.017031359
000190 06 9a 90 bb 93 f0 12 3e f3 85 61 3d 1c 8b c0 bd
       -0.0044128923 0.14349584 0.055059385 -0.09401533
0001a0 9a 38 32 bd 3d 01 39 3d ba b5 30 bb 6a 46 3f be
       -0.04351101 0.045167197 -0.0026963786 -0.18679205
0001b0 0e 04 e2 38 5e d3 9f bc 0f f6 18 3e 02 d2 36 bd
       0.00010777275 -0.019509967 0.14937614 -0.044633873
0001c0 0c 36 0c be 46 d5 d6 bc 2b b6 82 3d e4 4d 94 3b
       -0.13692492 -0.026224744 0.06382402 0.004525887
0001d0 5d 62 8c bd da d5 c0 bd 09 67 e6 bd ce ab cd bd
       -0.06854699 -0.09415789 -0.11250121 -0.10042535
0001e0 fd f2 0f be 0d 40 16 3e f1 5e 1d 3d 4e 4b ed 3d
       -0.14057536 0.14672871 0.03842062 0.11586629
0001f0 b7 a9 13 be ad 14 97 be f7 69 d1 bd ee 1c 39 be
       -0.1442021 -0.29507962 -0.10225289 -0.18077442
000200 51 72 95 3c 8b f4 11 3d 18 6f 77 3d c8 0b cd bd
       0.018242987 0.035633605 0.06040868 -0.10012013
000210 e1 46 85 3d a1 b8 2d 3e fe fa 98 3e ae 24 9f be
       0.0650766 0.16964962 0.29878992 -0.31082672
000220 91 2b 9d 3b 0f 77 26 3e da ed b7 be 10 45 e9 bd
       0.0047964533 0.16256355 -0.35923654 -0.11390126
000230 28 18 4e 3e c2 a2 cc bd 1c fc 41 3d 09 a0 20 3e
       0.20126402 -0.09991981 0.04735957 0.15686049
000240 9d ca 0e 3e 4a 12 a1 3e 86 67 50 bc 6c f3 09 3e
       0.13944478 0.31459266 -0.012719994 0.13471764
000250 d0 09 ff bd 85 02 bd bd f1 c8 f2 bd f6 8a 5b bd
       -0.124530435 -0.09228996 -0.11854733 -0.05359932
000260 11 63 76 bd 41 57 22 3e ec e6 bd 3d d5 8e fb bd
       -0.06015307 0.15853597 0.092725605 -0.122831024
000270 49 b8 d7 3b b3 f5 63 bd e1 6a 16 3d 2c c7 95 be
       0.006583248 -0.05565424 0.03672302 -0.2925352
000280 01 d2 8a be a3 e6 bc 3e 09 65 3b 3c f4 f7 22 be
       -0.27113345 0.36894712 0.011437663 -0.15914899
000290 a2 68 a3 be 4d bb 5f be 1e d6 39 3e 2a 5b 02 bf
       -0.31915766 -0.21848793 0.18148085 -0.50920355
0002a0 24 ef 3f 3d 6a 7d 29 bd 20 a2 b0 bd 27 60 89 bd
       0.04685892 -0.04137937 -0.08624673 -0.06707793
0002b0 6f 15 d3 bd 57 93 a1 3d 8c 8e 01 3f b1 29 77 3e
       -0.103068225 0.07889431 0.50608134 0.24136998
0002c0 94 52 43 be ea b4 63 3e 34 70 41 3d 5f 16 1e be
       -0.1907447 0.22236982 0.047226146 -0.15438221
0002d0 39 d7 30 3d e0 ec af bd 51 41 e0 bd a6 f7 26 3e
       0.043174002 -0.08590102 -0.10949958 0.16305408
0002e0 15 55 59 bd 54 01 30 bd bf 25 00 3d 46 98 13 3e
       -0.053059656 -0.042970017 0.031285997 0.14413556
0002f0 da 16 d8 3d c6 ed d1 bc d6 5c 07 3b 80 94 f6 3d
       0.105512336 -0.025626075 0.00206547 0.12040043
000300 d8 15 14 be 1a 79 23 be 25 81 b9 bd 47 36 6d 3d
       -0.14461458 -0.15964165 -0.090578355 0.05791309
000310 18 78 0e be a5 ff 63 bc 18 62 a4 bc a0 5e db bd
       -0.13913 -0.013915931 -0.020066306 -0.10711408
000320 ee c9 b2 bb 22 e7 f8 bd 3a aa 04 3d 45 75 03 3e
       -0.005456201 -0.1215346 0.032388903 0.12837704
000330 6b 51 b2 3d 81 9f 02 3e 0a 75 67 3d 98 8f 02 bd
       0.087069355 0.12756158 0.0565081 -0.031875223
000340 69 eb 33 3e 05 b3 a0 bd 07 6e fa 3d d7 fa 4e bd
       0.1757027 -0.07846645 0.12228017 -0.05053219
000350 c6 34 21 be df 9a 04 bd 39 77 2f be 35 4d 9c be
       -0.15742788 -0.03237426 -0.17135324 -0.30527654
000360 0e 90 52 be a6 43 c0 3d 99 e1 3e bd c4 a3 94 bd
       -0.20562765 0.09387903 -0.046601865 -0.07257798
000370 25 f2 6f be d8 f6 38 3e 3c 38 c8 bb c1 33 2b be
       -0.23432215 0.18062913 -0.0061102193 -0.16718961
000380 43 55 3c 3d a1 bf b6 3d f9 ab 6b 3e 08 a8 9c 3d
       0.04597975 0.08923269 0.23014821 0.07649237
000390 78 09 3b bd 4c 44 35 bd 12 7c 9a bd 02 8f 43 3d
       -0.045663327 -0.044254586 -0.07543196 0.047743805
0003a0 d3 77 4c 3d 16 42 7e be a4 0e c3 bd e7 2f 48 be
       0.04991896 -0.24829897 -0.09524277 -0.19549523
0003b0 ee 52 c9 3c f5 dd f0 3d a0 27 3a 3e 56 b0 cb 3d
       0.024575677 0.11761085 0.18179178 0.09945743
0003c0 48 c6 50 be 87 71 1b bb 54 cc e1 3d 9d cb 40 3e
       -0.20388138 -0.002371879 0.110253006 0.18827672
0003d0 2f 64 c8 3c 3f 2e 36 be 80 ec d4 bb f8 cd de 3d
       0.024461834 -0.17791079 -0.0064979196 0.10879129
0003e0 61 c4 98 bd 9d a3 10 bc df 92 61 3b c5 5b 47 3d
       -0.07459331 -0.008828071 0.0034419817 0.048671503
0003f0 c1 d3 aa bd cb b2 29 be 75 79 07 be 7f 1c e8 3d
       -0.0834117 -0.1657211 -0.13229926 0.1133356

8.bias f4 [60]
000000 75 e4 2f bf 68 8c 22 be a4 e6 dc bd 2f 73 2b 3d
       -0.6870797 -0.15873873 -0.10786179 0.041857895
000010 15 0a 5d be c8 67 a1 be 42 80 e9 3e cf dc b9 3d
       -0.21585877 -0.3152449 0.45605665 0.09075319
000020 b2 ac dc bc 9b 0f e5 bd 16 66 85 3e 2d a2 17 3d
       -0.026937816 -0.11184617 0.26054448 0.037019897
000030 d0 99 f6 3c 24 7e f2 bd 35 91 08 3e 6e b0 d4 bc
       0.03010264 -0.11840466 0.13336642 -0.025963034
000040 f7 35 14 bd fe f8 dc 3d 24 68 cf bc 6f c7 a8 bd
       -0.036184277 0.10789679 -0.025318213 -0.08241164
000050 43 02 8f bd 3b 83 83 3b e2 e7 ce bb 24 32 03 3d
       -0.06982853 0.0040134466 -0.0063142637 0.03203024
000060 14 a0 f2 3c c1 aa ec bd 89 2f 18 bd 8e fc c3 3c
       0.029617347 -0.11556006 -0.037154708 0.023924138
000070 51 e4 6b bb 18 3e dc ba c3 dc 06 3d f8 d7 12 bd
       -0.0035994241 -0.0016803173 0.03292538 -0.035850495
000080 c4 5c e3 bc 53 88 82 bc ea ee fc 3b 69 21 22 3b
       -0.027754195 -0.015934145 0.0077189105 0.0024739152
000090 3b 7b 02 bd af a8 70 bc 92 b8 1e 3d d3 b9 32 3b
       -0.031855803 -0.014688655 0.03875024 0.0027271404
0000a0 3c aa 8e 3b 9b e3 89 bc 60 02 14 bd 4c f6 f3 bc
       0.0043537896 -0.016832164 -0.036135077 -0.02978053
0000b0 a8 11 82 3a 61 b6 fb 3b 8b 46 e7 bc 2d 08 5e bc
       0.0009923475 0.0076816534 -0.02823188 -0.013551754
0000c0 1b ff 44 3c 91 60 35 bd f0 a8 05 3d e3 9d 61 bd
       0.0120237125 -0.044281546 0.032631814 -0.055082213
0000d0 8a b7 01 bb f3 b2 74 3d 40 e5 1e 3d 8b de 93 3d
       -0.0019793236 0.05974097 0.03879285 0.07220181
0000e0 0b 8a c1 3b 5c f7 cc bc a8 dc dc 3c e6 56 e0 3c
       0.0059063486 -0.025020294 0.026960686 0.027385186
