offline_prototype_3_ds_as_sampling/trained_models/ae_model_ransomware_directory_trap.pth (torch, 25407 bytes, 16 tensors)

0.weight f4 [30, 60]
-0.053741932 -0.11491307 -0.16502911 -0.11442499 -0.012247076 -0.101609156 0.103323154 0.01659652
-0.029134119 -0.011018785 -0.10064352 -0.13095987 -0.07927077 0.046138626 0.014684347 -0.0005631838
-0.026945775 0.020911777 0.06438368 0.057137292 0.00918035 0.09730894 0.03767794 -0.05987914
-0.04879179 0.069611765 0.021708978 6.0200942e-05 0.023493282 0.087909885 -0.049747214 -0.013837206
0.07242064 0.051542956 0.00069805555 -0.03556686 0.07532909 0.056817476 -0.034988053 -0.013052267
0.055224318 0.06628056 0.088126555 -0.015181246 -0.0040492667 0.07062317 -0.03302305 0.04616959
0.06838012 -0.028043797 0.10658032 0.084871724 -0.027643647 0.0010406076 -0.061557326 0.10873424
0.014573396 -0.11327401 0.02710967 0.11831081 -0.04975572 0.056272224 -0.016392762 0.07919423
-0.16699289 -0.13045512 -0.09896856 0.19906493 -0.033424396 -0.037039697 -0.060962286 0.07013137
0.07156108 0.0125360545 -0.060891762 -0.0062418575 -0.07635115 0.060721688 -0.06332293 -0.039255403
0.04468076 -0.07973664 -0.002975698 -0.0008064713 0.12371754 0.045099057 -0.075337686 -0.082859665
-0.087798044 -0.09594849 -0.09524999 -0.042133402 0.059356656 0.08964256 -0.042886846 0.05390627
-0.091916114 -0.09698813 -0.07346675 0.06220126 0.07643526 -0.02217545 -0.048850764 0.020092346
-0.108239494 -0.08684184 -0.048315473 0.10903878 0.054001946 0.04337803 0.090842105 -0.11751381
-0.09664178 -0.06721958 0.08537557 0.107448466 -0.09630626 0.10878325 -0.07050996 0.07911413
0.038064808 0.13765049 -0.036432512 -0.011665685 -0.06398081 0.030582398 0.021610579 0.03762837
0.07047972 -0.171161 -0.013350179 0.12809165 -0.04156819 0.10689713 -0.054669682 0.06944716
0.0060283802 -0.08249797 0.016601345 -0.022563607 -0.027298722 0.041331556 0.035204593 0.035002846
-0.06565203 0.0129512055 -0.083266325 -0.011828985 -0.04754347 -0.026153386 0.011854482 0.0983785
0.10766248 0.08860462 -0.03701426 -0.015042374 -0.05251483 0.10472463 0.062237408 -0.05526015
0.011884337 -0.038108908 -0.06206625 0.021741625 0.05158177 0.12463775 -0.04310571 -0.06332539
-0.017625863 -0.034780685 -0.115882225 0.109644406 -0.12648581 -0.11117576 -0.048846114 -0.114479154
-0.09907176 0.01709824 -0.10082087 -0.11169894 0.04762666 0.20625933 -0.0437356 0.11929529
-0.12777872 -0.012525645 -0.017197564 0.23510449 -0.04291988 0.09223087 0.07170184 0.007909296
0.026036443 -0.112654135 -0.041890584 -0.037160084 0.20366102 0.0013449029 -0.0014284528 0.015610973
-0.029616335 0.04397596 -0.017367376 0.046433404 0.01210069 -0.087076254 -0.060178965 0.09955871
-0.014763271 -0.008082322 -0.13095142 0.023176702 0.010395239 -0.010669591 0.057401102 -0.016411707
-0.1056269 0.009267588 -0.085500576 0.0015286882 0.0009357335 0.02982627 0.01989286 -0.13546814
-0.040905144 -0.11317684 0.055554755 0.07386816 -0.0796922 -0.034430597 0.096709184 -0.06393282
-0.0819434 0.069681786 0.013114723 -0.010120561 -0.09136525 0.099800184 0.04112665 -0.009158156
-0.019350061 0.20506041 0.09789679 -0.030183544 0.017496033 -0.027192255 0.051322863 0.006543967
0.075434685 0.035232533 -0.015116352 -0.08167059 -0.11049182 0.005924899 -0.0151720755 -0.012868716
00000000: 8020 5cbd 8b57 ebbd 64fd 28be a657 eabd
00000010: f6a7 48bc 7618 d0bd 179b d33d 6df5 873c
00000020: adaa eebc 2288 34bc 311e cebd 581a 06be
00000030: b758 a2bd dbfb 3c3d 9e96 703c a0a2 13ba
00000040: 63bd dcbc 2d4f ab3c 97db 833d cb08 6a3d
00000050: 2e69 163c e949 c73d 2f54 1a3d d443 75bd
00000060: e6d9 47bd 9d90 8e3d 07d7 b13c 4580 7c38
00000070: fc74 c03c 190a b43d bcc3 4bbd 73b5 62bc
00000080: 4651 943d b51e 533d b7fd 363a 8eae 11bd
00000090: 2346 9a3d 71b9 683d a24f 0fbd 2dd9 55bc
000000a0: e532 623d 1abe 873d b27b b43d c3ba 78bc
000000b0: b6af 84bb e1a2 903d 2d43 07bd 531c 3d3d
000000c0: e00a 8c3d 1bbc e5bc c846 da3d 3ad1 ad3d
000000d0: ee74 e2bc ff64 883a 8923 7cbd 0fb0 de3d
000000e0: 41c5 6e3c 34fc e7bd 1915 de3c f04c f23d
000000f0: a7cc 4bbd b47d 663d 1d4a 86bc 9630 a23d
00000100: 2f00 2bbe 0796 05be 07b0 cabd add7 4b3e
00000110: 05e8 08bd f0b6 17bd 97b3 79bd 09a1 8f3d
00000120: 9e8e 923d 0664 4d3c a469 79bd 7f88 ccbb
00000130: fe5d 9cbd 4eb7 783d 74af 81bd 46ca 20bd
00000140: 2c03 373d f74c a3bd ee03 43bb 5f69 53ba
00000150: 9f5f fd3d cab9 383d a54a 9abd 54b2 a9bd
00000160: 76cf b3bd a480 c4bd 6d12 c3bd 1394 2cbd
00000170: f71f 733d 8596 b73d 1eaa 2fbd d2cc 5c3d
00000180: 843e bcbd b6a1 c6bd bc75 96bd c0c6 7e3d
00000190: 178a 9c3d 4aa9 b5bc bd17 48bd b498 a43c
000001a0: abac ddbd 22da b1bd 72e6 45bd b94f df3d
000001b0: 2531 5d3d 29ad 313d 6d0b ba3d 15ab f0bd
000001c0: 20ec c5bd 6baa 89bd 63d9 ae3d f10d dc3d
000001d0: 373c c5bd c1c9 de3d 8767 90bd 9706 a23d
000001e0: d8e9 1b3d 40f4 0c3e 423a 15bd 6e21 3fbc
000001f0: 5f08 83bd f087 fa3c ab08 b13c 3520 1a3d
00000200: ac57 903d d444 2fbe b6ba 5abc 752a 033e
00000210: 6843 2abd e2ec da3d 51ed 5fbd 503a 8e3d
00000220: b889 c53b b2f4 a8bd 8bff 873c 50d7 b8bc
00000230: 92a1 dfbc 474b 293d b132 103d 255f 0f3d
00000240: 9274 86bd 4b31 543c 8987 aabd 5cce 41bc
00000250: f1bc 42bd a03f d6bc 4d39 423c ab7a c93d
00000260: 257e dc3d 5776 b53d 449c 17bd 4a74 76bc
00000270: ca19 57bd de79 d63d a7ec 7e3d 7858 62bd
00000280: 86b6 423c 1618 1cbd 2e39 7ebd 7e1b b23c
00000290: 6847 533d 1442 ff3d 9d8f 30bd beb0 81bd
000002a0: 1d64 90bc 3176 0ebd a953 edbd 3f8d e03d
000002b0: 7f85 01be 1eb0 e3bd dd12 48bd 0c74 eabd
000002c0: 23e6 cabd 9c11 8c3c 2c7b cebd 6ac2 e4bd
000002d0: 2c14 433d a535 533e 1a24 33bd 1751 f43d
000002e0: 6dd8 02be 5d38 4dbc e8e1 8cbc 3bbf 703e
000002f0: c2cc 2fbd 8ae3 bc3d 6ad8 923d fe95 013c
00000300: 614a d53c 36b7 e6bd 7695 2bbd 2c35 18bd
00000310: 848c 503e 7447 b03a ec3a bbba 2bc5 7f3c
00000320: f59d f2bc 2320 343d 0746 8ebc f430 3e3d
00000330: f941 463c 0955 b2bd 387e 76bd 70e5 cb3d
00000340: a6e1 71bc b76b 04bc 2118 06be 11dd bd3c
00000350: cb50 2a3c 82cf 2ebc 6b1d 6b3d d871 86bc
00000360: eb52 d8bd 15d7 173c ed1a afbd 445e c83a
00000370: 034c 753a 3956 f43c 5af6 a23c 29b8 0abe
00000380: 278c 27bd 42c9 e7bd 628d 633d 3148 973d
00000390: aa35 a3bd 1907 0dbd 770f c63d 36ef 82bd
000003a0: f1d1 a7bd 53b5 8e3d 23df 563c b6d0 25bc
000003b0: b41d bbbd 0a64 cc3d 6b74 283d 170c 16bc
000003c0: 0584 9ebc 5bfb 513e 1d7e c83d 7b43 f7bc
000003d0: d753 8f3c 4bc2 debc ec37 523d c66e d63b
000003e0: 807d 9a3d fd4f 103d 93aa 77bc e942 a7bd
000003f0: 8949 e2bd a825 c23b 4c94 78bc 4fd7 52bc

0.bias f4 [30]
0.103599206 0.110831946 -0.005344444 -0.05592417 0.10163507 0.08531016 -0.116348445 -0.10963545
-0.085137144 0.07167731 -0.018213063 0.11708708 -0.09132272 0.0948997 0.021182477 -0.11627433
0.08571103 -0.064258866 -0.0089243725 -0.08094199 -0.11683318 0.08614142 0.06237161 0.12530349
-0.1203324 -0.09519574 0.113554195 -0.08794058 0.117894426 -0.0037002508
00000000: d22b d43d dcfb e23d 7220 afbb be10 65bd
00000010: 0c26 d03d 18b7 ae3d 1848 eebd 8d88 e0bd
00000020: 625c aebd 8ecb 923d 9033 95bc 5acb ef3d
00000030: 6807 bbbd c65a c23d e086 ad3c 3c21 eebd
00000040: 4489 af3d 279a 83bd 8837 12bc eac4 a5bd
00000050: 3c46 efbd ea6a b03d 6079 7f3d 8f4f 003e
00000060: d570 f6bd fcf5 c2bd 1a8f e83d 311a b4bd
00000070: a272 f13d e87f 72bb

1.weight f4 [30]
1.0044818 0.9341729 0.95665973 1.0529336 1.0047656 0.9270469 0.9760456 0.9604364
0.9544766 0.96271956 0.9791814 0.98742825 0.98601127 0.95241505 0.95621043 1.00419
0.97563744 0.97475475 0.9740909 0.97929096 0.9378737 0.9628442 0.9838913 0.9700321
0.9616383 0.9738807 0.96131563 0.92360204 0.9594078 0.9152039
00000000: dc92 803f f525 6f3f a7e7 743f 87c6 863f
00000010: 299c 803f f252 6d3f 20de 793f 29df 753f
00000020: 9458 743f ca74 763f a2ab 7a3f 19c8 7c3f
00000030: 3c6b 7c3f 79d1 733f 35ca 743f 4c89 803f
00000040: 60c3 793f 8789 793f 055e 793f d0b2 7a3f
00000050: 7e18 703f f57c 763f 4de0 7b3f 0654 783f
00000060: ed2d 763f 3f50 793f c818 763f 2f71 6c3f
00000070: c09b 753f ce4a 6a3f

1.bias f4 [30]
0.030974472 0.04037496 0.009930868 -0.0018677304 0.009777177 0.08491422 0.009695267 0.004285503
0.0394524 0.0821044 0.000912858 0.03983366 -0.028648127 -0.03026327 0.005303891 0.027238267
0.027045889 0.025603529 0.039515626 0.063131295 0.05111947 0.0078703845 0.0044710822 -0.0053992667
0.029999336 -0.013797805 -0.004775069 -0.04604389 0.07027674 0.12153549
00000000: 2dbe fd3c 3760 253d 14b5 223c a2ce f4ba
00000010: 7430 203c 82e7 ad3d e6d8 1e3c 686d 8c3b
00000020: d798 213d 5a26 a83d dd4c 6f3a 9f28 233d
00000030: 7aaf eabc adea f7bc 43cc ad3b c922 df3c
00000040: 578f dd3c 7ebe d13c 23db 213d fb4a 813d
00000050: a662 513d c9f2 003c 2882 923b 55ec b0bb
00000060: 2bc1 f53c 3010 62bc 2f78 9cbb 8598 3cbd
00000070: 40ed 8f3d 99e7 f83d

1.running_mean f4 [30]
0.08091931 0.17609884 -0.068873435 -0.09445491 0.08587684 0.13580309 0.05697126 -0.13217825
-0.21801044 0.0021906714 0.0023353435 0.083664045 0.041038487 0.15222806 0.019972324 -0.078112915
0.15517633 0.016985387 -0.09976473 -0.14581719 -0.056977533 0.059316862 0.11037848 0.12508294
-0.10028974 -0.1489412 0.09282673 -0.15750256 0.115053855 0.09781544
00000000: 06b9 a53d 4153 343e 840d 8dbd 9371 c1bd
00000010: 32e0 af3d f70f 0b3e b25a 693d bc59 07be
00000020: 213e 5fbe 5e91 0f3b 900c 193b 0e58 ab3d
00000030: f917 283d ace1 1b3e 009d a33c aaf9 9fbd
00000040: 8be6 1e3e f024 8b3c 7351 ccbd 1a51 15be
00000050: 4661 69bd 3df6 723d 1d0e e23d be15 003e
00000060: b564 cdbd 0b84 18be f11b be3d 5a48 21be
00000070: 5ba1 eb3d 7653 c83d

1.running_var f4 [30]
0.0075866417 0.0084210755 0.008386144 0.017019494 0.012919436 0.008213191 0.020857025 0.007776675
0.007927801 0.008611428 0.014011679 0.01590875 0.015875356 0.007226418 0.010800214 0.015429035
0.011733031 0.02015823 0.008963374 0.0051419325 0.017976634 0.008070019 0.007986094 0.011731789
0.020001883 0.018592518 0.0119838165 0.016775168 0.011435918 0.0049408367
00000000: 5d99 f83b 8df8 093c 0a66 093c 776c 8b3c
00000010: 0bac 533c 9f90 063c 5adc aa3c 7ad3 fe3b
00000020: 9ce3 013c f216 0d3c 3e91 653c 1153 823c
00000030: 090d 823c 96cb ec3b 61f3 303c 10ca 7c3c
00000040: e63b 403c df22 a53c 1edb 123c a87d a83b
00000050: bc43 933c 1d38 043c 1bd8 023c b136 403c
00000060: fdda a33c 564f 983c c557 443c 146c 893c
00000070: b75d 3b3c bee6 a13b

3.weight f4 [15, 30]
0.028824829 0.0073469942 -0.05467528 0.029082553 0.06848527 -0.0333562 -0.020302383 -0.05632284
0.09525434 -0.06858921 0.23774962 -0.025654756 0.053725563 -0.021518443 -0.122681916 -0.017870042
0.04871493 -0.03724002 -0.035508905 -0.060216065 0.08663807 -0.10990208 0.1014196 0.04848828
0.12121405 -0.053763386 0.025453819 -0.17969011 0.019723285 0.1295744 0.20099185 -0.06369679
0.10876748 0.026403708 0.031282015 -0.032826055 -0.051332895 0.03577973 -0.025588056 -0.017943539
-0.1133396 -0.02972267 -0.09249353 -0.006617642 -0.1762352 -0.12250547 -0.036351744 0.1673083
0.08770394 -0.060627818 -0.022502838 0.11341676 0.008596751 0.01671866 0.19755714 -0.0309008
-0.03632355 0.08925991 -0.11367588 -0.11952263 -0.05710904 -0.057810318 0.097780116 -0.21539442
0.047804255 -0.09842321 -0.13345022 -0.07611978 -0.10571105 -0.19930825 0.0759516 -0.01683437
-0.15668575 0.14773287 0.024692815 -0.10303573 0.01824326 0.13400695 0.072713934 0.09378764
0.038507815 -0.025723288 0.018782634 0.038799323 0.055595018 0.052984145 -0.057279393 -0.04302221
-0.028990772 -0.033354446 0.18869674 0.0064102323 0.00071477424 0.06267506 0.0511263 0.07077892
-0.07285298 -0.17769206 -0.06594234 -0.06245337 0.064871244 0.054569177 -0.032855038 -0.09524508
-0.05195157 0.046691272 -0.15072909 0.042775504 -0.016142746 -0.1275713 -0.15463947 0.06191308
0.06791272 0.037915435 0.012778416 -0.037031595 0.08077645 -0.06898037 -0.058479827 -0.15463947
0.018898696 0.018976126 -0.079237595 0.0032116424 0.17266577 0.05511478 0.101669826 -0.1331126
0.076135874 0.13435563 -0.039453316 -0.1018023 -0.10047632 -0.060371816 -0.12322014 0.123079784
-0.0079027135 -0.10283168 0.009145634 0.0011755348 0.18912497 -0.11497356 0.0022455934 -0.030045735
-0.08623196 -0.12170478 0.06590757 -0.1711208 0.002745735 -0.1163188 -0.0027086488 0.08965543
0.22970371 -0.07647576 0.0867189 -0.09970574 0.09337244 -0.0589898 -0.068352304 0.025996745
0.00346813 0.19384046 -0.19447882 0.054588158 0.044273026 -0.062091235 -0.018462515 -0.041021354
-0.097549826 0.035487205 -0.0165996 0.0010582362 -0.09926556 0.021071274 -0.13637468 -0.12368783
0.13630219 -0.13411212 -0.023145385 0.016496561 0.15829907 -0.085488394 0.033385128 0.3579496
0.07654826 -0.04303841 0.08839356 -0.010472604 0.059171192 -0.1612911 0.03408084 0.102251366
0.23073219 0.08108432 0.032571893 0.006364274 0.0612134 -0.20228066 -0.06763542 0.024786754
0.0036121279 0.05054905 0.015159828 0.14371003 -0.16363136 0.17515321 -0.07389348 -0.022646207
-0.1317464 -0.035212796 0.079897456 -0.1909002 -0.13877042 -0.084849976 0.035044838 0.072154246
0.11522315 0.14720462 -0.030911766 -0.1600228 -0.07368432 0.025838178 0.18275902 0.06607089
-0.12304221 -0.0085875075 -0.091382734 0.028250597 0.01551238 0.13513201 -0.16309524 -0.15533108
-0.09870451 -0.13191871 0.045382902 -0.053899284 0.17042165 -0.011648497 -0.020012008 0.08951682
-0.04706409 0.04045605 -0.13380572 -0.09099539 0.0074917385 -0.02626815 -0.008708313 0.008404762
-0.022214985 0.08519941 -0.084995136 0.085047185 -0.023160804 0.10863496 0.024019163 0.07655282
00000000: 0c22 ec3c 0ebf f03b 30f3 5fbd 893e ee3c
00000010: 0142 8c3d 83a0 08bd 2f51 a6bc c7b2 66bd
00000020: b514 c33d 8078 8cbd a374 733e ec29 d2bc
00000030: 560f 5c3d 7247 b0bc a840 fbbd 3264 92bc
00000040: 4e89 473d fe88 18bd c971 11bd 1fa5 76bd
00000050: 4d6f b13d 5714 e1bd 14b5 cf3d a69b 463d
00000060: 123f f83d ff36 5cbd 8784 d03c af00 38be
00000070: ba92 a13c 27af 043e cfd0 4d3e 7673 82bd
00000080: 7cc1 de3d 974c d83c 9221 003d 9d74 06bd
00000090: 7142 52bd c48d 123d 0b9e d1bc 54fe 92bc
000000a0: 981e e8bd f57c f3bc 3f6d bdbd ced8 d8bb
000000b0: 0077 34be 26e4 fabd 91e5 14bd de52 2b3e
000000c0: 209e b33d e054 78bd df57 b8bc 0c47 e83d
000000d0: 63d9 0c3c 92f5 883c 6b4c 4a3e ad23 fdbc
000000e0: 01c8 14bd e6cd b63d e6ce e8bd 48c8 f4bd
000000f0: 2beb 69bd 83ca 6cbd f140 c83d 5b90 5cbe
00000100: 65ce 433d 1c92 c9bd 2da7 08be b0e4 9bbd
00000110: 097f d8bd 7617 4cbe 838c 9b3d 3ce8 89bc
00000120: 3b72 20be 4947 173e 9648 ca3c 6604 d3bd
00000130: e472 953c 1e39 093e 0beb 943d bc13 c03d
00000140: 5fba 1d3d a5b9 d2bc 0ade 993c 0aec 1e3d
00000150: 9ab7 633d e705 593d cc9d 6abd 0f38 30bd
00000160: 0e7e edbc ac9e 08bd b839 413e ed0c d23b
00000170: b05f 3b3a c85b 803d d069 513d 8af4 903d
00000180: f133 95bd e8f4 35be c70c 87bd 1bcf 7fbd
00000190: 37db 843d ee83 5f3d 0193 06bd da0f c3bd
000001a0: 2bcb 54bd 593f 3f3d ba58 1abe 5e35 2f3d
000001b0: cb3d 84bc 0da2 02be cf59 1ebe 9298 7d3d
000001c0: d315 8b3d 374d 1b3d 905c 513c 71ae 17bd
000001d0: 206e a53d 9545 8dbd 8b88 6fbd cf59 1ebe
000001e0: 70d1 9a3c d273 9b3c 5247 a2bd 6b7a 523b
000001f0: 4ccf 303e 09c0 613d 4538 d03d ab4e 08be
00000200: 20ed 9b3d 8694 093e cd99 21bd b97d d0bd
00000210: 87c6 cdbd 7048 77bd d75a fcbd 4111 fc3d
00000220: 627a 01bc 6a99 d2bd 92d7 153c 6714 9a3a
00000230: faa9 413e 4277 ebbd ce2a 133b 7922 f6bc
00000240: 629a b0bd 5b40 f9bd 8cfa 863d 4a3a 2fbe
00000250: caf1 333b 8d38 eebd 9683 31bb 449d b73d
00000260: 7337 6b3e 539f 9cbd ae99 b13d 8632 ccbd
00000270: 0d3a bf3d 4a9f 71bd 4bfc 8bbd 20f7 d43c
00000280: 9149 633b 1d7e 463e 7525 47be d597 5f3d
00000290: a257 353d 6153 7ebd b33e 97bc 0206 28bd
000002a0: 34c8 c7bd 085b 113d e2fb 87bc 84b4 8a3a
000002b0: be4b cbbd aa9d ac3c cea5 0bbe 0c50 fdbd
000002c0: cd92 0b3e b054 09be 649b bdbc cc23 873c
000002d0: 2719 223e 8a14 afbd d8be 083d 2c45 b73e
000002e0: 56c5 9c3d 0b49 30bd af07 b53d 4995 2bbc
000002f0: 7e5d 723d 7e29 25be 5a98 0b3d 2a69 d13d
00000300: 0f45 6c3e 890f a63d 1b6a 053d 668b d03b
00000310: e7ba 7a3d a922 4fbe 7084 8abd 970d cb3c
00000320: 73b9 6c3b 850c 4f3d ed60 783c b928 133e
00000330: fb8e 27be 5d5b 333e 7755 97bd 8a84 b9bc
00000340: 87e8 06be 4b3b 10bd 47a1 a33d 587b 43be
00000350: d519 0ebe d3c5 adbd 2d8b 0f3d 9bc5 933d
00000360: 1dfa eb3d cfbc 163e ac3a fdbc 04dd 23be
00000370: cee7 96bd 96aa d33c 2e25 3b3e 2d50 873d
00000380: 8efd fbbd 9eb2 0cbc df26 bbbd cc6d e73c
00000390: a327 7e3c 0c60 0a3e 7002 27be 1c0f 1fbe
000003a0: 9725 cabd b315 07be 6ce3 393d 7fc5 5cbd
000003b0: 0383 2e3e 56d9 3ebc 39f0 a3bc 9854 b73d
000003c0: 46c6 40bd 3eb5 253d 5e04 09be cb5b babd
000003d0: 427d f53b 4e30 d7bc 50ad 0ebc 20b4 093c
000003e0: 33fc b5bc 077d ae3d ee11 aebd 382d ae3d
000003f0: babb bdbc 027c de3d d6c3 c43c bac7 9c3d

3.bias f4 [15]
0.06943837 0.22427529 -0.16106871 -0.19916448 0.09353048 -0.024336264 0.049979225 0.23798126
-0.071140386 -0.015871027 -0.1306282 0.16090432 0.15777673 -0.06465877 0.19796176
00000000: b435 8e3d 6ca8 653e 32ef 24be c6f1 4bbe
00000010: e98c bf3d d85c c7bc 04b7 4c3d 5cb1 733e
00000020: 0db2 91bd f503 82bc 66c3 05be 1ac4 243e
00000030: 3990 213e d16b 84bd 7db6 4a3e

5.weight f4 [30, 15]
0.007569702 -0.05883484 0.15740618 0.196716 -0.042193584 0.14696842 -0.0832243 0.0129093295
-0.061182763 -0.08252499 -0.13829984 0.11078428 0.19280338 -0.012897168 -0.17431834 -0.102770686
0.07382145 -0.081751525 -0.14946875 0.06295371 0.07593848 -0.20496456 -0.21916494 -0.21799637
0.13050616 -0.01736339 0.13486028 -0.16757128 -0.24152313 -0.24447162 0.06880449 0.19627936
-0.16665815 0.035062056 -0.23010084 -0.018502157 -0.0641454 -0.11220966 0.11557362 -0.03969027
0.051742863 -0.108855635 0.016415149 -0.25488177 -0.14151788 -0.10991855 0.09111745 0.122184195
-0.021313915 -0.050953 -0.14872001 -0.13097145 0.059894618 0.11351717 0.19047749 -0.1228247
-0.23030205 -0.21116582 -0.09480544 0.053512283 -0.14815465 -0.17978732 -0.20395078 -0.08996572
0.14504516 -0.13744321 -0.011888255 0.012886708 -0.058371674 -0.060835723 -0.17999049 -0.25909287
-0.03455457 -0.1343897 0.08873804 0.111777745 0.073543586 -0.14574495 -0.20290795 -0.0761289
0.26111254 0.19596995 -0.22459471 0.22659896 0.03857834 0.24847749 0.22436625 0.08369906
-0.10718353 0.09927561 0.015771953 0.09558442 -0.1342804 -0.24154934 0.15279636 -0.23617329
-0.13173863 0.059656296 0.074226044 0.23374484 -0.24160406 -0.16716309 0.2061924 -0.22161299
0.11318007 0.1016441 -0.068557926 -0.049844667 -0.16974594 -0.041144453 0.12073132 0.057695296
-0.20923327 -0.18875849 0.05582659 0.119056806 -0.14018206 0.14451128 0.09347485 0.21174465
-0.24195738 0.1945974 0.05385199 0.2669783 0.0031969403 0.08496586 -0.15175186 -0.113157704
0.26919767 -0.09622141 0.082874194 0.04049669 0.20916857 -0.0678431 -0.100959085 -0.09534262
0.027954841 0.00831174 -0.21736468 0.15903309 -0.05896506 0.20775047 0.18207069 -0.0058851633
0.21197632 0.1933584 0.07601874 -0.27481377 -0.02975577 0.0008945276 0.16077308 0.05777993
-0.20889586 -0.023214903 -0.020566529 0.11823283 -0.20729733 0.20650664 0.06731993 0.10582371
-0.0969177 -0.11772807 0.29906785 0.13869874 0.078961454 0.04056189 0.06308153 0.22111727
-0.20209514 0.1193955 -0.19964516 -0.16790573 0.14513205 0.033129845 0.11610809 -0.17081885
-0.1061331 0.2940492 -0.11680495 0.19513507 0.033745304 0.055049546 0.068301186 0.19889043
-0.22542676 0.033766296 0.21330434 0.14102007 0.20676352 0.23841488 0.079079725 0.14763615
-0.18129615 -0.07803631 0.099989995 0.028679855 0.05565998 0.04089899 0.17735822 0.095397055
-0.22803657 0.102873534 0.044661526 0.10774561 -0.15573727 0.21771313 -0.29846534 0.0018429221
-0.07244437 -0.25898015 0.08112224 0.19532625 -0.089234635 -0.122880064 -0.011982067 -0.26872078
-0.1933402 0.16269916 -0.15344943 -0.29605082 -0.08265653 0.13130902 -0.1626433 -0.018788727
0.17954277 -0.04819072 -0.07095843 -0.22246903 0.07915808 0.14344166 -0.09921188 -0.061888766
0.014471225 0.18471941 0.012624602 -0.038681544 -0.08396109 -0.09484797 -0.0865862 0.084071234
-0.14228398 -0.31282318 -0.024638565 -0.096464425 -0.21764559 -0.084660344 0.12414512 0.04671186
0.011136623 0.021356795 0.05974366 -0.24484679 -0.11049454 -0.31564015 0.08006003 0.077292226
00000000: 430b f83b cdfc 70bd 162f 213e eb6f 493e
00000010: 2ed3 2cbd e47e 163e 8071 aabd a781 533c
00000020: c79a 7abd dd02 a9bd 799e 0dbe dee2 e23d
00000030: 406e 453e a54e 53bc 8280 32be 7079 d2bd
00000040: b32f 973d 586d a7bd 560e 19be e0ed 803d
00000050: a285 9b3d 3be2 51be c66c 60be 713a 5fbe
00000060: 68a3 053e ab3d 8ebc d018 0a3e ce97 2bbe
00000070: d751 77be c556 7abe 5ee9 8c3d 75fd 483e
00000080: 6fa8 2abe 3b9d 0f3d 8e9f 6bbe d691 97bc
00000090: aa5e 83bd 2ece e5bd ddb1 ec3d 4492 22bd
000000a0: 53f0 533d b4ef debd 1079 863c dd7f 82be
000000b0: 10ea 10be fa1c e1bd c99b ba3d b53b fa3d
000000c0: 859a aebc 18b4 50bd 0f4a 18be 611d 06be
000000d0: 0f54 753d b17b e83d 880c 433e 848b fbbd
000000e0: 4dd4 6bbe da3b 58be 5b29 c2bd b22f 5b3d
000000f0: dab5 17be 2b1a 38be 79d8 50be f33f b8bd
00000100: b886 143e eabd 0cbe f5c6 42bc c522 533c
00000110: 2317 6fbd e12e 79bd 6d4f 38be d2a7 84be
00000120: 1889 0dbd 749d 09be 4abc b53d bbeb e43d
00000130: 059e 963d 2a3e 15be 1ac7 4fbe 78e9 9bbd
00000140: 8bb0 853e 59ac 483e 28fc 65be 8f09 683e
00000150: 5204 1e3d e270 7e3e 44c0 653e 6a6a ab3d
00000160: 0a83 dbbd 0351 cb3d 2f34 813c c4c1 c33d
00000170: cd80 09be b658 77be a676 1c3e 69d7 71be
00000180: 7ee6 06be 295a 743d d303 983d cf5a 6f3e
00000190: 0e67 77be cd2c 2bbe 1a24 533e 84ee 62be
000001a0: f4ca e73d c82a d03d 1968 8cbd ec29 4cbd
000001b0: e1d1 2dbe 1687 28bd fb41 f73d e751 6c3d
000001c0: 3f41 56be e849 41be 6caa 643d 0ed4 f33d
000001d0: e38b 0fbe c4fa 133e be6f bf3d 97d3 583e
000001e0: adc3 77be 8a44 473e e793 5c3d 61b1 883e
000001f0: c283 513b 9502 ae3d d764 1bbe 3abf e7bd
00000200: 47d4 893e bb0f c5bd f2b9 a93d dbdf 253d
00000210: 4930 563e 53f1 8abd a3c3 cebd fe42 c3bd
00000220: 8d01 e53c f72d 083c d994 5ebe 92d9 223e
00000230: 5985 71bd 8abc 543e bd70 3a3e 54d8 c0bb
00000240: 5210 593e bfff 453e b7af 9b3d 64b4 8cbe
00000250: 5fc2 f3bc bb7e 6a3a b3a1 243e a6aa 6c3d
00000260: cce8 55be 2e2d bebc 237b a8bc 0e24 f23d
00000270: c045 54be 7a76 533e 08df 893d 1aba d83d
00000280: c97c c6bd 6a1b f1bd 6c1f 993e 0b07 0e3e
00000290: 8bb6 a13d 3924 263d e430 813d 916c 623e
000002a0: 07f2 4ebe a185 f43d c86f 4cbe 7bef 2bbe
000002b0: 7f9d 143e 29b3 073d 14ca ed3d 23eb 2ebe
000002c0: 505c d9bd 9e8d 963e 6f37 efbd 7dd1 473e
000002d0: 8438 0a3d a27b 613d 7ee1 8b3d efa9 4b3e
000002e0: 46d6 66be 874e 0a3d 746c 5a3e 9167 103e
000002f0: d1b9 533e 0823 743e 8df4 a13d ee2d 173e
00000300: b3a5 39be 80d1 9fbd 8ec7 cc3d 04f2 ea3c
00000310: b8fb 633d b385 273d 659d 353e 885f c33d
00000320: 6b82 69be 5caf d23d 01ef 363d bba9 dc3d
00000330: 9779 1fbe 31f0 5e3e 73d0 98be 348e f13a
00000340: b75d 94bd 0c99 84be 6b23 a63d 9b03 483e
00000350: a6c0 b6bd 8ba8 fbbd 6e50 44bc c595 89be
00000360: f9fa 45be 9c9a 263e d921 1dbe f993 97be
00000370: d447 a9bd df75 063e f78b 26be d1ea 99bc
00000380: 0fda 373e a263 45bd a752 91bd ecce 63be
00000390: a21d a23d 5fe2 123e 992f cbbd 137f 7dbd
000003a0: b818 6d3c 1627 3d3e 6bd7 4e3c 8a70 1ebd
000003b0: cbf3 abbd a73f c2bd 1b54 b1bd 8a2d ac3d
000003c0: e4b2 11be 5c2a a0be d1d6 c9bc 248f c5bd
000003d0: 7cde 5ebe 6762 adbd cc3f fe3d ef54 3f3d
000003e0: 6276 363c 72f4 ae3c c5b5 743d 1eb9 7abe
000003f0: f64a e2bd 969b a1be 83f6 a33d 634b 9e3d

5.bias f4 [30]
-0.22846916 0.14688313 -0.09207429 -0.15587914 -0.08294481 -0.008769516 0.20453325 -0.09851183
-0.19975069 0.016062465 0.000854547 -0.10682504 -0.018597126 0.07986468 -0.014825821 -0.24295932
-0.07828489 -0.06414528 0.20210752 -0.016429186 -0.20259616 0.057834566 0.21943721 0.1028038
0.13300434 0.18166551 -0.031167597 -0.0011898888 0.15239924 0.19757676
00000000: d2f3 69be 8868 163e 7291 bcbd c89e 1fbe
00000010: f8de a9bd 04ae 0fbc 2a71 513e 92c0 c9bd
00000020: 728b 4cbe 6e95 833c ae03 603a 16c7 dabd
00000030: 0059 98bc 1890 a33d 00e8 72bc 54ca 78be
00000040: d453 a0bd 9a5e 83bd 46f5 4e3e 8096 86bc
00000050: 5e75 4fbe f0e3 6c3d 26b4 603e cc8a d23d
00000060: 4a32 083e 8606 3a3e 3053 ffbc 0bf6 9bba
00000070: 8c0e 1c3e 9051 4a3e

6.weight f4 [30]
0.914101 0.9681154 0.93639886 0.9560093 0.9869803 0.9650752 0.9643498 0.86672455
0.9556275 0.8608132 0.9088799 0.93798816 0.94625175 0.88736707 0.79724526 0.9665009
0.9390707 0.94202524 0.9633911 0.91686475 0.8944591 0.9545862 0.8591367 0.99573994
0.94075817 0.95674014 0.8940273 0.7444774 0.9647947 0.91033274
00000000: 8602 6a3f 69d6 773f d6b7 6f3f 07bd 743f
00000010: beaa 7c3f 2b0f 773f a1df 763f a9e1 5d3f
00000020: 01a4 743f 415e 5c3f 5aac 683f fe1f 703f
00000030: 8e3d 723f 7d2a 633f 4418 4c3f 9a6c 773f
00000040: f066 703f 9128 713f cda0 763f a6b7 6a3f
00000050: 46fb 643f c35f 743f 62f0 5b3f d0e8 7e3f
00000060: 87d5 703f ecec 743f f9de 643f 1296 3e3f
00000070: c9fc 763f 910b 693f

6.bias f4 [30]
0.043785125 -0.07007669 -0.020122329 0.018255679 0.13738313 -0.06289086 -0.030583872 0.098856196
-0.0084787635 0.019951226 0.1419482 -0.0054569864 0.06704304 0.078174815 0.3499086 0.08821615
0.16145043 0.0074703754 -0.12595831 -0.031944215 0.054442514 0.09927973 0.3271601 0.12521148
-0.03434351 0.16241859 -0.016180363 0.08291354 0.030676458 -0.0042405026
00000000: 0858 333d 5e84 8fbd 95d7 a4bc ef8c 953c
00000010: 2aae 0c3e eccc 80bd 078b fabc 1e75 ca3d
00000020: 83ea 0abc c170 a33c de5a 113e 85d0 b2bb
00000030: dd4d 893d 1e1a a03d 3827 b33e abaa b43d
00000040: 4353 253e 0dca f43b 37fb 00be f0d7 02bd
00000050: 1dff 5e3d 2c53 cb3d 8781 a73e 7037 003e
00000060: c8ab 0cbd 0f51 263e ae8c 84bc 93ce a93d
00000070: 324d fb3c eaf3 8abb

6.running_mean f4 [30]
-0.28800112 0.05209509 -0.14063169 -0.2294929 -0.14290707 0.12705094 0.26544514 -0.04685895
-0.25503877 0.08941133 0.08046696 -0.034346174 0.053389437 -0.022961818 0.06337528 -0.2600022
-0.168936 -0.1176863 0.28061956 -0.037056062 -0.30759346 0.06858644 0.17203738 0.010679386
0.101006515 0.09682991 0.06572716 0.07069883 0.12720671 0.31903133
00000000: e274 93be a961 553d c101 10be 3000 6bbe
00000010: 3b56 12be a419 023e 6de8 873e 2cef 3fbd
00000020: 7194 82be 4a1d b73d ddcb a43d 93ae 0cbd
00000030: e2ae 5a3d 6c1a bcbc e6ca 813d 021f 85be
00000040: 8ffd 2cbe 8405 f1bd 5ead 8f3e 19c8 17bd
00000050: e47c 9dbe 0c77 8c3d 912a 303e 97f8 2e3c
00000060: 81dc ce3d c34e c63d f69b 863d 8cca 903d
00000070: 7a42 023e 1358 a33e

6.running_var f4 [30]
0.014474417 0.047835905 0.038577437 0.049836367 0.03875484 0.07938042 0.07106428 0.02434375
0.021126334 0.03376214 0.020803187 0.033519328 0.04278706 0.025667759 0.019337652 0.011022629
0.022185666 0.07735329 0.049694404 0.031164585 0.027474595 0.01578757 0.011260819 0.033591896
0.040096115 0.013998711 0.04936849 0.019850288 0.042313527 0.046421092
00000000: 1b26 6d3c 95ef 433d 6003 1e3d 3821 4c3d
00000010: 65bd 1e3d 3492 a23d 268a 913d 8b6c c73c
00000020: 2211 ad3c 2b4a 0a3d 726b aa3c 904b 093d
00000030: 7c41 2f3d 3145 d23c ff69 9e3c 4298 343c
00000040: b7be b53c 676b 9e3d 5c8c 4b3d df4c ff3c
00000050: 6712 e13c ef54 813c 4c7f 383c a897 093d
00000060: d33b 243d d95a 653c 9d36 4a3d 129d a23c
00000070: f350 2d3d 0b24 3e3d

8.weight f4 [60, 30]
-0.09675863 0.1418355 -0.0777298 -0.18774539 -0.006091404 0.0237356 0.11081056 -0.15873665
-0.1127446 0.09985219 -0.06327946 0.09726857 -0.03165347 -0.10173112 -0.15935539 0.014306275
-0.081867725 -0.02294626 0.086121924 0.09324192 -0.07670364 -0.0796541 -0.007933238 0.02521197
0.08639417 -0.052605826 -0.18201162 0.11636309 0.10228756 -0.025597373 0.13919622 0.04462006
-0.075578384 0.05751722 -0.23602992 0.09892564 -0.15449418 0.22522846 0.015860979 0.038321443
-0.21073456 0.06242464 0.096816294 -0.12905422 0.458224 -0.1822996 -0.34927538 0.21048667
-0.1577394 -0.042275064 -0.004455779 -0.07274317 0.053532906 -0.09491558 -0.14653882 0.046183877
-0.015206938 0.1763688 -0.025654692 -0.017028557 0.15962683 0.002037707 0.093345605 0.003806407
-0.000989044 -0.08202104 -0.07370941 -0.05987026 -0.059662357 -0.04563474 0.11500019 0.11015256
-0.016614925 0.056175277 -0.15570343 0.22025932 0.03822885 -0.002109023 0.14383157 -0.012634712
-0.026835505 0.22190164 0.19281662 -0.08285434 -0.07143455 -0.12925132 -0.05498316 0.1543034
-0.16345263 -0.031668365 0.11853027 0.0073607215 -0.04347455 0.07575865 0.035324596 -0.101707004
-0.100416794 -0.13176648 0.06394492 0.081030294 -0.08046301 -0.19491245 0.053763572 -0.055143684
-0.15993251 -0.040560607 0.21295673 -0.15460002 0.0044102333 0.18481813 0.07207476 0.08791671
0.016919198 0.044364724 -0.10184055 0.14634714 0.13259292 -0.19674233 -0.12382104 -0.1744612
-0.0078713875 0.04549094 -0.042231157 0.26188117 -0.034923952 -0.111118294 0.047699507 -0.33719322
0.17914419 0.4074803 -0.33044028 -0.14443992 -0.056055114 0.21638763 0.09959724 0.09069142
-0.15588863 0.12701143 -0.101005785 -0.1971678 0.37367955 -0.1625237 -0.18907677 -0.15137471
0.12999561 -0.30414316 0.032575384 0.34251767 -0.14947356 0.02943346 0.12897107 -0.008500969
-0.1778937 -0.11825635 0.019499816 0.115505725 -0.100397356 -0.22464922 -0.27325317 0.14323103
-0.08675294 -0.06294285 0.069676235 -0.2386417 -0.04238234 0.014458549 0.35267752 0.06547293
-0.025667468 -0.13920444 0.19158377 -0.059203926 0.32876614 -0.110302225 -0.34802407 -0.09640382
0.055072688 0.00024193084 0.1153135 -0.1446947 -0.002418142 -0.04811155 0.09966526 0.0047539477
-0.115786135 0.03264843 -0.010403391 -0.07296476 -0.05499676 -0.071648195 -0.0979717 0.046684735
-0.1299538 -0.06343522 -0.19399165 0.027297022 -0.07184197 -0.17301598 0.11956001 0.030173352
-0.08904982 -0.11084172 -0.06794912 0.03495932 0.060202233 -0.19016433 0.0825811 0.02547245
-0.12139477 -0.035609573 -0.1687012 0.1462952 0.17256635 0.0010895663 -0.06269543 0.072536945
-0.026879925 0.011840692 0.2539683 0.13075009 -0.16773483 -0.2827565 0.07639326 -0.012515659
-0.059533853 0.30053797 0.03598234 -0.0858038 -0.07196939 0.009781794 0.08339304 0.041745387
-0.29423404 -0.10081062 -0.09005448 -0.08213978 0.074406534 -0.13213931 -0.32646832 0.046824176
-0.036618818 0.023181107 0.051360905 0.05134044 -0.14995487 -0.01733588 -0.24842684 -0.045165043
-0.13110119 -0.15808755 -0.14511223 -0.00049032416 -0.03117495 0.05542835 -0.08737565 -0.12678015
00000000: 6329 c6bd 533d 113e cd30 9fbd 5440 40be
00000010: 669a c7bb 2971 c23c a6f0 e23d dc8b 22be
00000020: a4e6 e6bd 4e7f cc3d a998 81bd be34 c73d
00000030: 12a7 01bd 6858 d0bd 0f2e 23be de64 6a3c
00000040: 44aa a7bd ccf9 bbbc b160 b03d 9ff5 be3d
00000050: cc16 9dbd b021 a3bd 69fa 01bc 5589 ce3c
00000060: 6def b03d 3579 57bd 4161 3abe c64f ee3d
00000070: 247c d13d 95b1 d1bc 7489 0e3e 86c3 363d
00000080: d7c8 9abd 2d97 6b3d d4b1 71be 8799 ca3d
00000090: b933 1ebe 4aa2 663e e2ee 813c f2f6 1c3d
000000a0: cdca 57be fbb0 7f3d 9f47 c63d ca26 04be
000000b0: 569c ea3e bfac 3abe 39d4 b2be d189 573e
000000c0: 7086 21be 9e28 2dbd c901 92bb 5ffa 94bd
000000d0: 5245 5b3d 1963 c2bd 460e 16be 4e2b 3d3d
000000e0: 8526 79bc 069a 343e ca29 d2bc 797f 8bbc
000000f0: 3775 233e 0d8b 053b fb2b bf3d ea74 793b
00000100: cfa2 81ba a6fa a7bd f6f4 96bd 853a 75bd
00000110: 8460 74bd 7eeb 3abd 3885 eb3d aa97 e13d
00000120: 061c 88bc 0c18 663d b870 1fbe a98b 613e
00000130: db95 1c3d 8937 0abb 9548 133e d301 4fbc
00000140: 22d6 dbbc 2f3a 633e b871 453e 89af a9bd
00000150: 474c 92bd 755a 04be 0636 61bd b601 1e3e
00000160: 2060 27be b0b6 01bd 00c0 f23d 3532 f13b
00000170: 5f12 32bd 5a27 9b3d 86b0 103d c34b d0bd
00000180: 52a7 cdbd cbed 06be 8ef5 823d 36f3 a53d
00000190: cac9 a4bd 2197 47be 3137 5c3d 58de 61bd
000001a0: 59c5 23be e122 26bd 5411 5a3e 784f 1ebe
000001b0: b883 903b f740 3d3e ef9b 933d ad0d b43d
000001c0: 219a 8a3c c9b7 353d c791 d0bd 06dc 153e
000001d0: 70c6 073e d276 49be e395 fdbd f5a5 32be
000001e0: fef6 00bc b554 3a3d 94fa 2cbd 4a15 863e
000001f0: 6b0c 0fbd fd91 e3bd 8f60 433d 97a4 acbe
00000200: 9371 373e 42a1 d03e 782f a9be 0fe8 13be
00000210: 0c9a 65bd b894 5d3e a3f9 cb3d 6cbc b93d
00000220: 45a1 1fbe 490f 023e 1fdc cebd 5be6 49be
00000230: ed52 bf3e 9d6c 26be 579d 41be f901 1bbe
00000240: 921d 053e a7b8 9bbe c46d 053d 7a5e af3e
00000250: 990f 19be 711e f13c fe10 043e a647 0bbc
00000260: c429 36be 6330 f2bd 14be 9f3c 448e ec3d
00000270: 219d cdbd 720a 66be d7e7 8bbe 28ab 123e
00000280: 87ab b1bd 2ee8 80bd 6ab2 8e3d 7d5e 74be
00000290: 1b99 2dbd 8de3 6c3c 2692 b43e ac16 863d
000002a0: 9544 d2bc 9c8b 0ebe 892e 443e d17f 72bd
000002b0: 0954 a83e 22e6 e1bd 3630 b2be 5e6f c5bd
000002c0: e693 613d d1ae 7d39 7c29 ec3d d92a 14be
000002d0: b179 1ebb 9e10 45bd 4d1d cc3d 01c7 9b3b
000002e0: 4821 edbd 5cba 053d fc72 2abc 8c6e 95bd
000002f0: 4844 61bd 4abc 92bd 63a5 c8bd 7e38 3f3d
00000300: 9c12 05be 53ea 81bd bfa5 46be 019e df3c
00000310: e221 93bd 1a2b 31be e1db f43d 1b2e f73c
00000320: c15f b6bd fc00 e3bd e928 8bbd 8131 0f3d
00000330: 9e96 763d 70ba 42be 4820 a93d 99ab d03c
00000340: d29d f8bd 58db 11bd 02c0 2cbe 69ce 153e
00000350: 3cb5 303e c7cf 8e3a 7666 80bd 408e 943d
00000360: 4a33 dcbc 76ff 413c 2208 823e 5ae3 053e
00000370: aec2 2bbe 76c5 90be 1274 9c3d 7b0e 4dbc
00000380: c5d9 73bd 1de0 993e 3862 133d e7b9 afbd
00000390: b064 93bd d143 203c f8c9 aa3d 36fd 2a3d
000003a0: d8a5 96be cc75 cebd 7c6e b8bd e738 a8bd
000003b0: 7462 983d 874f 07be db26 a7be b5ca 3f3d
000003c0: 9dfd 15bd 4ee6 bd3c d05f 523d 5a4a 523d
000003d0: c58d 19be fa03 8ebc 9b63 7ebe fbfe 38bd
000003e0: 643f 06be b4e1 21be 4d98 14be 1989 00ba
000003f0: 9c62 ffbc d608 633d 01f2 b2bd a8d2 01be

8.bias f4 [60]
-0.57525283 -0.003065651 0.044807192 -0.008469592 -0.08268851 0.05541243 -0.42898571 -0.05649784
-0.20181921 -0.07971476 -0.13023447 0.0018087483 0.07633741 0.11680484 0.012675326 0.13164073
-0.09884918 0.089915626 0.053400442 -0.049006376 -0.065796405 -0.00081097154 -0.13659702 0.16020991
-0.020792767 -0.048560314 0.14240253 0.017942732 -0.056502473 0.06480834 -0.0073499545 0.10757791
0.005439309 -0.011976191 0.017078577 0.06076447 0.033853658 0.007686506 -0.013479604 0.07433883
0.00016718554 -0.007836865 0.017856555 -0.021435004 -0.0008057094 -0.0038499301 0.007129515 0.05770288
-0.030603569 0.050535385 0.07734175 -0.014734082 -0.08102435 -0.10980549 -0.043622054 0.03698647
0.051168878 -0.053023446 -0.019092567 -0.08517525
00000000: c543 13bf 17e9 48bb bf87 373d 0bc4 0abc
00000010: 9858 a9bd 25f8 623d 04a4 dbbe 476a 67bd
00000020: b2a9 4ebe 7e41 a3bd 2f5c 05be 8613 ed3a
00000030: ca56 9c3d 6037 ef3d 2cac 4f3c d4cc 063e
00000040: 7071 cabd af25 b83d 6cba 5a3d e9ba 48bd
00000050: 44c0 86bd 6197 54ba 17e0 0bbe 110e 243e
00000060: 9855 aabc 2ee7 46bd f8d1 113e a3fc 923c
00000070: 236f 67bd 3cba 843d e3d7 f0bb cf51 dc3d
00000080: 3b3c b23b c937 44bc 5fe8 8b3c 2ae4 783d
00000090: 22aa 0a3d 16df fb3b 8fd9 5cbc f53e 983d
000000a0: 874e 2f39 3266 00bc e947 923c 7698 afbc
000000b0: 3e36 53ba 1c4f 7cbb b59e e93b db59 6c3d
000000c0: 56b4 fabc 31fe 4e3d 5a65 9e3d 3867 71bc
000000d0: 18f0 a5bd b3e1 e0bd 0aad 32bd 207f 173d
000000e0: 7596 513d 1d2f 59bd 0468 9cbc 5d70 aebd
