offline_prototype_3_ds_as_sampling/trained_models/ae_model_cnc_ip_shuffle.pth (torch, 7935 bytes, 16 tensors)

0.weight f4 [10, 20]
0	0x3e3c947f	0.18416022
1	0xbe52fa12	-0.20603207
2	0x3e925760	0.28582287
3	0xbe0e5b6b	-0.1390206
4	0xbe0a93ed	-0.13532992
5	0x3d751b38	0.05984041
6	0x3e0c1ba1	0.13682415
7	0xbe26fffa	-0.16308585
8	0x39e04919	0.0004277907
9	0xbda01657	-0.07816761
10	0x3dfa9b55	0.122366585
11	0xbe072d00	-0.1320076
12	0xbd6fc0e3	-0.05853356
13	0x3e2d6063	0.169313
14	0xbe4fb240	-0.2028284
15	0x3d3661d1	0.04452688
16	0xbe0c06c0	-0.1367445
17	0xbcf522e1	-0.029923858
18	0x3dffa5bc	0.12482783
19	0x3cc71df2	0.024306271
20	0xbdc1477d	-0.094374634
21	0x3d92cdfb	0.07168194
22	0xbd1e037c	-0.03857754
23	0xbec5dcab	-0.3864492
24	0xbe34afaa	-0.17645136
25	0x3d4413cc	0.047870442
26	0x3dc4b98e	0.09605704
27	0x3e9049e5	0.28181377
28	0x3e1fcb3a	0.15604869
29	0xbcce44db	-0.025179317
30	0xbd63a180	-0.05557394
31	0x3cd7ddf1	0.026350947
32	0x3d6453da	0.05574403
33	0xbe2452cd	-0.16047211
34	0x3db2568c	0.08707914
35	0x3da3a7b7	0.079909734
36	0x3e156cc2	0.14592269
37	0x3cb57f2e	0.02215537
38	0x3de0dd8b	0.10979756
39	0xbd7f1399	-0.06227455
40	0xbd98ce5c	-0.07461235
41	0x3d9f5ed9	0.07781763
42	0x3a8fce9a	0.0010971606
43	0xbe6e05ec	-0.23244447
44	0xbdfef83d	-0.124496914
45	0x3e160a94	0.14652473
46	0x3c9baacb	0.019002339
47	0xbdddd3aa	-0.10831387
48	0x3e2db0e1	0.16962005
49	0xbe32083c	-0.17385954
50	0x3e72d48f	0.23713897
51	0x3dd0b470	0.10190666
52	0xbe06acf0	-0.13151908
53	0xbddc9f1e	-0.10772537
54	0xbc6f6601	-0.014611722
55	0xbd64fc69	-0.05590478
56	0x3e17d906	0.14828882
57	0x3e1d52f6	0.15363678
58	0x3cb9d8f7	0.022686465
59	0x3c8368ed	0.016041243
60	0x3e349649	0.17635454
61	0xbe60f177	-0.21967112
62	0x3e2e70a6	0.1703516
63	0xbdd6ca5e	-0.10487817
64	0x3cc67a34	0.024228193
65	0x3d8623a1	0.065497644
66	0xbe153e48	-0.1457454
67	0x3e22868c	0.15871638
68	0xbdef67b3	-0.11689701
69	0x3e3061ac	0.17224759
70	0x3da19913	0.07890525
71	0xbd770589	-0.060308013
72	0xbe297967	-0.16550218
73	0x3bea7c04	0.007155897
74	0x3d1fbf2f	0.039000686
75	0xbcac8fcd	-0.021064663
76	0x3e5d7012	0.21624783
77	0xbdc23b2c	-0.094839424
78	0xbd3a0943	-0.04541899
79	0x3dceccf1	0.10097683
80	0x3db486eb	0.08814796
81	0x3df63bae	0.12023102
82	0x3deda696	0.11604039
83	0x3eb940f5	0.3618237
84	0x3e35ae46	0.17742261
85	0xbda0cf79	-0.07852072
86	0xbdad6516	-0.08466546
87	0xbe838634	-0.25688326
88	0x3d36b015	0.04460152
89	0xbe02a121	-0.12756778
90	0x3bd1ed9f	0.0064065005
91	0xbe080ae8	-0.1328541
92	0x3dfc9a42	0.1233411
93	0x3d45c3b7	0.04828235
94	0x3b15c923	0.0022855483
95	0xbd81c15f	-0.06335711
96	0xbd486d21	-0.0489322
97	0xbd03739a	-0.032092668
98	0xba2e66fa	-0.0006652918
99	0x3d6913d4	0.056903675
100	0xbdfab4c7	-0.12241512
101	0xbd803600	-0.062603
102	0xbc0ddd97	-0.008658788
103	0xbe8a5fcc	-0.27026212
104	0x3e24b29a	0.16083756
105	0x3e216a47	0.15763198
106	0xbd5fa06d	-0.054596353
107	0x3e20fd93	0.15721731
108	0xbd224239	-0.039613936
109	0xbdaca9e4	-0.084308416
110	0xbd3c6656	-0.045996033
111	0x3d58e210	0.052949965
112	0xbdaf796d	-0.08568082
113	0xbd2c51ec	-0.042070314
114	0xbdc80037	-0.09765666
115	0xbda8d9b8	-0.082446516
116	0x3e4428e8	0.1915623
117	0xbe1b6d65	-0.1517845
118	0x3de57ab5	0.11205045
119	0xbd1d7d22	-0.038449414
120	0xbe1047b9	-0.1408986
121	0xbdf3b0d0	-0.11898959
122	0xbec5cf31	-0.38634637
123	0x3e62adc6	0.22136602
124	0x3c34d23e	0.011036454
125	0x3d0bffd3	0.03417952
126	0x3d69ddbc	0.057096228
127	0x3dae5e4a	0.08514078
128	0x3d50d2fd	0.050982464
129	0x3d7a7843	0.061149847
130	0xbd319699	-0.04335651
131	0x3d810788	0.063002646
132	0xbd8077c4	-0.062728435
133	0x3e24f7eb	0.16110198
134	0xbe0d3605	-0.13790138
135	0x3e2b1833	0.1670845
136	0x3c7be1f4	0.015373696
137	0x3d80407b	0.06262299
138	0x3cffe1bd	0.03123557
139	0xbdf805d5	-0.12110487
140	0xbe8e588d	-0.27801934
141	0x3dee68a8	0.11641055
142	0x3e66f0dc	0.22552818
143	0xbe517cb1	-0.20457722
144	0x3d93ecda	0.0722291
145	0x3da5a269	0.08087618
146	0x3e230eff	0.1592369
147	0xbd2ed1c3	-0.042680513
148	0xbd07bdd4	-0.03314002
149	0x3e0da288	0.13831532
150	0xbcb4f786	-0.022090685
151	0xbd8a0308	-0.067388594
152	0xbd9f494b	-0.077776514
153	0xbe2566f1	-0.1615255
154	0x3e0d3cca	0.1379272
155	0x3c1d7f80	0.009612918
156	0x3e57227b	0.21009247
157	0xbb2c7e79	-0.00263205
158	0xbddb1ba0	-0.106986284
159	0x3db76ae2	0.08955933
160	0x3e611a6c	0.21982735
161	0x3ddc1313	0.107458256
162	0xbe7e1cd7	-0.24815689
163	0x3e38fed7	0.18065964
164	0x3d7d7e61	0.061888102
165	0xba98acb9	-0.0011648155
166	0xba99d9b2	-0.0011737852
167	0xbe1d3346	-0.1535159
168	0x3dc33de4	0.09533289
169	0xbd9d6d93	-0.07686915
170	0x3e32aabe	0.17447945
171	0x3dc47756	0.09593074
172	0x3e77abd4	0.24186641
173	0x3d201fd2	0.039092846
174	0x3d813d0d	0.06310473
175	0xbe174d44	-0.14775568
176	0xbdfa7117	-0.122286014
177	0xbcf82fb5	-0.030296186
178	0xbe41cb28	-0.18925154
179	0xbcff1128	-0.03113611
180	0xbe2e2ca4	-0.17009217
181	0x3dad6420	0.08466363
182	0x3e36b183	0.17841153
183	0x3e52fe4e	0.20604822
184	0xbd039ba6	-0.03213086
185	0xbde54406	-0.11194615
186	0x3d568756	0.05237516
187	0x3e0b8775	0.13625892
188	0xbd2bf22b	-0.041978996
189	0xbcd9f2a6	-0.026604962
190	0xbb9a88a1	-0.0047159945
191	0x3e1e100d	0.1543581
192	0x3d06c264	0.03290023
193	0xbda2f4b6	-0.07956831
194	0x3d786d9b	0.060651403
195	0x3b418376	0.002952782
196	0xbe03e8dc	-0.12881798
197	0x3df557e4	0.119796544
198	0xbdf4b258	-0.11948079
199	0xbdbd5baf	-0.09246003

0.bias f4 [10]
0	0x3d5d29e8	0.053995043
1	0x3e639ed2	0.22228554
2	0x3e1a2d86	0.15056428
3	0x3e430542	0.19044974
4	0xbd08dd88	-0.033414394
5	0x3bab7560	0.005232498
6	0xbd96cbb6	-0.073630735
7	0xbbb0241c	-0.0053753983
8	0xbe5ff00f	-0.21868919
9	0xbd079a50	-0.03310615

1.weight f4 [10]
0	0x3f702b14	0.9381573
1	0x3f7687a9	0.9630075
2	0x3f6b50cd	0.9192017
3	0x3f79cf8f	0.97582334
4	0x3f7fec06	0.9996952
5	0x3f614c0f	0.8800668
6	0x3f7149a8	0.94253016
7	0x3f5deb86	0.86687505
8	0x3f687249	0.90799385
9	0x3f7622c0	0.96146774

1.bias f4 [10]
0	0x3e1eaf0a	0.1549646
1	0xbd4341de	-0.047670238
2	0x3c0b34d6	0.008496484
3	0x3e2914be	0.16511819
4	0x3d10da7c	0.035364613
5	0x3e06c8cb	0.13162534
6	0x3d829c5b	0.06377479
7	0x3dcaa658	0.09895009
8	0x3cd2e010	0.025741607
9	0x3e16bbfd	0.1472015

1.running_mean f4 [10]
0	0x3da65357	0.081213646
1	0x3e571d28	0.21007216
2	0x3e1829ef	0.14859746
3	0x3e548a73	0.20755939
4	0xbd21ee1f	-0.03953373
5	0x3ca41a2f	0.020032017
6	0xbd7ef765	-0.062247653
7	0xbb1cb4a1	-0.0023911374
8	0xbe7510d6	-0.23932204
9	0xbd36115b	-0.044450145

1.running_var f4 [10]
0	0x3cc2b70d	0.023768926
1	0x3c3e8817	0.011629126
2	0x3b9abea2	0.0047224322
3	0x3c786e3c	0.015163001
4	0x3c6e8678	0.014558427
5	0x3c2d5546	0.010579413
6	0x3cab8195	0.020935813
7	0x3ced3937	0.028957946
8	0x3cb47bbd	0.02203166
9	0x3c697096	0.014248034

3.weight f4 [5, 10]
0	0xbc64c6e2	-0.013963433
1	0xbd4bba0d	-0.04973798
2	0x3d425935	0.047448356
3	0x3d6db4eb	0.058033865
4	0xbdd12bd4	-0.10213438
5	0xbdbf86fb	-0.09351917
6	0xbdfa91d4	-0.12234846
7	0x3e59f736	0.2128571
8	0xbe4046ea	-0.18777052
9	0x3dcf5ffb	0.10125729
10	0x3e365709	0.17806639
11	0xbdbe5294	-0.09293094
12	0xbd7ec893	-0.062203
13	0xbc9f5808	-0.019451156
14	0x3e843405	0.25820938
15	0x3c6a3dbe	0.014296947
16	0xbe916212	-0.28395134
17	0xbe8c4063	-0.27392873
18	0x3de40c8f	0.11135208
19	0x3da3df93	0.08001628
20	0xbde91461	-0.1138084
21	0xbe7bc293	-0.24585943
22	0xbe146a56	-0.14493689
23	0x3dbd8730	0.092543006
24	0x3cc0fe06	0.023558628
25	0xbdd052cd	-0.10172043
26	0x3e1b0efc	0.15142435
27	0xbdb407cc	-0.0879055
28	0x3d537c54	0.05163224
29	0x3e272bbb	0.16325276
30	0x3caadf08	0.020858303
31	0x3e94e70c	0.29082525
32	0xbe48742d	-0.19575568
33	0x3e5f4088	0.2180196
34	0xbd91b4a2	-0.07114531
35	0xbdc1d9c4	-0.094653636
36	0xbd9c8b79	-0.0764379
37	0xbe555d81	-0.2083645
38	0x3dbc377c	0.0919027
39	0xbd93a0db	-0.07208415
40	0x3c94c6cf	0.018161206
41	0xbd5452c4	-0.051836744
42	0x3c57a1bc	0.013161119
43	0x3e396f6c	0.1810891
44	0x3ca79370	0.020456046
45	0x3e7f080f	0.24905418
46	0xbea4d26e	-0.32191795
47	0x3e24ec65	0.16105802
48	0xbe091795	-0.13387902
49	0x3e5a4320	0.21314669

3.bias f4 [5]
0	0x3e29236f	0.16517423
1	0x3ec9f16e	0.3944201
2	0x3d6df692	0.058096476
3	0x3d6c01a1	0.05761874
4	0x3e4b7ea9	0.19872536

5.weight f4 [10, 5]
0	0x3eb110c1	0.34583095
1	0x3d83699c	0.06416628
2	0xbf065bdb	-0.5248391
3	0x3e29b341	0.16572286
4	0xbe6f608e	-0.23376676
5	0x3c40209f	0.0117265275
6	0xbe31d055	-0.17364629
7	0xbedd2664	-0.43193352
8	0xbdb54795	-0.08851544
9	0xbd1df2be	-0.038561575
10	0x3ebbdf2d	0.36693707
11	0xbeb2238d	-0.34792748
12	0xbe7a683e	-0.24453828
13	0x3e442463	0.19154505
14	0xbe1af2a7	-0.15131627
15	0x3ea7e831	0.32794335
16	0x3e148b14	0.14506179
17	0xbd8026bc	-0.06257388
18	0x3d872461	0.065987356
19	0x3e759632	0.23983076
20	0xbde4f2fc	-0.11179158
21	0xbd6a2648	-0.057165414
22	0xbd09f098	-0.033676714
23	0x3e6742e8	0.22584116
24	0xbebabf4f	-0.36474082
25	0x3d74e3c3	0.059787523
26	0x3e8d29b8	0.2757089
27	0x3e7dbd51	0.2477925
28	0x3e82423b	0.25441155
29	0xbe5d6fa0	-0.21624613
30	0xbe8834dd	-0.2660283
31	0xbe641d14	-0.22276717
32	0xbeb97390	-0.3622098
33	0x3e9d4e60	0.30723858
34	0x3e26bd6d	0.16283198
35	0x3e878473	0.26468238
36	0x3e3c59fd	0.18393703
37	0x3d1af018	0.037826627
38	0xbe28decc	-0.1649124
39	0x3ed872e0	0.42275143
40	0xbe02c9ad	-0.12772246
41	0xbd01ee48	-0.031721383
42	0x3e99f532	0.30069882
43	0xbef02c29	-0.46908692
44	0x3d84f291	0.06491578
45	0xbe13c488	-0.1443044
46	0xbd989fb3	-0.07452335
47	0xbddfed52	-0.10933937
48	0x3edfec30	0.43734884
49	0xbea0cfb7	-0.31408474

5.bias f4 [10]
0	0xbebbcf77	-0.3668172
1	0x3d14dc98	0.036343187
2	0xbec8f775	-0.39251295
3	0xbeb1bbe9	-0.34713677
4	0x3e83ab34	0.25716555
5	0x3e987154	0.29773962
6	0xbe4925fa	-0.19643393
7	0x3e8b9baa	0.272672
8	0xba34043d	-0.00068670866
9	0xbe914bf0	-0.28378248

6.weight f4 [10]
0	0x3f879cbf	1.059471
1	0x3f6f4c43	0.9347574
2	0x3f79f4f7	0.9763941
3	0x3f52a06d	0.8227604
4	0x3f5d3694	0.86411405
5	0x3f5bfddc	0.85934234
6	0x3f59fd67	0.85152286
7	0x3f5581d8	0.8340125
8	0x3f714c85	0.94257385
9	0x3f59addf	0.8503093

6.bias f4 [10]
0	0x3e041339	0.12897958
1	0xbd8615e6	-0.065471455
2	0xbceaa6a9	-0.028643923
3	0x3e3bcb7d	0.18339343
4	0x3dd9a5f1	0.10627354
5	0x3e14f0c0	0.14544964
6	0x3ebac61a	0.36479264
7	0x3e242f49	0.16033663
8	0x3e191bb0	0.14951968
9	0xbe1a41b3	-0.15064125

6.running_mean f4 [10]
0	0xbec43624	-0.38322556
1	0xbd30ce60	-0.043165565
2	0xbeffa205	-0.499283
3	0xbe5d64ef	-0.21620534
4	0x3e1a66b3	0.15078239
5	0x3eb5194c	0.35370862
6	0xbe7f9c62	-0.24961999
7	0x3ee4fb38	0.44722915
8	0xbc6feb07	-0.014643437
9	0xbec2ab2a	-0.38021213

6.running_var f4 [10]
0	0x3bc89954	0.0061217938
1	0x3c47d3c7	0.012196488
2	0x3cb9d213	0.022683179
3	0x3c403974	0.011732448
4	0x3c4c653e	0.01247531
5	0x3cae6d15	0.021292249
6	0x3c20def2	0.009818779
7	0x3cb0d924	0.021587916
8	0x3c066550	0.008202866
9	0x3c758d92	0.014987366

8.weight f4 [20, 10]
0	0x3d3b7316	0.04576405
1	0xbeeef054	-0.4666773
2	0xbec4f74b	-0.3846992
3	0x3e50e718	0.20400655
4	0xbd9087f7	-0.07057183
5	0x3efd3987	0.49457952
6	0x3d7fb03f	0.06242394
7	0xbe3f295f	-0.18668126
8	0xbf0a5d87	-0.5404896
9	0x3e84e639	0.25956896
10	0xbe80c702	-0.2515183
11	0x3e93e400	0.28884888
12	0xbcb19bbe	-0.021680709
13	0x3d9f7b37	0.07787173
14	0xbe4bfdf5	-0.19921096
15	0x3dd3f6c8	0.10349804
16	0xbecd78ca	-0.40131217
17	0xbdb44f1b	-0.08804151
18	0x3e50b11c	0.20380062
19	0xbe0e76a1	-0.13912441
20	0x3e5cc1a0	0.21558237
21	0xbe884f45	-0.26622978
22	0xbdc24cbd	-0.09487293
23	0x3e8ce8e1	0.27521423
24	0xbf283fe1	-0.6572247
25	0x3da3c84c	0.07997188
26	0xbcee591b	-0.029095223
27	0x3e523836	0.20529255
28	0xbe18afb8	-0.14910781
29	0xbe8bb283	-0.2728463
30	0xbed13ca7	-0.40866587
31	0x3cde5418	0.027139708
32	0x3e64ef70	0.22356963
33	0xbd8a2482	-0.067452446
34	0x3de7d57b	0.11320015
35	0x3e7a2c9a	0.24431077
36	0xbf04b347	-0.51836056
37	0x3dcb5038	0.0992741
38	0x3e729922	0.23691228
39	0xbe236102	-0.15954974
40	0xbf03ef61	-0.5153714
41	0xbb23585f	-0.00249245
42	0xbe994b9e	-0.29940504
43	0xbe98eac8	-0.29866624
44	0xbc9499aa	-0.018139679
45	0xbd358e02	-0.044324882
46	0x3d9e458d	0.077281095
47	0x3dc6a33d	0.09699104
48	0xbe5cb819	-0.21554603
49	0xbeac0275	-0.33595625
50	0xbeabfa31	-0.33589318
51	0x3db93d07	0.09044843
52	0x3b205152	0.0024462533
53	0x3e73cd95	0.23808892
54	0xbb08a6f6	-0.002085147
55	0xbdd32287	-0.1030932
56	0xbd335d12	-0.04378993
57	0xbe6d62bb	-0.23182194
58	0xbd5c3a03	-0.05376626
59	0x3d825f18	0.06365794
60	0x3eb24581	0.34818652
61	0xbed6465c	-0.41850555
62	0x3e8c61c2	0.27418333
63	0xbbfd559b	-0.007731152
64	0x3e554bca	0.20829692
65	0xbe10e351	-0.14149214
66	0xbec135d7	-0.3773639
67	0xbbaa37ef	-0.005194656
68	0xbe030df6	-0.12798294
69	0x3d2ee943	0.042702924
70	0xbda7048a	-0.08155163
71	0xbe9c9e8e	-0.30589718
72	0x3cac4780	0.021030188
73	0xbde8db84	-0.11369994
74	0x3d4cb823	0.049980294
75	0xbdbb1cac	-0.09136328
76	0x3eec40af	0.461431
77	0x3d8d4522	0.06897952
78	0x3d265341	0.04060674
79	0xbd38a9b6	-0.045083724
80	0x3db7fcf4	0.08983794
81	0xbe4b1092	-0.1983054
82	0x3d88668d	0.06660185
83	0xbd1736ab	-0.03691737
84	0x3d27e0e4	0.040985957
85	0xbcced085	-0.025245914
86	0x3d2dc35b	0.042422634
87	0x3db7d773	0.089766406
88	0x3d7279ca	0.05919818
89	0x3e3fe929	0.18741287
90	0xbe4174cf	-0.18892215
91	0x3d4db242	0.050218828
92	0x3e5655b9	0.20931138
93	0x3df5ca9b	0.120015346
94	0xbe693348	-0.22773468
95	0xbd893f0e	-0.0670148
96	0xbc250625	-0.010072266
97	0xbdf3e26d	-0.11908422
98	0x3d8a166f	0.0674256
99	0x3eb26b3d	0.3484744
100	0x3c9394dc	0.018015318
101	0xbdcc8c9c	-0.099877566
102	0x3dd871a7	0.105685525
103	0x3e0ff890	0.14059663
104	0x3d18cf2b	0.037306946
105	0x3c08ffd0	0.008361772
106	0x3ce9a32e	0.028520193
107	0xbe0faf14	-0.14031631
108	0xbdc5864a	-0.09644754
109	0xbde83f5b	-0.11340209
110	0xbc495af5	-0.012289752
111	0x3e41386e	0.18869182
112	0xbdc2c1dd	-0.09509633
113	0x3e3814d6	0.17976698
114	0x3e433065	0.1906143
115	0xbcf9f45c	-0.030512027
116	0xbe09053e	-0.13380906
117	0xbdb2a1f1	-0.08722294
118	0xbbaff248	-0.0053694583
119	0xbd258d57	-0.040417995
120	0x3d44772c	0.047965214
121	0x3dcf5cca	0.1012512
122	0xbe44fab1	-0.19236256
123	0xbdf9e750	-0.122023225
124	0x3d15ca86	0.036570095
125	0x3d13c1ce	0.0360735
126	0x3e1ae9c8	0.15128243
127	0x3de43c4b	0.111443125
128	0x3d31c192	0.043397494
129	0xbd99381c	-0.07481405
130	0x3d606b6c	0.054789945
131	0x3e6ab2a7	0.22919713
132	0xbdfc7021	-0.123260744
133	0x3cfebb28	0.031095102
134	0xbe10d28c	-0.14142817
135	0xbd2d69e0	-0.0423373
136	0xbe3a3f2a	-0.18188158
137	0xbd3403a7	-0.043948796
138	0x3d060ebf	0.032728907
139	0x3e710c4c	0.23539847
140	0xbd8a7e37	-0.06762355
141	0xbe755cc4	-0.23961169
142	0x3e8959d9	0.2682636
143	0x3dd48666	0.10377197
144	0xbdd446f8	-0.10365099
145	0x3c8f0ded	0.017462695
146	0x3d45fb32	0.04833526
147	0xbe0c6e61	-0.13713981
148	0x3c1d43c8	0.00959868
149	0x3c91970f	0.017772226
150	0xbd45e033	-0.048309516
151	0xbd49c659	-0.049261425
152	0x3e0fff2c	0.14062184
153	0xbdd261b0	-0.10272539
154	0x3db3a6b2	0.08772029
155	0x3cf130f8	0.029442295
156	0xbd0b796e	-0.03405135
157	0x3e11b857	0.14230476
158	0xbd2c624a	-0.042085923
159	0xbccb2293	-0.02479676
160	0x3b4bc482	0.003109247
161	0xbe14e6ce	-0.1454117
162	0x3da72be1	0.08162666
163	0xbe5b63cb	-0.21424787
164	0xbd9a35bb	-0.075297795
165	0x3d15dcd7	0.036587562
166	0x3d9d246d	0.07672963
167	0x3e183093	0.1486228
168	0xbcfd3a2c	-0.030911528
169	0xbd0a348d	-0.033741523
170	0x3d01b3b1	0.031665508
171	0xbe22105f	-0.15826558
172	0x3d8f88e7	0.07008534
173	0xbdf6a690	-0.12043488
174	0x3b1e3766	0.0024141907
175	0x3d3e3c8b	0.046444457
176	0x3e0b3af9	0.13596715
177	0x3da44176	0.08020298
178	0x3b741c0c	0.0037248163
179	0xbe17b6d0	-0.14815831
180	0x3c852713	0.016253984
181	0x3cd18c58	0.025579616
182	0xbcf25b2b	-0.029584488
183	0xbc4cf185	-0.012508755
184	0xbd95bb90	-0.07311165
185	0x3cc3b17d	0.023888344
186	0x3ce997a4	0.02851469
187	0xbc14b89b	-0.0090772165
188	0x3bdefbd3	0.006804922
189	0x3c8b594c	0.017010354
190	0x3b518192	0.00319681
191	0x3c00c208	0.007858761
192	0x3caca03c	0.0210725
193	0x3deb42c3	0.11487343
194	0xbddf3e54	-0.1090056
195	0xbd4a1118	-0.049332708
196	0xbdd2f542	-0.103006855
197	0xbe0e7230	-0.13910747
198	0x3c16bbc3	0.009200039
199	0x3e06c5cd	0.13161393

8.bias f4 [20]
0	0x3d0a6c2a	0.03379456
1	0xbe77de1d	-0.24205823
2	0xbca1fc94	-0.019773759
3	0xbd889b6e	-0.06670271
4	0x3ed1c39b	0.40969548
5	0x3de71f3f	0.112852566
6	0x3d19fba0	0.037593484
7	0xbe41152a	-0.1885573
8	0xbd4fc3c7	-0.050723817
9	0x3c0b08f5	0.008486022
10	0x3c26a26c	0.01017056
11	0xbd2544de	-0.04034888
12	0xbd96530a	-0.07340057
13	0x3d7089af	0.058725055
14	0x3c8b1dd8	0.016982004
15	0xbc3e7ceb	-0.011626462
16	0x3c5a1fb3	0.013313222
17	0xbd31533d	-0.043292273
18	0x3baa269a	0.00519259
19	0x3d88d585	0.066813506
