offline_prototype_3_ds_as_sampling/trained_models/ae_model_ransomware_directory_trap.pth (torch, 7935 bytes, 16 tensors)

0.weight f4 [10, 20]
00000000: f0f6 a7bd f14e fcbc b745 63be 0140 383e
00000010: 118d 38bd d8db 48be 467f 8bbd c2a7 423e
00000020: 0dd7 c6bd e407 cebd 5bcf f9bd e16f 353e
00000030: 0045 043e bb5e 0a3e 3bed dabd 9549 153d
00000040: 1eea 9c3c 5600 12bd ae9e 113e acc9 1f3e
00000050: 2d4c 99bd 7bdc 82be c51e 41bd a5b1 3cbe
00000060: 029b 733e 26fa 4a3e af69 893c 0d63 5b3e
00000070: 82e1 ab3d 1af4 693d d1b3 8c3d 9a04 2a3b
00000080: 39b6 46be 71ee 893d 3f5a 08be 34f8 72bc
00000090: ccd1 61bd 1a26 853d 5899 923d 481e 98ba
000000a0: 94e6 07be 1e9b 4f3e fd86 053e a83f 793e
000000b0: 2d7a 003d 9b23 5dbe a810 bfbd 4b6d 5b3e
000000c0: 9c36 193d 6ac4 0abd 6cd8 833d bdbd a83d
000000d0: 7aa1 093e f5ce 743d 81c3 26be b8d9 edbd
000000e0: 23b0 8ebd 4d65 c43d 25db 4bbc a82e 8dbd
000000f0: 5f33 d13e 06e5 b23d 0db0 02be 6b93 4e3e
00000100: b0c4 8f3d 8c2b be3d 2b62 c53d e7f8 23bd
00000110: bf71 ccbd 5c17 af3c c52a 03be e3d5 083d
00000120: 0ebb 1bbe 28f7 ae3c 7fe6 26bd fa99 d4bd
00000130: 7b46 ed3c 640a 733d 5770 bbbd f015 ef3d
00000140: 588d 813d 771f 9bbe ab1a 123b 8e4d 35be
00000150: 8c71 d4bd 6538 9fbd 3896 213e d5c4 3ebd
00000160: 5a94 14be 50cc 433e 7d0f c4bd 6c6e 82bd
00000170: 604a b93c 5c45 c6bd 09ba e7bd e127 043e
00000180: fcec a6bd 0684 99bd 68df 78bd d251 483d
00000190: 54e7 31be 30fc 2abe aa03 58bd b931 64be
000001a0: 43f0 94bd a666 86bd 962e 7abd 7e9e 093e
000001b0: 0b7d 283e d3c7 11be d4e5 773e be73 11bd
000001c0: 3f1f d7bd 9abf 813d 1960 b43c d3a2 07be
000001d0: 9ea3 0639 0ce8 6abd bdb1 e63d 68ef 043e
000001e0: 2eee 933e 3a02 b73c af9b 81ba 2063 5bbe
000001f0: 3eae 103e 94b8 ebbd 6d54 583d 228a eb3d
00000200: dd04 943d e068 ea3d cc94 a53c 506b 403e
00000210: 8656 243b 60b6 db3d 5480 8e3d 3c83 52be
00000220: ea89 043e 504a e4bd db75 103d 1d97 c0bd
00000230: c859 b33e b270 4ebe fc18 663e 71f3 3c3e
00000240: 6735 8dbc dcee d83c 0a7e eebd bba0 193c
00000250: aeb4 373d 8cd1 e2bb bbb8 0c3d 2c73 1fbe
00000260: 5d44 d73d 8696 2a3d 6f01 0dbe 653b 4c3e
00000270: 0f88 26be 874c 9e3c a3a3 abbd 2b9a 653d
00000280: c820 943c 698e 6dbd a92c ba3e 360f eabd
00000290: 75b8 093e 7c6a 173e deba 763d 9bc7 47be
000002a0: afe5 1d3e 04e9 92bd 5bf1 2fbe 4e68 aabd
000002b0: ad4e f7bd 3d8c 03be 86a0 81bc 0f52 0cbe
000002c0: 6bfd 05bd 77bd 053e 0cb1 8d3b 5716 fcbd
000002d0: 3560 82be 24c1 26be 1a09 843c 9800 aa3e
000002e0: 7aa4 ae3d d16e ce3d 5b51 81bc 27eb babd
000002f0: f27c d73d 37de 863d 92b2 4c3e 8a34 5ebc
00000300: 86c1 813d 9f3f 203c c2b1 10be 1048 8a3d
00000310: 3b55 50bd ce65 e03d d34e c03d 6255 a03d
-0.082013965 -0.030799361 -0.22194563 0.17993166 -0.045056406 -0.19615114 -0.06811385 0.19009307
-0.097089864 -0.10060099 -0.12197753 0.1771846 0.12916946 0.135127 -0.10689779 0.036447126
0.019154605 -0.03564485 0.14220688 0.15604275 -0.074852325 -0.25558838 -0.047148485 -0.18427141
0.237896 0.19821987 0.016774027 0.21424504 0.083926216 0.05711756 0.06870235 0.0025942684
-0.1940545 0.06734932 -0.13315676 -0.014829684 -0.05513172 0.06501408 0.07158154 -0.0011605704
-0.13271552 0.20274016 0.13039775 0.24340689 0.031366516 -0.21595614 -0.09329349 0.2142841
0.037405595 -0.03387872 0.064377636 0.08239315 0.13440505 0.059767682 -0.16285516 -0.11613792
-0.06967189 0.09589634 -0.012442385 -0.068936646 0.40859506 0.08735089 -0.1276247 0.20173423
0.07019937 0.0928565 0.09637865 -0.040032294 -0.09982633 0.021373443 -0.12809284 0.033407103
-0.15208074 0.021358088 -0.040747162 -0.10380931 0.028964272 0.05933608 -0.091522865 0.11674106
0.06325787 -0.30297443 0.0022293727 -0.17705366 -0.1037322 -0.07774428 0.1577996 -0.046574432
-0.14509717 0.19120908 -0.09573267 -0.063687176 0.022618473 -0.09681198 -0.1131478 0.12905838
-0.0815067 -0.074958846 -0.06075993 0.048906155 -0.17373401 -0.16697764 -0.05273787 -0.22284593
-0.07272389 -0.065625474 -0.061079584 0.13439366 0.1645395 -0.14236383 0.24208766 -0.03551077
-0.105040066 0.06335373 0.02201848 -0.13245706 0.00012840188 -0.057350203 0.1126437 0.12981951
0.28892654 0.022339929 -0.0009888316 -0.21424532 0.14128968 -0.11509815 0.05281489 0.11500956
0.0722749 0.114457846 0.020212553 0.18790936 0.0025075986 0.10728145 0.069580704 -0.20557874
0.12943235 -0.111469865 0.035268646 -0.094038226 0.35029435 -0.20160177 0.22470468 0.1845224
-0.017237378 0.026481085 -0.11645134 0.0093767 0.044850044 -0.0069219526 0.03435586 -0.15571278
0.10511086 0.041647457 -0.13770078 0.19944532 -0.1626284 0.0193236 -0.083808206 0.05605523
0.018082038 -0.05799714 0.36362198 -0.114286825 0.13449271 0.14786714 0.060236804 -0.19509737
0.15419649 -0.071733505 -0.17181914 -0.08320676 -0.12075553 -0.12846465 -0.015823614 -0.13703178
-0.03271238 0.13060556 0.004324084 -0.123089485 -0.25464025 -0.16284615 0.016117621 0.33203578
0.08527465 0.1007973 -0.015785864 -0.09126883 0.10521878 0.06585353 0.19989994 -0.013562331
0.0633574 0.009780793 -0.14130309 0.06752026 -0.050862532 0.10956918 0.093900345 0.078287855

0.bias f4 [10]
00000000: 20cd c03d 3a4d 173e 6222 1f3e f03b fbbd
00000010: 70ae 7c3c 5821 a2bc e6a4 503e 00fb b0bd
00000020: be54 3fbe 24fd b33d
0.094141245 0.14775553 0.1554046 -0.122672915 0.0154224485 -0.01979129 0.20375404 -0.086416245
-0.1868467 0.08788517

1.weight f4 [10]
00000000: 2c68 703f 5e7f 663f c327 623f 0f0a 5f3f
00000010: 69b2 703f 6aea 643f 6a58 783f d9a2 5e3f
00000020: 9015 633f d40f 7a3f
0.93908954 0.90038097 0.8834192 0.87124723 0.9402223 0.8942019 0.9700991 0.86967236
0.88704777 0.976804

1.bias f4 [10]
00000000: 0e4f 8dbc 83ac 973d 86a7 d23c 8a1d 8b3e
00000010: b84a 1dbb b752 3a3d 3b67 023c 0b30 a4bc
00000020: a488 de3d cacf 8b3d
-0.01724961 0.07405951 0.025714647 0.27170974 -0.0024000835 0.04548904 0.007959182 -0.02004244
0.10865906 0.06826742

1.running_mean f4 [10]
00000000: fd96 fc3d 4459 263e 52f0 1a3e 07fd 09be
00000010: 2847 513c 9c08 b4bb ee75 283e 1e53 aabd
00000020: 8b64 47be b2eb 173e
0.12333486 0.1624499 0.15130737 -0.13475429 0.012773313 -0.0054941904 0.16451237 -0.083166346
-0.19471948 0.14836004

1.running_var f4 [10]
00000000: fd78 323c bcf7 363c 935d 9c3c 5ec0 493d
00000010: 4438 563c bb4b 8f3c 72e5 fb3c 4fa1 193d
00000020: 7e2c 393c 0241 bf3c
0.010893104 0.011167463 0.019087588 0.04925572 0.013074938 0.017492166 0.030749056 0.03750735
0.011302112 0.023346428

3.weight f4 [5, 10]
00000000: 66e2 543e 28b9 e5bd 4aec 17be 9a39 6c3e
00000010: 1b2b 823c 1ca2 663d 577d dbbb 560e 42be
00000020: 2aee 41be c677 01be eb63 153c d63f 50be
00000030: b890 73bd 0ada 01bd 17b3 6f3d 27d8 81bc
00000040: 3906 45be e802 2bbe aff6 6f3d ac2b 513e
00000050: 1ec6 2d3e 8b6e da3c aeb9 5f3e 77e6 223e
00000060: a258 8bbe a993 5ebe ecc2 01be 0373 84bd
00000070: f6e9 073d 434f a13d a70a edbc 01b5 c2bc
00000080: d259 58be ae63 d83d 364f 0e3e 3ad0 8abd
00000090: 1b7e 17bd 9e09 b2bd 80d6 cf3c 098a 5d3e
000000a0: 8ee8 61bd 80c7 6bbe f244 20bb 825f a33d
000000b0: 3a9d 803c b051 103e 765d 523d 3b45 473e
000000c0: cf0d 953c 12ad 61be
0.20789489 -0.112169564 -0.14836231 0.23068848 0.015889695 0.056306943 -0.0066982913 -0.18950781
-0.18938509 -0.12643346 0.009118061 -0.20336851 -0.059464186 -0.03170208 0.058520403 -0.01585014
-0.19240655 -0.16700327 0.058584865 0.20426816 0.16970107 0.02666404 0.21848175 0.15908228
-0.2721606 -0.21736015 -0.12672013 -0.06467249 0.033182107 0.07876446 -0.028935743 -0.02376795
-0.21128014 0.105658874 0.13897404 -0.06777997 -0.036985498 -0.086932406 0.025370836 0.21634687
-0.055153422 -0.23025322 -0.0024455157 0.07977201 0.015699971 0.14093661 0.051358663 0.19460003
0.018195061 -0.22038677

3.bias f4 [5]
00000000: bdd4 5b3e c6bf 9d3e acf5 b6bc a64b 133c
00000010: 0b21 9f3d
0.21467872 0.30810374 -0.022333942 0.008990204 0.07769974

5.weight f4 [10, 5]
00000000: 511c 3abe fe8a 67be d356 ecbe 9f05 0f3d
00000010: 5097 613d 33b8 d03e 56ba c7be 9f31 0dbe
00000020: f75a b33d 6992 863e 49d1 dc3e b7a0 71bd
00000030: d8a1 cb3d 6912 f33e 7f2e febe b00c 31be
00000040: d370 ebbe 94b4 83be 0150 573d db73 a5be
00000050: c451 46bc c96a e2bd ae4b cebe a474 223e
00000060: 0d49 1fbe 6d74 713d df72 553e 2746 16be
00000070: f42a f8be 7307 bebd d96e b23e 1472 b3be
00000080: 3107 aebe a7dc da3e 8bb2 82be ec8c 5bbe
00000090: 3468 103d bc8b debe 6521 c83e 27d2 41bc
000000a0: e6e7 713e 34ce 8fbe 5579 aa3e 06f3 2dbe
000000b0: 6cc8 78be e375 20be 3862 c33d deb0 a43d
000000c0: d07d 8abe 585b f5be
-0.18174864 -0.22611615 -0.46159992 0.03491747 0.055075943 0.40765533 -0.3900935 -0.1378846
0.087575845 0.26283577 0.43128422 -0.05899116 0.099429786 0.47474983 -0.4964485 -0.17289996
-0.45984516 -0.25723708 0.052566532 -0.32314953 -0.012104455 -0.11055524 -0.40292114 0.15864807
-0.1555521 0.058948923 0.20844601 -0.14675198 -0.4847027 -0.092787646 0.34850195 -0.35047972
-0.33989862 0.4274647 -0.25526842 -0.21440476 0.035255626 -0.43465984 0.39087978 -0.011829889
0.23623618 -0.28087008 0.33295694 -0.16987237 -0.24295205 -0.1566997 0.09540218 0.08041547
-0.27049112 -0.47921252

5.bias f4 [10]
00000000: 30f4 693e 9533 8dbe 2cae d1be de05 21be
00000010: b413 bbbe 70c0 fe3d 4387 c6be 604e debc
00000020: bd12 bfbe 70e8 f83c
0.22847056 -0.27578416 -0.40953195 -0.15724894 -0.3653847 0.12439048 -0.38775072 -0.027136981
-0.37318984 0.030384272

6.weight f4 [10]
00000000: 0b81 943f ac59 2e3f 47d9 6f3f 7f34 413f
00000010: b65f 573f d641 793f ee08 5a3f c477 713f
00000020: 18ec 403f 0160 793f
1.1601881 0.6810558 0.93690914 0.7547073 0.8413042 0.9736608 0.85169876 0.9432337
0.7536025 0.97412115

6.bias f4 [10]
00000000: 0fb9 f7bb ca1a 52bc 34e8 973e 40aa 893e
00000010: 0651 dd3d 0552 be3e 5f79 2c3e 4777 3f3e
00000020: bac7 1bbe acdc 98bd
-0.0075599025 -0.01282377 0.29669344 0.26887703 0.108064696 0.3717195 0.16843174 0.18697844
-0.15212908 -0.07463965

6.running_mean f4 [10]
00000000: b0dc 1d3e 51a1 8fbe 5ca1 c3be c23b 90be
00000010: 210d d1be e2f3 0e3e b728 d9be 3005 65bd
00000020: 29b5 cabe fa46 9abb
0.15416217 -0.28052762 -0.38209045 -0.28170592 -0.4083033 0.13960221 -0.42413875 -0.05591315
-0.3959134 -0.004708168

6.running_var f4 [10]
00000000: 3cda 953c 0196 a13c 0fca 3e3c 9169 113c
00000010: 0dbd 0d3c 2a9d 013b 47b5 563c 7408 343c
00000020: 5c4c f73b 3148 6c3c
0.018292539 0.019724848 0.011644854 0.008875267 0.00865103 0.0019777515 0.013104743 0.0109883435
0.0075469445 0.014421509

8.weight f4 [20, 10]
00000000: 7ebe 013f 3d06 e23e bd97 92be 2654 1dbe
00000010: 98c2 7abe ac63 0dbf 36fd e63d 8a50 85be
00000020: 3f87 6f3e fd26 eebe 870c a5be 1efe c1bd
00000030: 4901 89bd 132d 4dbe 4560 a1bc 91fc 30be
00000040: 66f9 acbd 4769 5ebe db6b c53d e597 263e
00000050: ca73 a53e d06b 00bf 5a21 4abf 0cc3 a4bd
00000060: d854 7fbe 4358 87bd a408 00bf c3df 1c3e
00000070: 920e 54bd 3737 7a3e 7508 71be 19d5 e63c
00000080: ce4e 113c d72c a8be f502 6bbe 600b babe
00000090: dfb3 4cbe cfef bdbe d565 653d 9b13 463e
000000a0: f22a 9ebe c650 dabd 05bf 49bd 9606 e43e
000000b0: d15e 533e 50d9 aebe 2218 06be d4ee 45be
000000c0: 469a a23d 4cd1 d9bd d041 8bbe 2e77 123e
000000d0: 6883 4a3e ce3d 7c3e 203c acbe dddd bdbd
000000e0: c821 d2bd 9273 123e deca bfbe 0ea6 843d
000000f0: 90db cabd 6abc a3be 3c83 863d c9e3 58be
00000100: 4493 063c ad31 46be dbb9 453e 8e04 3a3e
00000110: 47bc 06be 410c a1be 0e47 653d cf7b d33c
00000120: 6b87 a7bd 9388 953e e38e f93d 5086 383e
00000130: c472 d1bd 2aca 50be e0d5 eb3d 8a01 b139
00000140: 47d4 ec3c 69a8 713d a41c 96bd e211 023e
00000150: 1caf 35bd 1443 abbb e941 c3bd 2633 aebd
00000160: 1b4a cf3d 8e51 98bb ba77 15be 335e 393e
00000170: 1708 b43d dc4b 063d 05db ac3d a115 78bd
00000180: 8356 a2bd f6d7 863e e60e 8ebe 9bea 8e3e
00000190: fa3b 9a3d 8f49 943d 49f0 48bd 859e 143c
000001a0: c5ae 843e 79de 983d d86f 9dbd c369 78bd
000001b0: 5cf6 ec3c 35de 11bd 6be3 bc39 4087 293c
000001c0: c56b acbc 166b 023d a703 1e3c 36fd c43c
000001d0: 318d 74bc 4203 9ebd cb1b 953d 7485 d6bc
000001e0: 8bd3 4c3e 61b1 52be 4133 33bd de27 e2bd
000001f0: f297 32bd 2658 fcbb 34b9 0e3e e776 98bd
00000200: f8dc d63d 69b8 573b a8ef 2d3e f2ee 59bd
00000210: 1fc2 a5bd c842 0e3b c5c2 503b 39ad 0d3e
00000220: c700 9d3b 1166 67be ed18 293e 1b48 acbd
00000230: 903a e83d 61a6 db3a 4390 e03c dbe3 03be
00000240: ee90 333e bebd 42bb 666b 68bd 35bc 10be
00000250: cbd5 acbd 6f3b bbbc 4574 3abe 9e23 043e
00000260: 7a87 de3c b38b 943d ade7 fdb9 5db5 323b
00000270: 1532 67bd 6d95 3c3e 2611 13bd 21bb 883d
00000280: d25b ec3b 8467 a8bc 33da 93bb 08ae ef3c
00000290: c791 57be 9c7c 00bb 34e8 f53d 1f35 9b3d
000002a0: abd1 87bd 5fb1 533c ac88 cf3d 6aa6 30bd
000002b0: 84e9 663d df32 673d 72ae 66be 4a28 9abc
000002c0: 41db 7a3b 9668 33bd 2c47 01bc 893d 293d
000002d0: 97f5 efbc 0c1e b73d e5c6 033d 916f 983d
000002e0: 48fe 18bc b1ff 20bb b0a1 a5bd 61d5 093c
000002f0: 98bf cbbc e75e 893d eb47 3dbd 6d29 73bd
00000300: 02b7 82bd 6e3a 5e3d 5a80 96be ed97 153d
00000310: 29a1 3d3e 65f0 0f3e a4cc bb3d b463 ebbc
0.50681293 0.44145384 -0.28631392 -0.15364131 -0.24488294 -0.5523021 0.11278765 -0.2603801
0.23391436 -0.4651412 -0.3223612 -0.09472297 -0.06689698 -0.20036726 -0.019699225 -0.17283846
-0.084460065 -0.21719848 0.096397124 0.1626888 0.32314903 -0.5016451 -0.7895714 -0.08045015
-0.24934709 -0.066086315 -0.50013185 0.15319733 -0.051771708 0.24435125 -0.23538382 0.028177785
0.008868886 -0.3284671 -0.22950347 -0.36336803 -0.1999049 -0.37097022 0.056005318 0.19343416
-0.3089214 -0.106599376 -0.049254436 0.44536275 0.20641638 -0.3415017 -0.13095143 -0.19329387
0.079395816 -0.10635623 -0.27198648 0.14303276 0.1977669 0.24632952 -0.33639622 -0.09270833
-0.102603495 0.14301899 -0.37459463 0.06476985 -0.099051595 -0.31979686 0.06568 -0.21180643
0.008213822 -0.19354887 0.1930918 0.181658 -0.1315776 -0.3145466 0.055975966 0.025815872
-0.08180126 0.2920576 0.121854566 0.18019986 -0.10226968 -0.2038962 0.11515403 0.00033761217
0.028909815 0.0589985 -0.073296815 0.12702134 -0.04435645 -0.005226502 -0.09534056 -0.085058495
0.10121556 -0.004648394 -0.14596453 0.1810234 0.087906055 0.03278719 0.08440212 -0.060567502
-0.07926657 0.2633664 -0.27745742 0.27913365 0.07530971 0.07240593 -0.04905728 0.009070997
0.2591459 0.07464308 -0.07687348 -0.060647737 0.028926067 -0.035612304 0.00036027594 0.0103471875
-0.021047482 0.031840406 0.0096444255 0.024046522 -0.014926241 -0.07715465 0.07280692 -0.026186682
0.20002572 -0.20575477 -0.04375005 -0.1104276 -0.043601938 -0.007700938 0.13937837 -0.07444554
0.10491365 0.0032916314 0.16985953 -0.05320639 -0.08093666 0.0021707285 0.0031854373 0.1383561
0.0047913524 -0.22597529 0.16513415 -0.084121905 0.11339295 0.0016757959 0.02741254 -0.12879889
0.17535755 -0.0029715146 -0.056743048 -0.14134295 -0.08439215 -0.022855489 -0.18208416 0.12904212
0.02716421 0.07253208 -0.00048428532 0.0027268745 -0.056444246 0.18416376 -0.035905026 0.06676317
0.0072130943 -0.020557173 -0.0045120954 0.02925779 -0.21051703 -0.0019605523 0.1200718 0.075784914
-0.06631788 0.0129207065 0.1013349 -0.043127455 0.05637504 0.056445 -0.22527483 -0.01881804
0.0038277658 -0.043800913 -0.007890504 0.04131845 -0.029291911 0.08941278 0.032172102 0.074431546
-0.009337969 -0.0024566466 -0.0808748 0.00841269 -0.024871632 0.06707554 -0.046211164 -0.05936568
-0.06382562 0.05425494 -0.293948 0.03652184 0.18518509 0.14056547 0.091698915 -0.028734066

8.bias f4 [20]
00000000: 9f6d 8c3e b2da eb3c aef3 5a3e db0b 073f
00000010: 2d0a 513e 52a1 573d 0ba6 c83d 62f8 5abe
00000020: 7e54 6d3d 2e86 48be 2a08 abbd bd31 d83c
00000030: bf7d 8a3c 42ad 10ba 674c 833d 7bb0 6dbd
00000040: d5c8 1fbd 4431 143d c208 beba 2378 f7bc
0.27427384 0.028790805 0.21382019 0.52752465 0.20414038 0.05264408 0.09797295 -0.21383813
0.057941906 -0.19582435 -0.083511665 0.026390905 0.016905664 -0.00055189815 0.06411057 -0.058029633
-0.039009888 0.036179796 -0.001449846 -0.030208653
