offline_prototype_3_ds_as_sampling/trained_models/ae_model_all_ds_as.pth (torch, 17151 bytes, 16 tensors)

0.weight f4 [23, 46]
0	0x3c56e493	0.01311602
1	0x3d2c0835	0.042000014
2	0xbce44b2e	-0.02786788
3	0x3df55611	0.119793065
4	0x3e04348e	0.12910673
5	0xbe10bbfd	-0.14134212
6	0x3d4fbf3a	0.050719477
7	0x3c9f0479	0.019411312
8	0x3e0add8d	0.13561077
9	0x3dbee7b8	0.093215406
10	0xbdae9656	-0.08524768
11	0x3d104d0b	0.035229724
12	0x3dca3344	0.098730594
13	0xbb8f2a66	-0.004369068
14	0x3e15c9aa	0.1462771
15	0xbd41f79d	-0.047355283
16	0xbcee47fc	-0.02908706
17	0xbb7eeeef	-0.003889974
18	0x3e42e0b7	0.19031034
19	0xbd331942	-0.04372526
20	0x3d3c9f9d	0.046050657
21	0xbd97a929	-0.074053116
22	0xbd4a90ad	-0.04945438
23	0x3c4574f3	0.012051809
24	0xbdc6dbfe	-0.09709929
25	0x3c52fcca	0.012877652
26	0xbc0b6eef	-0.008510335
27	0xbd8a672d	-0.067579605
28	0x3dfb1bdd	0.12261174
29	0x38db7ca5	0.000104659506
30	0x3c8a0fc0	0.016853213
31	0xbd4aa346	-0.049472116
32	0x3ea58fcf	0.3233628
33	0xbc0690ca	-0.008213231
34	0x3d16bce7	0.036801245
35	0x3cb94492	0.022615705
36	0x3ce2115b	0.027596166
37	0x3e3aac0c	0.18229693
38	0xbdaefe1c	-0.08544561
39	0xbb76ff24	-0.0037688697
40	0xbdec6155	-0.11542002
41	0x3e2bc8b1	0.16775776
42	0xbd216fb8	-0.039413184
43	0x3ccbba68	0.024869159
44	0xbe17ff89	-0.14843573
45	0xbd2d47ce	-0.042304806
46	0xbd8e49b7	-0.06947654
47	0xbd1c618e	-0.038178973
48	0xbd6693d7	-0.056293335
49	0xbddda611	-0.1082269
50	0xbdca641e	-0.09882377
51	0x3df508b4	0.119645506
52	0x3c544602	0.012956144
53	0xbc83f0c5	-0.016106019
54	0x3e013ccd	0.1262085
55	0x3e080036	0.1328133
56	0x3d860aa2	0.06544997
57	0xbdd1559c	-0.10221407
58	0xbd7333c4	-0.05937554
59	0xbd8afa21	-0.067859896
60	0xbd85742e	-0.065163
61	0x3d48bed6	0.04901012
62	0xbe0339ab	-0.12814967
63	0xbdaa5fbd	-0.08319042
64	0x3c36755c	0.011136379
65	0xbda193b7	-0.078895025
66	0xbdd5814d	-0.10425053
67	0xba967653	-0.0011479355
68	0xbdceed8a	-0.10103901
69	0xbdee737f	-0.11643123
70	0xbcec9de6	-0.028883886
71	0xbe075e00	-0.13219452
72	0x3dd7ee85	0.10543541
73	0x3d9f6e9a	0.077847674
74	0xbd3e9864	-0.04653205
75	0xbd6ac4b3	-0.057316493
76	0xbde75dd1	-0.11297191
77	0x3d4698d7	0.048485603
78	0xbcb45d61	-0.022017183
79	0x3dabd65b	0.083904944
80	0xbcff9247	-0.03119768
81	0xbe1f00e3	-0.15527682
82	0xbe5d2eca	-0.2159988
83	0xbe577617	-0.21041141
84	0x3db8c8f2	0.09022702
85	0xbdc013f9	-0.093788095
86	0xbd952720	-0.07282853
87	0xbd08df51	-0.033416096
88	0x3dfc7830	0.123276114
89	0x3d6dc8b3	0.05805273
90	0x3d61073f	0.05493855
91	0x3cb19b2e	0.02168044
92	0xbcb8a0d2	-0.022537623
93	0xbd3b0e85	-0.045668144
94	0xbd1ca2c4	-0.038241163
95	0x3d50e605	0.051000614
96	0x3d0fbbc4	0.035091177
97	0x3e02a029	0.12756409
98	0xbdc4159d	-0.09574435
99	0xbe62ad90	-0.22136521
100	0xbc1b3d17	-0.009475014
101	0xbd9dc610	-0.07703793
102	0xbdf577a6	-0.11985712
103	0x3b87bc3b	0.004142312
104	0x3c695eb9	0.014243775
105	0xbac1f940	-0.0014799014
106	0x3cdc4b1e	0.026891287
107	0xbe408951	-0.18802382
108	0xbdb33555	-0.08750407
109	0xbc1e3129	-0.009655275
110	0x3d3386f9	0.04382989
111	0x3db57fdf	0.0886228
112	0xbdfa7217	-0.12228792
113	0xbe0b3b70	-0.13596892
114	0xbd2e654f	-0.042577084
115	0x3cd5c99d	0.026097113
116	0xbc32659b	-0.010888482
117	0xbd6c2361	-0.057650927
118	0xbb29533c	-0.0025836965
119	0xbdf0ca6c	-0.11757359
120	0xbc444c58	-0.011981092
121	0xbd6df8a4	-0.05809845
122	0xbd82ff0b	-0.06396302
123	0xbdeaa5de	-0.11457418
124	0xbdb07db2	-0.086177245
125	0xbcbd68ca	-0.023121256
126	0xbba0ddb0	-0.0049092397
127	0xbd962fc2	-0.07333328
128	0xbdced0fa	-0.10098453
129	0xbe480036	-0.1953133
130	0xbddb4625	-0.107067384
131	0xbdc7d5af	-0.09757554
132	0xbe0dc2d9	-0.1384386
133	0x3dcf46f5	0.10120956
134	0x3dee29f8	0.11629099
135	0xbd882197	-0.06647032
136	0x3c8d16c6	0.017222773
137	0xbc9b590e	-0.018963363
138	0x3cd90ded	0.026495898
139	0x3d7612dc	0.06007658
140	0xbd216da9	-0.03941122
141	0xbdd3ae06	-0.10335927
142	0xbe010f33	-0.12603454
143	0x3df850b5	0.12124769
144	0x3d3969a4	0.045266762
145	0x3cbc42e8	0.022981122
146	0x3e08efc1	0.13372709
147	0x3e863aa9	0.2621663
148	0x3cb31164	0.021858878
149	0x3c9c1ece	0.019057658
150	0x3d8db0fb	0.06918522
151	0xbcbce33b	-0.02305757
152	0x3dc48a87	0.095967345
153	0x3d5a86f1	0.053351346
154	0x3cc74cb9	0.024328576
155	0xbcf59381	-0.029977562
156	0x3d548de9	0.05189315
157	0x3b8cb30f	0.0042938064
158	0x3da11cb2	0.07866801
159	0xbde25110	-0.11050618
160	0xbdfa0bdb	-0.122092925
161	0x3da6d2c6	0.081456706
162	0x3de36581	0.11103345
163	0x3cc601e6	0.024170827
164	0x3e186da5	0.14885576
165	0x3e18a60e	0.14907095
166	0x3cd7f23d	0.026360625
167	0x3e110f31	0.14165951
168	0xbe219a8c	-0.15781611
169	0x3dc0fbf4	0.09423056
170	0xbc18ddf6	-0.009330263
171	0xbb3a35ec	-0.0028413488
172	0xbbca16b4	-0.006167257
173	0xbe415ef9	-0.18883885
174	0xbd9eb82b	-0.07749971
175	0x3dcf879b	0.101332866
176	0xbd0569a1	-0.03257144
177	0x3cbf2091	0.023330959
178	0x3c99ef40	0.018790841
179	0x3e392b74	0.18082982
180	0x3d97079e	0.073745
181	0xbcb888c3	-0.02252615
182	0xbd744e7d	-0.059645165
183	0xbe39ad19	-0.18132438
184	0x3e422e24	0.18962914
185	0x3a2c196c	0.00065650675
186	0x3bb4dadb	0.0055192537
187	0xbde2bba8	-0.11070949
188	0xbd259de9	-0.040433798
189	0x3de0e7bd	0.109817006
190	0xbd6a815b	-0.05725227
191	0xbd040521	-0.032231454
192	0xbdfc0773	-0.12306108
193	0x3d8c7184	0.06857589
194	0xbe1d6687	-0.15371142
195	0xbe064257	-0.13111244
196	0xbd745788	-0.05965379
197	0x3d1af680	0.037832737
198	0xbcb32f22	-0.02187306
199	0x3d7d6840	0.061867
200	0xbd073c54	-0.033016518
201	0xbd988aa0	-0.074483156
202	0xbd8f5c68	-0.07000047
203	0x3ddb5a37	0.107105665
204	0xbd0aeffc	-0.033920273
205	0x3d428b60	0.0474962
206	0x3d19b2c1	0.03752399
207	0xbc010d10	-0.0078766495
208	0xbd3efc35	-0.046627242
209	0xbda47d83	-0.08031752
210	0x3ddda4d1	0.10822452
211	0x3d427f74	0.04748483
212	0xbc897f0c	-0.016784213
213	0xbc8b1101	-0.016975882
214	0xbd9a9410	-0.07547772
215	0x3d4a7373	0.049426507
216	0xbe17ed44	-0.14836603
217	0x3d0d300e	0.034469657
218	0x3d1ddbc4	0.038539663
219	0xbd19d2dc	-0.037554607
220	0xbe5d3cd2	-0.21605232
221	0xbe8223ba	-0.25417882
222	0xbdc2827c	-0.09497544
223	0xbd7bdd92	-0.061490603
224	0x3d2504d5	0.04028781
225	0x3cfca6be	0.030841228
226	0x3df786b0	0.120862365
227	0x3d8be250	0.06830275
228	0xbd53f945	-0.051751394
229	0x3d918c89	0.07106883
230	0xbe339ab2	-0.1753948
231	0x3cb01509	0.021494405
232	0x3cc2f4cc	0.023798369
233	0xbafaf6cb	-0.0019147036
234	0x3d8f712a	0.07004006
235	0x3e0f905b	0.14019911
236	0x3c546477	0.012963406
237	0x3d0c1311	0.03419787
238	0x3d5640c3	0.052307855
239	0x3ba0b5ea	0.0049044983
240	0xbe20e4e0	-0.15712309
241	0x3dcd2e8d	0.100186445
242	0x3d40afe6	0.04704275
243	0xbbf0974a	-0.007342254
244	0x3db11ebb	0.086484395
245	0xbdf49b64	-0.11943701
246	0xbd97fb24	-0.07420948
247	0x3d463fc3	0.04840065
248	0xbd3dd245	-0.046343107
249	0xbdd15fdb	-0.10223361
250	0x3dbe473b	0.0929093
251	0x3ca6f17f	0.020378826
252	0xbde7f23f	-0.11325502
253	0x3d0b5a0d	0.034021426
254	0x3d7acd20	0.06123078
255	0x3d908696	0.0705692

0.bias f4 [23]
0	0x3951229a	0.00019944683
1	0x3e052616	0.1300281
2	0x3cda2542	0.026629094
3	0x3d27d8f8	0.040978402
4	0x3e134e2c	0.14385289
5	0xbd90ecc6	-0.07076411
6	0xbd9a1c39	-0.07524914
7	0xbdc04812	-0.09388746
8	0xbde5cb00	-0.1122036
9	0x3cdf5fc8	0.027267352
10	0xbd8a1fdc	-0.06744358
11	0x3d1285bc	0.03577207
12	0x3d2cce59	0.042188976
13	0x3d3a4a14	0.045480803
14	0x3e0c4cda	0.13701192
15	0xbcb2e628	-0.021838263
16	0x3de631f0	0.112399936
17	0xbdd4c2ae	-0.10388695
18	0x3d23e374	0.040011838
19	0x3d9ee068	0.07757646
20	0x3dad11bc	0.08450648
21	0x3d8bd626	0.06827955
22	0xbde6d337	-0.11270755

1.weight f4 [23]
0	0x3f62f0e7	0.8864884
1	0x3f789d6c	0.97115207
2	0x3f5b3dc2	0.8564111
3	0x3f592b21	0.84831434
4	0x3f5dbfda	0.8662087
5	0x3f59f2d1	0.85136133
6	0x3f3775a0	0.71663857
7	0x3f65933f	0.89677805
8	0x3f5be655	0.85898334
9	0x3f4d4547	0.80183834
10	0x3f5f69ba	0.872707
11	0x3f62d9d3	0.88613623
12	0x3f67de1f	0.90573305
13	0x3f667ed6	0.90037286
14	0x3f565305	0.8372043
15	0x3f581b95	0.84417087
16	0x3f5c4b07	0.8605198
17	0x3f65e9b2	0.89809716
18	0x3f6571b7	0.8962664
19	0x3f54605d	0.8295954
20	0x3f6c717d	0.9236067
21	0x3f5afbe1	0.85540587
22	0x3f6303bd	0.8867758

1.bias f4 [23]
0	0x3e06db88	0.13169682
1	0x3cfdc9b3	0.030979967
2	0x3d568d23	0.052380692
3	0xbc3a9fcf	-0.01139064
4	0x3df7d050	0.12100279
5	0x3e1ee190	0.15515733
6	0x3e93301c	0.28747642
7	0x3d43a07b	0.047760468
8	0x3cadba5d	0.021207029
9	0x3d5e213e	0.05423092
10	0xbb2c71e1	-0.0026312994
11	0x3d883e75	0.06652538
12	0xbdb68f9d	-0.08914111
13	0x3d1ac29b	0.037783246
14	0x3cd63082	0.026146177
15	0x3daed824	0.08537319
16	0x3e783e08	0.24242413
17	0x3e0c1012	0.13678005
18	0x3d0c0c0b	0.034191173
19	0x3ccdb094	0.025108613
20	0x3e0b815d	0.13623567
21	0x3de320a1	0.11090208
22	0x3c2df428	0.010617293

1.running_mean f4 [23]
0	0x3d1ee3af	0.038791355
1	0xbe255a0d	-0.16147633
2	0xbf148842	-0.5802041
3	0x3e7f3970	0.24924254
4	0x3e623ab0	0.220927
5	0xbe2b0d10	-0.16704202
6	0xbef841ff	-0.4848785
7	0x3c946814	0.018116035
8	0x3d13dd33	0.036099624
9	0xbee84677	-0.4536626
10	0xbe76b4ab	-0.24092357
11	0xbe34c13c	-0.17651838
12	0x3de47d1c	0.11156675
13	0x3e9c99ec	0.30586183
14	0xbd34fedb	-0.04418836
15	0x3ea937f8	0.33050513
16	0x3eb2cfc1	0.3492413
17	0xbdd93861	-0.106064565
18	0xbe509753	-0.20370226
19	0xbdf3b9dd	-0.11900685
20	0x3f03b4e6	0.51447904
21	0x3cfff1c2	0.031243209
22	0xbe0770c2	-0.13226607

1.running_var f4 [23]
0	0x3bdd35c2	0.006750793
1	0x3bff6378	0.00779384
2	0x3c8242b8	0.015900955
3	0x3c895d4a	0.016768117
4	0x3bddec06	0.006772521
5	0x3c5d357c	0.013501521
6	0x3bc970f1	0.006147497
7	0x3cb7208b	0.022354385
8	0x3c06675d	0.008203355
9	0x3c420483	0.011841896
10	0x3c6f4a3c	0.014605101
11	0x3c2dc637	0.01060634
12	0x3c01cb2c	0.007921975
13	0x3cbabe84	0.022795923
14	0x3c3be0b0	0.011467144
15	0x3c7e5c69	0.015524962
16	0x3c4a3ac8	0.012343116
17	0x3bb95bd5	0.005656699
18	0x3c77f944	0.015135113
19	0x3c13d168	0.009022094
20	0x3c514359	0.012772405
21	0x3c214e4a	0.009845326
22	0x3c321453	0.0108691035

3.weight f4 [11, 23]
0	0x3e007f13	0.12548475
1	0xbe2f5414	-0.17121917
2	0x3dc40518	0.09571284
3	0xbe0c4826	-0.13699397
4	0x3cb05d08	0.021528736
5	0xbd3801a9	-0.04492346
6	0x3d8843b2	0.06653537
7	0x3dc702b2	0.09717311
8	0x3db952ce	0.09048997
9	0xbbeb4204	-0.0071795005
10	0xbd1954dd	-0.037434448
11	0xbd88e21a	-0.066837505
12	0x3c194992	0.009355919
13	0x3c8cd23d	0.017190093
14	0x3e24269b	0.16030352
15	0xbc1ea681	-0.009683252
16	0x3c4d8c5a	0.012545669
17	0x3d2a26cf	0.041540917
18	0xbd93b30f	-0.07211887
19	0xbc7229d5	-0.014780481
20	0xbcbd95b4	-0.023142673
21	0xbd8565e7	-0.06513577
22	0x3d1d827a	0.03845451
23	0xbda8c8b8	-0.08241409
24	0xbcb2bf24	-0.021819659
25	0xbb3cf837	-0.002883447
26	0xbda3568c	-0.07975492
27	0x3e0dfd78	0.13866222
28	0x3dd85249	0.1056257
29	0x3dbb9c90	0.09160721
30	0xbcc4c033	-0.024017429
31	0x3c37d6b6	0.011220625
32	0x3ca61632	0.020274255
33	0x3bb07cc0	0.005385965
34	0x3d1bd017	0.038040247
35	0x3e698a15	0.2280658
36	0xbdcc5661	-0.09977413
37	0x3d764b23	0.06013025
38	0x3c01aaa7	0.007914222
39	0xbcb9a50e	-0.022661712
40	0xbe024a45	-0.12723644
41	0x3dda5195	0.10660092
42	0xbe6702bc	-0.22559637
43	0x3dd87243	0.10568669
44	0x3c1cd43f	0.009572088
45	0x3ba724b5	0.0051008114
46	0x3e8b9886	0.27264804
47	0xbe4003b7	-0.18751417
48	0xbd390e8b	-0.045179885
49	0xbe1891eb	-0.14899413
50	0xbd3385b5	-0.043828685
51	0x3e0670bd	0.13128944
52	0xbb9cff6e	-0.004791192
53	0xbdd4d4b4	-0.103921324
54	0xbca09b6a	-0.019605357
55	0xbcee94dd	-0.029123718
56	0xbd9cb4b9	-0.076516576
57	0x3cc534a9	0.024072962
58	0x3ebb20b0	0.36548376
59	0xbda383d2	-0.07984127
60	0xbbc1790a	-0.0059043216
61	0xbd9e6720	-0.07734513
62	0xbcb42f17	-0.02199511
63	0xbc8ee7b3	-0.017444467
64	0xbdf3f8de	-0.11912702
65	0x3ca05151	0.019570025
66	0xbcefdb07	-0.029279245
67	0x3d8567bf	0.065139286
68	0x3ca5d05c	0.020240955
69	0x3d03b101	0.032151226
70	0x3c17d41f	0.009266882
71	0x3bd05bef	0.0063586156
72	0xbd85318f	-0.06503593
73	0xb860127a	-5.342297e-05
74	0x3d872610	0.06599057
75	0xbe09ef05	-0.13470085
76	0xbb8e7059	-0.004346889
77	0x3cb96ff5	0.022636393
78	0x3cc666ac	0.02421888
79	0xbc641939	-0.013922029
80	0x3cb3f28b	0.02196624
81	0xbcb365b9	-0.021899091
82	0xbd543f83	-0.051818382
83	0x3d49c110	0.049256384
84	0xbbfab0c8	-0.0076504685
85	0x3cce82a2	0.025208775
86	0x3d4edf74	0.05050607
87	0x3dc1d8c0	0.0946517
88	0xbe874315	-0.26418367
89	0x3d9573c0	0.07297468
90	0x3ea22688	0.31670022
91	0xbe8f573f	-0.2799625
92	0x3e32948a	0.17439476
93	0xbc23f46e	-0.010007007
94	0x3e0a1f8c	0.13488597
95	0x3cc25476	0.023721915
96	0xbe910c18	-0.2832954
97	0x3d8329a5	0.064044274
98	0x3e1013fa	0.1407012
99	0xbb1a86b6	-0.002357883
100	0xba0cc14d	-0.000536938
101	0x3d86724d	0.0656477
102	0xbccfccb6	-0.025366168
103	0x3cdea875	0.027179936
104	0x3d847b9f	0.06468891
105	0xbcba3e4d	-0.022734785
106	0xbc6fe135	-0.014641096
107	0xbdd59df5	-0.104305185
108	0x3d924290	0.07141602
109	0xbc1b555c	-0.0094808005
110	0xbe320b80	-0.173872
111	0xbe1da250	-0.15393949
112	0xbc005725	-0.007833277
113	0x3c98b83d	0.01864254
114	0x3c66ec04	0.014094356
115	0xbe14160a	-0.14461532
116	0x3cb099b2	0.021557663
117	0x3d3a5c4f	0.04549819
118	0x3d3a4d85	0.045484085
119	0x3dd21bea	0.102592304
120	0xbcbb76e4	-0.02288384
121	0x3dbab8c0	0.091172695
122	0xbd26fead	-0.04077022
123	0xbc129ddc	-0.008948769
124	0x3d5645a1	0.052312497
125	0x3de477c1	0.11155654
126	0x3d885d27	0.066583924
127	0xbd9a5d21	-0.07537294
128	0x3cb326cf	0.021869091
129	0x3b6e8423	0.0036394678
130	0x3c77a513	0.01511504
131	0xbd10c0ea	-0.035340227
132	0xb7b72678	-2.1833213e-05
133	0x3d917b82	0.07103635
134	0xbd1b5ed7	-0.037932243
135	0xbd4a1d2e	-0.049344234
136	0x3e42d4fe	0.19026563
137	0xbdad3995	-0.084582485
138	0x3d8629f8	0.06550974
139	0x3cd468de	0.02592891
140	0x3d8994a0	0.06717801
141	0x3c5774ba	0.013150388
142	0xbd5b18fb	-0.05349062
143	0xbc830961	-0.015995683
144	0x3d4e4f42	0.050368555
145	0x3e20621a	0.15662423
146	0xbdb84eb0	-0.089993834
147	0xbdb9d747	-0.09074264
148	0xbe341dce	-0.17589495
149	0x3de53515	0.11191765
150	0x3d0b1e9c	0.03396474
151	0xbe018060	-0.12646627
152	0xbc15fd08	-0.009154566
153	0x3d225c7e	0.03963899
154	0x3da06b90	0.07833016
155	0xbb8a9271	-0.004228883
156	0x3e0231af	0.12714265
157	0xbd8d9610	-0.06913388
158	0x3da2739b	0.07932206
159	0x3d21a795	0.03946646
160	0xbc9282dd	-0.017884666
161	0x3e060a44	0.13089854
162	0xbd6af1c4	-0.057359472
163	0xbdf03a42	-0.11729862
164	0x3b6be57d	0.003599494
165	0xbd826d02	-0.06368448
166	0xbdef07aa	-0.11671384
167	0x3d965bab	0.07341703
168	0xbdab11c9	-0.083530016
169	0xbcbe64e8	-0.023241475
170	0xbdf62aa4	-0.12019852
171	0x3de40726	0.11134176
172	0x3d8872d3	0.06662526
173	0x3c7a3e1a	0.015273595
174	0x3caee924	0.021351404
175	0x3c93315f	0.017967878
176	0x3cfa7414	0.030572928
177	0x3df303d6	0.11865966
178	0x3d0a0c1a	0.033702947
179	0x3d47ca64	0.048777
180	0xbd8e2e34	-0.06942406
181	0x3e1ea37e	0.15492055
182	0x3b883bfd	0.004157542
183	0x3cf42b70	0.029805869
184	0x3cc2e07a	0.02378868
185	0x3de9e438	0.114204824
186	0x3e2b2484	0.16713148
187	0xbcd9f245	-0.02660478
188	0xbe1f5db5	-0.1556309
189	0x3dfdb44b	0.12387904
190	0xbdaac97a	-0.0833921
191	0xbcc42470	-0.023943156
192	0xbcdfef78	-0.027335867
193	0xbdd762de	-0.10516904
194	0x3ddffc94	0.10936847
195	0x3b887dd0	0.0041653886
196	0xbbcf64e9	-0.006329168
197	0xbe288fbb	-0.16461079
198	0x3d847531	0.06467665
199	0x3cfb1407	0.030649198
200	0x3e021b24	0.12705666
201	0xbd05256b	-0.032506388
202	0x3cbff25d	0.023430998
203	0xbd01d2aa	-0.031695046
204	0x3d1ef5ea	0.03880874
205	0x3d20098e	0.039071612
206	0x3c4ce032	0.012504624
207	0x3e1533ab	0.14570491
208	0x3d7570de	0.05992209
209	0x3c4a3a32	0.012342976
210	0xbe200823	-0.15628104
211	0xbd947386	-0.07248597
212	0x3d59d978	0.05318591
213	0xbd5166f4	-0.051123574
214	0xbb4692f8	-0.0030300003
215	0xbe299c1c	-0.16563457
216	0x3c0e2842	0.00867659
217	0xbafbbc49	-0.0019205894
218	0x3e46146f	0.19343732
219	0xbda13e3b	-0.07873198
220	0x3da435a8	0.080180466
221	0x3dfb4cf6	0.122705385
222	0x3cd3586f	0.025799004
223	0xbc905b8f	-0.017621784
224	0xbcdfe076	-0.027328711
225	0xbe3fab49	-0.18717684
226	0x3cef8135	0.029236415
227	0x3d8db64e	0.069195375
228	0xbd494197	-0.049134817
229	0xbcba953a	-0.022776235
230	0xbde55924	-0.11198643
231	0x3bf42bb6	0.0074515
232	0x3e08cf8e	0.13360426
233	0x3d82dc19	0.063896365
234	0x3cdc4479	0.026888119
235	0x3d651616	0.055929266
236	0x3e090d55	0.13383992
237	0x3d227cbc	0.039669737
238	0x3db8bc93	0.09020343
239	0xbdb0fc2a	-0.086418465
240	0xbca69e4a	-0.02033915
241	0xbde5852a	-0.1120704
242	0x3cdd0254	0.02697865
243	0x3e1d2af9	0.15348424
244	0xbd33ddef	-0.043912824
245	0x3dca8841	0.098892696
246	0x3d060a73	0.03272481
247	0xbcc828f7	-0.024433596
248	0xbe42e255	-0.19031651
249	0xbdd76dc3	-0.10518982
250	0xbdcc3cf5	-0.09972564
251	0x3d933535	0.07187883
252	0xbdabc9f1	-0.08388127

3.bias f4 [11]
0	0x3ddc3f05	0.107542075
1	0x3e128db4	0.14311868
2	0x3c9a13d8	0.01880829
3	0x3ef5c502	0.48001868
4	0x3efe3ead	0.49657193
5	0x3e9ccf9a	0.30627137
6	0x3e520bb7	0.20512281
7	0x3e1cf3d6	0.15327391
8	0x3e1feb33	0.15617065
9	0x3b21cb73	0.0024687916
10	0x3e7648b0	0.24051166

5.weight f4 [23, 11]
0	0x3aac885b	0.0013163196
1	0xbd9f1a33	-0.07768669
2	0xbe59ef96	-0.21282801
3	0xbcc410f1	-0.02393386
4	0xbe8b5728	-0.27214932
5	0x3cf135c3	0.02944458
6	0xbe8a5873	-0.27020606
7	0xbe13e54e	-0.14442942
8	0x3ddedaa2	0.10881545
9	0x3d5fa6d8	0.054602474
10	0xbd75659f	-0.059911367
11	0x3e6a48ca	0.2287933
12	0x3db70b46	0.08937697
13	0xbd4411ec	-0.047868654
14	0x3e8a1f95	0.2697722
15	0x3e4db4c6	0.20088491
16	0xbe0f44ac	-0.1399104
17	0xbd0478a8	-0.03234163
18	0x3e6762f4	0.22596341
19	0xbe473378	-0.19453228
20	0xbe4c29f6	-0.19937882
21	0x3ccf405c	0.025299244
22	0x3e4206ca	0.18947902
23	0xbe6dc709	-0.23220457
24	0x3d14c21f	0.03631794
25	0xbeed68dd	-0.46369067
26	0xbd3c28af	-0.045937236
27	0xbeb9ad52	-0.36265045
28	0xbd1d651d	-0.038426507
29	0x3e1917c1	0.14950468
30	0xbe248f06	-0.16070184
31	0xbda0efcd	-0.07858238
32	0x3e080364	0.13282543
33	0xbdb68a2e	-0.089130744
34	0xbec858fa	-0.39130384
35	0x3db70c13	0.0893785
36	0x3e4619f0	0.19345832
37	0x3ea8c97c	0.3296622
38	0x3e27fbea	0.16404691
39	0xbc8f6b80	-0.017507315
40	0x3e0b8550	0.13625073
41	0xbe6d5cf3	-0.23179989
42	0x3e4c38b8	0.19943511
43	0x3e5fe113	0.21863203
44	0x3e36c606	0.17848977
45	0x3dfee507	0.12446027
46	0xbbdb38c6	-0.0066901175
47	0x3e2abcf6	0.16673645
48	0x3d210bcb	0.039317887
49	0xbe92f634	-0.28703463
50	0xbe7deb21	-0.24796726
51	0x3dbb24cf	0.0913788
52	0xbc91de3e	-0.017806169
53	0x3e16a42f	0.14711069
54	0x3e5a3279	0.21308316
55	0x3da8672d	0.08222804
56	0x3e98ff87	0.29882452
57	0xbe88d19c	-0.2672242
58	0xbe5aa344	-0.21351343
59	0xbe8695ec	-0.26286256
60	0xbdadba7d	-0.084828354
61	0xbccbd332	-0.02488098
62	0xbd019ae9	-0.031641874
63	0xbe8a7c2d	-0.27047864
64	0xbe89d81e	-0.26922697
65	0xbca6c08c	-0.020355485
66	0xbebc2170	-0.3674426
67	0x3e80a636	0.2512681
68	0xbdf04933	-0.11732712
69	0x3d07487a	0.033028103
70	0x3dfe3d08	0.124139845
71	0xbe2c3498	-0.16816938
72	0xbca5c779	-0.020236718
73	0x3e99bea1	0.3002825
74	0xbe78db24	-0.24302346
75	0x3dfc7940	0.12327814
76	0x3d1a1aa4	0.037623063
77	0xbe96a105	-0.29419723
78	0xbe725e47	-0.23668776
79	0xbda45221	-0.08023477
80	0x3df5dd2a	0.12005074
81	0xbe479442	-0.1949015
82	0xbe315ac1	-0.17319776
83	0xbdbae92c	-0.09126505
84	0xbd4b1e63	-0.049589526
85	0x3ac08a23	0.0014689605
86	0xbe8eab99	-0.27865294
87	0x3e0ea48d	0.13929959
88	0xbe05013d	-0.12988754
89	0xbe1b0ca0	-0.15141535
90	0xbe8151b1	-0.25257638
91	0x3e41f639	0.18941583
92	0xbe62ce6f	-0.2214906
93	0xbd6a91a2	-0.057267793
94	0x3d8df11a	0.06930752
95	0xbd219c0d	-0.039455462
96	0xbe4bdbf6	-0.19908127
97	0x3e5430ee	0.2072179
98	0xbe74a6d1	-0.2389176
99	0xbe85c218	-0.26124644
100	0x3e5805e9	0.21096005
101	0xbea6b51f	-0.3256006
102	0xbdf90d1a	-0.12160702
103	0xbe8a1c06	-0.26974505
104	0xbe17ef01	-0.14837267
105	0xbd95cbc7	-0.07314258
106	0x3db67d8d	0.08910666
107	0x3e1f64f5	0.15565856
108	0xbc83009f	-0.015991507
109	0x3de8892a	0.11354287
110	0x3e31b654	0.17354709
111	0xbd5cb9f2	-0.05388827
112	0xbc5fdf5a	-0.013664091
113	0x3d05528b	0.032549422
114	0xbb4954f5	-0.0030720804
115	0xbe920d7f	-0.28525922
116	0x3eed1269	0.46303108
117	0xbe96ae80	-0.29430008
118	0xbd63e790	-0.055640757
119	0xbcb5b575	-0.022181252
120	0x3e224173	0.1584528
121	0x3e0d0ca1	0.13774349
122	0xbc8fe3fa	-0.017564762
123	0x3c2345dd	0.009965387
124	0xbc2b9017	-0.010471365
125	0xbd84d588	-0.0648604
126	0x3b6ef872	0.0036464003
127	0x3de40194	0.111331135
128	0xbe0d0b63	-0.13773875
129	0x3e165b3b	0.14683239
130	0xbe9ff216	-0.31239384
131	0xbcae8b1d	-0.021306569
132	0x3d81754f	0.06321203
133	0xbd04bb44	-0.032405153
134	0xbdf750d1	-0.120759614
135	0xbea15352	-0.3150888
136	0xbe696d7a	-0.22795668
137	0xbdd3bf2c	-0.103391975
138	0xbd7b91c1	-0.0614183
139	0xbdad5baf	-0.08464753
140	0xbe1aecfb	-0.15129463
141	0xbdc34505	-0.09534649
142	0x3bc7242f	0.0060773115
143	0xbeb71a0d	-0.35762063
144	0xbd9f9546	-0.077921435
145	0xbea2398a	-0.31684524
146	0xbe0cc030	-0.13745189
147	0xbe5411de	-0.20709941
148	0x3db54dc8	0.08852726
149	0x3e1d851d	0.1538281
150	0x3e027daf	0.12743257
151	0xbde64a9e	-0.11244701
152	0x3ce06184	0.02739025
153	0x3e94454c	0.2895912
154	0x3e149820	0.14511156
155	0xbdcacf30	-0.09902799
156	0xbe4ca355	-0.19984181
157	0x3dc32b82	0.09529783
158	0xbea98784	-0.33111203
159	0xbc7b3a75	-0.015333761
160	0xbe85e35a	-0.26150018
161	0xbe84a458	-0.25906634
162	0xbded0761	-0.11573673
163	0x3e25da21	0.16196491
164	0x3ea431d5	0.3206927
165	0xbd255ed3	-0.040373635
166	0xbe4b8c9d	-0.19877858
167	0x3dcca48b	0.099923216
168	0xbeb6b45b	-0.35684475
169	0xbe669cca	-0.22520748
170	0x3dbd2e5d	0.09237359
171	0xbd55c8d5	-0.05219348
172	0xbe4a96f0	-0.1978414
173	0xbe8651b7	-0.26234218
174	0x3ccc8ab0	0.024968475
175	0x3e5678fc	0.2094459
176	0x3d626873	0.05527539
177	0xbc6b400f	-0.0143585345
178	0x3c9a6307	0.018846048
179	0x3e5cfebd	0.2158155
180	0x3e78d85f	0.24301289
181	0xbd94fa72	-0.07274331
182	0xbe1fa7aa	-0.15591303
183	0x3d5b201e	0.053497426
184	0xbdbe71fc	-0.092990845
185	0x3e643d22	0.22288945
186	0x3de52cd3	0.1119019
187	0x3e1d9c8d	0.1539175
188	0x3d8ceb57	0.06880825
189	0xbe9652e4	-0.29360116
190	0xbe12d955	-0.14340718
191	0xbe8b8b3e	-0.2725467
192	0xbd9bd318	-0.07608622
193	0xbe131b75	-0.14365943
194	0xbd9e4fd2	-0.07730068
195	0xbe15b684	-0.14620405
196	0xbdcf2d1f	-0.10116028
197	0xbb82e253	-0.003994265
198	0xbdde4fda	-0.10855074
199	0xbe1a7f34	-0.15087587
200	0xbe73168d	-0.23739071
201	0xbd4b83e6	-0.049686335
202	0xbe769d8a	-0.24083534
203	0x3e549606	0.20760354
204	0xbd027930	-0.031853855
205	0x3e880de4	0.26573098
206	0xbe5497ff	-0.20761107
207	0xbdeb45e8	-0.11487943
208	0x3e316bf4	0.17326337
209	0x3e795fb6	0.24352917
210	0x3e115de1	0.14195968
211	0xbe3cc01f	-0.18432663
212	0x3e32e829	0.17471375
213	0x3ddab39e	0.106787905
214	0xbe369174	-0.17828923
215	0xbd19de0f	-0.037565287
216	0x3e5cfccc	0.2158081
217	0xbeb68c89	-0.35654095
218	0x3cde6ece	0.027152445
219	0xbe71e83e	-0.2362375
220	0x3e20f714	0.15719253
221	0xbe6dcf15	-0.23223527
222	0xbdd622a8	-0.10455829
223	0xbe1e8362	-0.15479806
224	0xbe29dbb2	-0.16587713
225	0x3d4e9a8f	0.050440367
226	0xbd9365c5	-0.071971454
227	0xbdb0dea5	-0.08636216
228	0xbe4ac2c2	-0.19800857
229	0xbe75719b	-0.23969118
230	0xbcc09ca4	-0.023512192
231	0xbddcf5ca	-0.10789068
232	0x3cc669a3	0.024220293
233	0xbe82d6ef	-0.25554606
234	0x3d1b4dab	0.037915867
235	0xbe81928c	-0.2530712
236	0xbb03c04f	-0.0020103639
237	0xbb9aa1fe	-0.004719018
238	0xbe4ec121	-0.2019086
239	0xbe620ec5	-0.22075947
240	0x3c1f376d	0.009717804
241	0x3e45c5c7	0.19313727
242	0x3dc37040	0.09542894
243	0xbdbb12ff	-0.091344826
244	0x3de9b53e	0.11411522
245	0x3d6f52d0	0.058428586
246	0xbec61d3f	-0.38694188
247	0xbdc40be7	-0.09572583
248	0x3e60efa9	0.21966423
249	0x3eba9f8b	0.36449847
250	0x3da5d000	0.080963135
251	0x3e67e705	0.2264672
252	0x3e71dd8c	0.2361967

5.bias f4 [23]
0	0xbe910f95	-0.283322
1	0xbd857f94	-0.06518474
2	0x3e0f7d4e	0.14012644
3	0x3e8a5b2a	0.27022678
4	0x3e8528a6	0.26007575
5	0x3d69ed68	0.057111174
6	0x3d862c98	0.06551474
7	0x3d2dfd68	0.042477995
8	0x3dcbac50	0.099449754
9	0xbd94d346	-0.0726686
10	0x3e747440	0.23872471
11	0x3e2d2e38	0.16912162
12	0x3de6b164	0.11264303
13	0x3cb7fc30	0.02245912
14	0xbd62e560	-0.05539453
15	0xbd5121e8	-0.051057726
16	0x3cead669	0.028666692
17	0x3d065660	0.032797217
18	0xbe8c653c	-0.27420986
19	0x3d8325ac	0.0640367
20	0x3e934f86	0.2877161
21	0x3e4669aa	0.19376245
22	0x3de9b5d8	0.11411637

6.weight f4 [23]
0	0x3f67f2e1	0.9060498
1	0x3f2df4c0	0.67951584
2	0x3f140dcb	0.57833546
3	0x3f16e629	0.58944947
4	0x3f3fd131	0.74928576
5	0x3f894faa	1.0727437
6	0x3ee60477	0.4492528
7	0x3f4742b5	0.7783616
8	0x3f7596c6	0.95933187
9	0x3f49ce57	0.78830475
10	0x3f21e6b8	0.63242674
11	0x3f0bd977	0.546287
12	0x3f572bc9	0.84051186
13	0x3f62a716	0.885362
14	0x3f538738	0.826282
15	0x3f577712	0.8416606
16	0x3f3a121e	0.72683895
17	0x3f664d1e	0.8996142
18	0x3f57ed0f	0.843461
19	0x3f05a02c	0.5219753
20	0x3f678e55	0.90451556
21	0x3f79766c	0.9744632
22	0x3ed07960	0.40717602

6.bias f4 [23]
0	0x3dc0fb72	0.094229594
1	0x3d8ba06e	0.06817709
2	0x3ec77267	0.3895447
3	0x39d11c55	0.00039884695
4	0x3e83fe2d	0.25779858
5	0xbd77fd42	-0.06054426
6	0x3f0d2fe3	0.55151194
7	0x3efafbb4	0.4902016
8	0x3e69d079	0.22833432
9	0x3c35b5fa	0.01109075
10	0x3ec73444	0.38907063
11	0x3b5a5794	0.003331636
12	0xbd5595bc	-0.05214475
13	0x3d2981a2	0.041383393
14	0x3e6d7b30	0.23191524
15	0xbe6e7b11	-0.23289134
16	0xbdc366be	-0.09541081
17	0x3d965ade	0.0734155
18	0x3e2fa31d	0.17152067
19	0x3d880628	0.06641799
20	0x3ccda9e0	0.025105417
21	0x3e8159dc	0.2526387
22	0x3f5a320b	0.8523261

6.running_mean f4 [23]
0	0xbef09c51	-0.4699426
1	0x3dc0c48a	0.09412487
2	0xbe1be5f0	-0.15224433
3	0x3ef66eee	0.48131508
4	0x3e917d28	0.284158
5	0xbe2d0191	-0.16895129
6	0x3da1c20d	0.078983404
7	0xbdcc0203	-0.09961321
8	0xbd0b9a94	-0.034082964
9	0xbe6be506	-0.23036584
10	0x3e734e40	0.23760319
11	0x3e2c058b	0.1679899
12	0xbe2cf99c	-0.16892093
13	0xbd54ca90	-0.05195099
14	0xbe4f6ee5	-0.20257147
15	0xbe9ab5ab	-0.30216727
16	0x3e2a7fba	0.16650286
17	0xbe4ac192	-0.19800404
18	0xbea8d5f5	-0.32975736
19	0x3d974343	0.07385876
20	0x3dce2db1	0.10067309
21	0x3d8681d1	0.06567729
22	0x3df342a7	0.11877947

6.running_var f4 [23]
0	0x3d2b0729	0.041754875
1	0x3cc2aceb	0.023764094
2	0x3cda719d	0.026665503
3	0x3ca6b008	0.02034761
4	0x3c9898f5	0.018627623
5	0x3d14f160	0.036363006
6	0x3bacb4e7	0.0052705887
7	0x3c768e4f	0.015048577
8	0x3d1652e1	0.036700133
9	0x3d2439f9	0.04009435
10	0x3c1e29b8	0.009653501
11	0x3b1cf7cb	0.0023951407
12	0x3d090cea	0.03345958
13	0x3d55dd5e	0.052213065
14	0x3d0d2667	0.03446045
15	0x3cd676ff	0.026179789
16	0x3cbf2be0	0.02333635
17	0x3d2c2b39	0.042033408
18	0x3d270ae9	0.04078189
19	0x3ba97cf5	0.0051723667
20	0x3cc940ab	0.024566969
21	0x3d10c598	0.03534469
22	0x3c2182ff	0.009857892

8.weight f4 [46, 23]
0	0xbe3da62d	-0.18520422
1	0x3d72986e	0.0592274
2	0x3d75e6e4	0.060034648
3	0x3d829e7d	0.063778855
4	0xbdcba0fa	-0.09942813
5	0x3e8cabf0	0.27474928
6	0x3d77a26d	0.060457636
7	0xbe7ce5d6	-0.2469705
8	0xbdc56bfc	-0.09639737
9	0xbe62d4e8	-0.2215153
10	0xbc095895	-0.008382936
11	0xbd7ab107	-0.061203983
12	0xbe898513	-0.2685934
13	0xbd905e17	-0.07049196
14	0x3ddb222c	0.10699877
15	0x3e61cdf9	0.22051229
16	0xbdba00f4	-0.09082213
17	0xbd90f235	-0.07077447
18	0x3ea4716b	0.3211778
19	0x3d41d6ba	0.04732392
20	0xbd6d7613	-0.057973932
21	0x3e5499a9	0.20761742
22	0x3e39b19f	0.18134163
23	0x3d9db38f	0.07700264
24	0xbd378a6c	-0.044809744
25	0xbc182a7d	-0.009287474
26	0x3da2539c	0.079261035
27	0xbc81f8f6	-0.015865784
28	0xbd2b0388	-0.041751415
29	0xbd10323e	-0.035204165
30	0x3d575b52	0.052577324
31	0xbdc97b87	-0.09838014
32	0xbe926c49	-0.2859824
33	0x3bd9ac1d	0.006642832
34	0xbc4c6192	-0.012474434
35	0x3d940123	0.07226779
36	0xbca96545	-0.020678172
37	0xbd284373	-0.04107995
38	0xbdb61a6f	-0.088917606
39	0x3cc738bf	0.02431905
40	0x3daa1744	0.08305219
41	0x3dc7dd91	0.09759057
42	0x3cf0135d	0.029306108
43	0xbde2c1d3	-0.11072125
44	0x3ddaf244	0.1069074
45	0x3d76711e	0.06016647
46	0x3b9301f7	0.004486318
47	0xbca8aa27	-0.020588947
48	0xbcf129d0	-0.029438883
49	0x3c0ae23e	0.008476792
50	0xbd858175	-0.065188326
51	0xbc841cc2	-0.016126994
52	0xbcb54412	-0.022127185
53	0x3d944090	0.07238877
54	0xbd790af0	-0.060801446
55	0xbe40e2c0	-0.18836498
56	0x3c1629fc	0.009165283
57	0xbcc3190f	-0.02381566
58	0x3df78b4a	0.12087114
59	0xbda2e170	-0.07953155
60	0xbb93fcaf	-0.004516206
61	0xbd2ea7ff	-0.042640682
62	0x3e0ee46d	0.13954325
63	0x3dd274bf	0.10276174
64	0x3d965fbc	0.07342479
65	0x3c1e5674	0.009664167
66	0xbe1651c1	-0.14679624
67	0x3cdcbda4	0.026945896
68	0x3d97c87a	0.07411285
69	0xbd3fd107	-0.046830203
70	0x3aa74ab0	0.0012763347
71	0xbd0a8dfb	-0.03382681
72	0x3bb329a4	0.0054676104
73	0x3cd18af3	0.025578951
74	0xbc663145	-0.014049833
75	0x3b6d2de4	0.0036190683
76	0x3cf10aa0	0.029424012
77	0xbcb9fab4	-0.022702552
78	0xbdf723e4	-0.120673925
79	0x3c34877d	0.011018631
80	0xbc98f93c	-0.018673532
81	0xbc91d2d4	-0.017800726
82	0x3df7d57f	0.12101268
83	0x3d8ac3bb	0.06775614
84	0xbd1e779b	-0.038688283
85	0xbc8b7aaa	-0.017026264
86	0x3e535e2b	0.20641391
87	0xbd211f94	-0.039336756
88	0xbc5a05cc	-0.013307046
89	0xbd9d662c	-0.07685503
90	0xbdc8bac9	-0.098012514
91	0x3cb602ad	0.022218073
92	0x3decfedf	0.1157205
93	0xbe0869db	-0.1332163
94	0x3eaac023	0.33349714
95	0xbda74798	-0.08167952
96	0x3e39d416	0.1814731
97	0xbc5c0a04	-0.013430122
98	0x3d237010	0.039901793
99	0xbdef50dc	-0.116853446
100	0xbd782837	-0.060585227
101	0x3e67c0b2	0.22632101
102	0x3dcf5eec	0.10125527
103	0xbd80e93e	-0.062944874
104	0x3d7c2075	0.06155439
105	0xbd47df9b	-0.04879723
106	0x3df7d7cb	0.12101706
107	0x3e5fe9d3	0.2186654
108	0x3db45c74	0.088066965
109	0x3e0ac135	0.13550265
110	0xbe557dba	-0.20848742
111	0x3cb16f66	0.021659564
112	0xbe0ecb46	-0.1394473
113	0xbdabc5fe	-0.083873734
114	0x3d78eba3	0.060771596
115	0x3c814837	0.015781505
116	0x3cc0fccb	0.023558041
117	0x3bf516b2	0.007479512
118	0x3acb7001	0.0015521051
119	0xbbddfc88	-0.006774489
120	0x3c9796be	0.018504497
121	0x3c0e1e23	0.008674177
122	0x3a22711a	0.0006196663
123	0x3c1ee2d2	0.009697633
124	0xbd615e5e	-0.055021636
125	0x3a5b26e8	0.00083599845
126	0x3c80989b	0.015697768
127	0x3d6e8c20	0.058239102
128	0xbd74b17b	-0.05973957
129	0xbbb02cb5	-0.0053764232
130	0xbcde01d2	-0.027100477
131	0xbc9c9b98	-0.019117162
132	0x3b6663d6	0.0035154722
133	0x3d901457	0.070351295
134	0xbc624daf	-0.0138124665
135	0xbda5fbc5	-0.08104662
136	0x3c2c27c1	0.010507525
137	0x396a13f9	0.0002232342
138	0xbde07ac9	-0.109609194
139	0xba8f61c6	-0.0010939173
140	0xbd1aa03c	-0.037750468
141	0x3dce6ef3	0.10079756
142	0xbc2fa124	-0.010719571
143	0xbc86e633	-0.01646719
144	0xbcdc3a4b	-0.026883265
145	0x3d4a0c43	0.0493281
146	0xbc55ee65	-0.013057326
147	0xbd756661	-0.05991209
148	0x3be1acba	0.0068870457
149	0xbcb97f89	-0.022643821
150	0xbd0c301d	-0.034225572
151	0xbca664b5	-0.020311693
152	0x3cfbbff9	0.030731188
153	0xbc100893	-0.008791107
154	0xbc34e4b3	-0.011040854
155	0x3e6d0656	0.23146948
156	0x3c7c9a86	0.015417701
157	0xbc1a41d3	-0.009415108
158	0xbdc77a08	-0.097400725
159	0xbd6888a1	-0.056770924
160	0x3d607e08	0.054807693
161	0x3eb0dc05	0.34542862
162	0xbe6368a5	-0.22207887
163	0x3d9629cf	0.07332193
164	0x3ddd4af1	0.108053096
165	0x3ea76f87	0.32702276
166	0xbcf2888b	-0.029606124
167	0x3e417cf0	0.18895316
168	0x3cb04ecf	0.021521954
169	0xbc69435b	-0.01423725
170	0x3cd3e6a9	0.025866823
171	0xbe9cd11b	-0.30628285
172	0xbe83cf5d	-0.25744143
173	0x3cad02d3	0.02111951
174	0xbe4a7091	-0.19769503
175	0xbca6e8d2	-0.02037469
176	0x3cd5a5b2	0.026079986
177	0xbdb30206	-0.0874062
178	0x3d6140a9	0.054993305
179	0x3ead6b2b	0.33870825
180	0x3cf73208	0.030175224
181	0xbd90c265	-0.07068328
182	0xbe703d2f	-0.2346084
183	0xbdbf5075	-0.09341518
184	0xbde0d26e	-0.10977636
185	0xbca66fc1	-0.02031696
186	0x3b9901af	0.00466939
187	0xbdcb7bd9	-0.099357314
188	0xbdae6171	-0.08514679
189	0x3b3e6f46	0.0029058023
190	0xba88fe0b	-0.0010451687
191	0x3bf917ee	0.0076017296
192	0x3c883de9	0.016631084
193	0x3e20ef55	0.15716298
194	0xba039d10	-0.00050206576
195	0xbca6ec77	-0.020376427
196	0xbe25e196	-0.16199335
197	0xbd4d58b1	-0.05013341
198	0x3d4b8d00	0.049695015
199	0x3d63605d	0.05551182
200	0x3e39eccd	0.18156739
201	0x3becadaf	0.007222853
202	0xbce5bbcc	-0.02804365
203	0x3b39d492	0.0028355462
204	0x3dc8d2f6	0.098058626
205	0xbd298e5a	-0.041395523
206	0x3c11c75a	0.008897627
207	0xbb932369	-0.004490305
208	0x3d79279b	0.060828786
209	0x3e0572a9	0.1303202
210	0x3dcf5bb3	0.10124912
211	0x3daaa9b2	0.08333148
212	0xbd48fa63	-0.049066912
213	0x3e197897	0.14987408
214	0x3e00fd61	0.12596656
215	0x3da6968f	0.081341855
216	0xbd6de9b7	-0.058084216
217	0x3d8d2d0a	0.06893356
218	0xbd809a39	-0.06279416
219	0xbe076c8a	-0.13224998
220	0x3e5f2db3	0.21794777
221	0xbda59da5	-0.08086709
222	0xb9795d41	-0.0002378123
223	0xbe801c49	-0.2502158
224	0x3cf02649	0.02931513
225	0xbc28bee0	-0.010299414
226	0xbd25c451	-0.040470425
227	0x3df63168	0.12021142
228	0xbd6318d8	-0.055443615
229	0x3e0153d9	0.12629642
230	0xbe443344	-0.19160181
231	0x3db573d9	0.08859987
232	0x3df82d96	0.1211807
233	0x3dd34510	0.10315907
234	0x3d83dd6e	0.06438719
235	0xbe1ff976	-0.15622506
236	0x3e0c9f58	0.1373266
237	0x3e0547e1	0.13015701
238	0x3dbb8a67	0.091572575
239	0x3d6231ad	0.055223156
240	0x3d811805	0.063034095
241	0xbdbb215b	-0.091372214
242	0xbde7b8c0	-0.11314535
243	0x3e55c8ce	0.20877382
244	0xbd930af5	-0.07179824
245	0x3bcf2ce0	0.006322488
246	0xbe7ef938	-0.24899757
247	0x3ddf85a4	0.10914162
248	0x3c8bfeb6	0.01708923
249	0xbd773944	-0.060357347
250	0x3e3dbdb4	0.18529397
251	0xbd27e524	-0.04099001
252	0x3e0390a7	0.12848149
253	0x3db0d254	0.08633867
254	0xbe11e8c4	-0.1424895
255	0x3de07f5a	0.109617904

8.bias f4 [46]
0	0x3d5d43ae	0.054019623
1	0x3e9d15ee	0.30680794
2	0x3e13b210	0.14423394
3	0x3ddefc7e	0.10888003
4	0x3d285b97	0.041102972
5	0xbbd5b15d	-0.0065213875
6	0x3e4501e5	0.19239004
7	0x3f0f8b2e	0.56071746
8	0x3cb33e96	0.02188043
9	0x3e515868	0.2044388
10	0x3e437329	0.19086899
11	0x3e33a3a1	0.17542888
12	0x3d77fabd	0.060541857
13	0xbc5eb431	-0.013592766
14	0x3f4d2173	0.80129164
15	0x3f4b5afd	0.7943571
16	0x3f4afd57	0.79292816
17	0x3df2cb43	0.11855175
18	0x3e4348ab	0.1907069
19	0x3f5b248e	0.85602653
20	0x3e4ec6e6	0.20193061
21	0x3f0f0279	0.5586315
22	0x3f0f5920	0.5599537
23	0x3ebc7014	0.3680426
24	0x3e4cfd2f	0.20018457
25	0x3e14321d	0.14472242
26	0x3e58f75f	0.21188115
27	0x3e7d87ea	0.24758878
28	0x3e2ab684	0.16671187
29	0x3eeab8c1	0.4584408
30	0x3dd5b1ff	0.10434341
31	0x3e12df67	0.14343034
32	0xbdc5f2ba	-0.09665437
33	0x3f553b6c	0.83293796
34	0x3e685034	0.22686845
35	0x3e6dda96	0.23227915
36	0x3d072b19	0.033000086
37	0x3d92d3ef	0.071693294
38	0x3e02c528	0.12770522
39	0x3cc14472	0.023592208
40	0x3bcc8cef	0.0062423865
41	0x3e146964	0.14493328
42	0x3ca3dfa0	0.020004094
43	0x3cc4ffe6	0.024047803
44	0xbca9204d	-0.020645285
45	0x3ee7eaeb	0.45296416
