offline_prototype_3_ds_as_sampling/trained_models/ae_model_ransomware_file_extension_hide.pth (torch, 7935 bytes, 16 tensors)

0.weight f4 [10, 20]
00000000: 6c02 983e d743 0abd e193 1e3d 2ff3 a9be
00000010: 1907 2bbe ebf7 6bbd d081 663d 7ad0 93bd
00000020: 648f e1bc b008 973d 2ad9 f4bd aaa2 073e
00000030: e631 4fbd f3b1 1fbe 4001 1a3e f0bf f73d
00000040: ec7e fc3d 3e67 00be 1de5 bdbc acc3 433d
00000050: 1592 6c3d 1bbc 9abd 7b98 6e3d 5327 133e
00000060: a022 36be 4ab2 113e 98f8 3f3d 38cd 4ebc
00000070: 097d 3a3e 6061 0abc 1573 90bc b0a6 49be
00000080: 9c4c 58be 5c27 ddbd 233b 6cbd b347 1abe
00000090: dd3f bebd 572e 563e e9de 0abe 8a7b 8fbd
000000a0: 86b4 13be 7e17 4dbd a952 8fbc 3735 8cbc
000000b0: 37a2 613d 7664 c23d 4882 ab3e c69f 89bc
000000c0: ed6b 393e 9f46 e73d e63d 39be 37f9 83bd
000000d0: 4c99 463e aa6c c73d 4002 19bd c3ce d5bb
000000e0: bc3e 5fbd 968e a7bc d7de be3c 382e 8ebd
000000f0: d186 613e faf9 933c 47ef 8c3e e2f5 9d3e
00000100: 0dff c4bc f10a a13c ebf5 9eba 5baf 5dbd
00000110: b785 5bbc b9ae b2bd 64ba 05be 5330 96bc
00000120: 52ce 37be 8f1b cdbd a7a7 9f3c b087 edbc
00000130: f4af 903d 383b 10be e10d 20be 8a4b 30be
00000140: 2186 073d d7ce 863d e4a3 473e 1ef6 b7be
00000150: 2aaa 0e3e f1e7 e1bd 008e 48be 89c2 2a3d
00000160: 82cb 063d 62a8 0d3e 3c6a 213d 51f9 783b
00000170: a58f 453d ed06 ff3d 42a3 1d3b 389a e63d
00000180: b641 21be 662a 693d a226 133e 3fb6 dabd
00000190: 6a15 4c3e 609e 06be ac54 eebe da72 183e
000001a0: 412c b63d 1d41 953d 442a 4ebc 24a9 99bc
000001b0: acbd b73d f471 063e fa7c 8c3d 827e afbd
000001c0: 61a4 3ebe 55a2 19bd c63a cd3a 329e 873a
000001d0: b62d 44bd bcfd 843d 5506 903d f91a d53d
000001e0: 9ad7 76be cba0 f1bd fe96 99be 4cf3 90be
000001f0: 681e 143e 47f9 37bd f6a3 d2bd 1bfb 64be
00000200: 8ee7 e2bd 8102 77bd f1ec 5f3e 074a b2bd
00000210: 55a8 093e de89 c4bc 0f99 01bd aa9f 9b3c
00000220: 356f 8f3d 08a9 1dbe aa13 c63d ca59 a03d
00000230: a1f7 afbe 74be 7cbd fc2b 83be 2b34 823e
00000240: eaef 31bd 3cf9 c23d 4143 6bbd 9d34 90bd
00000250: a9e7 833d 9346 ba3d 9e74 b8bd 7e89 283e
00000260: 9537 043e a1e3 213e 2c38 02bd cc1d 003e
00000270: 51dc ab3d b8e8 0f3e d0ee f33d 1f31 66bc
00000280: 0e31 b1be 58bd b2bd dc74 293d 537f 65be
00000290: bf8a 74bd b3f8 ccbd f7e9 b3bd 2480 11be
000002a0: 33bc 8a3d 2b99 313d 0d55 1a3e 4e82 843d
000002b0: 4f5e 3cbe 5a84 fbbd 36df 0b3e c02b c9bd
000002c0: 8fa4 ca3d c3d7 e43c 9e34 963d 89b4 9b3a
000002d0: 1c5d 04be 597b d6bd 7264 e33b 8628 b0bc
000002e0: ea6e 2fbc ee4c 863d f0d6 6e3e f44d 873e
000002f0: e5e1 233e ffb3 dbbd cc01 7cbd 3e0e 083e
00000300: 6ce2 fabd 1779 b7bd d2ff 76bd 6a97 ddbd
00000310: d36b 353e 3cee 513d cf4d 703d 6d88 ddbd
0.29689348 -0.033756103 0.038715247 -0.33193347 -0.16701926 -0.05760948 0.056276143 -0.07217498
-0.027534194 0.07374704 -0.11955483 0.13245645 -0.050584696 -0.15595226 0.1503954 0.12097156
0.12328896 -0.12539384 -0.023180539 0.04779403 0.057756502 -0.075554095 0.058250885 0.1437047
-0.17786646 0.14228168 0.046867937 -0.01262217 0.1821176 -0.008446068 -0.017633 -0.19692492
-0.21122974 -0.10798523 -0.057673585 -0.15066414 -0.09289525 0.20916115 -0.13561596 -0.07005985
-0.14424333 -0.050071232 -0.01749547 -0.017115219 0.05508634 0.09491818 0.33497834 -0.016799819
0.18107577 0.11292767 -0.18090019 -0.06444018 0.19394416 0.09737523 -0.03735566 -0.006524892
-0.054503188 -0.020453732 0.023299618 -0.06942409 0.22024085 0.018063534 0.27526304 0.30851656
-0.024047399 0.019658538 -0.0012127733 -0.05412231 -0.013398579 -0.08724732 -0.13059384 -0.01833359
-0.17949799 -0.10015022 0.019489123 -0.028995365 0.070648104 -0.1408509 -0.15630294 -0.17216316
0.0330869 0.0658242 0.19496113 -0.3592996 0.139321 -0.110305674 -0.19585419 0.04168943
0.032908924 0.13833764 0.039407954 0.00379904 0.048232693 0.12452493 0.0024053608 0.11259884
-0.15747723 0.0569252 0.14370206 -0.10679292 0.19930044 -0.13146353 -0.46548975 0.14887562
0.088951595 0.0728781 -0.012583319 -0.01875741 0.08971724 0.13129407 0.06859775 -0.08569051
-0.18617393 -0.037508328 0.0015657775 0.0010346828 -0.047895156 0.064937085 0.07032458 0.10405535
-0.24105683 -0.11798247 -0.2999801 -0.2831062 0.14464724 -0.044915464 -0.10285179 -0.22361414
-0.11079322 -0.060305122 0.2186773 -0.08705526 0.1344312 -0.023991521 -0.03164011 0.018997032
0.07003633 -0.15396512 0.09671719 0.07829626 -0.34368613 -0.061705068 -0.25619495 0.25430426
-0.04344169 0.09520194 -0.057437185 -0.07041285 0.0644067 0.09095492 -0.09006618 0.16458699
0.12911828 0.1580949 -0.03179185 0.12511367 0.083916314 0.14053619 0.11910784 -0.014049797
-0.34607738 -0.08727521 0.04137121 -0.22411852 -0.05970263 -0.10008373 -0.0878486 -0.14209038
0.067741774 0.043358963 0.15071507 0.06470166 -0.18395351 -0.122811034 0.13659367 -0.09822798
0.09894668 0.027934914 0.07334255 0.0011879365 -0.12926143 -0.104727454 0.0069394642 -0.021503698
-0.010707596 0.06557642 0.2332418 0.2642666 0.1600414 -0.10727691 -0.06152515 0.13286683
-0.12250218 -0.08958643 -0.060302563 -0.108198956 0.17716913 0.05125259 0.058667954 -0.10817037

0.bias f4 [10]
00000000: 04f2 2c3e 9ff8 cdbd 5004 633d 98e4 ff3d
00000010: 7009 e33c f82e fa3d d0ca 193d 2aad 383e
00000020: 707e 1b3e 98a1 eb3d
0.16889197 -0.10057186 0.055424035 0.12494773 0.027714461 0.1221599 0.037546933 0.18034807
0.15184951 0.11505431

1.weight f4 [10]
00000000: c9b8 643f 3fc5 763f ce2d 6c3f e156 623f
00000010: 2ad7 623f 8452 4f3f 4cdd 643f 8f32 7d3f
00000020: 1c10 673f 3a45 793f
0.8934446 0.96394724 0.9225739 0.88413817 0.88609564 0.80985284 0.8940017 0.9890527
0.90258956 0.97371256

1.bias f4 [10]
00000000: 7b3f 4a3e fdac ad3d 2e0e aa3d 9da4 c43c
00000010: e60c 513e 571a 423e 85ad f13d 371a 5f3d
00000020: be81 083e 43c8 0b3e
0.19750778 0.084802605 0.08303486 0.024004275 0.20415077 0.1895536 0.11800674 0.05446836
0.13330743 0.13650613

1.running_mean f4 [10]
00000000: 36ac 273e 8aaf bfbd ae13 8f3d f6f9 133e
00000010: 86ca 1f3d 686a b53d 65bf 7e3c 7f46 3c3e
00000020: 2d43 203e 9e3b 0f3e
0.16374287 -0.09359653 0.069861755 0.14450821 0.0390115 0.08858186 0.015548562 0.18386267
0.15650626 0.13987586

1.running_var f4 [10]
00000000: df27 033d 14a3 943b bab1 0d3c 0835 dc3c
00000010: 5e60 2f3c c744 e23c 70ab f63c 2877 293d
00000020: b41f 103d f886 023c
0.032020446 0.004536042 0.00864833 0.026880756 0.010704128 0.027620686 0.030111045 0.041373402
0.035186484 0.007966749

3.weight f4 [5, 10]
00000000: 443f 4b3e 2451 01be ea6e 81be f655 88bd
00000010: a25f 673d a9c0 c8bd 3b11 923d efec 2d3d
00000020: 785d 55be 0948 873e a58a 483e d664 533a
00000030: 6123 0a3d fe3b 2abe b743 f83d 5392 c0bd
00000040: 048a 023e e6cc 35be 724d 693e 2082 9ebc
00000050: 5a43 b73e f248 c13d a138 813e c4d4 0bbd
00000060: c0c2 7a3d a496 803d c7b5 09be 8fb5 35be
00000070: e0f6 10be d2b4 8a3e a24b 003e 406f e23c
00000080: 7e2a cb3a b87b b03c 58c8 f63d ccf5 97be
00000090: 1752 69be 2046 17bd 934c 5e3d 138e eb3d
000000a0: 3ea0 263e 137d d1bc a50b 7cbd 45ce a63d
000000b0: a630 e93d 5d67 1c3e 4b5f a53d 837c 7fbe
000000c0: 165d a1be 5944 8fbd
0.19848353 -0.12628609 -0.25279933 -0.06657021 0.056487687 -0.09802372 0.07132193 0.042462286
-0.20836437 0.26422146 0.19584139 0.0008064037 0.033725146 -0.16624448 0.121222906 -0.09402909
0.12747961 -0.17753944 0.2278345 -0.019349158 0.35793573 0.09437741 0.25238517 -0.034138456
0.061220884 0.062787324 -0.13448249 -0.1774504 -0.14156675 0.2709108 0.12528852 0.027640939
0.0015500335 0.021543369 0.12049931 -0.29679716 -0.22785221 -0.03693211 0.054272246 0.11501708
0.16272065 -0.025572335 -0.061534543 0.081448115 0.11386232 0.15273805 0.08074816 -0.24949841
-0.3151633 -0.06995458

3.bias f4 [5]
00000000: ecba a739 949e 633c 9ef9 da3e 3d07 313e
00000010: 2ec3 843d
0.0003199199 0.013892788 0.42768568 0.17287917 0.0648254

5.weight f4 [10, 5]
00000000: f974 eebc 99f4 c4be 07b3 c53b b2b3 93be
00000010: c455 66bd 05f2 3dbe 4477 753e 7a6f d63e
00000020: 671a 38be 9300 a2be 3db4 59be 1038 a73e
00000030: 50b2 84bd 4f92 28bd f71c 933e b3ba b9be
00000040: c0d1 5ebe 831b 2f3e 4554 223b f2ee a53e
00000050: 076e 123e 43f8 ddbe 777d 3cbb a9c7 b33d
00000060: 4956 943e 9744 0d3e 3f3e c13d 0fc3 33bd
00000070: 0a51 b83e d85b debe 0db9 f8bd 58ff 9ebd
00000080: e415 33bd bfde fd3d 9382 d9be 13b9 823e
00000090: 70c9 0f3d fd61 203d 4559 c6be ceca c5bd
000000a0: 616e 423e 31c3 8cbe 5fd2 cebe 3708 533e
000000b0: 9707 093e 3ddc 9a3d cc72 e9be 852f 8d3e
000000c0: 4aa4 85be 4831 d23e
-0.029108511 -0.38467863 0.0060333046 -0.28848034 -0.056234136 -0.18549354 0.23971277 0.41881925
-0.17978822 -0.31641063 -0.21260162 0.3265996 -0.06479323 -0.041155156 0.28733036 -0.36275253
-0.21759701 0.17100339 0.0024769467 0.32408863 0.14299785 -0.4335347 -0.0028761306 0.087783165
0.2897208 0.13795696 0.094357006 -0.043887194 0.35999328 -0.43429446 -0.12144671 -0.07763547
-0.04372205 0.12396001 -0.42482433 0.25531825 0.035104215 0.03915595 -0.38739982 -0.096578225
0.18987419 -0.2749267 -0.40394875 0.20608602 0.13381802 0.07561538 -0.45595396 0.27575317
-0.26101905 0.41053224

5.bias f4 [10]
00000000: 4048 a63e 6e6a 24be d8d4 33bd f218 b3be
00000010: b887 7bbd 40a6 c9be 9b58 9abe 28be be3d
00000020: a643 a63e 08b3 dc3d
0.32476997 -0.16056225 -0.043904155 -0.3497997 -0.06140873 -0.3938465 -0.30145726 0.09313613
0.32473487 0.10776335

6.weight f4 [10]
00000000: 5852 4d3f d98f 313f 60c1 363f d2d9 3a3f
00000010: d370 503f af74 473f 054d 7d3f b525 693f
00000020: e564 813f d9a1 583f
0.8020377 0.6936012 0.71388817 0.7298862 0.81422156 0.7791242 0.9894565 0.9107316
1.0108916 0.8462196

6.bias f4 [10]
00000000: 4e95 3a3e 15da 1c3e 73c3 a23e 3bbf 10bd
00000010: e80f f73d 94c1 673e 429e 7a3e 5289 af3e
00000020: 0113 4ebe 000e 2bbd
0.18221018 0.15317567 0.3178974 -0.03533862 0.12063581 0.22632438 0.24474433 0.34284455
-0.20124437 -0.0417614

6.running_mean f4 [10]
00000000: e570 863e 2ebc 5b3c 6d79 0cbd cc0d 86be
00000010: 35a8 80bd 4190 cdbe bc57 b2be ee49 893d
00000020: 465f 133e 1a32 573e
0.26258007 0.013411565 -0.03429549 -0.261824 -0.06282083 -0.4014912 -0.3483256 0.06703554
0.14391813 0.21015206

6.running_var f4 [10]
00000000: 4478 b93b 6dd0 5a3c c1ee 833b 90e9 903c
00000010: 7db8 033c d01b 7d3c 9ddc 6d3c 04aa 1e3b
00000020: 09ee 8c3c 369b 253d
0.0056600887 0.013355357 0.0040262644 0.017689496 0.008039591 0.015448526 0.01451793 0.0024210224
0.017203348 0.040431224

8.weight f4 [20, 10]
00000000: 1b3d 87bd 7ed8 ab3d 8cfd 023d 2a27 32bd
00000010: 081c 073f 72c8 d6be 6089 e4be 0cde 06be
00000020: 9e9a cfbd 8860 373e 6272 a43e 57b5 30bd
00000030: 8140 87be 703c 373d 6d3a 723d 0f56 a83d
00000040: 131e 7f3d ab13 6fbe 4c16 fd3d 27f5 763d
00000050: 64d7 8cbe 6288 e43c beaf 63bd 6916 653e
00000060: d692 c33e 2454 263e 5971 603c ba7a 0fbf
00000070: f8d1 f33d 4e0c fcbe 8287 083f a011 373d
00000080: 7dea f7be 4917 1d3d fdf0 a93e ca90 08be
00000090: a10b 6c3e fa36 acbe 3b3e 3f3e e0c6 6b3d
000000a0: 089e 213e 8117 03bf fce8 853e d5f4 24bd
000000b0: e4ff f13c 0443 2ebd 8443 a4be bb14 40bd
000000c0: 7dc0 483c 8040 0dbe 0d2b 903d 2fb0 0bbe
000000d0: 382d 18be 6c39 1f3e f1a0 dc3c 5980 9abd
000000e0: 4b7a 5b3e 041c 20bd 4867 ebbe a469 553d
000000f0: 6006 bf3c 4009 543e b130 64be 8191 43be
00000100: bc89 763d a43a 56be fe15 f0bd 739f 1ebd
00000110: 0046 e9be 281e 44bd 1a36 b8bd dd68 203e
00000120: a05a 33be 2d81 72be b174 d53d d449 9f3e
00000130: 234c 59be e725 fc3d 866c 143e bd04 063e
00000140: 09a5 233e 95dd 7a3e 62a2 e73c 3d98 033e
00000150: 0142 06be 8534 7a3d 32e0 bfbd 680e 9fbd
00000160: 528e ac3b b58b 12be 6525 853d 9a01 093e
00000170: ca79 683e f756 0b3e c1de 04be ba78 1ebe
00000180: 8595 f73d 9274 1dbd 6d10 87bc dd27 67be
00000190: 0729 12be 7a30 60bd 34ed e4bc 9b4e a8be
000001a0: 0c2d a23c 7268 70be d24f 0fbd 7322 c4bb
000001b0: 2372 853c 1c3d adbe 4b05 2ebd f212 6c3d
000001c0: 16c7 90bd 2a01 39be 78e1 2b3e 4787 963d
000001d0: 3f3c dcbd ab67 0e3d 4977 aa3d e070 123d
000001e0: 69ab acbd 6151 003c 99b2 6ebc 2629 d93d
000001f0: f8f9 c33c b848 2d3d 5ac1 1cbd 26e2 6e3d
00000200: dda0 8e3c 4d98 05be bafd 9f3c 19cf 973d
00000210: 57e2 a93d 56ac d8bc 2094 533d ab6b d1bd
00000220: bf5d 953d 2179 3bbc 0598 8abc ea0e fbbd
00000230: 6f91 7e3d 3b19 e73d 216b 0e3e 23e9 c8bd
00000240: d471 89bc ac93 fabd b70f 8c3d d29a 3abd
00000250: cb8e 9fbc 6adb 84bd 3a2e 9bbb a8b1 113d
00000260: b431 ae3c 6c03 2d3e 7eed 76bc 8db6 f93c
00000270: c21c c5bc 22b7 da3c 44dd 883d e349 2ebe
00000280: 4c54 56bc cdb2 84bd 4ff3 19be e512 043e
00000290: 53e0 0d3e 1908 443e 362a fbbd 11bc 893d
000002a0: dc7f 9bbd 7c30 cfbd a0cf 3dbd 2259 1cbd
000002b0: cb5e cabc 7c16 2b3d 3a98 e1bd e971 77bd
000002c0: a5c2 31bb c3bf 65bb 1c89 85bd c2d4 773d
000002d0: fa68 cdbd 6129 b73d 2889 8abc 70be a9bd
000002e0: 3637 4c3e 7879 99bd 1ab8 883d 2bad 663d
000002f0: 40fa 423b 7353 d8bd 5f55 83bd 4a25 88bd
00000300: 4b90 00be 53eb e73d 2d61 ecbd 33ba 76bd
00000310: 9fda 3bbd e1b7 3e3b a911 fd3c f8c2 9b3d
-0.06603452 0.08390902 0.031980082 -0.04349438 0.5277715 -0.41949803 -0.4463606 -0.13170642
-0.10136913 0.17907917 0.32118517 -0.04314169 -0.264164 0.044735372 0.05913775 0.082195394
0.06228454 -0.23347346 0.123577684 0.06029239 -0.2750808 0.027897064 -0.055587523 0.2237183
0.38197964 0.16243035 0.013698899 -0.5604664 0.11905283 -0.49228138 0.5333177 0.044694543
-0.48421088 0.038352285 0.33191672 -0.13336483 0.23051311 -0.33635694 0.18676083 0.05756271
0.1578294 -0.5120774 0.26154315 -0.040272553 0.029540963 -0.04254438 -0.3208276 -0.04689477
0.012252924 -0.13794136 0.07039461 -0.13641427 -0.14861 0.15549248 0.026932212 -0.075440116
0.2143337 -0.039089218 -0.45977235 0.0521027 0.02331847 0.20706654 -0.222842 -0.19098474
0.060189947 -0.20920807 -0.11722945 -0.03872628 -0.45561218 -0.04788032 -0.08994694 0.15665002
-0.1751504 -0.23682089 0.10422648 0.31111014 -0.2122045 0.12311917 0.14494523 0.13087745
0.15980925 0.2449859 0.028275672 0.12851043 -0.13111116 0.061085243 -0.09368934 -0.0776642
0.0052659893 -0.14311107 0.06501273 0.13379517 0.22702709 0.13607393 -0.12975599 -0.15475741
0.120890655 -0.03844125 -0.016487325 -0.225738 -0.14273463 -0.05473373 -0.027945139 -0.3287247
0.01979687 -0.23477343 -0.034988232 -0.005985552 0.016289776 -0.33835685 -0.042485517 0.057635255
-0.07069223 -0.1806685 0.16785228 0.07350021 -0.107536785 0.034766834 0.08323533 0.035752177
-0.084311314 0.007831902 -0.014568948 0.106035516 0.023922905 0.042305678 -0.038270332 0.05832114
0.01741069 -0.1304638 0.019530166 0.074125476 0.08295124 -0.026449364 0.051654935 -0.10225614
0.07293271 -0.011442454 -0.016918192 -0.12258704 0.062150415 0.11284109 0.13908054 -0.09810092
-0.01677791 -0.122351974 0.06838935 -0.045557804 -0.019477269 -0.064871624 -0.0047357352 0.035569817
0.021263935 0.16895837 -0.015071271 0.030482555 -0.024061564 0.026698653 0.06682828 -0.17020373
-0.013081621 -0.06479416 -0.15034221 0.12897833 0.13855104 0.19143714 -0.122639105 0.06725324
-0.075927466 -0.101166695 -0.046340585 -0.03817094 -0.024703404 0.04176949 -0.11015363 -0.060411368
-0.0027124074 -0.0035056926 -0.06520292 0.060505636 -0.10029788 0.08943439 -0.016911104 -0.08288276
0.19942936 -0.074938715 0.066757396 0.05631749 0.0029751211 -0.10562792 -0.064127676 -0.06647737
-0.12555043 0.113241814 -0.11541972 -0.060236167 -0.04586279 0.00291013 0.03089221 0.07605547

8.bias f4 [20]
00000000: 0d2c f73d c6ab 6ebe ca70 8c3e 1dc8 45be
00000010: 3db8 7a3d 0810 043c a2fa 483e 0323 88bc
00000020: 4ca6 4dbd 13b9 a33c a342 3c3d 6c14 20bc
00000030: d2f8 4fbc e06a ec3b 7560 47be e62c 96bc
00000040: e204 9e3d 1562 913d fcfd c1bc df3b d93d
0.12068949 -0.23307714 0.274298 -0.19314618 0.06121086 0.008060463 0.19626859 -0.016618257
-0.05020742 0.019985711 0.045961987 -0.009770494 -0.012693601 0.007214889 -0.19470389 -0.018331956
0.07715775 0.07098786 -0.02368068 0.10607123
