offline_prototype_3_ds_as_sampling/trained_models/ae_model_rootkit_sanitizer.pth (torch, 7551 bytes, 16 tensors)

0.weight f4 [8, 20]
0	0xbe6d84ff	-0.23195265
1	0xbe8f465b	-0.27983364
2	0xbdd9364d	-0.1060606
3	0x3e0e8688	0.13918507
4	0x3d2203a7	0.039554264
5	0x3e207b78	0.156721
6	0x3db7ed36	0.08980791
7	0x3d382a9c	0.04496251
8	0x3d991a2d	0.07475696
9	0x3d0ee5d8	0.034887165
10	0xbdff96f2	-0.124799624
11	0xbe2d610a	-0.16931549
12	0xbe78c284	-0.24292952
13	0x3e0b1114	0.13580734
14	0xbb8a7f46	-0.004226598
15	0x3d927eae	0.071530685
16	0x3e2edc99	0.17076339
17	0x3e22d49b	0.15901415
18	0x3c6c86d6	0.014436444
19	0x3e305765	0.17220838
20	0xbead4324	-0.33840287
21	0xbe457047	-0.19281112
22	0xbe05700d	-0.13031025
23	0xbe19f70c	-0.15035647
24	0xbbb0f751	-0.005400576
25	0x3e86117f	0.26185223
26	0x3db51ccd	0.08843384
27	0xbcb640e9	-0.022247748
28	0xbd8f9d1a	-0.070123866
29	0xbbf3e5f8	-0.007443186
30	0x3da38abf	0.07985448
31	0xbdd7893b	-0.105242215
32	0xbe593873	-0.2121294
33	0xbe076dd1	-0.13225485
34	0xbe4036f5	-0.18770964
35	0x3da70ba5	0.08156518
36	0x3e1ac336	0.1511353
37	0x3da31246	0.0796247
38	0xbd555422	-0.05208219
39	0xbd0cbcdc	-0.034359798
40	0xbe46bc66	-0.19407806
41	0x3e0e768a	0.13912407
42	0x3ba11b34	0.004916573
43	0x3dc0bf64	0.09411505
44	0x3a88d3c9	0.0010439093
45	0x3d8d36ad	0.06895194
46	0x3e4a89e1	0.19779159
47	0x3d9cb52c	0.07651743
48	0xba8a65dc	-0.0010558921
49	0xbe087676	-0.1332644
50	0x3eb23c8e	0.34811825
51	0x3cd31e26	0.025771212
52	0xbd969431	-0.07352484
53	0x3e81c264	0.2534362
54	0x3e1b238e	0.15150282
55	0x3cdd21eb	0.026993712
56	0x3d94b203	0.072605155
57	0x3dda6fdf	0.10665869
58	0x3dcaace5	0.09896258
59	0x3e24a04a	0.1607677
60	0x3c7050ad	0.014667672
61	0x3e241368	0.16023028
62	0xbe2cee08	-0.16887677
63	0x3eb46354	0.3523203
64	0x3e0c4d39	0.13701333
65	0xbe125c0f	-0.1429293
66	0x3dd105d4	0.1020619
67	0x3d333932	0.043755718
68	0xbc5a75f0	-0.013333783
69	0xbd1b510f	-0.0379191
70	0xbbf0f568	-0.0073534735
71	0x3cf796d8	0.030223295
72	0xbe76c696	-0.24099192
73	0xbe621f14	-0.22082168
74	0xbdd00573	-0.10157289
75	0xbdda46ea	-0.10658057
76	0x3d5ac4de	0.053410403
77	0xbca7c711	-0.020480664
78	0x3ce4fda9	0.027952986
79	0xbd8f52a2	-0.06998183
80	0xbca423ca	-0.020036597
81	0x3c227da8	0.009917654
82	0x3e8f6a1c	0.28010643
83	0x3c37dc70	0.01122199
84	0xbe2440a3	-0.16040282
85	0x3c1b2efb	0.00947165
86	0x3e8900b7	0.26758358
87	0xbddbea4d	-0.10738049
88	0xbdff7819	-0.12474079
89	0x3d9bb6f2	0.076032534
90	0xbe7f0778	-0.24905193
91	0xbe17bf4c	-0.14819068
92	0x3de0fe63	0.109860204
93	0x3d9f7d44	0.077875644
94	0xbca495c0	-0.020090938
95	0x3d9b1532	0.07572402
96	0xbda58e87	-0.080838256
97	0x3dc36a10	0.09541714
98	0xbdaafe9e	-0.083493456
99	0x3c74c8ac	0.014940422
100	0x3e846402	0.2585755
101	0x3e2a4961	0.16629554
102	0x3bfad728	0.007655043
103	0xbe2744ea	-0.16334882
104	0x3bee895b	0.0072795576
105	0x3d331cf8	0.0437288
106	0xbe33e5be	-0.17568108
107	0xbe13402c	-0.14379948
108	0x3e5b8ed3	0.21441202
109	0x3e566f68	0.20940936
110	0x3e4c12a0	0.1992898
111	0x3e6f4145	0.23364742
112	0xbd3f8e00	-0.04676628
113	0x3e521fb0	0.205199
114	0xbd527c02	-0.051387794
115	0xbddb79c1	-0.10716582
116	0x3b8c2242	0.004276545
117	0x3dab6adf	0.083699934
118	0x3cbf1bee	0.023328748
119	0x3dedaf04	0.11605647
120	0x3dc41b09	0.09575469
121	0x3e998c55	0.29989877
122	0x3cd61795	0.026134292
123	0xbd40e6bc	-0.047095045
124	0x3e22fb17	0.15916096
125	0xbe39d5fd	-0.18148036
126	0xbcd2b725	-0.025722096
127	0x3dfc0845	0.12306265
128	0xbe1e9fb7	-0.15490614
129	0xbe266e36	-0.1625298
130	0xbce83f0b	-0.028350374
131	0xbe0ad54f	-0.13557933
132	0xbdc02c92	-0.09383501
133	0xbd83856d	-0.06421933
134	0x3d836e43	0.06417515
135	0x3ddeb514	0.10874382
136	0x3bbc3752	0.0057438994
137	0xbdd17512	-0.102274075
138	0x3dd5be42	0.104366794
139	0x3c1f4007	0.009719855
140	0xbe628a47	-0.22123061
141	0xbd8f4b49	-0.069967814
142	0x3c58343a	0.0131960455
143	0xbd8b9df8	-0.068172395
144	0x3c32b845	0.010908191
145	0xbd29116b	-0.041276377
146	0x3e816e38	0.25279403
147	0x3dc273d9	0.094947524
148	0x3e3b563f	0.18294619
149	0x3e4e1ae9	0.20127453
150	0xbd82739a	-0.063697055
151	0xbd18f5f5	-0.037343938
152	0x3d8321c2	0.06402923
153	0x3ca7c720	0.020480692
154	0xbdab11e9	-0.083530255
155	0xbdcd2950	-0.10017645
156	0x3e0f9968	0.14023364
157	0xbd6b1bc7	-0.057399537
158	0xbd52a4ba	-0.051426627
159	0xbd7f7325	-0.06236567

0.bias f4 [8]
0	0x3e5e14b4	0.21687585
1	0x3df244dc	0.1182954
2	0x3dc4e85c	0.096146315
3	0x3e5159a4	0.20444351
4	0xbdabbf78	-0.08386129
5	0x3e37b282	0.17939189
6	0x3d982498	0.07428855
7	0xbd0120cc	-0.03152542

1.weight f4 [8]
0	0x3f84d593	1.0377678
1	0x3f80960f	1.0045794
2	0x3f628c9f	0.8849582
3	0x3f80e865	1.0070921
4	0x3f7cbb2a	0.9872309
5	0x3f70fbae	0.9413403
6	0x3f747bb6	0.9550127
7	0x3f8ee7eb	1.1164526

1.bias f4 [8]
0	0x3d85a995	0.06526486
1	0x3d114b90	0.035472453
2	0xbc46a77d	-0.012124893
3	0x3e1a7e1d	0.15087171
4	0x3dab3888	0.08360392
5	0x3ce22824	0.027607031
6	0x3def3e3a	0.11681791
7	0xbd60211f	-0.054719087

1.running_mean f4 [8]
0	0x3e835fe2	0.2565909
1	0x3e20779f	0.15670632
2	0x3de47382	0.11154844
3	0x3e886455	0.26639047
4	0xbe0298cd	-0.12753601
5	0x3e41fb1a	0.18943444
6	0x3cf79ede	0.030227121
7	0xbd169fcf	-0.0367735

1.running_var f4 [8]
0	0x3d47889f	0.048714276
1	0x3d1d5f9e	0.038421266
2	0x3c1642db	0.009171213
3	0x3c9b43c6	0.018953215
4	0x3c39fd03	0.011351827
5	0x3ccd9954	0.025097527
6	0x3d1ae8d0	0.037819684
7	0x3c156cc8	0.009120174

3.weight f4 [4, 8]
0	0x3dc74519	0.09729976
1	0xbe2465a4	-0.16054398
2	0x3e80e875	0.2517735
3	0xbc52b24e	-0.012859894
4	0xbdba27f9	-0.090896554
5	0x3e275b36	0.16343388
6	0xbe2f94e9	-0.17146648
7	0x3e1dce81	0.15410806
8	0xbe06e344	-0.13172632
9	0xbe0ea4d0	-0.13930058
10	0x3c9e0cfd	0.019293303
11	0x3d0814ed	0.03322308
12	0x3e0d2a86	0.13785753
13	0x3d95a42c	0.07306704
14	0x3e2c7805	0.16842659
15	0x3e5bea60	0.21476126
16	0x3eacc26e	0.33742088
17	0xbd549adf	-0.05190551
18	0xbd5cd10e	-0.053910308
19	0x3e6f6143	0.23376946
20	0x3e7baf80	0.24578667
21	0xbe1cf764	-0.15328747
22	0xbc8f77cb	-0.017513176
23	0x3c904fd3	0.017616188
24	0x3ece718a	0.40320998
25	0x3ea335d5	0.31877008
26	0x3dd9a890	0.10627854
27	0xbe1a6618	-0.15078008
28	0x3dba88b4	0.09108105
29	0xbe1ea53f	-0.15492724
30	0xbe3e8fbe	-0.18609521
31	0x3ea06611	0.3132787

3.bias f4 [4]
0	0xbe662238	-0.22473991
1	0x3ec42a16	0.3831336
2	0xbc4e8ff5	-0.012607564
3	0x3eb63fe7	0.3559563

5.weight f4 [8, 4]
0	0x3ed69fe1	0.41918853
1	0x3e3c3fd9	0.18383731
2	0x3cf73d1e	0.03018051
3	0xbe5e084d	-0.21682854
4	0xbdd695bc	-0.10477778
5	0xbd4c9455	-0.049946148
6	0x3c737325	0.014858996
7	0x3ed3b42b	0.41348395
8	0x3ec71c09	0.38888577
9	0x3e808895	0.25104204
10	0x3e83fc44	0.257784
11	0xbe26cbc2	-0.16288665
12	0xbdea8cc6	-0.11452632
13	0x3e238f8c	0.15972728
14	0xbf249d31	-0.64302355
15	0xbeb5c0ce	-0.3549866
16	0xbe7b725d	-0.24555345
17	0xbe969305	-0.29409042
18	0x3da9d6fe	0.0829296
19	0x3f15697a	0.5836407
20	0x3eae8718	0.34087443
21	0x3eccfbda	0.40035897
22	0xbd873dc6	-0.06603579
23	0x3ea5c405	0.32376114
24	0xbeb329d3	-0.34992847
25	0x3ece1ebd	0.40257826
26	0x3d060f12	0.032729216
27	0x3ee4f953	0.4472147
28	0xbea7ca8a	-0.32771713
29	0x3f026cb2	0.50947106
30	0xbebc2ce7	-0.36753008
31	0xbe9abfd8	-0.3022449

5.bias f4 [8]
0	0xbe93e9d0	-0.28889322
1	0xbe270d7c	-0.16313738
2	0x3e55dee4	0.20885807
3	0xbda7d308	-0.08194548
4	0xbeff9458	-0.49917865
5	0xbe8cced4	-0.27501547
6	0xbefdc52e	-0.495645
7	0xbea2a0aa	-0.31763202

6.weight f4 [8]
0	0x3f7c2378	0.9849162
1	0x3f6fb18c	0.9363029
2	0x3f79baa1	0.975504
3	0x3f688c5b	0.90839165
4	0x3f8a8c91	1.0824147
5	0x3f8ef8f0	1.116972
6	0x3f91b6c5	1.1383902
7	0x3f8e93eb	1.1138891

6.bias f4 [8]
0	0x3dfd8824	0.123794824
1	0x3db9fed6	0.09081809
2	0x3d2c32ff	0.04204082
3	0xbe4b737c	-0.19868273
4	0x3cdcc3d7	0.026948852
5	0x3e55f754	0.2089513
6	0x3a8128d8	0.0009854091
7	0x3dba3885	0.090928115

6.running_mean f4 [8]
0	0xbeb9fd4f	-0.36326072
1	0x3d477412	0.048694678
2	0x3e6504b6	0.22365078
3	0xbe99a760	-0.3001051
4	0xbe876d4d	-0.26450577
5	0x3bfdeb16	0.0077489717
6	0xbdb139e1	-0.08653618
7	0xbea99245	-0.33119407

6.running_var f4 [8]
0	0x3ccd4b35	0.025060276
1	0x3d953dff	0.072872154
2	0x3c863bb3	0.016385889
3	0x3dec553a	0.11539693
4	0x3e2d7bdb	0.16941778
5	0x3d19ce2b	0.037550133
6	0x3d90b799	0.070662685
7	0x3dbefeea	0.09325965

8.weight f4 [20, 8]
0	0x3d92b6a9	0.07163746
1	0xbeb8c062	-0.36084276
2	0x3ce2f722	0.027705733
3	0xbdb0adea	-0.086269215
4	0xbda1d68f	-0.07902252
5	0xbdc54303	-0.09631922
6	0x3dd697e8	0.104781926
7	0x3e85279b	0.2600678
8	0x3e2f4f12	0.17120007
9	0xbe46dd06	-0.19420251
10	0x3df82e5c	0.12118217
11	0x3dfbd262	0.12295987
12	0xbcc5cd40	-0.024145722
13	0xbdce6342	-0.10077526
14	0x3dc16b9e	0.094443545
15	0x3f1775ca	0.59164107
16	0xbebda8b3	-0.3704277
17	0x3d96f86a	0.073716
18	0x3cdf825d	0.027283842
19	0x3db8a466	0.090157315
20	0xbe06f076	-0.13177666
21	0xbe5ef2c5	-0.21772297
22	0x3e78e26f	0.24305128
23	0x3defdc9d	0.117120005
24	0x3e2f99d1	0.1714852
25	0xbec5a988	-0.38605905
26	0x3ea0b584	0.31388485
27	0xbefa544f	-0.48892447
28	0xbeb5a206	-0.35475177
29	0xbf287ec5	-0.65818435
30	0xbef5e555	-0.4802653
31	0xbeb26f5d	-0.34850588
32	0xbd190ac6	-0.03736379
33	0xbe2ee01a	-0.17077675
34	0xbbd56fe9	-0.006513585
35	0x3e7627d5	0.24038632
36	0xbda7a78a	-0.081862524
37	0x3d8d4487	0.06897836
38	0x3d5563b4	0.052097037
39	0xbe80a7f4	-0.25128138
40	0xbe5373d1	-0.20649649
41	0x3eba87d8	0.36431766
42	0xbecf9af2	-0.405479
43	0xbdbbcebf	-0.09170293
44	0x3e9e4caa	0.30917865
45	0xbd57ccfe	-0.05268573
46	0xbefbee51	-0.49205258
47	0xbe7d79f4	-0.24753553
48	0xbeb0b394	-0.34512007
49	0x3e42cb66	0.19022903
50	0x3e93b1d2	0.28846604
51	0xbeb66136	-0.3562104
52	0xbdcd84f7	-0.10035127
53	0x3e8c605e	0.27417272
54	0xbe9cc1f8	-0.30616736
55	0x3e55d40f	0.20881675
56	0xbdfd9565	-0.1238201
57	0xbede358c	-0.43400228
58	0x3cbd0ddb	0.023077896
59	0xbdbc65ae	-0.09199081
60	0xbe90f6f1	-0.283134
61	0xbf13499e	-0.57534206
62	0xbcf7f516	-0.030268233
63	0x3dad3b55	0.08458582
64	0x3d1ec719	0.038764093
65	0xbd462ace	-0.048380665
66	0xbe75aa40	-0.23990726
67	0xbc328592	-0.010896103
68	0xbd8e1699	-0.06937904
69	0x3e954e59	0.29161337
70	0xbe28571b	-0.16439478
71	0x3e176759	0.14785518
72	0x3cd50b2e	0.026006307
73	0xbdf065b9	-0.11738152
74	0xbcd122dc	-0.025529318
75	0x3e19ffbb	0.1503896
76	0xbe08bf4f	-0.13354228
77	0x3e54a34d	0.2076542
78	0x3d12c571	0.035832826
79	0xbe4218b5	-0.18954737
80	0x3e971944	0.29511464
81	0xbe13b2a1	-0.1442361
82	0xbd8ddeff	-0.06927299
83	0x3e48e4f0	0.19618583
84	0x3e94cbd5	0.29061761
85	0x3e393a89	0.18088736
86	0xbebec465	-0.37259212
87	0xbea3a8f6	-0.31964844
88	0x3e22c21b	0.15894358
89	0x3e22e634	0.15908128
90	0xbd19101a	-0.03736887
91	0x3e55f8d0	0.20895696
92	0xbdf3c646	-0.11903052
93	0x3d8af73c	0.067854375
94	0xbdf58080	-0.119874
95	0xbe315110	-0.17316079
96	0xbe9f2c97	-0.31088707
97	0xbe90998a	-0.2824214
98	0xbe661796	-0.22469935
99	0x3e8df33a	0.2772463
100	0xbe92137c	-0.2853049
101	0xbe64002d	-0.22265692
102	0xbe5efd4c	-0.21776313
103	0x3e489d5e	0.19591281
104	0x3ec2bcf2	0.3803478
105	0x3e39de42	0.18151191
106	0xbe326922	-0.17422917
107	0xbdf2dd68	-0.11858636
108	0xbe558d17	-0.20854603
109	0x3de06337	0.10956424
110	0xbb8528c8	-0.0040636994
111	0xbde7a9c4	-0.11311677
112	0xbbe245e5	-0.0069053047
113	0xbe86f383	-0.2635766
114	0xbd1ad4ee	-0.03780072
115	0xbe6d239a	-0.23158112
116	0x3e84bbfb	0.25924668
117	0x3e339ec9	0.1754104
118	0xbe6aab72	-0.22916964
119	0x3d95c4db	0.07312938
120	0xb98ff41a	-0.00027456955
121	0x3ea02536	0.3127839
122	0x3de82f61	0.11337162
123	0x3e14efeb	0.14544646
124	0xbe3c167a	-0.18367949
125	0xbdd326af	-0.10310113
126	0x3d0b7d99	0.034055326
127	0xbdeb9ec9	-0.11504895
128	0xbe80bd3d	-0.25144377
129	0xbe71f8a6	-0.23630008
130	0x3e140285	0.14454086
131	0x3b974b52	0.004617133
132	0x3ebb485d	0.36578646
133	0x3dd2c9ba	0.102923825
134	0xbe692bf0	-0.22770667
135	0x3da8f634	0.082500845
136	0xbb6d85e9	-0.0036243147
137	0xbdddde15	-0.108333744
138	0x3d1ad41d	0.037799943
139	0xbdd167a4	-0.10224846
140	0x3e11b355	0.14228566
141	0xbe47a3c7	-0.1949607
142	0x3e25c53a	0.16188517
143	0x3d29b1cb	0.041429322
144	0x3db9092d	0.09034953
145	0x3d8af02e	0.06784092
146	0xbb9d25ef	-0.004795782
147	0x3d88818c	0.06665334
148	0xbd3b2817	-0.04569253
149	0xbd9fe886	-0.07808022
150	0x3d7af434	0.061268046
151	0xbbcaec36	-0.0061927093
152	0x3e1155e3	0.1419292
153	0xbd4cb997	-0.04998168
154	0xbd39061b	-0.04517184
155	0xbdc4e0c1	-0.09613181
156	0x3e148494	0.145037
157	0xbe04908a	-0.12945762
158	0x3d314c80	0.043285847
159	0xbc447c27	-0.011992491

8.bias f4 [20]
0	0x3cca000e	0.02465823
1	0xbe98e44c	-0.29861677
2	0xbf301c01	-0.6879273
3	0xbd2d6b4f	-0.042338666
4	0xbf2a3152	-0.66481507
5	0x3d8ae8cb	0.06782683
6	0x3ddd159c	0.10795137
7	0xbe56218d	-0.20911236
8	0xbc9482c7	-0.018128766
9	0x3c481f72	0.012214528
10	0xbcf6c44c	-0.030122899
11	0x3cd72de3	0.026266998
12	0xbe3c260e	-0.18373892
13	0xbcdcc147	-0.02694763
14	0x3bb0e067	0.0053978446
15	0x3afb7f3f	0.0019187703
16	0x3cfea72e	0.031085577
17	0x3cfa1972	0.030529711
18	0xbdc4f48c	-0.09616956
19	0x393a1888	0.00017747481
