offline_prototype_3_ds_as_sampling/trained_models/ae_model_ransomware_file_extension_hide.pth (torch, 25407 bytes, 16 tensors)

0.weight f4 [30, 60]
-0.048275862 -0.08875037 -0.024937088 0.03951596 -0.12157688 -0.17535685 0.05709514 -0.13614346
-0.006547083 0.08902709 -0.06460655 0.016044665 0.03666487 0.07547313 0.0426614 0.07741217
-0.10384629 -0.029099444 0.1628996 0.018160442 0.14081335 -0.01722849 -0.055725314 -0.14569637
0.0017721453 0.05232183 -0.054760635 -0.025034077 0.038268603 0.020000905 0.05796571 0.13833135
0.033757545 -0.047876246 0.08181482 0.10524323 0.11946962 0.014209031 -0.099019684 0.12206175
-0.049257953 -0.07116459 0.07575427 0.09979473 -0.091053456 0.063159026 -0.025575165 0.06843835
-0.07618224 0.08209838 0.01201826 0.062816806 -0.0985073 -0.09943281 -0.11681777 -0.05505905
0.073337264 0.080281675 -0.083482504 0.039252255 -0.07570403 -0.13827571 0.06973106 0.13271247
0.0326009 -0.09587793 -0.08523251 0.16841519 0.052924108 -0.048642673 -0.021973439 -0.1235814
-0.0056450125 0.13645619 0.10049718 -0.055763967 -0.068085186 0.045016415 -0.022913054 -0.04147956
-0.05056084 -0.065352656 -0.03849071 0.014376813 -0.05095267 -0.053384747 -0.03355134 0.007028032
0.04650888 0.061661877 -0.047283642 0.02308458 0.05332279 0.04253536 -0.10466398 -0.081913665
0.0027106963 -0.059486523 -0.06290369 0.019673951 0.092934914 -0.066148065 -0.032140724 -0.01932694
-0.012375028 0.005255887 0.12649302 0.018633066 -0.09330101 -0.056497306 -0.13597952 -0.10538214
0.08441505 0.068852834 -0.1234981 -0.01658854 0.07699975 -0.055564612 -0.06825449 0.09207548
-0.029913519 -0.08201459 0.107124 -0.109837934 0.056526933 0.078776404 0.061310228 -0.0003852546
0.1095779 -0.04716727 -0.12096415 -0.0062269364 0.13939345 0.14695981 -0.07865323 0.05391289
-0.10362747 -0.045641385 -0.045548785 0.021558138 0.13693571 0.04007603 -0.010124728 0.08646633
-0.025223179 -0.063577175 0.035122667 -0.045797568 -0.115784876 -0.09969352 0.038040027 -0.06366296
0.016624307 0.064495325 0.08945693 0.063102245 0.021842133 -0.033147555 -0.07029297 -0.04224012
0.06885409 -0.09257453 -0.055845458 0.111682184 0.053210825 0.013890028 0.043845996 -0.08205482
-0.071875356 -0.013859105 0.058849633 0.009395794 -0.034350727 -0.032120325 0.08772593 -0.045632824
0.13083532 -0.030498382 0.010704584 -0.09340838 -0.018320018 0.19919106 -0.034239426 -0.029116578
-0.02711717 -0.047941793 -0.014080974 0.14975414 -0.054213505 -0.07983282 -0.0831123 -0.08016951
-0.09794605 -0.11024875 0.00810803 -0.1110086 0.07300633 -0.13413808 0.09901143 0.06701792
0.07388293 -0.071847215 0.083687335 0.01135181 -0.10103081 0.011490814 -0.022156239 -0.012130182
0.002958614 0.010076316 0.0020258497 -0.04218784 -0.107177205 -0.0017006684 -0.094786815 0.009794756
-0.053462125 -0.017341418 -0.08022367 -0.11825277 -0.064456314 -0.07672397 -0.09177196 -0.013873901
0.0022886898 -0.06590875 0.045569904 -0.10315933 0.06513755 0.024116267 0.03494709 0.018953444
-0.05450737 -0.0729952 0.10676745 -0.10770711 0.006220184 0.112438455 -0.019436793 -0.03642564
-0.058472008 0.23917519 -0.001772756 0.04756726 -0.0713798 -0.029804718 -0.060849912 0.17261551
-0.187422 -0.0007549571 0.067028195 -0.009879766 -0.09799264 -0.10909194 -0.0013786227 -0.07118733
00000000: e9bc 45bd c1c2 b5bd dd48 ccbc 7ddb 213d
00000010: 4dfd f8bd bf90 33be 98dc 693d 3169 0bbe
00000020: ea88 d6bb d653 b63d 7050 84bd 1a70 833c
00000030: e72d 163d a891 9a3d b8bd 2e3d 468a 9e3d
00000040: 5dad d4bd f561 eebc 27cf 263e 35c5 943c
00000050: 6031 103e c322 8dbc 3a40 64bd 6e31 15be
00000060: 5447 e83a 6a4f 563d b04c 60bd 4414 cdbc
00000070: 8abf 1c3d f0d8 a33c 746d 6d3d bca6 0d3e
00000080: 5a45 0a3d e219 44bd 878e a73d c389 d73d
00000090: 7dac f43d ffcc 683c d5ca cabd 83fb f93d
000000a0: b5c2 49bd bebe 91bd 0e25 9b3d 2e61 cc3d
000000b0: 3c7a babd 8559 813d 0283 d1bc 6829 8c3d
000000c0: 6f05 9cbd 3223 a83d 3ce8 443c 19a6 803d
000000d0: 32be c9bd 6ea3 cbbd 283e efbd 9985 61bd
000000e0: d931 963d b86a a43d e0f8 aabd f9c6 203d
000000f0: b70a 9bbd 2698 0dbe 28cf 8e3d c7e5 073e
00000100: 8588 053d a65b c4bd 628e aebd 0875 2c3e
00000110: f3c6 583d 8a3d 47bd a401 b4bc 3f18 fdbd
00000120: ccf9 b8bb 2cbb 0b3e 77d1 cd3d c268 64bd
00000130: 3f70 8bbd 2263 383d 28b4 bbbc 79e6 29bd
00000140: e218 4fbd 9dd7 85bd 6fa8 1dbd b98c 6b3c
00000150: bfb3 50bd f7a9 5abd 216d 09bd 684b e63b
00000160: 1880 3e3d 2a91 7c3d 7eac 41bd e01b bd3c
00000170: ff68 5a3d 8f39 2e3d 125a d6bd 5ac2 a7bd
00000180: f0a5 313b 24a8 73bd a6d3 80bd 442b a13c
00000190: a954 be3d a378 87bd fea5 03bd 8853 9ebc
000001a0: a1c0 4abc 9339 ac3b 6387 013e 5fa4 983c
000001b0: 9a14 bfbd b869 67bd 373e 0bbe 97d2 d7bd
000001c0: cce1 ac3d b702 8d3d 92ec fcbd b1e4 87bc
000001d0: 0cb2 9d3d b897 63bd 03c9 8bbd 1292 bc3d
000001e0: 320d f5bc 44f7 a7bd d463 db3d b6f2 e0bd
000001f0: c988 673d 8655 a13d 6f20 7b3d fffb c9b9
00000200: 616a e03d 7832 41bd 0dbc f7bd 540b ccbb
00000210: 28bd 0e3e a27c 163e f214 a1bd c3d3 5c3d
00000220: a43a d4bd 76f2 3abd 5d91 3abd b19a b03c
00000230: e038 0c3e c326 243d 30e2 25bc 4215 b13d
00000240: d7a0 cebc c034 82bd c9dc 0f3d 3b96 3bbd
00000250: 9f20 edbd 1e2c ccbd dccf 1b3d ba61 82bd
00000260: b32f 883c 2016 843d 3235 b73d c03b 813d
00000270: 46ee b23c bbc5 07bd c3f5 8fbd fa03 2dbd
00000280: 6003 8d3d b797 bdbd 35be 64bd a1b9 e43d
00000290: 98f3 593d 0093 633c dc97 333d 5c0c a8bd
000002a0: 6333 93bd 4d11 63bc 500c 713d d1f0 193c
000002b0: 59b3 0cbd 9a90 03bd a7a9 b33d 7ce9 3abd
000002c0: b2f9 053e bed7 f9bc 4862 2f3c e54c bfbd
000002d0: dd13 96bc bef8 4b3e a43e 0cbd e485 eebc
000002e0: d424 debc 9d5e 44bd e3b3 66bc 2659 193e
000002f0: fb0e 5ebd 647f a3bd c836 aabd e92f a4bd
00000300: f097 c8bd 19ca e1bd 8bd7 043c 7a58 e3bd
00000310: 5884 953d 7e5b 09be 81c6 ca3d b140 893d
00000320: ef4f 973d a224 93bd 4464 ab3d f1fc 393c
00000330: 3ee9 cebd f843 3c3c 0081 b5bc acbd 46bc
00000340: 4ee5 413b 2217 253c 1ec4 043b 28cd 2cbd
00000350: b97f dbbd f6e8 deba 971f c2bd 2f7a 203c
00000360: 1afb 5abd 970f 8ebc 4f4c a4bd 822e f2bd
00000370: ac01 84bd 7521 9dbd f0f2 bbbd 5c4f 63bc
00000380: d8fd 153b 2bfb 86bd 82a7 3a3d 3345 d3bd
00000390: d666 853d 7a8f c53c ae24 0f3d 4144 9b3c
000003a0: 1f43 5fbd 827e 95bd e5a8 da3d 8c95 dcbd
000003b0: afd2 cb3b 2246 e63d e939 9fbc 0d33 15bd
000003c0: 5880 6fbd 57ea 743e d25b e8ba e3d5 423d
000003d0: 932f 92bd 0629 f4bc c23d 79bd 1fc2 303e
000003e0: 8eeb 3fbe 50e8 45ba 1446 893d bede 21bc
000003f0: 5eb0 c8bd 986b dfbd e7b2 b4ba aaca 91bd

0.bias f4 [30]
-0.05414743 -0.10432269 -0.013610984 0.06389503 -0.1065927 -0.0088960305 0.022529183 0.08706361
0.0043940647 -0.111409195 -0.11410111 0.112561464 0.04234141 -0.026095174 -0.09233537 0.045702487
0.013021961 0.01193613 0.0830978 0.034879893 -0.12525676 0.07095744 0.04499863 0.04907955
-0.07738826 -0.059993573 -0.060417652 -0.12184657 0.11815311 -0.06680773
00000000: b2c9 5dbd 22a7 d5bd 9b00 5fbc 66db 823d
00000010: 464d dabd a8c0 11bc 1f8f b83c 684e b23d
00000020: 16fc 8f3b 812a e4bd d8ad e9bd a086 e63d
00000030: 306e 2d3d 8cc5 d5bc 541a bdbd 8832 3b3d
00000040: 105a 553c c28f 433c 2e2f aa3d 38de 0e3d
00000050: 4f43 00be 2252 913d 7c50 383d a307 493d
00000060: bc7d 9ebd d2bb 75bd 8078 77bd b28a f9bd
00000070: 42fa f13d 7ed2 88bd

1.weight f4 [30]
0.9588653 0.97098976 0.9486653 0.9656249 1.0407586 0.93191653 0.95739317 0.96686023
0.9840069 0.9884239 0.91452545 0.9753655 0.9989252 0.9557922 0.937981 0.95438623
0.9839763 0.9547982 0.9723982 0.99056 0.95883405 0.94012034 0.97012067 0.9391988
0.956446 0.9569851 0.9497456 0.96543545 0.9687529 0.9890861
00000000: 3278 753f c992 783f bbdb 723f 3233 773f
00000010: 9437 853f 1592 6e3f b817 753f 2784 773f
00000020: e0e7 7b3f 5909 7d3f 571e 6a3f 8eb1 793f
00000030: 90b9 7f3f ccae 743f 861f 703f a852 743f
00000040: dfe5 7b3f a86d 743f 17ef 783f 5795 7d3f
00000050: 2676 753f baab 703f d459 783f 556f 703f
00000060: a5d9 743f fafc 743f 8722 733f c726 773f
00000070: 3100 783f bf34 7d3f

1.bias f4 [30]
0.051497404 0.06363678 0.031345338 -0.031228034 -0.079916194 0.019202039 -0.05439314 0.03444495
-0.027907535 -0.014120428 0.10185141 0.039475583 0.063255705 0.02539153 0.01920875 0.0111587
0.058303725 0.012365814 -0.02364729 -0.019751016 0.047701743 -0.004006801 0.025526157 0.1168364
0.037676442 0.023785392 0.016328476 0.07945591 0.033995543 0.029195014
00000000: f1ee 523d 0054 823d f863 003d efd1 ffbc
00000010: 1aab a3bd 984d 9d3c 57cb 5ebd 2616 0d3d
00000020: 589e e4bc 5e59 67bc 7997 d03d 26b1 213d
00000030: 358c 813d e601 d03c ab5b 9d3c fbd2 363c
00000040: e3cf 6e3d fc99 4a3c f6b7 c1bc e2cc a1bc
00000050: e762 433d 7c4b 83bb 3b1c d13c ec47 ef3d
00000060: 9d52 1a3d 95d9 c23c 4cc3 853c c8b9 a23d
00000070: e93e 0b3d 622a ef3c

1.running_mean f4 [30]
-0.12537394 -0.251584 -0.11688027 0.0318632 -0.19412935 0.0018010462 0.17768657 -0.0066647856
-0.00024777796 -0.20187517 -0.13948284 -0.002350444 -0.056027453 -0.16290207 -0.080326185 -0.07420951
0.2008402 -0.061829887 0.2750025 -0.017542088 -0.007281999 0.02710466 -0.17915821 0.21865493
-0.13787815 -0.29873502 -0.14848539 0.15223882 0.015815008 0.14266917
00000000: 0762 00be 9ecf 80be ec5e efbd fd82 023d
00000010: d8c9 46be 1511 ec3a 78f3 353e 4664 dabb
00000020: 32e8 81b9 5db8 4ebe 97d4 0ebe e809 1abb
00000030: 0b7d 65bd cdcf 26be 0e82 a4bd 28fb 97bd
00000040: 0ea9 4d3e 5641 7dbd 21cd 8c3e 6db4 8fbc
00000050: d69d eebb 980a de3c 4075 37be 14e7 5f3e
00000060: ee2f 0dbe ccf3 98be 8e0c 18be 7ee4 1b3e
00000070: 7a8e 813c de17 123e

1.running_var f4 [30]
0.009491276 0.015370858 0.0049106395 0.018533321 0.023668831 0.007453529 0.020772338 0.015481966
0.013978688 0.016269166 0.008939772 0.010512026 0.009737777 0.0054474724 0.00963034 0.010843819
0.017269595 0.009696388 0.021323605 0.017504098 0.019422997 0.004922823 0.005312536 0.006027867
0.017021913 0.013315302 0.011782812 0.014690623 0.010139449 0.02337995
00000000: 4c81 1b3c 0dd6 7b3c 6ee9 a03b 31d3 973c
00000010: 23e5 c13c bc3c f43b c02a aa3c 12a8 7d3c
00000020: de06 653c ea46 853c 1f78 123c a23a 2c3c
00000030: 328b 1f3c b680 b23b 93c8 1d3c 46aa 313c
00000040: f778 8d3c 99dd 1e3c d7ae ae3c c164 8f3c
00000050: fa1c 9f3c a24f a13b c814 ae3b 6a85 c53b
00000060: 8a71 8b3c 6d28 5a3c b20c 413c f0b0 703c
00000070: ee1f 263c 4f87 bf3c

3.weight f4 [15, 30]
-0.10188003 -0.1536598 -0.11579919 0.12855566 0.23942797 -0.105829045 0.018886885 0.11261723
0.17640606 -0.0049296995 -0.1522947 -0.038471274 -0.17326131 0.09731572 0.08029299 -0.036674198
-0.009442365 -0.0032398656 -0.009777145 0.084188454 -0.057552334 0.051376816 0.021876927 -0.082176596
0.17433718 0.082215875 -0.11782083 -0.19728108 0.074248075 0.039515227 -0.0071292226 0.09577466
-0.033230975 -0.07583253 0.082069986 -0.090066954 -0.07054793 -0.053520016 -0.1481865 -0.08139285
0.05788218 -0.010605366 0.067197315 0.0070367716 -0.015760185 -0.052177846 -0.12142972 0.005929481
-0.16245897 0.038761802 -0.15492362 -0.004059347 -0.021377983 0.062027134 -0.001102832 0.20830645
-0.062264305 0.019690093 0.014292813 -0.015786093 -0.06666437 -0.04854192 -0.013289604 -0.1859152
-0.14831935 0.051795702 0.08440872 0.039871156 -0.07245876 -0.036907077 0.07241342 -0.120164916
-0.1951438 0.05810808 -0.15634173 0.14438587 0.11071455 0.103146516 -0.10144535 0.009942301
-0.008841843 -0.06600471 -0.1810631 0.023435608 -0.10711475 0.139622 -0.05553349 0.18005936
0.014708658 0.0684144 -0.040248483 0.1580281 0.10611838 -0.030446975 0.06076513 -0.10541578
0.08202574 -0.17538826 0.1269585 -0.14095561 0.043709014 -0.025747266 0.021597708 -0.096249655
0.049997717 -0.033856876 0.18793015 0.034907904 -0.073873185 -0.014000065 -0.21714887 0.063767746
0.02022971 -0.082434356 0.18299477 -0.09656121 -0.068928875 0.0024952875 0.03566447 0.003028465
-0.08554954 0.015198187 -0.118088625 -0.03745739 -0.08131898 0.10589142 -0.14161876 0.16461845
0.04801565 -0.06643186 -0.112533994 0.004632792 0.017328704 -0.025390655 0.10148764 -0.12765297
0.061315272 0.0940226 -0.06724434 -0.09303783 0.05506388 -0.036013473 -0.07781877 0.11986814
0.14828141 -0.007887352 -0.059563298 0.012544488 0.087730885 0.18311624 -0.014853865 -0.16711617
-0.031600904 0.0093734795 0.056419037 0.14507248 0.02044661 -0.16128622 0.16645014 0.03689441
0.03588488 -0.008303426 -0.12144483 0.1040538 0.057210863 -0.04604059 0.063194774 0.082763195
0.13946255 0.10571914 0.098440684 0.01243154 -0.068430714 -0.00012664853 -0.087344505 -0.07682308
0.007192451 -0.031072205 -0.11864549 0.0782358 0.0961673 0.11885935 -0.10817253 0.023425138
0.17062792 0.088682696 -0.023393376 0.09811917 0.18306081 -0.09357206 0.10986713 -0.0020064374
0.0870069 -0.018661551 -0.038978525 0.064227104 0.082445934 0.09524329 -0.116702825 -0.062267717
0.06410597 0.042259634 0.033485826 0.038255837 0.1536552 -0.095585756 -0.14813438 -0.02462729
-0.037387423 -0.12598704 0.0041275662 0.048916236 -0.12983403 0.07559146 0.26395032 -0.10057896
0.107269235 0.07237293 0.12754926 0.0684143 0.027803792 0.044618297 -0.020036738 -0.05801115
-0.011401192 -0.0707831 -0.077696145 -0.010733826 0.050041325 0.14880894 0.05063559 -0.05290693
0.03317813 -0.11679394 -0.11762737 0.14348663 -0.05630002 -0.100637086 0.08619072 0.0963053
-0.14901046 0.14586252 0.0007875626 -0.15009838 -0.091795534 -0.079528205 -0.065396 -0.11889624
0.13327707 0.015355574 0.0012554212 0.22104381 0.10527501 0.14388873 -0.11619913 0.12858224
00000000: 7aa6 d0bd ff58 1dbe 2028 edbd 18a4 033e
00000010: 9b2c 753e e6bc d8bd abb8 9a3c dda3 e63d
00000020: caa3 343e 5189 a1bb 24f3 1bbe 0e94 1dbd
00000030: 6a6b 31be 774d c73d a770 a43d af37 16bd
00000040: 26b4 1abc ed53 54bb 5230 20bc ff6a ac3d
00000050: ffbb 6bbd 7f70 523d 3e37 b33c 344c a8bd
00000060: 7285 323e cc60 a83d 0c4c f1bd 0d04 4abe
00000070: 600f 983d b8da 213d 419c e9bb 8125 c43d
00000080: 341d 08bd 164e 9bbd 4f14 a83d 0675 b8bd
00000090: 6f7b 90bd ce37 5bbd 34be 17be 4bb1 a6bd
000000a0: dd15 6d3d 21c2 2dbc bf9e 893d b894 e63b
000000b0: 811b 81bc 70b8 55bd 25b0 f8bd 174c c23b
000000c0: a55b 26be b2c4 1e3d 4ca4 1ebe 4504 85bb
000000d0: e120 afbc 2a10 7e3d e78c 90ba 494e 553e
000000e0: db08 7fbd 1e4d a13c 672c 6a3c d651 81bc
000000f0: 5487 88bd e4d3 46bd a4bc 59bc 8e60 3ebe
00000100: 07e1 17be bb27 543d 7bde ac3d f04f 233d
00000110: 4265 94bd e02b 17bd 7d4d 943d 0619 f6bd
00000120: c7d3 47be bd02 6e3d 0c18 20be e4d9 133e
00000130: 4fbe e23d 7b3e d33d 94c2 cfbd 08e5 223c
00000140: 61dd 10bc 7a2d 87bd 9b68 39be 08fc bf3c
00000150: fa5e dbbd 12f9 0e3e 1677 63bd 7b61 383e
00000160: 95fc 703c d91c 8c3d 98db 24bd 1ed2 213e
00000170: 9854 d93d ef6b f9bc dbe4 783d 3ae4 d7bd
00000180: 1cfd a73d fb98 33be 6901 023e ab56 10be
00000190: 3908 333d eeeb d2bc aded b03c 8a1e c5bd
000001a0: 68ca 4c3d 82ad 0abd c370 403e 97fb 0e3d
000001b0: d34a 97bd 8760 65bc 465c 5ebe aa98 823d
000001c0: c7b8 a53c 58d3 a8bd fb62 3b3e e2c1 c5bd
000001d0: 952a 8dbd fa87 233b e814 123d 3679 463b
000001e0: 9934 afbd d101 793c 73d8 f1bd ec6c 19bd
000001f0: 918a a6bd 9add d83d 8204 11be bd91 283e
00000200: 0fac 443d 6d0d 88bd 3978 e6bd adce 973b
00000210: edf4 8d3c 1000 d0bc c0d8 cf3d 76b7 02be
00000220: b925 7b3d ec8e c03d 67b7 89bd 9e8a bebd
00000230: aa8a 613d dd82 13bd 735f 9fbd 6d7d f53d
00000240: 15d7 173e f439 01bc a5f8 73bd 6587 4d3c
00000250: 40ac b33d d382 3b3e a05d 73bc 8020 2bbe
00000260: f36f 01bd 3993 193c a617 673d e18d 143e
00000270: a67f a73c 3728 25be e871 2a3e 981e 173d
00000280: 06fc 123d 180b 08bc 11b8 f8bd 291a d53d
00000290: f055 6a3d 0f95 3cbd 436c 813d c07f a93d
000002a0: 45cf 0e3e 4783 d83d 459b c93d a8ad 4b3c
000002b0: 6725 8cbd f5cc 04b9 ade1 b2bd 6b55 9dbd
000002c0: a7ae eb3b 238b febc 68fc f2bd 173a a03d
000002d0: 5df3 c43d 886c f33d 8f89 ddbd 13e6 bf3c
000002e0: 16b9 2e3e 469f b53d 77a3 bfbc b4f2 c83d
000002f0: 4b74 3b3e b5a2 bfbd 0502 e13d 6f7e 03bb
00000300: ac30 b23d 1ce0 98bc f2a7 1fbd 8089 833d
00000310: 6ad9 a83d ea0e c33d e401 efbd 6f0c 7fbd
00000320: fe49 833d 7018 2d3d 6f28 093d 27b2 1c3d
00000330: ca57 1d3e 77c2 c3bd 8ab0 17be 2cbf c9bc
00000340: 8e23 19bd bf02 01be 8940 873b 645c 483d
00000350: 36f3 04be b2cf 9a3d 7f24 873e 57fc cdbd
00000360: f9af db3d 4238 943d 469c 023e cc1c 8c3d
00000370: c7c4 e33c adc1 363d 1624 a4bc 1a9d 6dbd
00000380: 11cc 3abc bbf6 90bd 281f 9fbd eedc 2fbc
00000390: 22f8 4c3d 5f61 183e 4467 4f3d f0b4 58bd
000003a0: cae5 073d a931 efbd 9ee6 f0bd 29ee 123e
000003b0: da9a 66bd d11a cebd c384 b03d b73b c53d
000003c0: 3396 18be fc5c 153e 6e74 4e3a 64b3 19be
000003d0: 4cff bbbd afdf a2bd 57ee 85bd df7f f3bd
000003e0: c979 083e f295 7b3c f28c a43a 4f59 623e
000003f0: 6d9a d73d 9157 133e cff9 edbd 10ab 033e

3.bias f4 [15]
-0.17696537 0.1821492 -0.06819888 0.10584342 0.01593742 -0.10764295 0.0975134 -0.0065448293
-0.13584547 0.10171987 0.005184969 -0.07717155 -0.040926483 -0.047166526 0.0907909
00000000: 6936 35be 5285 3a3e dbab 8bbd 6fc4 d83d
00000010: 318f 823c e873 dcbd 1bb5 c73d 0276 d6bb
00000020: 131b 0bbe 8252 d03d ace6 a93b 1e0c 9ebd
00000030: 87a2 27bd b031 41bd 94f0 b93d

5.weight f4 [30, 15]
-0.010474862 -0.08595842 0.009187481 -0.21995965 -0.04388662 -0.2222709 -0.0017469074 -0.02454027
-0.12622383 -0.2140348 0.11475743 0.17049247 0.18586029 0.049495015 0.3017837 -0.11647031
-0.45440865 0.048788976 0.17181383 -0.0633606 0.10610142 -0.20867601 0.099564865 0.059447873
-0.105050236 -0.24570517 0.14420344 -0.23257966 0.12558624 -0.066266656 0.2500555 0.1847208
-0.00737677 0.012828835 0.10746084 -0.020533899 0.20641458 0.27463216 -0.028494332 -0.030171363
0.03549776 0.18256356 -0.08229248 -0.0731518 -0.1642777 -0.18187298 -0.1666439 0.12879686
-0.098888576 -0.13887912 -0.3038317 -0.052234992 0.14279774 0.19548635 0.12588426 0.11739062
-0.13411392 -0.006068812 0.16226715 0.10679072 0.13850357 -0.12419967 0.14420949 -0.05890633
0.1942335 0.1655705 0.28559184 0.18703403 -0.20996206 -0.023662865 0.18760157 -0.08700342
-0.02211208 0.03539146 -0.23130886 0.11912582 -0.29627475 0.23974483 -0.051461298 0.14986174
0.23060142 -0.028470343 -0.10156047 -0.0813216 0.094101384 -0.019663164 0.20217623 -0.17163838
0.016948042 -0.020121245 0.12450363 0.024772206 -0.19641684 0.026430776 -0.21979852 -0.0154351415
0.10544777 0.21368934 0.10902195 0.17941503 -0.0134371305 -0.034472004 -0.25094166 0.1523978
0.13904968 0.014102634 0.001700138 0.16911416 -0.22831665 0.18945836 -0.11995181 -0.21295373
0.0057047466 -0.1759223 0.03614086 -0.027527893 0.084975556 0.013431108 -0.12753473 -0.11155759
0.026592234 -0.030201329 0.22931221 0.18457983 -0.064556174 -0.075796135 0.2039791 0.25936043
-0.22402155 -0.11588237 -0.07970754 0.11245677 0.1011197 0.18054606 -0.23796612 -0.12299119
0.10082444 0.08771801 -0.22623082 0.043697022 -0.2306294 -0.06323543 -0.13609444 -0.10682284
0.047369443 0.1824097 -0.11768051 -0.0055777137 -0.061380178 0.18402418 -0.17852902 -0.03511333
0.29733047 -0.014945343 -0.15903841 -0.07333662 -0.026220586 0.023447879 0.002814006 -0.11164974
0.049802314 -0.07162304 0.013921683 -0.14213546 -0.17220202 -0.07889385 -0.18671966 -0.08796953
0.08701829 -0.111413896 0.19574745 -0.19504713 -0.27641594 -0.265617 0.06882885 0.0789906
-0.011648321 -0.12968846 -0.07965976 -0.16285841 -0.14563927 -0.114243485 0.098848045 -0.2060411
-0.119768836 0.078845955 0.28101888 -0.26680753 -0.017954687 -0.035435457 -0.102465376 -0.0237344
-0.08523472 0.049373772 0.024086464 0.31507182 0.019337572 -0.17951144 0.089518085 0.20897499
-0.1225103 -0.0886071 0.2678597 0.08979399 -0.079158396 -0.16072212 0.09614023 -0.13298152
0.21914032 0.24888141 0.12625165 0.1613644 -0.012001143 -0.17494866 0.22077008 -0.07802162
-0.11538305 -0.27653414 -0.008748142 0.103598066 -0.26540628 0.18209866 0.11029716 -0.2061637
-0.17212301 -0.12788378 -0.09422178 -0.23623817 -0.064281344 0.0045221844 -0.23437555 -0.1923386
-0.017083433 0.18380734 -0.19045116 0.13728635 -0.20178986 0.05556482 0.21517015 -0.18251137
-0.07566285 -0.044494875 -0.12372234 0.17352137 0.26503694 0.17768164 -0.1945488 -0.21867228
-0.049479138 0.21476676 -0.054498155 0.22226122 -0.22751716 -0.25820062 0.10660496 -0.16663763
00000000: c19e 2bbc f80a b0bd 1787 163c 1a3d 61be
00000010: 75c2 33bd fc9a 63be 7cf8 e4ba ad08 c9bc
00000020: d240 01be f02b 5bbe f205 eb3d 9495 2e3e
00000030: 2952 3e3e 49bb 4a3d 6583 9a3e fc87 eebd
00000040: 40a8 e8be f3d6 473d f7ef 2f3e 34c3 81bd
00000050: b44b d93d 2aaf 55be aae8 cb3d 9d7f 733d
00000060: 9424 d7bd 239a 7bbe 11aa 133e 5d29 6ebe
00000070: ae99 003e d0b6 87bd 4607 803e 7327 3d3e
00000080: d5b8 f1bb 0930 523c 6e14 dc3d b536 a8bc
00000090: 585e 533e 969c 8c3e f26c e9bc ef29 f7bc
000000a0: 1966 113d f1f1 3a3e f688 a8bd 9cd0 95bd
000000b0: 6a38 28be e93c 3abe b3a4 2abe 53e3 033e
000000c0: 1886 cabd 5436 0ebe d48f 9bbe 5cf4 55bd
000000d0: 9239 123e 932d 483e cee7 003e 7e6a f03d
000000e0: 2955 09be e3dc c6bb 5c29 263e 18b5 da3d
000000f0: e1d3 0d3e 665c febd a7ab 133e c447 71bd
00000100: 26e5 463e 508b 293e 1839 923e d985 3f3e
00000110: 4b00 57be a0d8 c1bc a01a 403e d92e b2bd
00000120: 6524 b5bc a3f6 103d 3bdc 6cbe 3df8 f33d
00000130: 53b1 97be ab7f 753e 15c9 52bd 5b75 193e
00000140: c722 6c3e a33a e9bc f0fe cfbd f08b a6bd
00000150: 3ab8 c03d a514 a1bc 4907 4f3e f9c1 2fbe
00000160: 9fd6 8a3c 4fd5 a4bc c2fb fe3d 15ef ca3c
00000170: 7f21 49be 5b85 d83c dd12 61be ade3 7cbc
00000180: 00f5 d73d 61d1 5a3e e646 df3d 93b8 373e
00000190: 6927 5cbc 8432 0dbd 6d7b 80be 2b0e 1c3e
000001a0: 0a63 0e3e bc0e 673c 2ad7 de3a 432c 2d3e
000001b0: d7cb 69be 5f01 423e 4ba9 f5bd 8b10 5abe
000001c0: e2ee ba3b fa24 34be 7008 143d 2d82 e1bc
000001d0: aa07 ae3d 260e 5c3c 7798 02be 4e78 e4bd
000001e0: f5d7 d93c c768 f7bc d2d0 6a3e 7f02 3d3e
000001f0: 0736 84bd 013b 9bbd e6df 503e e4ca 843e
00000200: e865 65be bc53 edbd b53d a3bd bc4f e63d
00000210: d817 cf3d 11e1 383e 64ad 73be cee2 fbbd
00000220: 0b7d ce3d 80a5 b33d 0da9 67be a6fb 323d
00000230: 1d2a 6cbe 9481 81bd 575c 0bbe efc5 dabd
00000240: 7606 423d 9cc9 3a3e 7b02 f1bd 41c5 b6bb
00000250: c869 7bbd d670 3c3e 50d0 36be ffd2 0fbd
00000260: b33b 983e 50dd 74bc f7da 22be 8331 96bd
00000270: 8ecc d6bc c415 c03c 306b 383b 9ea8 e4bd
00000280: 83fd 4b3d 1aaf 92bd c517 643c f58b 11be
00000290: ba55 30be 1993 a1bd 7033 3fbe 5e29 b4bd
000002a0: a536 b23d f82c e4bd 0572 483e 6fba 47be
000002b0: 6486 8dbe f4fe 87be 24f6 8c3d d3c5 a13d
000002c0: 99d8 3ebc 0dcd 04be a824 a3bd 5bc4 26be
000002d0: 7622 15be 7df8 e9bd d870 ca3d 70fc 52be
000002e0: 5d49 f5bd fd79 a13d b5e1 8f3e ff9a 88be
000002f0: b515 93bc c524 11bd 5ed9 d1bd a56e c2bc
00000300: 8a8f aebd 273c 4a3d fa50 c53c 1851 a13e
00000310: d469 9e3c d9d1 37be 4255 b73d 8afd 553e
00000320: aee6 fabd a477 b5bd e824 893e e9e5 b73d
00000330: cc1d a2bd 5794 24be 2be5 c43d 4f2c 08be
00000340: 5266 603e c5da 7e3e 1d48 013e b63c 253e
00000350: 71a0 44bc be25 33be 8d11 623e cdc9 9fbd
00000360: f34d ecbd e295 8dbe 5e54 0fbc 392b d43d
00000370: 55e3 87be 1278 3a3e 7ae3 e13d 941c 53be
00000380: 0441 30be f7f3 02be 59f7 c0bd 6be8 71be
00000390: f0a5 83bd d52e 943b 2500 70be 69f4 44be
000003a0: 8ef2 8bbc fe37 3c3e a105 43be cb94 0c3e
000003b0: 00a2 4ebe f097 633d 9055 5c3e 43e4 3abe
000003c0: 20f5 9abd 4240 36bd 2362 fdbd 96af 313e
000003d0: ecb2 873e 2df2 353e cd37 47be a0eb 5fbe
000003e0: a3aa 4abd d1eb 5b3e 7539 5fbd 7298 633e
000003f0: 42fa 68be df32 84be b453 da3d 0ea3 2abe

5.bias f4 [30]
-0.24404703 -0.049470842 0.046786457 -0.09990342 0.1658594 0.07775006 0.23818192 -0.117351755
-0.19156837 0.09773576 0.09632939 0.20877686 0.13661236 -0.15469167 -0.1646851 -0.049631998
-0.21734256 -0.04675132 0.15225628 -0.039637864 -0.083177626 0.1012252 -0.2138912 -0.17668799
0.071186304 0.13531643 0.0012952395 0.18966275 0.18080303 -0.25098404
00000000: 77e7 79be f0a1 4abd 28a3 3f3d 2a9a ccbd
00000010: 0cd7 293e 6c3b 9f3d f6e5 733e 1e56 f0bd
00000020: 802a 44be b029 c83d 5848 c53d 9ac9 553e
00000030: 1ce4 0b3e 7e67 1ebe 36a3 28be ec4a 4bbd
00000040: 0c8f 5ebe 507e 3fbd 12e9 1b3e 505b 22bd
00000050: 0859 aabd 284f cf3d 4b06 5bbe b2ed 34be
00000060: 20ca 913d 6490 0a3e 07c5 a93a f436 423e
00000070: 6e24 393e fb80 80be

6.weight f4 [30]
0.9280119 0.7625911 0.98843896 0.96949077 0.9352015 0.7926611 1.0012997 0.9721134
0.95190024 0.9452518 0.95567286 0.83101255 1.0033948 0.9045665 0.9750687 0.9428804
0.8728073 0.9845357 0.9518674 0.9669701 0.8994206 0.83732516 0.915191 0.95264256
0.86863124 0.9347641 0.853158 0.93805 0.8369311 1.0118719
00000000: 3092 6d3f 2c39 433f 560a 7d3f 8c30 783f
00000010: 5e69 6f3f d6eb 4a3f 972a 803f 6cdc 783f
00000020: bcaf 733f 06fc 713f faa6 743f 3dbd 543f
00000030: 3e6f 803f ac91 673f 1a9e 793f 9c60 713f
00000040: 4d70 5f3f 880a 7c3f 95ad 733f 5a8b 773f
00000050: 6e40 663f f15a 563f f549 6a3f 62e0 733f
00000060: 9e5e 5e3f b34c 6f3f 9068 5a3f 0b24 703f
00000070: 1e41 563f 0585 813f

6.bias f4 [30]
0.17414655 0.1562546 -0.085213475 0.12528701 -0.03127449 0.041183658 0.08444382 0.16767761
-0.055602193 0.054715753 0.1262495 0.26970655 0.10940813 -0.023704428 0.14284135 0.16457474
0.12168175 0.15839548 0.077649914 0.15841764 0.13831007 -0.053392157 0.12553652 0.06777323
0.16242911 -0.12421038 0.2213018 -0.052376416 0.25275943 -0.01745989
00000000: 7953 323e 3501 203e 6784 aebd 3d4b 003e
00000010: ae19 00bd 32b0 283d e2f0 ac3d aeb3 2b3e
00000020: 20bf 63bd a01d 603d 8d47 013e fa16 8a3e
00000030: 5f11 e03d ca2f c2bc 0145 123e 4886 283e
00000040: 4834 f93d 6d32 223e eb06 9f3d 3c38 223e
00000050: 28a1 0d3e bcb1 5abd a58c 003e b1cc 8a3d
00000060: d153 263e 0362 febd f09c 623e a788 56bd
00000070: af69 813e 0b08 8fbc

6.running_mean f4 [30]
-0.3116875 -0.15415648 0.1386122 -0.14611001 0.2323936 0.047022216 0.28240773 -0.16437733
-0.16162835 0.06191472 0.059704967 0.13302802 0.11318353 -0.1530725 -0.17652659 -0.16615811
-0.2012914 -0.10341918 0.07566792 -0.03039235 -0.14531243 0.096271895 -0.2915178 -0.17816502
0.087416805 0.17280331 -0.0146108 0.17148149 0.17859857 -0.36409017
00000000: 8195 9fbe 32db 1dbe 5bf0 0d3e dd9d 15be
00000010: 96f8 6d3e 5e9a 403d bf97 903e 8852 28be
00000020: e781 25be 4a9a 7d3d 328d 743d 7f38 083e
00000030: c4cc e73d 0abf 1cbe 63c3 34be 5a25 2abe
00000040: 551f 4ebe 6fcd d3bd c8f7 9a3d 61f9 f8bc
00000050: c8cc 14be 332a c53d d241 95be e470 36be
00000060: 9507 b33d 5af3 303e 2362 6fbc d898 2f3e
00000070: 8be2 363e 076a babe

6.running_var f4 [30]
0.019339519 0.024613338 0.115124404 0.024189226 0.11701028 0.027956458 0.049924456 0.017355496
0.05840097 0.08433863 0.010344664 0.031153357 0.028532507 0.070862174 0.05566405 0.03994477
0.038271345 0.019610105 0.08356807 0.020850288 0.032237634 0.033383664 0.030512065 0.031737156
0.01620206 0.049227186 0.02315638 0.04482959 0.022916567 0.08671377
00000000: e96d 9e3c e9a1 c93c 58c6 eb3d 7c28 c63c
00000010: 16a3 ef3d f104 e53c 967d 4c3d 1d2d 8e3c
00000020: db35 6f3d bbb9 ac3d aa7c 293c 5335 ff3c
00000030: 01bd e93c 3020 913d fdff 633d 219d 233d
00000040: 6ac2 1c3d 5fa5 a03c bc25 ab3d 39ce aa3c
00000050: 9c0b 043d 4fbd 083d 70f4 f93c d2fe 013d
00000060: 2fba 843c 72a2 493d 73b2 bd3c 3b9f 373d
00000070: 86bb bb3c fd96 b13d

8.weight f4 [60, 30]
0.08892832 0.20492561 -0.05387165 -0.008941946 0.019838303 0.017438695 0.18732974 -0.019744456
-0.12749511 0.15256648 0.040861003 0.13325916 -0.03800741 -0.05586013 0.016163591 0.07924864
0.08160372 -0.054532737 0.06765973 0.11216725 -0.04855256 0.015408487 0.119850785 0.10961709
-0.02225148 -0.13745064 0.051588286 0.010733327 0.11424614 -0.13159138 -0.18281457 0.5133974
-0.029642025 -0.1407142 -0.081512205 0.24069059 0.01750137 -0.21833847 0.16006187 -0.06638222
0.044919953 -0.09793674 0.053097904 -0.10734916 -0.01596102 -0.13249558 -0.033330195 -0.053111877
0.003203268 -0.28412732 -0.07246491 0.14395098 -0.052021913 -0.09694545 0.061205037 0.08419138
-0.12753431 -0.09107855 0.16676308 0.026968818 -0.06909185 -0.07634869 0.12735248 -0.07589862
0.019963762 -0.063309744 0.06710883 0.056494948 -0.15401989 -0.07888796 0.062166855 -0.14772663
-0.047583517 -0.034690123 -0.17146857 -0.11567624 0.028863145 -0.030640066 -0.015732128 -0.10164364
-0.004539358 -0.04288971 -0.010289763 -0.07924661 -0.06088734 0.11333045 -0.011983275 0.053420607
-0.06583177 0.15847674 0.023829505 0.014585998 -0.13417594 0.08710335 -0.11178675 -0.20525773
0.16853307 -0.2761391 -0.05493731 -0.016886612 -0.017148508 -0.09775382 -0.17622185 0.1500474
0.030438421 0.095573515 -0.091964275 0.13197239 0.047200516 0.039240055 -0.1252401 0.16708224
0.046060834 0.023184652 0.07882374 -0.008747605 -0.19407868 -0.18096386 -0.20137875 -0.07777227
0.036555648 -0.038908284 0.14494994 -0.2917327 0.08891813 -0.084801465 -0.21446069 -0.1248279
-0.19543846 -0.12525529 -0.22830635 0.18180323 -0.3177532 -0.07717749 -0.1630173 0.35447532
0.11001692 0.122640155 -0.027693156 -0.0848451 0.1217019 0.21117853 0.014419119 -0.3186967
0.32471475 0.073329926 0.33510104 -0.217061 0.16081268 0.095035404 -0.3270183 0.25479
-0.23187457 0.31047097 -0.15618192 -0.17621268 0.024281623 -0.08499461 -0.1060853 0.071032874
-0.15152529 0.06875453 -0.23606598 -0.11465696 -0.24486127 0.061750636 0.12187237 0.31214577
0.18904984 -0.08339676 -0.013868096 -0.008667391 -0.3179098 -0.30981064 -0.11620638 0.08990752
-0.05145546 0.08440555 -0.2736677 -0.16085169 -0.0200429 -0.028041737 0.11608983 0.012564018
0.06865458 -0.07395336 0.03363749 -0.062581114 0.016353415 0.18533018 -0.09723199 0.046352293
0.032974593 0.0078098797 -0.10809418 -0.20558828 0.11534626 -0.024454815 0.2221944 0.14636564
-0.0016236153 -0.121605076 0.068939924 -0.054753833 -0.017573234 -0.058443256 -0.07142191 0.070446074
-0.08444668 -0.21485548 -0.074885726 0.11434978 -0.051759217 -0.21889652 -0.14683099 -0.3008687
0.049751 -0.3073906 -0.068055354 -0.070401266 0.12641187 -0.07204937 -0.21055162 0.056358825
0.08002778 0.24212752 -0.2590212 0.05276281 -0.011026248 0.10310781 0.0030062466 -0.011651955
0.09746636 -0.10515774 0.15549846 0.06800399 -0.043699693 0.030375868 0.2918965 -0.07916298
0.14588124 0.07144609 0.048080076 0.04537333 0.037569024 -0.066462204 -0.1466156 -0.063309014
0.10235539 0.017700044 0.017950844 -0.0644401 0.029290358 -0.14870371 -0.022399506 -0.1605174
00000000: 0d20 b63d 05d8 513e 85a8 5cbd 3d81 12bc
00000010: f083 a23c 98db 8e3c 5ed3 3f3e 20bf a1bc
00000020: 148e 02be 633a 1c3e de5d 273d 1775 083e
00000030: a8ad 1bbd 97cd 64bd 8269 843c 1c4d a23d
00000040: da1f a73d b85d 5fbd 2f91 8a3d f1b7 e53d
00000050: 0ddf 46bd e173 7c3c 5474 f53d ed7e e03d
00000060: bc48 b6bc dcbf 0cbe 3d4e 533d d6da 2f3c
00000070: e1f9 e93d e4bf 06be be33 3bbe 036e 033f
00000080: d5d3 f2bc 6217 10be dfef a6bd 9877 763e
00000090: 085f 8f3c 1f94 5fbe 42e7 233e 67f3 87bd
000000a0: fcfd 373d 0f93 c8bd 307d 593d e0d9 dbbd
000000b0: afc0 82bc ecac 07be 3e85 08bd d78b 59bd
000000c0: ebed 513b 2379 91be 7c68 94bd e367 133e
000000d0: ee14 55bd 568b c6bd 22b2 7a3d 886c ac3d
000000e0: 5b98 02be 6487 babd f1c3 2a3e b6ed dc3c
000000f0: 0780 8dbd b45c 9cbd b068 023e bc70 9bbd
00000100: 0b8b a33c 8aa8 81bd 5b70 893d 3f67 673d
00000110: 64b7 1dbe 0390 a1bd aca2 7e3d a645 17be
00000120: efe6 42bd 3b17 0ebd 7595 2fbe aae7 ecbd
00000130: 6772 ec3c e000 fbbc aae0 80bc 8a2a d0bd
00000140: e5be 94bb 1fad 2fbd 6596 28bc 0c4c a2bd
00000150: 0165 79bd cc19 e83d 8055 44bc 91cf 5a3d
00000160: cfd2 86bd ba47 223e 1836 c33c 1cfa 6e3c
00000170: 6b65 09be 3e63 b23d 74f0 e4bd 152f 52be
00000180: ef93 2c3e 1b62 8dbe f205 61bd cb55 8abc
00000190: 077b 8cbc 2833 c8bd 8073 34be 07a6 193e
000001a0: ff59 f93c 0cbc c33d c457 bcbd c523 073e
000001b0: 5455 413d 2eba 203d f13e 00be 9b17 2b3e
000001c0: 49aa 3c3d bded bd3c 576e a13d 1d52 0fbc
000001d0: 90bc 46be 974e 39be 3b36 4ebe 1147 9fbd
000001e0: 60bb 153d 4b5e 1fbd c26d 143e fd5d 95be
000001f0: b51a b63d 64ac adbd 959b 5bbe c5a5 ffbd
00000200: 0521 48be ec42 00be 24c9 69be a02a 3a3e
00000210: 8cb0 a2be 3b0f 9ebd 02ee 26be ca7d b53e
00000220: 8d50 e13d c32a fb3d c2dc e2bc 45c3 adbd
00000230: d93e f93d 2f3f 583e 2b3e 6c3c 372c a3be
00000240: 0341 a63e 002e 963d 5d92 ab3e 3d45 5ebe
00000250: 14ac 243e eca1 c23d f16e a7be d673 823e
00000260: 8770 6dbe 0df6 9e3e 27ee 1fbe 1971 34be
00000270: 41ea c63c a711 aebd 4043 d9bd af79 913d
00000280: 7229 1bbe 2dcf 8c3d 48bb 71be 45d1 eabd
00000290: eabc 7abe 3cee 7c3d 3998 f93d 92d1 9f3e
000002a0: 4896 413e eccb aabd 0337 63bc ac01 0ebc
000002b0: 13c5 a2be 809f 9ebe 9cfd edbd 6f21 b83d
000002c0: f6c2 52bd d1dc ac3d 2c1e 8cbe 4eb6 24be
000002d0: 0231 a4bc c9b7 e5bc 81c0 ed3d 50d9 4d3c
000002e0: c69a 8c3d dc74 97bd 77c7 093d 872a 80bd
000002f0: 99f7 853c 32c7 3d3e 9121 c7bd e7db 3d3d
00000300: 5e10 073d 05ea ff3b 7b60 ddbd bc85 52be
00000310: a93a ec3d 7755 c8bc ee86 633e e0e0 153e
00000320: 7dcf d4ba 150c f9bd 6030 8d3d 8e45 60bd
00000330: bef5 8fbc 3262 6fbd a645 92bd 0846 903d
00000340: 62f2 acbd 1303 5cbe b05d 99bd 3830 ea3d
00000350: 7901 54bd 6926 60be dd5a 16be 760b 9abe
00000360: b4c7 4b3d 4d62 9dbe 9b60 8bbd 8a2e 90bd
00000370: 1d72 013e 9f8e 93bd d89a 57be 83d8 663d
00000380: 9be5 a33d 47f0 773e 6d9e 84be d11d 583d
00000390: 70a7 34bc 302a d33d 7304 453b d7e7 3ebc
000003a0: 719c c73d f15c d7bd fd3a 1f3e ad45 8b3d
000003b0: 73fe 32bd d0d6 f83c 7573 953e 3320 a2bd
000003c0: e461 153e 5452 923d 9def 443d 63d9 393d
000003d0: fae1 193d 561d 88bd 6622 16be 28a8 81bd
000003e0: b49f d13d afff 903c a60d 933c 2cf9 83bd
000003f0: 55f2 ef3c c945 18be 2b7f b7bc ac5e 24be

8.bias f4 [60]
1.1328126 -0.16332161 -0.50360644 -0.08305586 -0.11161898 0.051647652 0.024279086 0.089414634
-0.19504702 0.0006093815 0.08308576 -0.09113797 0.03794564 0.03376181 0.10815708 -0.0072085746
-0.046979874 -0.024448419 -0.032811686 0.009729124 -0.11908238 0.099124685 0.0042387526 -0.002595844
0.03253465 0.08051585 0.052177206 0.036346704 -0.082572035 -0.01892669 0.07347734 -0.08357616
0.07839501 -0.008334633 -0.021795673 0.023284618 0.024110656 0.058198564 0.06231042 -0.02677823
0.06330644 0.090140425 0.063945815 -0.07986311 -0.06359193 -0.0152946785 0.08449211 -0.013994085
-0.032258287 -0.013299594 0.096674405 -0.0036286607 0.006570735 -0.03641115 -0.07199136 0.03824922
-0.0110121975 -0.028130958 -0.02060825 -0.03830633
00000000: 0100 913f c83d 27be 5aec 00bf 3119 aabd
00000010: 7e98 e4bd 7d8c 533d efe4 c63c 051f b73d
00000020: 68ba 47be e6be 1f3a de28 aa3d 8ba6 babd
00000030: e36c 1b3d d349 0a3d 7681 dd3d e835 ecbb
00000040: f86d 40bd 0d48 c8bc 8c65 06bd e766 1f3c
00000050: 76e1 f3bd e201 cb3d 3ce5 8a3b 091f 2abb
00000060: 0e43 053d 7ee5 a43d c4b7 553d 48e0 143d
00000070: 871b a9bd 250c 9bbc 4a7b 963d fa29 abbd
00000080: 908d a03d fc8d 08bc d78c b2bc 62bf be3c
00000090: b683 c53c 9e61 6e3d 3639 7f3d 055e dbbc
000000a0: cfa6 813d 8b9b b83d 06f6 823d 458f a3bd
000000b0: 7c3c 82bd 8896 7abc 330a ad3d 7247 65bc
000000c0: 4421 04bd 8ae6 59bc 3bfd c53d d3ce 6dbb
000000d0: 524f d73b dc23 15bd 3570 93bd 37ab 1c3d
000000e0: 816c 34bc e572 e6bc a2d2 a8bc 19e7 1cbd
