offline_prototype_3_ds_as_sampling/trained_models/ae_model_cnc_ip_shuffle.pth (torch, 25407 bytes, 16 tensors)

0.weight f4 [30, 60]
0	0xb8298189	-4.041338e-05
1	0xbdf5f9a0	-0.12010503
2	0x3d4f5590	0.050618708
3	0xbdd2e2b2	-0.10297145
4	0xbb1fa0ef	-0.0024357399
5	0xbe0500de	-0.12988612
6	0x3d1ac83c	0.037788615
7	0x3cd0f73c	0.025508516
8	0xbc08d472	-0.008351432
9	0xbdad3eea	-0.084592655
10	0xbd653d6a	-0.055966772
11	0xbcdaf0a2	-0.02672607
12	0xbdc3e9cd	-0.09566078
13	0x3d6b1da4	0.057401314
14	0xbd4886ca	-0.04895667
15	0x3dcbcdac	0.09951338
16	0xbdbfeee4	-0.09371737
17	0xba17397c	-0.0005768759
18	0xbda6cfdd	-0.081451155
19	0x3d55cc16	0.052196585
20	0x3ba47be8	0.0050196536
21	0x3cee1bb0	0.029065937
22	0xbd864ffb	-0.06558224
23	0xbdaa4cb4	-0.08315411
24	0x3dda7c66	0.10668258
25	0xbbfb2d8d	-0.007665342
26	0xbdc82ff5	-0.09774772
27	0x3d13e99d	0.036111463
28	0x3ccc603c	0.024948232
29	0x3b05697f	0.002035707
30	0x3d9743dd	0.07385991
31	0xbd58f1a9	-0.05296484
32	0x3d083097	0.033249464
33	0x3dfdb73e	0.12388466
34	0xbdc82557	-0.09772747
35	0x3d6adb8a	0.057338275
36	0x3c34708e	0.011013163
37	0x3cf32f87	0.029685749
38	0x3d65ffcb	0.056152146
39	0xba70b4fc	-0.0009182242
40	0xbdefc7ea	-0.117080525
41	0x3d93d017	0.07217424
42	0x3d84dc07	0.064872794
43	0xbda9c351	-0.08289207
44	0xbdeb1887	-0.114792876
45	0xbda7702d	-0.08175693
46	0xbdfaea8a	-0.12251766
47	0x3dabbe8f	0.083859555
48	0x3dd2831b	0.10278913
49	0x3d7d5c03	0.061855327
50	0x3d98ef7f	0.07467555
51	0xbd162163	-0.036652934
52	0x3e03b651	0.12862517
53	0xbdbe5d46	-0.09295134
54	0x3dc9348e	0.09824477
55	0xbdd636a3	-0.1045964
56	0xbd94acc9	-0.07259519
57	0xbdb02c5d	-0.086022116
58	0x3cdb2950	0.026753098
59	0x3d8595b8	0.06522697
60	0x3c564e63	0.013080212
61	0x3dfa51fd	0.12222669
62	0xbbbfc7fd	-0.005852698
63	0x3dd0a73c	0.101881474
64	0xbe1bc23f	-0.15210818
65	0x3caf6f6a	0.021415431
66	0xbc232588	-0.009957679
67	0xbc05c562	-0.0081647355
68	0x3dc06a07	0.09395223
69	0xbd7e1e70	-0.062040746
70	0x3d76221d	0.060091127
71	0xbdff65a0	-0.12470555
72	0x3dd5b138	0.104341924
73	0x3dc992f8	0.09842485
74	0x3cd77a34	0.026303388
75	0x3dd5b36e	0.10434614
76	0x3c7b3f24	0.015334878
77	0x3d81af63	0.063322805
78	0x3d806a9d	0.06270335
79	0x3c8015d7	0.015635414
80	0xbd4ecdcb	-0.05048923
81	0x3dce7a0b	0.100818716
82	0x3dab82f6	0.08374588
83	0xbb898396	-0.0041965945
84	0x3d6ce5e1	0.057836417
85	0x3d13430c	0.035952613
86	0xba592ee3	-0.000828488
87	0xbd3c0df4	-0.045911744
88	0x3c74bb05	0.014937167
89	0xbdb018bf	-0.0859847
90	0xbdb2f595	-0.08738247
91	0xbc6a1eac	-0.014289539
92	0xbd878889	-0.06617839
93	0xbd52b916	-0.051446043
94	0xbcee9708	-0.029124752
95	0xbcd32e24	-0.025778838
96	0x3ceae860	0.028675258
97	0x3e00d64e	0.12581751
98	0x3cb82724	0.022479601
99	0x3d895675	0.067059435
100	0xbd59a06d	-0.05313151
101	0xbd52dff0	-0.051483095
102	0x3c39d6cb	0.011342715
103	0x3cf47fa8	0.029846027
104	0x3e0d55b7	0.13802229
105	0x3d4918f8	0.049096078
106	0x3d8af735	0.06785432
107	0xbd3479d2	-0.04406149
108	0xbd88dcff	-0.06682777
109	0xbd40a992	-0.047036715
110	0xbdb46a8c	-0.08809385
111	0x3c9d39d6	0.019192617
112	0x3d896d3b	0.06710287
113	0x3ca93f35	0.020660022
114	0xbdf7acd1	-0.12093509
115	0x3b6cb1ea	0.0036116787
116	0x3d43241f	0.04764187
117	0xbc6267ed	-0.013818723
118	0xbb18c4b8	-0.0023310613
119	0x3ca5998b	0.020214817
120	0xbdb9bdb6	-0.090693876
121	0x3e089bd1	0.13340689
122	0xbdbda5e9	-0.092601605
123	0xbd8ba2b0	-0.068181396
124	0x3e2e4a25	0.17020471
125	0xbe0df472	-0.1386278
126	0x3d78ae63	0.060713183
127	0x3e13447f	0.14381598
128	0x3c2b26f7	0.010446302
129	0x3cc438ea	0.02395292
130	0xbe2a16fa	-0.16610327
131	0xbd3e8ca6	-0.04652085
132	0xbe233964	-0.15939862
133	0x3da75731	0.08170927
134	0xbd8ff68e	-0.070294484
135	0xbcaae818	-0.020862624
136	0xbd2fa1e7	-0.04287901
137	0x3d957eb2	0.07299556
138	0x3d8b46e9	0.068006344
139	0x3bf3af25	0.0074366503
140	0xbd373423	-0.044727456
141	0x3dba66b2	0.09101619
142	0x3c8edee5	0.017440269
143	0xbc812f86	-0.015769731
144	0x3d436912	0.047707625
145	0xbdcb3f4a	-0.09924181
146	0x3d1d6b44	0.038432375
147	0xbc312a3f	-0.010813295
148	0x3dd60279	0.1044969
149	0x3cc79289	0.024361866
150	0x3d6d2216	0.057893835
151	0x3c825102	0.015907768
152	0xbc41b94a	-0.0118239615
153	0xbdbebecb	-0.093137346
154	0x3dc73354	0.09726587
155	0xbcb3acb1	-0.021932932
156	0x3dff11d8	0.12454575
157	0xbdbaaf1f	-0.09115433
158	0x3d6bde7d	0.05758523
159	0xbc3e5328	-0.011616506
160	0x3d2db6f3	0.042410802
161	0x3df45446	0.119301364
162	0x3c8c702f	0.017143337
163	0x3d08afac	0.03337066
164	0xbdeceb9b	-0.11568376
165	0xbd966cb4	-0.07344952
166	0xbd583bc2	-0.052791364
167	0xbcae2230	-0.021256536
168	0x3d32c18b	0.04364161
169	0x3dccf11c	0.100069255
170	0xbca90b49	-0.020635264
171	0x3da51509	0.08060653
172	0xbcf8452c	-0.030306421
173	0xbcfb7f83	-0.03070045
174	0x3d33d730	0.04390639
175	0x3dcac732	0.09901275
176	0xbd0d4377	-0.034488168
177	0x3d0f869d	0.035040487
178	0x3cfe5cc8	0.0310501
179	0xbdee7ad1	-0.11644519
180	0xbd6403a9	-0.055667553
181	0xbca4dc5b	-0.020124605
182	0x3e0a2383	0.13490109
183	0x39a1ddc4	0.0003087354
184	0x3d96118d	0.07327566
185	0x3d9ccdc9	0.07656438
186	0xbdce9cf6	-0.10088532
187	0x3dc68c1a	0.09694691
188	0xbd6c4f3b	-0.057692748
189	0xbe041d57	-0.12901817
190	0x39cdf205	0.00039280966
191	0xbd8c0865	-0.06837539
192	0xba057576	-0.00050910504
193	0xbca45513	-0.020060098
194	0xbca947fc	-0.020664208
195	0xbd9474f8	-0.072488725
196	0xbe03fd61	-0.12889625
197	0xba94016a	-0.0011291925
198	0xbdb08759	-0.086195655
199	0x3cac2f72	0.021018717
200	0xbd3cad9a	-0.046063997
201	0x3d8d9ea4	0.06915024
202	0xbdf57bdf	-0.11986517
203	0x3de90552	0.11377968
204	0xbe3383e7	-0.17530786
205	0xbd2cfd97	-0.04223403
206	0x3d8cb3c8	0.06870228
207	0x3cdfb310	0.027307063
208	0xbd210a10	-0.039316237
209	0xbcb27a0a	-0.021786708
210	0xbca8bf87	-0.02059914
211	0x3d6d19b1	0.05788583
212	0xbd3695b6	-0.04457637
213	0xbe0b453b	-0.13600628
214	0xbd40c62e	-0.047064
215	0x3df68bf9	0.120384164
216	0x3d619403	0.055072796
217	0x3defbf03	0.117063545
218	0xbceb332b	-0.028710922
219	0xbd0b7ef1	-0.034056608
220	0xbdd8e2ac	-0.10590109
221	0xbd3bd71d	-0.045859445
222	0x3c1b4247	0.009476251
223	0xbe0aeba1	-0.13566448
224	0xbcfbd28f	-0.03074005
225	0x3c54766f	0.01296769
226	0xbb047623	-0.0020212017
227	0x3d76b0f1	0.06022734
228	0x3ccdc738	0.025119409
229	0x3d777de6	0.0604228
230	0xbe09eb08	-0.13468564
231	0xbd43fc8c	-0.04784827
232	0x3da2c2f1	0.07947338
233	0xbde976b5	-0.11399595
234	0x3cd44bbb	0.025915017
235	0xbc965df2	-0.018355343
236	0xbdd8f0f8	-0.10592836
237	0xbdb778d6	-0.089585945
238	0x3d0f9379	0.03505275
239	0x3d9960bf	0.07489156
240	0xbc1c0755	-0.0095232325
241	0x3d5e17fc	0.054222092
242	0xbcf6ef26	-0.030143332
243	0x3dadd8f8	0.08488649
244	0xbe3b3884	-0.18283278
245	0x3e3daa44	0.18521982
246	0xbbd0bb54	-0.0063699875
247	0xbc94ee9c	-0.018180184
248	0xbd01434d	-0.031558324
249	0x3d291d8c	0.041287944
250	0xbc9ce96f	-0.019154279
251	0x3df4f73f	0.11961221
252	0xbd65e748	-0.05612877
253	0xbc7c67ec	-0.015405636
254	0xbd584414	-0.0527993
255	0xbd871797	-0.06596296

0.bias f4 [30]
0	0x3d5e6a88	0.054300815
1	0x3d8a4702	0.06751825
2	0x3d9f5dd0	0.07781565
3	0xbd436a36	-0.047708713
4	0x3cac5b80	0.021039724
5	0xbdd95b9c	-0.10613176
6	0xbda47db6	-0.0803179
7	0xbd86b345	-0.06577162
8	0x3caaa140	0.020828843
9	0xbc24fc50	-0.010069922
10	0xbdda0ee4	-0.106473714
11	0xbdf86a0a	-0.121296
12	0xbdaf5472	-0.085610285
13	0x3d86577c	0.06559655
14	0x3dcbcf7a	0.099516824
15	0xbd817475	-0.063210405
16	0xbd9b7989	-0.0759154
17	0xbc69add5	-0.014262636
18	0xbcbb7b3c	-0.022885911
19	0x3de78f58	0.113066375
20	0x3dc3fec6	0.095700786
21	0x3c31a7a0	0.010843188
22	0xbd867aef	-0.065664165
23	0x3af1e61e	0.0018455421
24	0x3dc5502e	0.09634434
25	0xbdcc0268	-0.099613965
26	0xbd640a9c	-0.05567418
27	0xba91ac62	-0.0011113996
28	0xbdfd5ece	-0.12371598
29	0x3da158e0	0.0787828

1.weight f4 [30]
0	0x3f74d373	0.95635146
1	0x3f6dcfd3	0.9289524
2	0x3f7b6384	0.98198724
3	0x3f7be5d8	0.9839759
4	0x3f742df8	0.9538264
5	0x3f8212e2	1.0162013
6	0x3f7c67d6	0.9859594
7	0x3f6ee083	0.9331133
8	0x3f7d3134	0.98903203
9	0x3f7b1bd2	0.98089325
10	0x3f73d765	0.9525054
11	0x3f79f7b1	0.9764357
12	0x3f6f945f	0.9358577
13	0x3f77f0bf	0.96851724
14	0x3f74ef96	0.9567808
15	0x3f76c93a	0.964008
16	0x3f719342	0.9436532
17	0x3f758fa7	0.9592232
18	0x3f77a44a	0.9673506
19	0x3f77cb2b	0.96794385
20	0x3f76cfea	0.96411
21	0x3f76d925	0.96425086
22	0x3f735caa	0.9506327
23	0x3f6bc374	0.9209511
24	0x3f7ee2aa	0.9956461
25	0x3f769b24	0.96330476
26	0x3f781f03	0.9692232
27	0x3f67b88a	0.9051596
28	0x3f7d83a9	0.9902902
29	0x3f7abf64	0.9794829

1.bias f4 [30]
0	0x3d5a491e	0.053292386
1	0x3d09e72a	0.03366772
2	0x3cb5d511	0.022196325
3	0x3ce09303	0.02741385
4	0x3d8a2705	0.06745724
5	0x3d8f18e0	0.069871664
6	0x3c782b7a	0.015147084
7	0x3d12c6c8	0.035834104
8	0x3cea99a8	0.028637722
9	0x3d1d2d96	0.038373552
10	0xbc2d7119	-0.010586047
11	0x3c109b20	0.008826047
12	0x3c96eec0	0.018424392
13	0x3d6c413e	0.057679407
14	0xbb2db491	-0.002650533
15	0x3d305196	0.043046556
16	0x3d2782d5	0.040896256
17	0x3e014624	0.12624413
18	0x3d940a21	0.072284944
19	0x3b992f56	0.0046748323
20	0x3d592e04	0.0530224
21	0x3d3d14da	0.046162464
22	0xbcb34553	-0.021883642
23	0x3d61252d	0.054967094
24	0x3c3db233	0.011578131
25	0x3c5a911c	0.013340261
26	0x3caebc67	0.021330072
27	0x3db02c18	0.0860216
28	0x3c60c42d	0.013718647
29	0x3d33d445	0.043903608

1.running_mean f4 [30]
0	0x3dc57938	0.09642261
1	0x3d78e786	0.060767673
2	0x3dfd15dc	0.12357685
3	0x3baa6d70	0.0052010342
4	0x3c706312	0.014672058
5	0xbd79710b	-0.06089882
6	0xbe0e7241	-0.13910772
7	0xbd940bd8	-0.072288215
8	0x3dd1a2f2	0.102361575
9	0x3c85bdd0	0.016325861
10	0xbe15b9f6	-0.1462172
11	0xbe32dfbc	-0.1746816
12	0xbdf5b7f4	-0.11997977
13	0x3dba5d36	0.0909981
14	0x3d694ebe	0.05695986
15	0x3c77f383	0.015133741
16	0xbe031fcc	-0.12805098
17	0x3c8c04aa	0.017092068
18	0xbdcdc16b	-0.10046657
19	0x3e07d165	0.13263471
20	0x3d925c8d	0.07146559
21	0x3c2a79fd	0.010405061
22	0xbd671c6b	-0.056423586
23	0x3d099b53	0.033595394
24	0x3cee5ccb	0.029096982
25	0xbe1e1783	-0.15438657
26	0x3cab1734	0.020885088
27	0xbc5670ac	-0.0130883865
28	0xbd9419d0	-0.07231486
29	0xbccb3c19	-0.02480893

1.running_var f4 [30]
0	0x3bdd90ba	0.0067616375
1	0x3c004f31	0.007831381
2	0x3c69cdc3	0.014270249
3	0x3b9faf85	0.0048732185
4	0x3c160c1a	0.009158159
5	0x3c0e6587	0.008691198
6	0x3c199824	0.009374652
7	0x3c06024c	0.008179259
8	0x3c40b8b6	0.0117627885
9	0x3c1ebf87	0.009689218
10	0x3bf0f1f8	0.0073530637
11	0x3c929972	0.017895434
12	0x3b689b62	0.0035493006
13	0x3c52a4e2	0.012856694
14	0x3c3ff356	0.011715731
15	0x3b8853e8	0.004160393
16	0x3c10068c	0.008790623
17	0x3bb27c24	0.0054469276
18	0x3bbee909	0.00582612
19	0x3c38ba5b	0.011274899
20	0x3b8ef809	0.004363064
21	0x3c273ea0	0.010207802
22	0x3c0c905d	0.008579341
23	0x3bf304b7	0.0074163335
24	0x3c3c9d19	0.011512064
25	0x3c85d1c5	0.016335377
26	0x3b97c134	0.004631186
27	0x3c32fc09	0.010924348
28	0x3c63cb5b	0.013903464
29	0x3c0e1573	0.008672106

3.weight f4 [15, 30]
0	0x3ddab0ad	0.106782295
1	0x3d721c63	0.059109103
2	0xbcb391d3	-0.02192012
3	0x3db45207	0.08804708
4	0xbd3d8da1	-0.046277646
5	0x3e2f4a8f	0.17118286
6	0x3cc57c31	0.02410707
7	0xbe47bd75	-0.19505866
8	0xbdf9050b	-0.12159165
9	0x3dcf78ca	0.101304606
10	0xbe129c9a	-0.14317551
11	0xbd729db7	-0.05923244
12	0x3d410f53	0.047133755
13	0x3e09f7d8	0.13473451
14	0xbdabe456	-0.08393161
15	0x3d20ca8e	0.03925567
16	0xbe2c78c8	-0.1684295
17	0x3d9276ae	0.071515426
18	0xbdd18dd9	-0.102321334
19	0x3e32dc0f	0.17466758
20	0x3de4dc09	0.11174781
21	0xbde95a61	-0.113941915
22	0xbde43359	-0.11142606
23	0x3d5ce835	0.053932387
24	0xbe03329d	-0.12812276
25	0x3c90ce6a	0.01767655
26	0xbd5f0019	-0.054443453
27	0xbdd9ae4f	-0.1062895
28	0xbc4b50a9	-0.012409368
29	0x3dbfce75	0.093655504
30	0xbe18ca20	-0.14920855
31	0xbdd347ab	-0.10316404
32	0x3d5b8bf1	0.053600255
33	0x3e2755ea	0.16341367
34	0x3db1874a	0.086683825
35	0x3e1c3cb6	0.15257534
36	0x3e499623	0.19686179
37	0x3d915394	0.070960194
38	0xbb5b1ccf	-0.003343392
39	0x3d9f2cf6	0.077722475
40	0x3c9fa9d2	0.019490156
41	0xbd8093c8	-0.06278187
42	0xbe034ee1	-0.12823059
43	0x3d4b267d	0.049597252
44	0xbd53485f	-0.05158269
45	0x3dd036d6	0.10166709
46	0x3cadd0b1	0.021217676
47	0x3bec2190	0.0072061494
48	0x3d6e2b1b	0.058146577
49	0xbd08fe22	-0.033445485
50	0xbde51652	-0.11185898
51	0xbd01c783	-0.03168441
52	0xbe3f5c6f	-0.18687604
53	0xbcec581a	-0.028850604
54	0x3b911c45	0.004428419
55	0x3de4bf6c	0.11169323
56	0xbd06f3a4	-0.032947198
57	0x3e119a39	0.14218988
58	0x3b989919	0.0046569225
59	0x3d0cfd3e	0.034421198
60	0xbd4e71d7	-0.050401535
61	0x3dbc1264	0.09183195
62	0x3cec5406	0.02884866
63	0x3e1f7dc4	0.1557532
64	0x3d1599f6	0.03652378
65	0x3d29cb68	0.04145375
66	0x3db7fc20	0.08983636
67	0x3d921452	0.07132782
68	0xbe239f28	-0.15978682
69	0x3daa3571	0.083109744
70	0xbdcfd2b0	-0.10147607
71	0xbdfc0e96	-0.123074695
72	0xbce9fbe7	-0.0285625
73	0x3cc45ef4	0.023971058
74	0xbc7271e6	-0.014797663
75	0xbd2dcf46	-0.042434
76	0x3e10e62d	0.14150305
77	0x3c3c6117	0.011497757
78	0x3e071a7d	0.13193698
79	0xbd9ad4ff	-0.07560157
80	0x3db74496	0.089486286
81	0xbdb2325f	-0.08701014
82	0x3dfc8930	0.12330854
83	0xbc6668e3	-0.014063093
84	0x3e81bdeb	0.25340208
85	0x3cb2b473	0.02181456
86	0xbdf9c921	-0.121965654
87	0xbdaa16c1	-0.08305121
88	0x3dcd6158	0.100283325
89	0x3e5a22c9	0.21302332
90	0xbcc90812	-0.024539981
91	0x3e399d8a	0.18126503
92	0x3e5b03af	0.21388124
93	0xbdb5fec4	-0.08886483
94	0x3cbf44f4	0.02334831
95	0x3ccbbd8e	0.02487066
96	0x3d54f1aa	0.05198828
97	0xbcd635d3	-0.026148712
98	0x3cc2c99c	0.023777775
99	0x3c800696	0.01562814
100	0x3b466a3a	0.0030275718
101	0xbd66ed1b	-0.056378465
102	0x3d22dc84	0.03976108
103	0xbd47388a	-0.048637904
104	0xbd9f23d1	-0.07770503
105	0xbd71df4e	-0.05905085
106	0xbe27b78f	-0.16378616
107	0xbd9f053f	-0.077646725
108	0x3dde75ae	0.10862289
109	0x3d89398e	0.06700431
110	0xbdd391d7	-0.10330551
111	0xbe0778a5	-0.13229616
112	0x3dc3484e	0.095352754
113	0x3d5074c3	0.050892603
114	0x3db8b5f5	0.090190805
115	0xbe3251c4	-0.17414004
116	0x3c8234c9	0.01589431
117	0xbd8d7555	-0.06907145
118	0x3c94241f	0.01808363
119	0xbb323de5	-0.0027197537
120	0x3e0bc0ae	0.1364772
121	0x3e284612	0.1643298
122	0xbdd89903	-0.1057606
123	0x3d556b33	0.052104186
124	0x3e1a7836	0.1508492
125	0x3e18739f	0.14887856
126	0xbd3fd1ef	-0.046831068
127	0xbdbf0bde	-0.09328435
128	0x3d71390f	0.058892306
129	0x3df2605b	0.118347846
130	0xbd48c37f	-0.049014565
131	0x3d8bd574	0.06827822
132	0x3e17c00b	0.14819352
133	0xbde408ba	-0.11134477
134	0x3de36d49	0.11104829
135	0xbd670e19	-0.05640993
136	0xbd368174	-0.04455705
137	0xbd558848	-0.05213192
138	0x3e08f2c0	0.13373852
139	0x3d7a6662	0.061132796
140	0xbbda7683	-0.0066669597
141	0xbd955d9f	-0.072932474
142	0xbdb9c5b6	-0.090709135
143	0xbdbb0b2a	-0.09132989
144	0x3d71ab3b	0.05900119
145	0x3e232e10	0.1593554
146	0x3da37bf7	0.07982629
147	0x3dddd5d5	0.10831801
148	0x3d9712d9	0.07376642
149	0xbccf0176	-0.025269251
150	0xbcc20548	-0.023684159
151	0xbdd10483	-0.10205939
152	0x3bdc93a6	0.0067314683
153	0x3e44e77e	0.19228932
154	0x3d811584	0.06302932
155	0x3ccae97c	0.024769537
156	0x3e4d8e93	0.20073919
157	0xbd980dda	-0.07424517
158	0x3b0aaa65	0.0021158692
159	0x3d749ef9	0.05972192
160	0x3d10b019	0.03532419
161	0x3d53b874	0.05168958
162	0x3d93cfc7	0.07217365
163	0x3cd93560	0.026514709
164	0xbd7a35d1	-0.06108648
165	0xbdd49cd2	-0.103814736
166	0x3d8a8b90	0.06764901
167	0x3da22d23	0.079187654
168	0x3cb44cad	0.022009218
169	0x3e22af6e	0.15887234
170	0x3da0d764	0.078535825
171	0xbe117ca4	-0.14207703
172	0x3d8d8d9d	0.06911776
173	0xbd7219c4	-0.059106603
174	0xbcfad890	-0.030620843
175	0x3d50739b	0.0508915
176	0xbc7b4031	-0.015335129
177	0xbda60411	-0.08106244
178	0xbda5bad0	-0.08092272
179	0x3e016c96	0.12639078
180	0xbd9bd02f	-0.07608067
181	0xbd27c622	-0.04096044
182	0x3c1710fc	0.009220358
183	0x39ce2320	0.00039317552
184	0xbd8077f5	-0.0627288
185	0xbd7c4941	-0.061593298
186	0xbd973275	-0.07382671
187	0xbdd8ccd2	-0.105859414
188	0x3d54e177	0.051972833
189	0x3d7043d4	0.058658436
190	0xbdb8e027	-0.09027129
191	0x3d9153f7	0.07096093
192	0xbddb1764	-0.10697821
193	0xbd950749	-0.0727678
194	0xbd5b276b	-0.05350439
195	0xbd1e35b7	-0.038625445
196	0x3d524bc8	0.051341802
197	0x3dd7d466	0.10538559
198	0x3da57ad4	0.08080068
199	0x3ddef131	0.10885847
200	0x3dd30784	0.10304168
201	0xbe126ea9	-0.14300026
202	0xbd498f40	-0.04920888
203	0x3cfe99f6	0.031079274
204	0x3d4e2297	0.050325956
205	0x3cf93c3b	0.030424228
206	0xbe13cd14	-0.144337
207	0x3de1959c	0.11014864
208	0x3d2d65ee	0.042333536
209	0xbd9f8bff	-0.07790374
210	0x3e10dbb0	0.14146304
211	0xbc522033	-0.01282506
212	0xbde9f0cb	-0.11422881
213	0x3e803163	0.2503768
214	0x3d65df91	0.056121413
215	0xbe17fcbb	-0.14842503
216	0x3db58626	0.088634774
217	0xbcf09344	-0.029367097
218	0xbd76aff8	-0.06022641
219	0x3db7e31d	0.08978865
220	0x3c61593a	0.013754183
221	0x3d9600c7	0.07324367
222	0xbe19b95f	-0.1501212
223	0xbe1f6a90	-0.15567994
224	0x3dc52a16	0.09627168
225	0x3db8a0a8	0.09015018
226	0xbe4660c6	-0.19372854
227	0x3d5a06fb	0.053229313
228	0x3d8acf50	0.06777823
229	0xbc3ad2b0	-0.011402771
230	0x3c3a536c	0.011372428
231	0xbdcef1fc	-0.101047486
232	0x3e27c33e	0.16383073
233	0x3d8cb2a6	0.06870012
234	0xbdf42c77	-0.119225435
235	0x3e0ec1ea	0.1394116
236	0xbdcf71f4	-0.10129157
237	0xbdcb007d	-0.099122025
238	0x3dd6c879	0.10487456
239	0x3d195c23	0.037441384
240	0xbc99b4b7	-0.01876293
241	0x3cacb60f	0.021082906
242	0xbe1f6072	-0.15564135
243	0xbdbc7f11	-0.092039235
244	0x3c8c53dc	0.017129831
245	0xbe1fba35	-0.15598376
246	0xbddead1c	-0.10872862
247	0xbd6bec9a	-0.057598688
248	0xbe0231a7	-0.12714253
249	0x3e029fd9	0.1275629
250	0x3e120574	0.14259893
251	0x3d71b789	0.059012923
252	0x3d4ec4b0	0.050480545
253	0xbdda12f8	-0.10648149
254	0x3e1c0295	0.1523536
255	0xbe16ef9c	-0.14739841

3.bias f4 [15]
0	0x3ccca542	0.024981145
1	0x3d4c0081	0.049805168
2	0x3d8e4186	0.06946091
3	0x3da3ed33	0.080042265
4	0xbdc5e0f9	-0.09662051
5	0x3d9a7edf	0.0754373
6	0x3e4b123c	0.19831175
7	0xbba82057	-0.0051308083
8	0xbe76a95b	-0.24088041
9	0x3d0612ff	0.03273296
10	0x3d50ec00	0.051006317
11	0x3e3bbca9	0.18333687
12	0x3d9ff1e7	0.07809811
13	0x3d2eb57e	0.042653553
14	0x3ea7981f	0.32733247

5.weight f4 [30, 15]
0	0x3e186392	0.14881733
1	0xbe22c856	-0.15896735
2	0xbe3b5dfa	-0.18297568
3	0x3dc343b0	0.09534395
4	0xbe28fa28	-0.16501677
5	0x3d3e45cc	0.046453282
6	0xbe63af4f	-0.22234844
7	0x3de95305	0.11392788
8	0xbd64c259	-0.055849407
9	0x3d9d3a06	0.07677083
10	0xbd5bf750	-0.053702652
11	0xbe3ac03f	-0.18237399
12	0xbe6653cf	-0.22492908
13	0x3e544fcb	0.20733564
14	0x3d8bcbd8	0.068259895
15	0x3e598c8f	0.21245025
16	0xbdb373a6	-0.087622926
17	0xbd353583	-0.044240486
18	0xbe884352	-0.2661386
19	0xbd7cbc3f	-0.061702963
20	0x3e3998b6	0.18124661
21	0xbe4e4bf0	-0.20146155
22	0xbe6b1a5f	-0.22959279
23	0xbe0d6ca9	-0.13810982
24	0x3e054d1c	0.13017696
25	0x3dbb3df2	0.091426745
26	0x3e40ebc1	0.18839933
27	0x3d55a01c	0.052154645
28	0xbe977e99	-0.29588774
29	0x3dd8f34b	0.105932795
30	0x3de805c0	0.11329222
31	0x3e016c1e	0.126389
32	0xbe1a9a90	-0.15098023
33	0xbda494cd	-0.08036194
34	0xbd7eb834	-0.06218739
35	0xbe9e21a1	-0.30885032
36	0xbde3ca9d	-0.1112263
37	0xbdd5f3bb	-0.104468785
38	0x3df068e3	0.117387556
39	0xbde855fb	-0.113445245
40	0xbe3848f9	-0.17996587
41	0xbd58feda	-0.05297742
42	0x3e4837f5	0.19552596
43	0x3e3d3af7	0.18479525
44	0x3d9ec3e2	0.077522054
45	0xbdc7cdc0	-0.097560406
46	0x3e3d4914	0.18484908
47	0xbdcef938	-0.101061285
48	0xbe0c223f	-0.13684939
49	0xbe5f5fd0	-0.21813893
50	0x3d2948a4	0.04132904
51	0x3d5980a9	0.053101216
52	0xbe0bcc25	-0.13652094
53	0xbdc005c1	-0.093760975
54	0x3d879bbf	0.06621503
55	0xbd5cc4ee	-0.053898744
56	0xbd8ae52d	-0.06781993
57	0xbd796a57	-0.06089243
58	0x3e2c4e7a	0.16826811
59	0x3da62d14	0.08114067
60	0xbe852922	-0.26007944
61	0xbea025dd	-0.31278887
62	0x3ccb35a9	0.02480586
63	0xbe0ffee1	-0.14062072
64	0x3cdbb44a	0.026819367
65	0xbe1f00a3	-0.15527587
66	0x3e171b7a	0.14756575
67	0xbe6e59dc	-0.23276466
68	0xbd9e1f63	-0.0772083
69	0xbd7c9cea	-0.061673082
70	0x3d749a0c	0.059717223
71	0xbe0ef921	-0.13962223
72	0x3dcf3661	0.10117794
73	0xbe30d4c0	-0.17268658
74	0x3c1db9f2	0.009626852
75	0xbaab6f59	-0.0013079449
76	0x3c835468	0.016031459
77	0x3e055634	0.13021165
78	0xbe4d3bd7	-0.20042358
79	0xbdb5f41f	-0.08884453
80	0xbd9c9fae	-0.07647644
81	0xbd70ae40	-0.058759928
82	0xbe0fda22	-0.14048055
83	0x3d94d658	0.07267445
84	0x3db1038e	0.08643256
85	0x3a81bdd8	0.0009898497
86	0xbdcdebc5	-0.10054735
87	0xbe81e147	-0.25367185
88	0xbe3124bb	-0.17299168
89	0xbd7ceede	-0.06175124
90	0x3de65456	0.112465546
91	0xbe101199	-0.14069213
92	0xbdaa0733	-0.083021544
93	0x3da78f66	0.08181648
94	0xbe0a89ed	-0.13529177
95	0xbe6852f7	-0.22687899
96	0x3e100d4d	0.14067574
97	0x3d9b28fd	0.07576177
98	0x3cd709ca	0.026249785
99	0xbda8f4bd	-0.08249805
100	0xbd1c2e44	-0.03813006
101	0x3d821776	0.06352131
102	0xbd87418e	-0.066043004
103	0x3c200fc4	0.009769384
104	0x3e01f361	0.12690498
105	0xbe0ce573	-0.13759403
106	0x3dbe0204	0.09277728
107	0xbdcc3624	-0.09971264
108	0x3e5e7949	0.21725954
109	0xbdef170f	-0.1167432
110	0xbd2201bf	-0.039552446
111	0x3e03a5f1	0.1285627
112	0xbcd9f08d	-0.026603961
113	0x3e3ba865	0.18325956
114	0x3d15c7c0	0.03656745
115	0x3e06b5cb	0.13155286
116	0xbdb29c35	-0.087212004
117	0xbd79fb4f	-0.061030682
118	0x3dca1fde	0.098693594
119	0x3db4517b	0.08804604
120	0xbc3d71ae	-0.011562748
121	0xbd0151bb	-0.031572085
122	0xbdf0ccda	-0.11757822
123	0xbdef8524	-0.116953164
124	0xbe458550	-0.19289136
125	0x3dbde289	0.09271724
126	0x3e4d257f	0.20033835
127	0xbe3b5ba5	-0.18296678
128	0xbe108852	-0.14114502
129	0x3e148f54	0.145078
130	0x3dcc76cd	0.09983597
131	0x3db06754	0.08613458
132	0xbe8bb3dc	-0.2728566
133	0x3e2150ea	0.15753523
134	0x3dfa6753	0.12226739
135	0xbe76d0b1	-0.24103047
136	0x3e14e115	0.14538987
137	0xbe618f34	-0.22027284
138	0xbd1c8521	-0.0382129
139	0x3e08b385	0.13349731
140	0xbddbf790	-0.10740578
141	0xbdb1325b	-0.08652183
142	0xbc740460	-0.014893621
143	0xbe1aada2	-0.15105298
144	0x3e821eab	0.25414023
145	0xbd0973b0	-0.033557594
146	0xbe04c042	-0.12963966
147	0xbdf8ca70	-0.12147987
148	0xbd9c26c9	-0.07624585
149	0xbce6b014	-0.028160132
150	0x3e853155	0.260142
151	0x3dde442e	0.10852848
152	0x3e77b59e	0.24190375
153	0xbdfadec9	-0.12249524
154	0xbe451779	-0.19247235
155	0xbe086d14	-0.1332286
156	0xbe29568f	-0.16536926
157	0x3c84bf6e	0.016204562
158	0xbd479742	-0.048728235
159	0x3e332b59	0.17497005
160	0xbe8bb5e6	-0.27287215
161	0xbe42c6ef	-0.190212
162	0x3e874ca6	0.26425666
163	0x3d903e6a	0.070431545
164	0xbe8ada83	-0.27119836
165	0x3e0c1d63	0.13683085
166	0x3d130de0	0.035901904
167	0x3e449a13	0.191994
168	0xbe7c0a38	-0.24613273
169	0xbe933759	-0.28753164
170	0xbe88834c	-0.26662672
171	0xbd9c32cb	-0.076268755
172	0x3c986055	0.018600622
173	0x3e140908	0.1445657
174	0x3db7739e	0.08957599
175	0x3e2b2b4e	0.16715738
176	0x3e0243b4	0.12721139
177	0x3ddaf439	0.10691113
178	0xbdbd2337	-0.09235232
179	0x3e510ea4	0.20415741
180	0xbe0e334f	-0.1388676
181	0x3dedd710	0.116132855
182	0xbd62ff6f	-0.05541938
183	0xbd2e3219	-0.042528246
184	0x3d88b56f	0.06675231
185	0x3e53f105	0.2069741
186	0x3e0af0f8	0.13568485
187	0xbd176059	-0.03695712
188	0x3db66b8f	0.08907234
189	0x3e2345ae	0.1594455
190	0xbe3b4c22	-0.18290761
191	0x3e34ad9a	0.17644349
192	0xbdddbff4	-0.10827628
193	0x3e18809b	0.14892809
194	0xbeb48253	-0.3525568
195	0xbc92eff7	-0.01793669
196	0xbbb64a51	-0.0055630584
197	0x3db25825	0.087082185
198	0xbe880b51	-0.26571134
199	0xbc9f27d4	-0.019428171
200	0x3da6317e	0.08114909
201	0x3e77ca1c	0.24198192
202	0x3e0b84c4	0.13624865
203	0x3d195814	0.037437513
204	0x3c80b60b	0.015711805
205	0x3c832071	0.01600668
206	0xbddb9b44	-0.10722974
207	0xbe4837c3	-0.19552521
208	0xbe42b974	-0.19016057
209	0xbe08b7f9	-0.1335143
210	0x3e7e103e	0.24810883
211	0x3e49e41e	0.19715926
212	0x3d931c70	0.071831584
213	0x3e6e94c4	0.23298937
214	0x3dc81d66	0.09771232
215	0xbe461bda	-0.19346562
216	0x3d9017b7	0.07035773
217	0xbe3da7bc	-0.18521017
218	0xbd05b916	-0.032647215
219	0xbd5e6125	-0.054291863
220	0xbd5ccf1f	-0.053908464
221	0xbd2dd826	-0.042442463
222	0xbe814313	-0.25246486
223	0xbdc0333b	-0.093847714
224	0xbc751406	-0.014958387
225	0xbe1bd3ad	-0.15217467
226	0xbd2982c6	-0.04138448
227	0xbda5b37b	-0.08090874
228	0x3d2ab188	0.041673213
229	0xbd506412	-0.050876684
230	0xbe5c1147	-0.21490966
231	0x3e1f7c4e	0.15574762
232	0xbd4bcffd	-0.0497589
233	0x3e26ed8b	0.16301553
234	0x3e15456d	0.14577265
235	0xbe585a59	-0.21128215
236	0x3c97e66a	0.018542487
237	0xbbb0e4e8	-0.0053983815
238	0x3e1799cf	0.14804767
239	0xbe1c019b	-0.15234987
240	0x3e40286d	0.18765421
241	0x3de169c4	0.11006501
242	0xbe1d5154	-0.15363055
243	0x3e8a9ca7	0.2707264
244	0x3b9046ab	0.0044029555
245	0xbe17ecb4	-0.14836389
246	0x3e0b7b05	0.13621147
247	0x3e63cf9c	0.22247165
248	0x3d9c532a	0.0763305
249	0xbd2e4242	-0.042543657
250	0xbdca9d86	-0.098933265
251	0x3e6dd69e	0.23226401
252	0x3e5cdecd	0.21569367
253	0xbd354c1c	-0.044262037
254	0x3e6dc4c6	0.23219594
255	0xbe3a6fbc	-0.18206686

5.bias f4 [30]
0	0xbe37f363	-0.17963938
1	0xbd2ab674	-0.041677907
2	0x3e1f6e9a	0.15569535
3	0xbe244752	-0.16042832
4	0x3e6f3a60	0.23362112
5	0xbe5e175d	-0.216886
6	0xbe5b1909	-0.21396269
7	0x3da56d00	0.08077431
8	0xbba7d4c5	-0.0051217997
9	0x3e3defde	0.18548533
10	0xbddb9ca6	-0.10723238
11	0xbe0b6d8d	-0.13616009
12	0xbe0fd50a	-0.14046112
13	0x3e700f66	0.23443374
14	0xbe42529c	-0.18976825
15	0x3da41ff8	0.0801391
16	0x3e352138	0.17688453
17	0xbdf90e16	-0.1216089
18	0xbd281284	-0.041033283
19	0xbdaddbf4	-0.08489218
20	0xbe403e0a	-0.18773666
21	0xb9b39887	-0.00034255182
22	0x3e67e776	0.22646889
23	0xbe1e0bce	-0.1543419
24	0x3ca09ce0	0.019606054
25	0xbe11f1c8	-0.14252388
26	0x3e163690	0.14669251
27	0x3e63c542	0.22243217
28	0xbddaf60a	-0.106914595
29	0x3e13d260	0.1443572

6.weight f4 [30]
0	0x3f77031d	0.96489125
1	0x3f4afb73	0.7928993
2	0x3f6d2aa6	0.926432
3	0x3f643005	0.8913577
4	0x3f78156d	0.96907693
5	0x3f6315fa	0.8870541
6	0x3f692d7f	0.91085047
7	0x3f71063f	0.94150156
8	0x3f655e49	0.8959699
9	0x3f79b298	0.9753814
10	0x3f59ef45	0.8513072
11	0x3f4e3cc7	0.8056149
12	0x3f56bead	0.838847
13	0x3f4e02c6	0.8047298
14	0x3f7916aa	0.9730021
15	0x3f53ebd7	0.8278174
16	0x3f3e3a58	0.74307775
17	0x3f4e272d	0.8052853
18	0x3f640e4c	0.89084315
19	0x3f3d629f	0.7397861
20	0x3f56360d	0.83676225
21	0x3f6ed5ab	0.9329478
22	0x3f5badba	0.8581196
23	0x3f62bc3e	0.88568485
24	0x3f4d2d67	0.80147403
25	0x3f4ffa7e	0.81241596
26	0x3f3b66c1	0.73203665
27	0x3f64368a	0.8914572
28	0x3f68950d	0.90852433
29	0x3f756d8a	0.9587027

6.bias f4 [30]
0	0x3bf9e7cf	0.0076265107
1	0x3dc72c78	0.097252786
2	0x3da5675f	0.08076357
3	0xbd9d7735	-0.076887526
4	0x3d103f8f	0.035216864
5	0xbc21df02	-0.009879829
6	0x3dcccff4	0.100006014
7	0xbbdaa2e7	-0.0066722515
8	0xbc4c1544	-0.012456242
9	0x3db97ae0	0.0905664
10	0x3c8dfaf0	0.01733157
11	0x3d9d6f04	0.0768719
12	0x3db76610	0.08955014
13	0xbd62816b	-0.055299204
14	0x3de12d46	0.10994963
15	0x3ccc72f5	0.02495716
16	0xbd048a7c	-0.03235863
17	0x3dbcd512	0.092203274
18	0x3dbdbf5e	0.09265016
19	0xbd4a15c1	-0.049337152
20	0x3e0f00c3	0.13965134
21	0x3d099803	0.033592235
22	0xbb156ba1	-0.0022799748
23	0x3d33ce4d	0.043897916
24	0xbdcc2ed4	-0.09969869
25	0x3bf905ee	0.007599584
26	0x3c90920e	0.01764777
27	0xbcb9c82e	-0.02267846
28	0x3ce8470d	0.028354192
29	0x3e0846a6	0.133082

6.running_mean f4 [30]
0	0xbe91208e	-0.2834515
1	0x3cb36b44	0.021901734
2	0x3dc13d58	0.094355285
3	0xbe3156d2	-0.17318276
4	0x3e109c6e	0.14122173
5	0xbeb5c314	-0.35500395
6	0xbe6e1790	-0.23251176
7	0x3d8cc9c6	0.06874423
8	0xbb89089e	-0.0041819355
9	0x3dd4059e	0.10352634
10	0xbe52a605	-0.20571144
11	0xbd7be1af	-0.061494526
12	0xbe75d765	-0.24007948
13	0x3e1b2c33	0.1515358
14	0xbe70ccf4	-0.23515683
15	0xbd780e6c	-0.06056063
16	0x3ec01463	0.37515554
17	0xbe4b7f87	-0.19872867
18	0xbe5bdfa2	-0.21472028
19	0xbe3a6882	-0.18203929
20	0xbeaad155	-0.33362833
21	0xbde4a777	-0.11164754
22	0x3e1ca921	0.15298893
23	0xbe34aeab	-0.17644756
24	0xbdbb045a	-0.09131689
25	0xbd97ec5d	-0.074181296
26	0x3e9c018b	0.30469927
27	0x3e256e38	0.16155326
28	0xbdad219b	-0.08453675
29	0x3cb0551a	0.021524955

6.running_var f4 [30]
0	0x3ccc2b91	0.024923118
1	0x3d00101b	0.03126536
2	0x3d0493d9	0.03236756
3	0x3d02a7fc	0.031898484
4	0x3d7689c6	0.060189985
5	0x3d000738	0.031256884
6	0x3cb8b600	0.022547722
7	0x3c8d52cf	0.0172514
8	0x3d7a2c73	0.061077546
9	0x3d34bd30	0.044125736
10	0x3d89b83a	0.067245916
11	0x3cdc3ad9	0.02688353
12	0x3d60c826	0.054878376
13	0x3c93fe75	0.01806567
14	0x3d09266b	0.033483904
15	0x3d201cfe	0.03909015
16	0x3d1ab7ef	0.03777307
17	0x3d0e911d	0.03480636
18	0x3d216eb0	0.0394122
19	0x3c8bdfc3	0.017074471
20	0x3da95e9f	0.08270001
21	0x3d889c2e	0.06670414
22	0x3d33fa81	0.04394007
23	0x3d6b6ab4	0.057474807
24	0x3dc99af7	0.0984401
25	0x3cf05a79	0.029340016
26	0x3d10d119	0.03535566
27	0x3cd3eecc	0.025870703
28	0x3d15b209	0.03654674
29	0x3d543d2d	0.051816154

8.weight f4 [60, 30]
0	0x3db180fb	0.08667179
1	0xbd2bf3ca	-0.041980542
2	0xbc3413b5	-0.010991027
3	0x3d4baf8e	0.04972797
4	0x3d3f762a	0.04674355
5	0xbe4221fa	-0.18958274
6	0xbe4f5ea3	-0.20250945
7	0x3c1a1458	0.009404264
8	0xbc8b44a2	-0.0170005
9	0xbccccbf3	-0.024999594
10	0x3ca1860a	0.019717235
11	0xbd3911da	-0.04518304
12	0x3d48150a	0.04884819
13	0xbd41792b	-0.047234695
14	0xbb9653e1	-0.004587636
15	0xbda79d5f	-0.08184313
16	0x3da75054	0.08169618
17	0xbdabf8b7	-0.08397048
18	0xbd5e60a4	-0.054291382
19	0xbd14daa0	-0.03634131
20	0xbe2fe198	-0.17175901
21	0xbe5655e6	-0.20931205
22	0x3d097323	0.03355707
23	0xbbc030f0	-0.005865209
24	0x3c1a7830	0.009428069
25	0xbd7c4703	-0.06159116
26	0x3d6c9db1	0.057767574
27	0x3d785de0	0.0606364
28	0xbd039d4d	-0.032132436
29	0x3c90a654	0.017657436
30	0xbd293457	-0.04130968
31	0xbeaf97d0	-0.3429551
32	0x3deeb2a0	0.11655164
33	0xbd0d653b	-0.03452037
34	0xbe3e32d2	-0.18574074
35	0xbe34d14f	-0.1765797
36	0xbaa50b7a	-0.0012591921
37	0xbdabcf19	-0.0838911
38	0x3e0f0cbd	0.13969703
39	0x3de42372	0.11139573
40	0x3e4f053f	0.20216845
41	0xbe5d299e	-0.21597907
42	0x3e2af516	0.16695055
43	0xbe497fc4	-0.19677645
44	0xbd066c5f	-0.032818194
45	0x3e84b642	0.25920302
46	0x3cf4f5d6	0.02990238
47	0x3e2b10cd	0.16705628
48	0x3dd0a444	0.10187581
49	0xbd910fc6	-0.07083087
50	0x3e6afce7	0.22948037
51	0x3e044c66	0.12919769
52	0x3e494723	0.19656043
53	0x3e19eb1a	0.1503109
54	0xbe401e76	-0.1876162
55	0xbcd6c49e	-0.026216801
56	0xbe40af95	-0.18816979
57	0xbd87751c	-0.06614134
58	0x3de94029	0.11389191
59	0xbde54c13	-0.11196151
60	0xbd379020	-0.044815183
61	0x3d9ec15c	0.07751724
62	0xbbfd2c9c	-0.007726265
63	0xbd5afd48	-0.053464204
64	0x3e291273	0.16510944
65	0x3d839864	0.064255506
66	0x3d4223e2	0.0473975
67	0x3cc2c921	0.023777546
68	0x3e1c832b	0.15284412
69	0x3db1da31	0.08684195
70	0xbe126115	-0.14294846
71	0x3d574b8d	0.052562285
72	0x3da743c1	0.0816722
73	0x3d5ba036	0.053619586
74	0xbe313d60	-0.17308569
75	0x3df78692	0.12086214
76	0x3c920e9f	0.017829238
77	0x3dbcda57	0.092213325
78	0xbd313e97	-0.04327258
79	0x3d4ec257	0.050478306
80	0x3e195131	0.14972378
81	0xbe5bdfd5	-0.21472104
82	0xbb49c6e6	-0.0030788719
83	0xbdecdcc9	-0.11565549
84	0x3c72df14	0.014823694
85	0xbdeca678	-0.11555189
86	0xbd60ed18	-0.05491361
87	0x3db76cdd	0.08956311
88	0xbd1339b0	-0.035943687
89	0x3d9a97e1	0.075485
90	0x3da89606	0.0823174
91	0x3c061fa0	0.008186251
92	0x3c804d22	0.01566178
93	0xbdb36f63	-0.0876148
94	0x3cdcec7c	0.026968233
95	0xbd5bea13	-0.053690027
96	0xbe33f256	-0.17572913
97	0x3d4fbbca	0.0507162
98	0x3c7b3da2	0.015334519
99	0xbe1135e7	-0.14180718
100	0xbe46df3f	-0.19421099
101	0x3e0b4e63	0.13604121
102	0xbd17adda	-0.037031032
103	0xbd489cbf	-0.04897761
104	0xbd90e36f	-0.070746295
105	0xbe01875f	-0.12649296
106	0x3d0ed20d	0.03486829
107	0x3d83ef33	0.06442108
108	0xbe3a2be7	-0.1818081
109	0x3d9707ac	0.0737451
110	0xbdc2121e	-0.09476112
111	0xbd79322f	-0.060838874
112	0x3e25b3d5	0.16181882
113	0xbd90b975	-0.07066623
114	0x3d0cdd69	0.03439084
115	0xbe529317	-0.20563923
116	0x3e291047	0.16510116
117	0x3d829acd	0.06377182
118	0xbd1c8aa8	-0.03821817
119	0xbd7118bd	-0.058861483
120	0x3e8ec28b	0.278828
121	0x3d7e3afb	0.062067967
122	0x3d9f4b2f	0.07778012
123	0x3e2ebc07	0.17063914
124	0x3e5af34d	0.21381874
125	0x3d9a210c	0.075258344
126	0xbce23c97	-0.027616782
127	0x3d4b8f94	0.049697474
128	0xbd24f3dd	-0.04027163
129	0xbe12e132	-0.14343718
130	0x3eb978d8	0.3622501
131	0x3bc240c6	0.0059281318
132	0xbdb3fd5e	-0.0878856
133	0x3e206240	0.1566248
134	0x3daea317	0.08527201
135	0xbe2fc6b2	-0.1716564
136	0xbee3762e	-0.444261
137	0x3e394aab	0.1809489
138	0x3ee2197d	0.4416007
139	0x3e29e28d	0.16590329
140	0xbd983ba2	-0.07433249
141	0xbe62551b	-0.22102778
142	0xbd914b35	-0.07094423
143	0xbe025c0b	-0.12730424
144	0x3d1d5035	0.03840657
145	0x3baec9f1	0.005334132
146	0x380e6cce	3.395677e-05
147	0xbd841da1	-0.06450964
148	0xbd67fcf4	-0.05663772
149	0xbee700c2	-0.45117766
150	0xbd438971	-0.047738496
151	0x3e3cf2f7	0.18452059
152	0xbcbcf0f9	-0.023064123
153	0xbcd20599	-0.025637435
154	0xbd88c8a8	-0.06678897
155	0xbc9362df	-0.017991481
156	0x3cb57fc9	0.02215566
157	0xbe889a6a	-0.2668031
158	0x3d4f415d	0.050599445
159	0xbdce5e69	-0.10076601
160	0xbdd5bde3	-0.10436609
161	0x3e1062f2	0.14100245
162	0x3d805d55	0.06267802
163	0xbcda2daf	-0.026633112
164	0xbe19601c	-0.14978069
165	0xbe332013	-0.17492704
166	0x3db5f885	0.08885292
167	0x3e8f0745	0.27935234
168	0xbde53b76	-0.11192982
169	0x3cee7684	0.029109247
170	0x3e09b2c3	0.13447098
171	0xbda28912	-0.079363
172	0xbe4122d8	-0.18860948
173	0xbd3a303a	-0.04545615
174	0x3c13f690	0.009030953
175	0xbe0a1805	-0.13485725
176	0xbddda920	-0.10823274
177	0x3cd0e3cc	0.025499247
178	0xbeafc37b	-0.34328827
179	0x3ca55626	0.02018268
180	0xbc52dee2	-0.012870522
181	0xbd5e5a4c	-0.054285333
182	0xbceaabed	-0.028646434
183	0x3cbed685	0.02329565
184	0x3d8584ae	0.06519447
185	0x3e0e2a66	0.13883361
186	0xbc68eb89	-0.014216312
187	0xbd3848e1	-0.044991378
188	0x3c6eebd9	0.014582598
189	0x3e1674a2	0.1469293
190	0x3c61c9e9	0.013781049
191	0xbbcd6877	-0.0062685567
192	0xbcfc7093	-0.030815398
193	0xbd1cfbf6	-0.038326226
194	0xbe2694c3	-0.16267686
195	0x3d7b5cee	0.06136792
196	0xbccd0ddd	-0.025031025
197	0xbdcac55d	-0.09900925
198	0xbd739386	-0.05946686
199	0xbd8a56d2	-0.06754841
200	0xbda4468c	-0.08021268
201	0xbda6b144	-0.081392795
202	0x3e0b55d2	0.13606957
203	0xbd45dcfe	-0.048306458
204	0xbdc84da2	-0.09780432
205	0x3d95ad89	0.0730849
206	0xbce2845a	-0.027651
207	0x3d8c3c4a	0.06847437
208	0x3e2e89a7	0.17044698
209	0x3d5cb526	0.053883694
210	0xbec7261e	-0.3889627
211	0xbda64ba4	-0.08119896
212	0xbd84d9a5	-0.06486825
213	0xbd41716a	-0.0472273
214	0xbcb2b85e	-0.021816429
215	0xbdc6986e	-0.096970424
216	0xbdc2483d	-0.094864346
217	0xbe1e8adb	-0.15482657
218	0x3e315619	0.17318
219	0x3ea309be	0.3184337
220	0xbe16b980	-0.147192
221	0xbdc793cd	-0.09744988
222	0x3eb3c111	0.35108235
223	0x3e37046f	0.17872785
224	0x3cd0287e	0.025409933
225	0x3d99ea6c	0.075154155
226	0xbe02d44c	-0.12776297
227	0xbd9cfb5b	-0.0766513
228	0xbd29e2ac	-0.041475937
229	0xbdc2f859	-0.09520025
230	0x3d1bb1b6	0.038011275
231	0x3e436f8d	0.19085522
232	0xbde4f891	-0.11180223
233	0x3d5053f6	0.05086132
234	0xbd2f9093	-0.042862486
235	0xbd2d0c50	-0.04224807
236	0xbbef2ef0	-0.0072992966
237	0xbd3ba32d	-0.045809913
238	0xbe9138a5	-0.2836353
239	0x3e75ef5d	0.24017091
240	0xbccb101b	-0.024787953
241	0xbb9e5dc7	-0.0048329565
242	0x3d70442f	0.058658775
243	0xbd6f591b	-0.058434587
244	0xbe229f7b	-0.1588115
245	0xbc83c7a8	-0.016086414
246	0x3b9685a7	0.0045935693
247	0x3c94da3a	0.018170465
248	0x3d2bb47f	0.04192018
249	0xbda1ac3e	-0.07894181
250	0x3da026c3	0.07819893
251	0xbde38179	-0.11108679
252	0x3bb17de6	0.0054166196
253	0xbd811f5a	-0.06304808
254	0x3e54c970	0.20779967
255	0x3c92db40	0.017926812

8.bias f4 [60]
0	0xbf10ede6	-0.56613004
1	0xbe1934e7	-0.14961587
2	0x3e8fccb6	0.2808587
3	0xbef3c57d	-0.4761161
4	0xbe367722	-0.17818883
5	0x3e974a35	0.29548803
6	0x3def7c38	0.11693615
7	0xbd1f8726	-0.038947247
8	0x3e5d2f1b	0.216
9	0x3c2d579d	0.010579971
10	0x3dba4f61	0.090971716
11	0x3b72b2c1	0.0037032815
12	0xbe488d24	-0.19585091
13	0x3d2efdca	0.0427225
14	0xbcdcf44b	-0.026971957
15	0xbd8e842d	-0.06958804
16	0x3afc12b7	0.0019231652
17	0x3cf30691	0.029666217
18	0xbd527bdd	-0.051387656
19	0x3ce0b616	0.027430575
20	0xbd6b78a3	-0.057488095
21	0xbb841fd1	-0.004032113
22	0x3c836ff2	0.01604459
23	0xbde46279	-0.11151595
24	0x3da598c8	0.08085781
25	0xbc8091ac	-0.015694462
26	0xbbe0f44d	-0.0068650604
27	0xbd1e4012	-0.03863532
28	0x3ba4e5a1	0.0050322567
29	0xbd1964fe	-0.03744983
30	0x3d2730c2	0.040817983
31	0x3d4f9fd1	0.050689522
32	0xbc59585b	-0.0132656945
33	0xbb3117c5	-0.0027022224
34	0xbd82fe8b	-0.063962065
35	0xbd49d0b9	-0.04927132
36	0xbce19588	-0.027537122
37	0x3cd146f8	0.025546536
38	0xbd9adf56	-0.07562129
39	0x3b557378	0.0032570045
40	0xbcd9f450	-0.026605755
41	0xbcba7bcf	-0.022764115
42	0x3b6262a7	0.0034543665
43	0xbbf00d83	-0.0073258295
44	0xbc6c0604	-0.014405731
45	0xbd36afa5	-0.0446011
46	0xbd3e4492	-0.046452112
47	0x3c1b505e	0.00947961
48	0xbd08a0ed	-0.033356596
49	0xbcd85839	-0.026409255
50	0x3cf4e030	0.029892057
51	0x3b979952	0.0046264315
52	0xbba4261a	-0.005009425
53	0xbb69476d	-0.0035595552
54	0x3cbd6ba1	0.02312261
55	0xbd3a0cd5	-0.045422394
56	0x3d32327b	0.043505173
57	0x3b60c82b	0.0034298997
58	0x3d0a3b38	0.03374788
59	0xbc6daade	-0.01450607
