offline_prototype_3_ds_as_sampling/trained_models/ae_model_rootkit_sanitizer.pth (torch, 7167 bytes, 16 tensors)

0.weight f4 [8, 15]
00000000: cda8 d5bc df09 de3b 6cfa 603d 1984 a73e
00000010: e13c 78be afca 3d3e acc7 9abd 4d8a c2bd
00000020: 293b ee3c 45e6 28bd 7d23 71bd e2d2 9f3d
00000030: 3f7e 39be 8395 813c e8c3 243e 3a52 e83d
00000040: 8224 a1bc b3b7 a6bd a99c 8abe 5b19 6a3e
00000050: b3f7 1abe e038 103e e710 84bd fd5b 48bd
00000060: 2533 253e d96c af3c b93f 11be d0ad c53d
00000070: acf5 e93d a923 22be 2fc1 613e 5489 61bd
00000080: 28eb 6abe 33a4 9e3c 0d9a ca3e 31a2 993d
00000090: 000a 9cbe d1bc 573d 8f12 b83d 7a33 12bd
000000a0: 2272 a63d 72e1 a93d bd93 b53c 929d a5bd
000000b0: 6293 85bd 192c f23d 862c 2cbd bdb1 5cbe
000000c0: 8c22 8dbb 6f8a 96be c76b 86be bae2 cd3d
000000d0: dd3b 4ebe 93de 463c 2957 98bd 8fe3 a9bc
000000e0: 6e1a ae3c a3a8 373d a326 0f3c 419c c8bd
000000f0: 941c 313e 0712 fdbd fad7 083d ea43 1bbe
00000100: 1e7e e13d 5ced e73e f5a9 d53c fcf1 203d
00000110: 5da3 e4bd 8867 403d 19a3 13be 3c64 cb3d
00000120: 8659 a83d 4ab1 0dbd 34d8 033d 4785 1ebe
00000130: 7632 d43c 5126 95bd 6c4f 26bd 613e d23b
00000140: 97d8 bdbe f897 1bbd 7547 213d 0f6b 37bc
00000150: b3e5 7cbd cfea 34bd 37f8 a1bd be4c 843d
00000160: 5e0d 5f3e 0337 e0bc 09e3 1a3c 474f 033f
00000170: 51ec 043e 7502 233d 16a1 bbbc f38c 69be
00000180: c3e0 5dbe 313d 5fbe 06b4 fe3d 0d8b 27be
00000190: 9f78 c43d a824 0f3e 3ec5 053e 4d76 623d
000001a0: 615b 5e3c 9e70 87be c9db f2be ef4b 58be
000001b0: 4784 ca3a fa00 12bd 831d 113e 1f59 073e
000001c0: 5709 093d fc44 483d cba2 733e 2078 a9bd
000001d0: febe 26be c5f9 87bd 797f 81bd fa74 02be
-0.026081467 0.006776079 0.05492632 0.3271797 -0.24241973 0.18534349 -0.07557616 -0.09499035
0.029080944 -0.041235227 -0.058871735 0.078038946 -0.18114565 0.015818363 0.16090357 0.113438085
-0.019670729 -0.081405066 -0.27072647 0.22861235 -0.15133552 0.14084196 -0.06448536 -0.04891585
0.16132791 0.021414207 -0.14184465 0.09652293 0.11423811 -0.15833916 0.2204635 -0.055062607
-0.22941267 0.019365406 0.39570656 0.07501639 -0.3047638 0.052670304 0.08987915 -0.035693623
0.08127238 0.082949534 0.022165174 -0.08086695 -0.06522252 0.11824817 -0.04203465 -0.21552177
-0.004307097 -0.2940249 -0.26254103 0.1005301 -0.20140024 0.012138027 -0.074384995 -0.020738391
0.021252837 0.04483856 0.008737239 -0.09795428 0.17296058 -0.12356954 0.033409096 -0.15162626
0.11010383 0.45298278 0.026082018 0.039293274 -0.111639716 0.046973735 -0.14417686 0.099312276
0.082202 -0.034592904 0.03218861 -0.15480529 0.025902968 -0.07282699 -0.040603086 0.0064161276
-0.37079307 -0.037986726 0.039374787 -0.011194958 -0.061742496 -0.044169243 -0.07908671 0.0645995
0.21782443 -0.027369982 0.009453543 0.5129284 0.12980773 0.039797265 -0.02290396 -0.22807674
-0.21667771 -0.21800686 0.124366805 -0.16361637 0.09593319 0.13978827 0.13063523 0.0552886
0.013571591 -0.26453108 -0.47433308 -0.21122716 0.0015450799 -0.035645463 0.14171414 0.13217591
0.033456173 0.048893914 0.2379257 -0.08274865 -0.16283795 -0.06639437 -0.063231416 -0.12739936

0.bias f4 [8]
00000000: aebe 483e 4034 c03d 4176 773d 18da c2bc
00000010: e2cc 13be 50e2 2fbe dcd2 d43d f8e5 a4bd
0.19603989 0.09384966 0.06041551 -0.023785636 -0.14433625 -0.17176175 0.10391781 -0.080516756

1.weight f4 [8]
00000000: 41aa 723f 7689 773f 7fc2 873f 3d2e 593f
00000010: fae5 683f 5fc1 7c3f f870 453f a434 783f
0.94791037 0.96694124 1.060623 0.8483618 0.90975916 0.9873256 0.771255 0.96955323

1.bias f4 [8]
00000000: a71d f23d 282f 8abc 5f89 393e ac2f c33d
00000010: 7cc9 0c3e fdc4 843e 4292 b6bd c64d 8a3d
0.11822062 -0.016868189 0.18118809 0.09530577 0.13748735 0.2593154 -0.08914615 0.06753115

1.running_mean f4 [8]
00000000: c777 143e 788e 7f3e 0958 bc3e 3d28 863e
00000010: 8b32 563c 5da1 8dbe 20b7 01bd 035f 91bd
0.14498816 0.24956691 0.36785915 0.26202574 0.013073574 -0.27662173 -0.031668782 -0.070982

1.running_var f4 [8]
00000000: 166d 583c 4071 543c e5ff 9e3c 8b5b 4d3c
00000010: 1126 403c 4661 173c 8961 953d 4102 ac3d
0.013209602 0.012966454 0.01940913 0.012534033 0.011727826 0.0092395 0.07293994 0.083988674

3.weight f4 [4, 8]
00000000: de78 06be 7f3f a33d b90a 5c3e a2f1 a73d
00000010: 4e01 0f3e 792a 2abd 5676 c4bd 447b 833e
00000020: 1689 503b a535 5cbc 5135 da3e 6291 d83d
00000030: 1913 993d 0258 c83e b165 413d f167 5b3d
00000040: 4227 3a3e f917 78be 88f5 6d3d f5c9 48be
00000050: ff8e 063e 9847 5f3e 8e30 68be 901b 3a3e
00000060: ff3e a23c f0d6 19bc f253 243e df34 75be
00000070: 23c4 7f3e 34ba 7dbe 87a2 0c3c 6e3b debd
-0.13132045 0.07971095 0.21488465 0.08200385 0.13965341 -0.04154441 -0.09592883 0.25679982
0.003181999 -0.013440524 0.42618802 0.105746046 0.07474346 0.39129645 0.04721612 0.053565923
0.18179038 -0.24227895 0.058095485 -0.1960829 0.13140486 0.21804655 -0.22674772 0.18174577
0.01980543 -0.009389624 0.16047648 -0.2394595 0.24977164 -0.24778062 0.008583671 -0.10851179

3.bias f4 [4]
00000000: dbd6 a83e 6b06 643e 6e78 943e 3890 fd3d
0.32976422 0.22268073 0.2899813 0.12381023

5.weight f4 [8, 4]
00000000: b980 bbbe 4a07 e63d 9951 66be 7144 953e
00000010: 963a 883e a1a8 ccbe 3413 8abd 8f4d ee3e
00000020: 5a66 37bd e12f 01bf 89c1 80bd 14b3 d6be
00000030: 401e 063d 9481 4b3c f6ab b0bd 892a 2abe
00000040: faf9 12be e8e5 f8be 88b0 7d3e 9e6f c8be
00000050: 56f6 8f3e 1f95 f93e 572f babe c339 d7bc
00000060: 769c 09bf 9872 6b3d ece5 a93e 4ec4 7abe
00000070: 41be d6bc 84c4 143e 0c24 dd3e da41 b23e
-0.36621645 0.11231859 -0.22492065 0.2915378 0.26607198 -0.39972404 -0.06741944 0.46543548
-0.044775344 -0.5046368 -0.06286914 -0.419335 0.032743692 0.012421031 -0.08626549 -0.16617788
-0.14353171 -0.48612905 0.24774373 -0.39147657 0.28117627 0.48746583 -0.36364242 -0.02627266
-0.53754365 0.057482332 0.3318323 -0.24488947 -0.026213767 0.1452809 0.43191564 0.34815866

5.bias f4 [8]
00000000: 069c f63e 0c77 62be b0cb a43e e0a6 6bbe
00000010: 709f f9be 7059 24be 348b 7d3e e0ac a43c
0.4816591 -0.22115725 0.3218665 -0.23012877 -0.48754454 -0.16049743 0.24760133 0.020101964

6.weight f4 [8]
00000000: 18cc 883f 4223 513f a97f 653f 6815 8b3f
00000010: d6fe 5c3f da25 3d3f 1233 383f 02c5 7d3f
1.0687284 0.81694424 0.8964792 1.0865908 0.8632635 0.7388588 0.7195293 0.99128735

6.bias f4 [8]
00000000: 56ba b23e c68d a83e eaa7 283d 6a91 f03c
00000010: fffe 16bd 911c b03e 1c8f f7bd d33c a0bc
0.34907788 0.32920665 0.04117576 0.029366214 -0.036864277 0.34396794 -0.12087843 -0.019560253

6.running_mean f4 [8]
00000000: 2c81 b73e 8384 9cbe 7d66 4fbb 4b50 82be
00000010: 30c4 3dbf 92dc 963d bcf4 243e c9d9 7b3e
0.35840738 -0.30569848 -0.003164678 -0.25451884 -0.74127483 0.07366289 0.16108984 0.24594797

6.running_var f4 [8]
00000000: d3be e83b 2789 e73c ca2a 873d 532e 303b
00000010: 25cf 663d 510e 433d 99be af3c a58a 1e3d
0.007102826 0.028263642 0.06599958 0.002688308 0.056349892 0.047621075 0.021453189 0.03870644

8.weight f4 [15, 8]
00000000: 846a e53d 9c4e ec3d c084 b13c 72f5 943d
00000010: be89 d0bd a451 483d 0b77 193d 6f18 5abd
00000020: 2a50 683f 5f1a 15be a63c 4abd 3bd6 1e3e
00000030: a66f 56bc 59ff 3bbe 6ab7 0cbc 7728 ce3d
00000040: d753 bd3c f9a4 a0bd 19db 4abe 9785 383c
00000050: e071 2c3e 3b1f a0bd 08d7 1ebe 4736 fa3c
00000060: a1ce 1ebe 7c74 7dbd e558 38be 5bc4 8ebd
00000070: 9135 b33e 4bdd 89bd 84af 543e 64d7 733e
00000080: 9d2a 0e3d e859 153e dde4 63be f5c7 9dbe
00000090: a894 ebbe c138 c13e f0ab 46be d19c 72bd
000000a0: 8664 ba3d fc7b a33e a4d4 a6bd ac43 04be
000000b0: 1a84 5b3e e638 6dbd 0ad6 4c3b c6b5 123e
000000c0: 9912 52bd 41a8 e13e f864 233a a55e 053f
000000d0: 99e7 723c 2afa a7be 192b 4fbd 3255 46be
000000e0: b43c 6e3e 7538 a9be 7442 2abe 6a4d 72be
000000f0: 254b c8bd 38f0 dfbd d43f fe3d 97d7 963e
00000100: 5217 533c b316 6bbb d164 99bd a19e 35bc
00000110: 4bb3 093e 5ed3 9a3b af0e 0ebe c382 0f3d
00000120: d744 cabd 3f81 d03d a34b 1d3e 9320 dfbe
00000130: cee0 b43c eb61 613d 188f 92bd 71ab 81be
00000140: 63ce c23d ec6f f43d 0f06 f13d 7756 24be
00000150: a0b2 9a3c 742f b93d 7e86 86be 71e3 39be
00000160: 662a bc3d 8700 09be b976 233c dc0b b4bd
00000170: a491 1d3e 1df5 8dbd dde2 753d 245c f03d
00000180: 7008 14be 0780 9f3c 9359 4f3e 7d71 a03c
00000190: fcb5 c0be 99ad d03c 938c 78be 021e 43bd
000001a0: 74dc b73c a0a1 883b 60ff bb3d 6f3c debd
000001b0: 62b5 14be 6e38 a73d 7ba7 cc3e 1d84 4cbd
000001c0: 055a 9b3d b56e 3cbe cb13 a53e 54ee e0be
000001d0: 4311 98bd 6877 cdbd 4157 a33d 6f7b bc3d
0.11201957 0.11538431 0.021669745 0.072733775 -0.10182522 0.048905984 0.037467044 -0.053245958
0.9074732 -0.14560841 -0.049374245 0.1551141 -0.0130881425 -0.18359126 -0.008588651 0.10066312
0.023111267 -0.07843966 -0.19810142 0.011262319 0.16840315 -0.07818457 -0.15511715 0.03054346
-0.1550851 -0.061878666 -0.1800266 -0.069710456 0.35001805 -0.067316614 0.20770079 0.23812634
0.034708608 0.14585078 -0.22255273 -0.30816618 -0.46011853 0.37738612 -0.19401526 -0.059231583
0.091012046 0.3193053 -0.08146027 -0.1291644 0.21437111 -0.05791559 0.0031255507 0.14327154
-0.051287267 0.4407368 0.0006233002 0.5209754 0.014825725 -0.32808048 -0.05057821 -0.19368437
0.23265344 -0.33050886 -0.16626912 -0.23662344 -0.09779958 -0.1093449 0.12414518 0.29461357
0.012883978 -0.0035871684 -0.07489932 -0.011085183 0.13447301 0.004724904 -0.13872789 0.035036813
-0.098764114 0.10180902 0.15360884 -0.4357954 0.022079851 0.055025022 -0.07156199 -0.25326112
0.095120214 0.1193541 0.11768734 -0.16048609 0.018884003 0.09042254 -0.26274484 -0.18153168
0.09187774 -0.13379107 0.009977036 -0.087913245 0.15387589 -0.06931517 0.060030807 0.117363244
-0.14456344 0.019470228 0.20249014 0.019585365 -0.37638843 0.025473403 -0.24272375 -0.04763604
0.022443987 0.004169658 0.09179568 -0.108513705 -0.14522317 0.0816506 0.39971527 -0.04993068
0.07585529 -0.18401606 0.32241663 -0.4393183 -0.074251674 -0.100325406 0.07975627 0.092032306

8.bias f4 [15]
00000000: e034 5a3f 0ac7 1ebf c3fe 2dbf 22ed cfbe
00000010: 366a 90be 77d8 a1bd f5b6 90be 1ea6 70be
00000020: a6a8 383e 3383 983d a081 05bd 12c9 1fbe
00000030: 8a4e b9bb 8da6 38bd 2291 1b3e
0.8523693 -0.6202246 -0.6796686 -0.40610605 -0.28206033 -0.079026155 -0.28264585 -0.23500869
0.18033084 0.07446899 -0.032594323 -0.15604046 -0.0056551145 -0.04508071 0.15192083
