offline_prototype_3_ds_as_sampling/trained_models/ae_model_ransomware_directory_trap.pth (torch, 25407 bytes, 16 tensors)

0.weight f4 [30, 60]
0	0x3e006b60	0.1254096
1	0xbcbbbb5b	-0.022916486
2	0xbce8a53c	-0.028399102
3	0xbe26f00a	-0.16302505
4	0x3d4aa449	0.04947308
5	0x3b00f88e	0.00196794
6	0x3d578b97	0.052623358
7	0x3d8b4b25	0.06801442
8	0xbb594c60	-0.0033157095
9	0xbe0474b9	-0.12935151
10	0xbd03def7	-0.032195058
11	0x3d219e1a	0.039457418
12	0x3d186d89	0.037213836
13	0xbd68485f	-0.056709643
14	0xbda79bcd	-0.081840135
15	0x3b5e5b39	0.0033928885
16	0x3cd3dbca	0.02586164
17	0x3d956fd1	0.07296718
18	0xbd9d4864	-0.07679823
19	0xbcefc39b	-0.029268077
20	0x3e11c37a	0.14234725
21	0x3de14bb8	0.1100077
22	0x3e4e29d2	0.2013314
23	0xb9ae2284	-0.00033213582
24	0xbdf282e2	-0.1184137
25	0x3e2e3dba	0.17015734
26	0x3d6894c7	0.05678251
27	0xbd8ca458	-0.068672836
28	0x3e378b41	0.17924215
29	0xbd5c837e	-0.05383634
30	0x3d35163c	0.044210657
31	0xbdd7e528	-0.10541755
32	0xbc7711de	-0.015079943
33	0xbddb3f77	-0.10705464
34	0xbd69abf6	-0.05704876
35	0x3d085052	0.033279724
36	0xbb7e8ff8	-0.0038843136
37	0x3dc63a2b	0.096790634
38	0x3cb3ba66	0.021939468
39	0x3e0e9595	0.13924249
40	0xbdb7e075	-0.08978359
41	0xbdad634c	-0.08466205
42	0x3dd39143	0.10330441
43	0xbd90bce0	-0.07067275
44	0x3df29d74	0.11846438
45	0xbd896ee7	-0.06710606
46	0x3d88884f	0.06666624
47	0xbc2e0149	-0.010620424
48	0xbdb3ff60	-0.08788943
49	0x3df3e93e	0.11909722
50	0x3c2e19d1	0.010626272
51	0x3d3b3ff2	0.04571528
52	0x3da6b523	0.08140018
53	0xbd96a274	-0.07355204
54	0x3dd10ea8	0.102078736
55	0xbd140885	-0.036140937
56	0x3c027aa8	0.007963814
57	0xbdcab041	-0.09896899
58	0xbbc685bc	-0.006058423
59	0xbe034e03	-0.12822728
60	0x3bea7e75	0.007156188
61	0xbda33980	-0.07969952
62	0xbd877dea	-0.06615813
63	0xbdca8baf	-0.09889924
64	0x3e9735dc	0.2953328
65	0x3d807b4d	0.06273518
66	0xbcf08dfb	-0.029364577
67	0xbdd6d225	-0.10489301
68	0x3d412081	0.04715014
69	0x3dbfcec6	0.09365611
70	0xbd87122a	-0.065952614
71	0x3d65109c	0.055924043
72	0x3d993c6c	0.07482228
73	0xbd6365a1	-0.055516843
74	0x3d381304	0.04494001
75	0xbc86b992	-0.016445909
76	0xbd5af715	-0.053458292
77	0x3d2dcedc	0.042433605
78	0x3db3652f	0.087595336
79	0xbdb566ae	-0.08857475
80	0x3d6c9e47	0.057768133
81	0xbda06797	-0.07832258
82	0x3d48924c	0.048967645
83	0x3db18969	0.08668787
84	0x3def3aa5	0.116811074
85	0x3ba13fba	0.004920927
86	0x3c1ba438	0.009499602
87	0xbc98ec2a	-0.0186673
88	0xbd2936e3	-0.04131211
89	0x3da5fcdd	0.081048705
90	0xbc9ab218	-0.01888375
91	0x3d01de69	0.031706247
92	0x3e0b6d9d	0.13616033
93	0xbd72184d	-0.059105206
94	0x3d4f963f	0.050680395
95	0x3daebe8e	0.08532439
96	0x3d8d2296	0.06891362
97	0xbd869eef	-0.06573283
98	0x3da2432d	0.07922969
99	0xbddc1883	-0.10746863
100	0xbd47b263	-0.048754107
101	0xbca2c06c	-0.019867145
102	0xbdb0754e	-0.08616124
103	0x3d25998d	0.04042964
104	0x3de28d5c	0.110621184
105	0x3be00010	0.006835945
106	0xbda66ae1	-0.08125854
107	0x3e0782fd	0.13233562
108	0x3b41f3be	0.0029594745
109	0xbddc14e1	-0.1074617
110	0xbd67dc44	-0.056606546
111	0xbd85e68c	-0.06538114
112	0xbd9ec5ab	-0.07752546
113	0x3d3a4ad6	0.045481525
114	0xbd836ae9	-0.06416876
115	0xbda1ce65	-0.07900695
116	0xbcae153f	-0.021250365
117	0x3ca6f6f6	0.020381432
118	0xbd3b8fff	-0.045791622
119	0x3d644ad3	0.05573542
120	0xbd8a907e	-0.06765841
121	0xbd87bc66	-0.06627731
122	0xbd1b9a26	-0.037988804
123	0x3da87e08	0.082271636
124	0x3d87281e	0.065994486
125	0x3bb6f680	0.0055835843
126	0x3df27375	0.11838428
127	0x39580019	0.00020599402
128	0x3d990579	0.07471747
129	0x3c579f59	0.01316055
130	0xbd3db834	-0.046318248
131	0xbd653011	-0.055954043
132	0xbdf3d255	-0.11905352
133	0xbcea0ef6	-0.028571587
134	0x3d9ac8bd	0.07557819
135	0xbba32cc3	-0.0049797012
136	0x3d250715	0.040289957
137	0xbd8e6fb2	-0.06954898
138	0xbd61390a	-0.054986037
139	0x3c4ecf65	0.012622689
140	0x3c5e542b	0.013569872
141	0x3b5fbe14	0.0034140395
142	0xbe2c8db2	-0.16850927
143	0x3ba485e6	0.0050208448
144	0x3e293ccb	0.16527097
145	0xbd730f33	-0.059340667
146	0x3b58b080	0.0033064187
147	0x3d97a244	0.074039966
148	0xbe2edb49	-0.17075838
149	0xbda06b1d	-0.0783293
150	0x3debbbad	0.11510406
151	0xbd7067dd	-0.0586928
152	0x3d28519f	0.041093465
153	0xbcb772b0	-0.022393554
154	0x3d953321	0.07285143
155	0xbdbab184	-0.0911589
156	0xbd44f558	-0.04808554
157	0x3ddb6ecd	0.10714493
158	0xbd0ca340	-0.034335375
159	0xbd7f533c	-0.062335238
160	0xbc467ee2	-0.012115212
161	0x3dae8b2c	0.08522639
162	0xbdb479e9	-0.08812315
163	0x3dc4d57d	0.09611032
164	0x3d57cc6d	0.05268519
165	0xbd7d7730	-0.061881244
166	0x3cda4ef7	0.026648981
167	0x3d80c7b5	0.06288091
168	0x3d7e55dc	0.0620936
169	0x3d560dfb	0.052259427
170	0xbd9b2d16	-0.07576959
171	0xbd0dc10f	-0.034607943
172	0xbd9b82b5	-0.0759329
173	0x3d93f3fb	0.0722427
174	0xbd874987	-0.06605821
175	0xbd84685f	-0.0646522
176	0x3d7f71f3	0.06236453
177	0xbda1045a	-0.07862158
178	0x3c0e8cf6	0.0087006
179	0xbde065b9	-0.10956902
180	0xbe06fe4a	-0.13182941
181	0x3e0d6fc3	0.13812165
182	0xbd5a317a	-0.05326984
183	0xbdabc4fd	-0.08387182
184	0xbcb53432	-0.022119615
185	0xbd697bde	-0.057002895
186	0xbd75c738	-0.060004443
187	0xbdf61ddb	-0.12017413
188	0xbd7f8139	-0.062379096
189	0x3dd3a0ab	0.10333379
190	0xbdfd86d5	-0.12379233
191	0xbe1f51f1	-0.15558602
192	0x3b7f679a	0.0038971663
193	0x3dd4a037	0.10382121
194	0xbe166e47	-0.14690505
195	0xbd101340	-0.03517461
196	0xbce062cc	-0.02739086
197	0xbd89abd7	-0.06722229
198	0x3d18bcce	0.037289433
199	0x3be8927c	0.0070975404
200	0xbcb2af71	-0.021812173
201	0xbc486bbe	-0.012232719
202	0xbda5ed42	-0.08101894
203	0xbd303465	-0.043018717
204	0x3dc92a28	0.09822494
205	0x3d837ade	0.064199194
206	0xbdf1140c	-0.11771402
207	0x3d103026	0.035202168
208	0x3d92b092	0.07162584
209	0x3d9414e9	0.07230551
210	0xbd2b1c2d	-0.041774917
211	0x3cd11576	0.025522929
212	0x3e0e8fab	0.13921992
213	0xbc44d58e	-0.012013806
214	0x3d9bddfd	0.076107
215	0x3dcde53b	0.10053488
216	0xbc525efd	-0.01284003
217	0x3d4f9d3a	0.050687052
218	0xbdd35f9e	-0.10320972
219	0xbdad8d52	-0.0847422
220	0x3d6a805a	0.05725131
221	0xbd0fa601	-0.035070423
222	0xbc14295f	-0.009043067
223	0x3d3f95b5	0.04677363
224	0x3dd6a18f	0.104800336
225	0x3cf0c877	0.029392464
226	0xbdc69c6a	-0.09697802
227	0x3ced5601	0.028971674
228	0x3d11b56e	0.035573415
229	0x3dfa5456	0.12223117
230	0xbd4e24d3	-0.050328087
231	0x3d79225e	0.06082379
232	0x3d043d57	0.03228506
233	0x3d9e2344	0.0772157
234	0x3db54359	0.08850736
235	0xbc4a732a	-0.012356559
236	0x3d4392b4	0.04774733
237	0x3dc23820	0.09483361
238	0xbd0ffd30	-0.035153568
239	0xbdebb43b	-0.115089856
240	0x3e108e84	0.14116865
241	0xbd4fb04e	-0.050705247
242	0x3db65ade	0.0890405
243	0x3d807f54	0.06274286
244	0x3db21630	0.08695638
245	0x3ca14f9c	0.019691281
246	0x3dcd3078	0.1001901
247	0x3dad9bb5	0.084769644
248	0x3ba3c58b	0.004997914
249	0xbdc518dc	-0.09623882
250	0xbd91067d	-0.07081316
251	0x3db887ac	0.09010252
252	0x3db995cb	0.09061774
253	0x3db4ecae	0.088342056
254	0x3d3f4d9b	0.04670487
255	0xbd64cb1f	-0.055857774

0.bias f4 [30]
0	0xbc9b9491	-0.01899174
1	0xbd7e36d6	-0.062064014
2	0xbd4bfe46	-0.04980304
3	0x3d5fea40	0.054666758
4	0x3dfdeab6	0.12398283
5	0xbe039537	-0.1284989
6	0x3d2873cc	0.041126058
7	0x3da19676	0.07890026
8	0x3db643a8	0.08899623
9	0xbca33428	-0.019922331
10	0x3ca306b0	0.01990065
11	0x3c0d5bf0	0.008627877
12	0x3aa9ba7a	0.0012949251
13	0xbd6ffc32	-0.05859012
14	0xbd2f0462	-0.04272879
15	0x3dc8fac8	0.09813458
16	0xbdba9b4e	-0.09111653
17	0xbdf99265	-0.12186126
18	0x3d92d460	0.071694136
19	0xbd4912be	-0.04909014
20	0x3d7959f0	0.060876787
21	0xbcf8be2c	-0.030364119
22	0x3cf44268	0.029816821
23	0xbe002ada	-0.12516347
24	0xbcfeaff8	-0.031089768
25	0xbd8c2f80	-0.068449974
26	0xbd4e1c58	-0.05032
27	0x3cfaf0c8	0.030632392
28	0xbda551ec	-0.08072266
29	0xbd02861a	-0.03186617

1.weight f4 [30]
0	0x3f739ecc	0.9516418
1	0x3f6ff2aa	0.9372965
2	0x3f7822df	0.9692821
3	0x3f787a15	0.9706128
4	0x3f72ffcc	0.94921565
5	0x3f8376f6	1.0270679
6	0x3f824760	1.0178032
7	0x3f8257f6	1.0183094
8	0x3f75284a	0.957646
9	0x3f79c8a8	0.975718
10	0x3f739632	0.95151055
11	0x3f74e8e6	0.95667875
12	0x3f6e69f9	0.9313045
13	0x3f7511c2	0.9573022
14	0x3f82061e	1.0158117
15	0x3f866a73	1.0501236
16	0x3f708c90	0.9396448
17	0x3f78ef50	0.9724016
18	0x3f778f88	0.96703386
19	0x3f790609	0.97274834
20	0x3f7c3dcc	0.98531795
21	0x3f783cca	0.96967757
22	0x3f755325	0.95829993
23	0x3f6c26fc	0.92246985
24	0x3f7d0904	0.9884188
25	0x3f74e79e	0.9566592
26	0x3f791110	0.9729166
27	0x3f77fe11	0.9687205
28	0x3f7e3df7	0.993133
29	0x3f76f059	0.9646049

1.bias f4 [30]
0	0xbe25265e	-0.16127917
1	0x3d3aa1d4	0.045564488
2	0x3d0a049f	0.033695813
3	0xbba1da5f	-0.004939362
4	0xbc82f46c	-0.01598569
5	0x3c9ff44d	0.019525671
6	0x3d43ad1e	0.04777252
7	0xbd654804	-0.055976883
8	0xbd0e1491	-0.034687582
9	0x3ad18c39	0.0015987224
10	0xbd0d12a7	-0.034441616
11	0xbc84ce83	-0.016211754
12	0x3d8c4f66	0.068510816
13	0xbd2bee4e	-0.041975312
14	0x3c52d6c2	0.012868585
15	0x3d88079b	0.06642076
16	0x3d4d1552	0.05006916
17	0x3ca6fb5d	0.020383531
18	0x3ac5ec3f	0.0015100314
19	0xbc9473ba	-0.018121589
20	0xbcb46df9	-0.022025095
21	0x3aaade1e	0.0013036167
22	0xbd30b3cb	-0.043140214
23	0x3d186c4c	0.037212655
24	0x3c65c8ba	0.014024908
25	0x3a09ce84	0.00052569085
26	0x3d1d3dd6	0.03838905
27	0x3d2727fa	0.04080961
28	0x3cd2ed2a	0.025747854
29	0x3d9e6f6e	0.07736097

1.running_mean f4 [30]
0	0xbdc1f472	-0.09470452
1	0xbe152931	-0.14566495
2	0x3c4b78d6	0.012418946
3	0x3dd7e4bf	0.10541677
4	0x3d426ffe	0.047470085
5	0xbe0cfef5	-0.13769133
6	0x3dfc2641	0.12311984
7	0xbcd96f6b	-0.026542386
8	0x3de124d5	0.10993353
9	0xbd3c8c9f	-0.046032544
10	0x3d696c07	0.05698779
11	0x3d5adec4	0.053435102
12	0x3d0430cc	0.0322731
13	0xbba91dc4	-0.005161019
14	0xbbdd7c33	-0.0067591905
15	0x3d990160	0.074709654
16	0xbe3cafbf	-0.18426417
17	0xbe2e01a1	-0.16992809
18	0x3e32a041	0.17443945
19	0xbd068520	-0.0328418
20	0x3de0614a	0.109560564
21	0x3c4ad3d4	0.012379605
22	0xbc98e7aa	-0.018665154
23	0xbe4deb4a	-0.20109287
24	0x3d005f26	0.03134074
25	0xbdac1f80	-0.08404446
26	0x3caac9e6	0.020848226
27	0x3e249a28	0.16074431
28	0xbe019ac0	-0.12656689
29	0xbd19c457	-0.03754076

1.running_var f4 [30]
0	0x3ba3dd27	0.0050007286
1	0x3c20429e	0.009781508
2	0x3ba6e266	0.0050929068
3	0x3c24bc01	0.010054589
4	0x3bebce89	0.007196252
5	0x3bd54d51	0.006509461
6	0x3c698e81	0.014255167
7	0x3b53a37d	0.0032293492
8	0x3bbe377c	0.005804954
9	0x3c8267c6	0.015918624
10	0x3b99062b	0.0046699247
11	0x3c656cb9	0.014002972
12	0x3c71b0c5	0.014751618
13	0x3ba1fcc9	0.0049434644
14	0x3c2ba342	0.010475935
15	0x3bf10079	0.0073547927
16	0x3ba1d062	0.0049381712
17	0x3b8469ee	0.004040948
18	0x3c052f95	0.00812902
19	0x3b64478d	0.0034832687
20	0x3c570d4d	0.01312573
21	0x3c12687c	0.008936044
22	0x3cccb4a4	0.02498848
23	0x3c18b14d	0.009319616
24	0x3c74ac8b	0.014933716
25	0x3c8c2f10	0.017112285
26	0x3c5a1849	0.013311454
27	0x3c7be5d5	0.01537462
28	0x3c1e4a80	0.009661317
29	0x3c162196	0.009163281

3.weight f4 [15, 30]
0	0x3e6da7dd	0.23208566
1	0x3c9c5f59	0.019088434
2	0xbe04de9e	-0.12975547
3	0xbd213b4d	-0.039363194
4	0x3da743d5	0.08167235
5	0x3ea39765	0.31951442
6	0x3db53cd4	0.08849493
7	0x3e7cf545	0.24702938
8	0x3e115177	0.14191233
9	0xbdc8b87a	-0.09800811
10	0xbdd4a338	-0.10382694
11	0x3d7ca4b2	0.061680503
12	0xbd79a447	-0.060947683
13	0x3e78f369	0.24311604
14	0x3df52504	0.11969951
15	0xbe804fe7	-0.2506096
16	0x3df48cd2	0.11940922
17	0x3c844ef4	0.016150929
18	0xbe0b8df9	-0.13628377
19	0xbdec7b36	-0.11546938
20	0x3e3277e6	0.1742855
21	0xbe2b2d98	-0.16716611
22	0x3dce3f37	0.10070651
23	0xbc895629	-0.016764717
24	0x3e1a714c	0.15082282
25	0xbd5629f9	-0.052286122
26	0x3d161995	0.03664549
27	0xbe06cf2b	-0.13164966
28	0x3e1dab3f	0.15397356
29	0x3d831298	0.06400031
30	0xbdf39d3b	-0.11895224
31	0xbd5cc078	-0.05389449
32	0xbc04bd79	-0.008101814
33	0xbd732d4b	-0.059369367
34	0x3a6aeb23	0.00089614297
35	0x3dadbd37	0.084833555
36	0x3e320aa5	0.17386873
37	0xbce037df	-0.027370391
38	0xbd0ab6de	-0.033865802
39	0x3dfa6c0c	0.122276396
40	0xbc94ee69	-0.01818009
41	0x3dfefec8	0.124509394
42	0xbd9adb93	-0.07561412
43	0xbbae08ef	-0.0053111236
44	0xbd0a95fa	-0.033834435
45	0x3e0ee162	0.13953164
46	0xbd2980ff	-0.041382786
47	0xbc971cf1	-0.018446418
48	0x3b5d6b36	0.0033785827
49	0x3d796614	0.060888365
50	0x3e0ca9d8	0.13736665
51	0xbdcb2279	-0.099186845
52	0xbddf16eb	-0.10893043
53	0xbdda7c48	-0.10668236
54	0xbdaf031b	-0.08545514
55	0x3e215736	0.15755925
56	0x3b1792a8	0.0023128185
57	0xbdac9e03	-0.08428576
58	0xbdf52699	-0.119702525
59	0xbdbba722	-0.091627374
60	0x3e3b9c6c	0.18321389
61	0xbd2b752b	-0.041859787
62	0xbddc888f	-0.10768234
63	0xbd14192b	-0.036156815
64	0x3aa67119	0.0012698501
65	0xbdb4236b	-0.08795818
66	0x3e3539d8	0.17697847
67	0x3e384c21	0.17997791
68	0x3e120e34	0.1426323
69	0xbdb4bac4	-0.08824685
70	0xbe30b270	-0.17255569
71	0x3e0f3f5a	0.1398901
72	0x3d66fb4c	0.056392
73	0xbd9f4aaa	-0.07777913
74	0xbdbbc2c5	-0.09168009
75	0xbde97fd6	-0.11401336
76	0x3d44ade2	0.04801739
77	0xbe0d3de9	-0.13793148
78	0xbe2256c1	-0.15853406
79	0xbe0da42a	-0.13832155
80	0xbde00906	-0.10939221
81	0x3de187a3	0.11012199
82	0xbd5e1a1e	-0.054224126
83	0x3d3494be	0.044087164
84	0x3d159400	0.036518097
85	0x3d8fe94e	0.07026921
86	0x3d7baa61	0.061441783
87	0xbd8e98cd	-0.06962738
88	0x3e003b1c	0.12522548
89	0x3e1aa05b	0.15100233
90	0xbda5bf69	-0.08093149
91	0xbda8c1fe	-0.08240126
92	0xbaa00437	-0.0012208287
93	0x3e22ef17	0.15911518
94	0xbe1fd538	-0.1560868
95	0x3da13910	0.07872212
96	0x3d9e526b	0.07730564
97	0x3d665ec3	0.056242716
98	0x3d3b8059	0.0457767
99	0x3d90c716	0.07069223
100	0x3bcf8c55	0.0063338676
101	0xbddbd9e2	-0.10734917
102	0x3e2aa9dc	0.16666359
103	0xbd9169d0	-0.0710026
104	0x3e39263f	0.18080996
105	0xbd18588b	-0.037193816
106	0x3c435a38	0.011923365
107	0x3b8e8fd6	0.0043506427
108	0x3d4a4cdf	0.049389716
109	0xbc655f1d	-0.013999728
110	0xbd84787e	-0.064682946
111	0xbc583ba4	-0.013197813
112	0xbd97b9bf	-0.07408475
113	0x3cd6a60c	0.026202224
114	0x3d5514f3	0.05202193
115	0x3d977e7f	0.07397174
116	0x3e34a538	0.17641151
117	0xbd7f08dc	-0.06226431
118	0xbc3ccf48	-0.011524029
119	0x3da0a980	0.078448296
120	0xbd8745af	-0.06605088
121	0xbcc1a4f0	-0.023638219
122	0xbc8efecc	-0.017455481
123	0xbe80cc0b	-0.25155672
124	0x3d6c525d	0.057695735
125	0xbe6a7693	-0.22896795
126	0xbe4d6846	-0.20059308
127	0xbd2e4320	-0.042544484
128	0xbbc0b64b	-0.005881106
129	0xbcd8c928	-0.026463106
130	0x3df9719c	0.121798724
131	0x3e030d3e	0.1279802
132	0x3dc4063d	0.09571502
133	0x3dba2f87	0.09091096
134	0xbe3fe169	-0.18738331
135	0xbb683459	-0.0035431592
136	0xbc38a2e2	-0.011269303
137	0xbd050504	-0.032475486
138	0xbd1c8a4e	-0.038217835
139	0xbc507f98	-0.012725733
140	0xbe09dcf9	-0.134632
141	0x3e10edad	0.14153166
142	0xbe49ccd1	-0.19707038
143	0x3c9e3c3f	0.019315837
144	0x3ce848d0	0.028355032
145	0x3d1f9776	0.038962804
146	0x3de970b6	0.11398451
147	0x3d8e651b	0.06952878
148	0x3d920a37	0.071308546
149	0x3de01ea6	0.10943346
150	0xba10e638	-0.00055274693
151	0x3d3f4102	0.046692856
152	0x3b75dccf	0.0037515645
153	0xbd55818b	-0.052125495
154	0x3c85e781	0.016345741
155	0x3e2c39d2	0.16818932
156	0x3da4d70f	0.08048832
157	0xbc54e115	-0.012993117
158	0x3b3e1ed5	0.0029010077
159	0x3e2dcbc4	0.16972262
160	0xbd41eb1d	-0.047343362
161	0x3cdd9e4f	0.027053026
162	0xbdc9753b	-0.09836813
163	0xbe08e358	-0.13367975
164	0xbc637309	-0.013882407
165	0x3e1448be	0.14480874
166	0x3da939fd	0.082630135
167	0xbddd5931	-0.108080275
168	0x3da70940	0.08156061
169	0xbd912680	-0.070874214
170	0x3da90fef	0.08254992
171	0xbe1db709	-0.15401854
172	0xbe02ef2e	-0.12786552
173	0x3debfc22	0.115227
174	0xbe2f0f0c	-0.17095584
175	0xbd564bcf	-0.05231839
176	0x3d4f413f	0.050599333
177	0x3c5d15d8	0.0134939775
178	0x3e14d7be	0.14535424
179	0x3cd1dd21	0.025618138
180	0x3e46e283	0.19422345
181	0x3d81bd38	0.06334919
182	0xbda0fc0f	-0.07860576
183	0xbc23c67e	-0.009996055
184	0x3d2c1b4e	0.042018227
185	0xbc5e0bbe	-0.013552604
186	0x3e2a4398	0.16627347
187	0x3e0be73e	0.1366243
188	0x3d7789bd	0.06043409
189	0xbd66117f	-0.05616903
190	0xbdac38f5	-0.08409301
191	0x3d994413	0.07483687
192	0x3e3befd0	0.183532
193	0xbc146379	-0.009056919
194	0xbe09e318	-0.13465536
195	0xbe68e4dd	-0.22743554
196	0xbda683ff	-0.08130645
197	0xbe3837b3	-0.17989998
198	0x3d4996bb	0.049216013
199	0xbe2e71fd	-0.1703567
200	0x3caa90e4	0.020821042
201	0xbbbc91b6	-0.005754675
202	0x3e22d378	0.15900981
203	0xbdfdebf0	-0.12398517
204	0xbe086ea2	-0.13323453
205	0xbd5b4619	-0.053533647
206	0x3e3d0cc5	0.18461902
207	0xbc358007	-0.011077887
208	0x3daff6f4	0.085920244
209	0x3d4703c8	0.04858759
210	0x3da51ee3	0.08062532
211	0x3d9f3e37	0.077755384
212	0xbdefd08f	-0.11709701
213	0xbd0eeb23	-0.034892213
214	0xbe2855ce	-0.16438982
215	0x3e1b001f	0.15136765
216	0x3e47782d	0.19479437
217	0x3c47571d	0.0121667655
218	0xbd670122	-0.056397565
219	0xbd1ee8f0	-0.038796365
220	0x3c526e2f	0.012843653
221	0xbdf45839	-0.1193089
222	0xbd973750	-0.07383597
223	0x3bb10ee1	0.005403385
224	0x3e032a7f	0.1280918
225	0x3c67aeef	0.0141408285
226	0xbd8a79c2	-0.06761505
227	0x3cd6a8eb	0.026203593
228	0xbd83906a	-0.06424029
229	0xbdf09261	-0.117466696
230	0xbaf1bc2e	-0.0018442923
231	0x3dc1dfa7	0.094664864
232	0x3c9b8d88	0.018988386
233	0xbdb48651	-0.08814681
234	0xbba76502	-0.0051084766
235	0x3d1088b1	0.03528661
236	0x3e196436	0.14979634
237	0xbdd3bcc3	-0.10338738
238	0x3d9d7f2f	0.07690274
239	0xbcadf003	-0.02123261
240	0x3d41512b	0.04719655
241	0xbdae620d	-0.085147955
242	0xbde54351	-0.1119448
243	0x3c483351	0.012219266
244	0x3c86061a	0.016360331
245	0xbc95af0a	-0.018271942
246	0x3de041f1	0.10950077
247	0xbb7e990d	-0.003884855
248	0xbe16f611	-0.14742304
249	0x3c15d67d	0.009145376
250	0xbd90ef57	-0.070769005
251	0x3dda4cb0	0.10659158
252	0x3e0af455	0.13569768
253	0x3d0b45bd	0.034002054
254	0xbc4b24e7	-0.012398935
255	0x3e1b5f9c	0.15173191

3.bias f4 [15]
0	0xbe7ccf27	-0.24688397
1	0xbb8d7bcf	-0.0043177377
2	0x3d73d5d1	0.059530083
3	0x3dbd9d36	0.09258501
4	0x3da26caf	0.07930886
5	0x3d9c327c	0.07626817
6	0x3deae8b6	0.11470167
7	0x3e375963	0.17905192
8	0xbd415ab0	-0.047205627
9	0x3c5e2d68	0.01356063
10	0x3e8007f0	0.25006056
11	0x3df400d1	0.11914218
12	0xbe0274d2	-0.12739876
13	0xbc68e471	-0.014214621
14	0x3dd6c25a	0.10486288

5.weight f4 [30, 15]
0	0xbe73321d	-0.23749585
1	0x3e6b49e6	0.22977409
2	0xbddbeee9	-0.10738928
3	0xbc9cbb80	-0.019132376
4	0xbdd88192	-0.105715886
5	0x3e40774f	0.18795513
6	0xbd84b942	-0.064806476
7	0xbe1837d2	-0.14865044
8	0xbdadc7dd	-0.084853865
9	0xbd9ce9d1	-0.076617844
10	0x3d3f62e4	0.04672517
11	0x3cd432bf	0.025903104
12	0xbd37905b	-0.044815402
13	0x3e753ec1	0.2394972
14	0xbce9ffb1	-0.028564306
15	0x3e62b5d3	0.22139673
16	0xbd863b3d	-0.065542676
17	0x3e218408	0.15773022
18	0xbe05c86e	-0.13064739
19	0x3e4f52ed	0.20246477
20	0xbe6b9971	-0.23007752
21	0x3e1f94cf	0.1558411
22	0xbdfa0fe9	-0.12210066
23	0x3d91a929	0.07112343
24	0x3d7c197d	0.061547745
25	0x3e3b8e04	0.18315893
26	0x3e06a988	0.13150609
27	0x3daea830	0.08528173
28	0xbdb35964	-0.08757284
29	0x3e725a5f	0.23667286
30	0x3ded0a33	0.11574211
31	0x3d1339df	0.035943862
32	0x3d225c8d	0.039639045
33	0x3d7e4390	0.06207615
34	0xbd31ba7e	-0.043390743
35	0x3d613220	0.054979444
36	0x3dd1262c	0.10212359
37	0x3e46e921	0.19424869
38	0xbe3b50ff	-0.18292616
39	0xbe69709b	-0.22796862
40	0xbe20e13f	-0.15710925
41	0xbcdf3b2c	-0.027249895
42	0xbca517ca	-0.020152945
43	0x3de189de	0.11012624
44	0xbcbe3d92	-0.023222718
45	0xbd593e09	-0.053037677
46	0xbdb4e012	-0.088318005
47	0x3e47f4a1	0.19526912
48	0x3caf4e00	0.021399498
49	0xbe47da0c	-0.19516772
50	0xbeae508a	-0.3404582
51	0xbe94319d	-0.28944102
52	0xbd872a94	-0.06599918
53	0xbdf474cd	-0.119363405
54	0xbdd71fdd	-0.10504124
55	0x3dd404f6	0.10352509
56	0x3d7f04ff	0.062260624
57	0x3e0fe5b7	0.14052473
58	0xbe10a0c7	-0.14123832
59	0xbd1c0b3b	-0.038096648
60	0xbc95561e	-0.01822954
61	0x3d0e33c6	0.034717344
62	0x3dcce892	0.10005297
63	0xbe3cf2c8	-0.18451989
64	0x3e2a9fc3	0.16662507
65	0x3d20d585	0.039266128
66	0xbd806c9e	-0.06270717
67	0xbe5becf2	-0.21477106
68	0xbd8fad9c	-0.07015535
69	0xbe3908f9	-0.18069829
70	0xbdfa9ecd	-0.1223732
71	0xbe10e434	-0.14149553
72	0xbe2e88e3	-0.17044406
73	0xbd0a80a6	-0.033814095
74	0xbda792b9	-0.08182282
75	0x3ce660db	0.028122356
76	0xbe2fcf92	-0.17169026
77	0x3d0ee2e0	0.034884334
78	0xbe8a3b38	-0.26998305
79	0x3e2ad14b	0.16681401
80	0xbe5d8d41	-0.21635915
81	0xbccf8eaa	-0.025336582
82	0xbe8c292b	-0.2737516
83	0xbe350a2c	-0.17679662
84	0x3dbd7073	0.092499636
85	0x3cf6b9eb	0.03011795
86	0xbdfccd53	-0.1234385
87	0x3d0f54ec	0.034993097
88	0xbe1a1da5	-0.15050371
89	0x3e59377c	0.21212572
90	0x3e497266	0.19672546
91	0x3e6dd9e6	0.23227653
92	0x3c87516c	0.016518317
93	0x3bd23b46	0.0064157574
94	0xbe1c25d1	-0.15248801
95	0xbd55b0c8	-0.052170545
96	0xbe5a48d1	-0.2131684
97	0x3d89533d	0.067053296
98	0xbe2d34e1	-0.16914703
99	0xbbfc8aa6	-0.007706958
100	0x3e8227aa	0.25420886
101	0x3e004e36	0.12529835
102	0x3de55cba	0.11199327
103	0x3e4a1f5d	0.19738527
104	0x3e2b96be	0.16756722
105	0x3e4d2e99	0.20037307
106	0x3b7eeade	0.0038897316
107	0x3e468f7d	0.19390674
108	0xbd9b9ff5	-0.07598869
109	0xbe271f66	-0.16320571
110	0xbdf604c2	-0.12012626
111	0x3e47380e	0.19454977
112	0x3da44c63	0.08022382
113	0x3e361a52	0.17783478
114	0x3d9db8d4	0.07701269
115	0xbc5b89f7	-0.013399593
116	0xbe2272cb	-0.15864103
117	0xbe24e87b	-0.1610431
118	0x3d9ad00a	0.075592116
119	0x3dd390b5	0.10330335
120	0x3df7435a	0.12073393
121	0xbe2edcdf	-0.17076443
122	0xbea27f58	-0.3173778
123	0x3e1d3339	0.15351571
124	0x3e1667a1	0.14687969
125	0xbdab9750	-0.0837847
126	0xbe817743	-0.25286302
127	0x3e27fa20	0.16404009
128	0xbe2f77d5	-0.17135556
129	0x3db66715	0.0890638
130	0xbe4ba17b	-0.19885819
131	0x3d2684b0	0.040653884
132	0x3bc8343f	0.006109744
133	0xbdc49579	-0.09598822
134	0x3e70140f	0.23445152
135	0x3e44965f	0.19197987
136	0xbdff2414	-0.12458053
137	0x3c29e7cd	0.010370207
138	0xbc2848b2	-0.010271238
139	0xbe5f1c73	-0.21788196
140	0xbe4f1fd2	-0.20226982
141	0x3e82067b	0.2539557
142	0xbe55dcc7	-0.20885001
143	0x3e88cde7	0.2671959
144	0xbc882488	-0.016618982
145	0x3d9c5dc0	0.07635069
146	0xbe3c33a3	-0.18379073
147	0x3df76b06	0.1208096
148	0x3d8be695	0.068310894
149	0xbd852445	-0.065010585
150	0x3d1167d7	0.03549942
151	0xbe127885	-0.14303787
152	0x3e2071e3	0.15668444
153	0xbe3b2e0f	-0.18279289
154	0xbd97ab89	-0.074057646
155	0x3d26531b	0.0406066
156	0x3dea21ef	0.114322536
157	0xbe4baa1b	-0.19889109
158	0xbdb33762	-0.08750798
159	0x3e3c8018	0.18408239
160	0x3e75832c	0.2397582
161	0xbdbaee32	-0.091274634
162	0xbdd55cc3	-0.104180835
163	0xbe32cc95	-0.17460854
164	0x3d86ce95	0.06582371
165	0x3ba9a1d6	0.005176763
166	0x3da7bef2	0.08190717
167	0x3e7a5391	0.2444594
168	0xbdff1aff	-0.12456321
169	0x3e1fac57	0.15593086
170	0xbe2caaca	-0.16862026
171	0x3debe0c8	0.11517483
172	0xbdd9d449	-0.10636193
173	0xbda6d4de	-0.0814607
174	0xbd2c7327	-0.042102005
175	0x3d9660f6	0.073427126
176	0xbdfb9f2b	-0.12286218
177	0xbc6a8884	-0.014314774
178	0xbe13b342	-0.1442385
179	0xbe8c1092	-0.27356392
180	0xbe69ce60	-0.22832632
181	0xbe7e9dae	-0.24864838
182	0x3e6344eb	0.22194259
183	0xbe172084	-0.14758497
184	0xbc502793	-0.012704748
185	0x3d6c424a	0.057680406
186	0x3da8760e	0.08225642
187	0x3d8d25b1	0.06891955
188	0xbe52a28d	-0.2056982
189	0x3d92067a	0.071301416
190	0x3e8b5afb	0.2721785
191	0x3d3d4ad7	0.04621395
192	0x3e2d55ec	0.16927308
193	0xbd953bb4	-0.07286778
194	0x3e438a81	0.19095804
195	0x3e861dec	0.26194704
196	0x3e39a988	0.18131077
197	0x3a8e2dc0	0.0010847375
198	0x3d8c9854	0.06864992
199	0x3e0a5305	0.13508232
200	0x3dacf8b4	0.08445874
201	0x3e3b4936	0.18289647
202	0xbd6a465f	-0.057196017
203	0x3e74f184	0.23920256
204	0xbe3b562a	-0.18294588
205	0x3e24043a	0.16017237
206	0x3e316ba1	0.17326213
207	0x3cef5cd0	0.029219061
208	0x3d97f849	0.074204035
209	0x3e1caa44	0.15299326
210	0x3e0b8384	0.13624388
211	0x3daf962b	0.08573564
212	0x3d5f4083	0.054504883
213	0xbd83c52c	-0.06434092
214	0xbddd6385	-0.108099975
215	0xbe21b8e7	-0.15793191
216	0x3e50065f	0.2031493
217	0xbd31f310	-0.043444693
218	0xbe3cdde5	-0.18444021
219	0x3e07d3a1	0.13264324
220	0xbca5304a	-0.020164628
221	0xbdd894d2	-0.1057526
222	0xbe3c2016	-0.18371615
223	0x3e19d898	0.1502403
224	0x3d9eeb96	0.07759778
225	0xbda0867f	-0.07838153
226	0x3df291f5	0.11844245
227	0x3dc4a42f	0.09601628
228	0xbdeb4351	-0.11487449
229	0xbe6884d4	-0.2270692
230	0xbc860563	-0.01635999
231	0xbcef579f	-0.029216586
232	0x3e05b1df	0.13056134
233	0xbde5e46e	-0.1122521
234	0x3cfde9c8	0.030995265
235	0xbdc377ad	-0.09544311
236	0x3d979e10	0.07403195
237	0x3e0b1439	0.13581933
238	0x3d7cba68	0.06170121
239	0xbea11098	-0.31457973
240	0xbe82d2b8	-0.2555139
241	0xbe88e502	-0.2673722
242	0xbda19f96	-0.07891767
243	0x3e20276b	0.15640037
244	0x3d64a056	0.05581697
245	0xbda0c0e4	-0.07849291
246	0x3c812172	0.015763018
247	0x3e82d6b3	0.25554428
248	0x3e02ed27	0.12785779
249	0x3d63fedf	0.055662986
250	0xbc9195db	-0.017771652
251	0xbe32a18b	-0.17444436
252	0x3e0dcfa2	0.13848737
253	0x3e1a706b	0.15081947
254	0xbe1a038c	-0.15040416
255	0xbe00462f	-0.12526773

5.bias f4 [30]
0	0x3db889b8	0.09010643
1	0x3d1a06e8	0.037604243
2	0x3df3355c	0.11875412
3	0xbde6d96a	-0.11271937
4	0xbdc84de6	-0.09780483
5	0xbd4eae40	-0.050459146
6	0x3e1954ae	0.14973709
7	0x3bbd9f40	0.0057868063
8	0x3e4ca3f0	0.19984412
9	0x3dbf8fa8	0.09353572
10	0x3e4e73dc	0.20161384
11	0xbddd2062	-0.10797192
12	0xbbbb3404	-0.005712988
13	0xbe831570	-0.25602293
14	0xbd1de87c	-0.038551793
15	0x3e796fee	0.24359104
16	0x3e75c6b6	0.24001583
17	0xbe0bbfde	-0.1364741
18	0x3e2312e6	0.15925178
19	0x3dc04580	0.09388256
20	0xbdb7eb1e	-0.08980392
21	0x3e449c60	0.19200277
22	0x3d1ef868	0.038811117
23	0x3deeb364	0.1165531
24	0xbe0a1280	-0.1348362
25	0x3a6003dc	0.0008545497
26	0xbde023f6	-0.10944359
27	0x3d1d9fb0	0.038482368
28	0xbe58cb56	-0.21171317
29	0xbd4fb1cc	-0.05070667

6.weight f4 [30]
0	0x3f7604ca	0.9610106
1	0x3f624872	0.8839179
2	0x3f5a8740	0.85362625
3	0x3f3fd443	0.7493326
4	0x3f6a2e43	0.9147684
5	0x3f6d671e	0.9273547
6	0x3f67970e	0.90464866
7	0x3f7e304c	0.99292445
8	0x3f7609ce	0.9610871
9	0x3f7fb261	0.9988156
10	0x3f5cbf00	0.8622894
11	0x3f838f50	1.027811
12	0x3f6d27af	0.9263868
13	0x3f7443fd	0.9541624
14	0x3f71c593	0.944421
15	0x3f5553ac	0.833308
16	0x3f7cbb4f	0.9872331
17	0x3f6b2607	0.918549
18	0x3f676143	0.90382785
19	0x3f7aa082	0.97901165
20	0x3f7961ae	0.9741467
21	0x3f6704a2	0.90241444
22	0x3f7a39f4	0.9774468
23	0x3f7b468c	0.9815452
24	0x3f79c6cc	0.97568965
25	0x3f5f30e5	0.8718398
26	0x3f50f2fd	0.8162077
27	0x3f689ea2	0.90867054
28	0x3f577b47	0.8417248
29	0x3f77b25b	0.96756524

6.bias f4 [30]
0	0xbd08107f	-0.033218857
1	0xbd4ec30e	-0.050478987
2	0xbdc0deef	-0.09417521
3	0x3e3ace3d	0.18242736
4	0x3c93b44a	0.018030304
5	0x38a259f9	7.741521e-05
6	0x3b5d74cc	0.003379154
7	0xbdd5682c	-0.1042026
8	0xbcb7b71e	-0.022426184
9	0xbe35d816	-0.17758211
10	0xbd914d56	-0.07094829
11	0x3cb4915d	0.02204197
12	0x3e5527e2	0.20815995
13	0x3df3f955	0.11912791
14	0xbcc5401c	-0.024078421
15	0x3e016ff4	0.12640363
16	0x3e308c0e	0.17240927
17	0x3da2931a	0.07938214
18	0xbe4ae30d	-0.19813175
19	0xbd1b35b8	-0.037893027
20	0x3d86e4f1	0.06586636
21	0x3dd05861	0.10173107
22	0x3e19d020	0.150208
23	0x3da6f23b	0.081516705
24	0x3ca2cdf9	0.019873606
25	0x3e1156d3	0.14193277
26	0x3ce8d7ed	0.028423274
27	0x3dd2f600	0.10300827
28	0x3ab52308	0.0013819644
29	0x3da9b177	0.08285802

6.running_mean f4 [30]
0	0x3c5f65d0	0.013635114
1	0x3e063217	0.13105045
2	0x3e108215	0.14112122
3	0xbe45323f	-0.19257449
4	0xbe411a02	-0.18857577
5	0xbe060ece	-0.13091585
6	0x3e3c6c80	0.18400764
7	0x3c785e2f	0.015159174
8	0x3e65ff80	0.22460747
9	0x3d2f8f4d	0.04286127
10	0x3e45e83a	0.19326869
11	0xbe065a4a	-0.1312038
12	0x3d179395	0.03700598
13	0xbde88a42	-0.113544956
14	0xbd862c58	-0.06551427
15	0x3e315f66	0.17321548
16	0x3e743f24	0.23852211
17	0xbe91e910	-0.28498125
18	0x3dfef796	0.12449567
19	0x3e2d7421	0.16938831
20	0xbd60aa76	-0.054850064
21	0x3e32fe5e	0.17479846
22	0xbbab2b5a	-0.005223674
23	0x3dc6f7fb	0.09715267
24	0xbe074591	-0.13210131
25	0x3be833d2	0.0070862556
26	0xbe29fa45	-0.16599376
27	0x3cae63cf	0.021287827
28	0xbe863dd1	-0.26219037
29	0xbdac3916	-0.08409326

6.running_var f4 [30]
0	0x3d4b8238	0.049684733
1	0x3d1acf44	0.03779532
2	0x3d0f80f3	0.035035085
3	0x3c73c0ec	0.014877539
4	0x3d7cfbc4	0.06176354
5	0x3d990fd8	0.07473725
6	0x3d3823c1	0.044955973
7	0x3cacccd6	0.021093767
8	0x3d5b8f55	0.05360349
9	0x3c871a4a	0.016492028
10	0x3d4fe2bc	0.05075334
11	0x3cfce527	0.030870987
12	0x3cc083b1	0.023500295
13	0x3d4ad1a0	0.04951632
14	0x3c5f9efc	0.013648745
15	0x3cb3ea2f	0.021962253
16	0x3ca5330d	0.020165944
17	0x3d7125e9	0.058874045
18	0x3ce73c3a	0.02822696
19	0x3d25e155	0.040498096
20	0x3d3e35e1	0.0464381
21	0x3d47b399	0.048755262
22	0x3cb6ce59	0.022315191
23	0x3d5d3754	0.054007843
24	0x3cea9f04	0.028640278
25	0x3c42d325	0.011891161
26	0x3d54359b	0.051808935
27	0x3d47a1ea	0.048738398
28	0x3cf1f3fb	0.029535284
29	0x3c1157b5	0.008871009

8.weight f4 [60, 30]
0	0xbe077a2f	-0.13230203
1	0xbd32a3a5	-0.043613095
2	0x3ca4d9ee	0.020123448
3	0x3d0d00d1	0.034424607
4	0x3d558b44	0.052134767
5	0xbd6d46ab	-0.057928722
6	0xbe1da0c7	-0.15393363
7	0x3de113e9	0.10990126
8	0x3dd0cb08	0.10194975
9	0xbc850307	-0.016236795
10	0x3e127493	0.14302282
11	0xbd9896c3	-0.074506305
12	0xbdb63e41	-0.08898593
13	0x3e42a585	0.19008453
14	0xbe467db1	-0.19383885
15	0xbe034d1f	-0.12822388
16	0xbe0ebbe3	-0.1393886
17	0xbd31ee35	-0.043440063
18	0x3daa10f2	0.08304013
19	0xbdce6c8b	-0.10079297
20	0x3d0c2aac	0.034220383
21	0xbe1a7538	-0.15083778
22	0xbe37d095	-0.17950661
23	0xbde8cafd	-0.11366842
24	0xbcca89c9	-0.024723904
25	0xbe01fdc9	-0.12694468
26	0x3d4e22ac	0.050326034
27	0xbd3244b6	-0.04352256
28	0xbda1a517	-0.078928165
29	0xbb8d1348	-0.004305277
30	0x3e83e1ac	0.2575811
31	0xbe8ef39c	-0.27920234
32	0x3dd6e9d3	0.10493817
33	0x3ef3d601	0.4762421
34	0xbb6e2073	-0.003633526
35	0xbd37c8f2	-0.04486937
36	0x3c1a3875	0.0094128745
37	0xbe145bb8	-0.14488113
38	0x3d86d278	0.065831125
39	0x3d93afba	0.072112516
40	0xbc1482b1	-0.009064362
41	0x3e0e8d66	0.13921127
42	0xbe16d2fc	-0.14728922
43	0xbe160939	-0.14651956
44	0x3c4f3bfd	0.01264858
45	0x3e867a8f	0.2626538
46	0x3df27730	0.118391395
47	0xbdb9f3cf	-0.09079706
48	0x3defe254	0.117130905
49	0x3e0c6d5c	0.13713592
50	0x3dea7f9e	0.11450122
51	0x3c89111c	0.016731791
52	0xbdcf5e1a	-0.1012537
53	0xbebf8dd9	-0.3741291
54	0xbe0b82a0	-0.13624048
55	0xbe370be0	-0.17875624
56	0x3df03f1a	0.11730786
57	0x3d3b842f	0.045780357
58	0x3c0732a5	0.008251821
59	0xbca04750	-0.019565254
60	0xbde9bf30	-0.11413419
61	0x3da14b00	0.07875633
62	0xbd901cfa	-0.07036777
63	0x3e137360	0.14399481
64	0x3c6345ca	0.0138716195
65	0x3cfcba13	0.030850446
66	0xbd887d00	-0.06664467
67	0xbc2a8a7a	-0.010408992
68	0x3c92f72e	0.01794013
69	0xbc3d2a36	-0.011545708
70	0x3d64e3b8	0.055881232
71	0x3c0a5d5d	0.008445111
72	0x3daaf9b0	0.08348405
73	0xbe1c2e49	-0.15252031
74	0xbc4dc748	-0.012559719
75	0x3bfde22e	0.00774791
76	0xbe901aa6	-0.2814533
77	0x3de27736	0.11057894
78	0xbb71160e	-0.0036786827
79	0x3d6271ff	0.055284496
80	0x3e03f957	0.12888084
81	0x3e3b1bef	0.18272375
82	0x3e45dc0c	0.19322222
83	0xbe12c82d	-0.14334174
84	0x3beb241e	0.0071759364
85	0x3d36be2e	0.044614963
86	0x3ba50173	0.005035573
87	0xbd128c07	-0.03577807
88	0xbdbaa17d	-0.09112833
89	0x3d491745	0.049094457
90	0xbdbf4025	-0.093384065
91	0x3df080c6	0.117433116
92	0xbc3c29f6	-0.011484614
93	0xbd48d885	-0.049034614
94	0x3dc7c863	0.097550176
95	0x3dfdfc08	0.12401587
96	0x3e144010	0.14477563
97	0xbdf54e11	-0.119777806
98	0x3d24d6e3	0.040243994
99	0xbda38edb	-0.07986232
100	0xbd92d320	-0.07169175
101	0xbbec9555	-0.00721995
102	0x3d360923	0.044442307
103	0xbddcea53	-0.10786881
104	0x3d658cb7	0.0560424
105	0xbe1cf208	-0.15326703
106	0x3d0e1e14	0.034696653
107	0x3e28108a	0.16412559
108	0x3e44deb3	0.19225578
109	0x3d3bd5ea	0.0458583
110	0x3e0f27ab	0.13979976
111	0xbe1d8531	-0.1538284
112	0xbda6b6a1	-0.081403024
113	0x3d5979db	0.053094726
114	0x3cfb8524	0.030703135
115	0xbc1f36fd	-0.0097177
116	0xbd9c7666	-0.0763977
117	0x3d76601c	0.06015025
118	0xbdd3de27	-0.103451066
119	0x3defcbd4	0.11708799
120	0x3dc9acc1	0.09847403
121	0xbd9a6584	-0.07538894
122	0x3d7dc0a6	0.061951302
123	0xbdbcb4a4	-0.09214142
124	0xbe22014d	-0.15820809
125	0xbdfaa2bf	-0.122380726
126	0xbd9f6fe9	-0.07785017
127	0xbd08933e	-0.033343546
128	0xbe67edbf	-0.22649287
129	0x3da78ee1	0.08181549
130	0xbd0d1157	-0.034440365
131	0xbd95c202	-0.07312395
132	0x3e893582	0.26798636
133	0xbe69626b	-0.2279145
134	0xbde7ba5d	-0.11314843
135	0x3e1a3d48	0.1506244
136	0xbac5a83e	-0.0015080047
137	0xbeb67ed0	-0.35643625
138	0x3d833331	0.06406248
139	0x3e163caf	0.14671586
140	0x3d9d68e3	0.07686021
141	0xbdb69d6f	-0.08916747
142	0xbd109738	-0.035300463
143	0x3cf372f0	0.029717892
144	0x3d0d5e06	0.034513496
145	0xbee1c37f	-0.44094464
146	0x3dfcba43	0.12340214
147	0x3ebf0895	0.37311235
148	0x3dad34de	0.08457349
149	0x3db476f4	0.08811751
150	0xbbb725a0	-0.005589202
151	0xbd30cdde	-0.04316508
152	0x3dd49535	0.103800215
153	0xbde8e4d0	-0.113717675
154	0x3c6bce57	0.014392457
155	0x3e4424f5	0.19154723
156	0x3d80c837	0.06288188
157	0x3d92547f	0.071450226
158	0xbc96f13e	-0.01842558
159	0x3dc287fb	0.094985925
160	0xbdda8c8d	-0.10671339
161	0x3e052f57	0.1300634
162	0xbe0ab288	-0.13544667
163	0xbe0ecd56	-0.13945517
164	0x3d987375	0.07443897
165	0xbe063119	-0.13104667
166	0xbdf3c049	-0.1190191
167	0xbd25b921	-0.040459756
168	0xbdf0546b	-0.117348514
169	0xbe263c80	-0.16234016
170	0xbcc0adb1	-0.023520323
171	0x3d9b5948	0.075853884
172	0xbd9cb446	-0.07651572
173	0x3de4bb8d	0.11168585
174	0xbda16f63	-0.078825735
175	0xbe8b9c59	-0.2726772
176	0xbdaae00b	-0.08343514
177	0xbdae87fa	-0.08522029
178	0x3e08f3db	0.13374273
179	0x3ef0f8e5	0.4706489
180	0xbe833eb7	-0.25633785
181	0xbd618ba5	-0.055064816
182	0xbda98418	-0.08277148
183	0x3c9e2614	0.019305266
184	0x3de31e59	0.11089773
185	0x3dd6d37e	0.10489558
186	0xbe4275cd	-0.1899025
187	0xbede2973	-0.43390998
188	0xbde97086	-0.11398415
189	0xbed63038	-0.41833663
190	0xbda0a99f	-0.07844853
191	0x3e02a66e	0.127588
192	0xbd16d3fa	-0.03682325
193	0xbe8f2428	-0.27957273
194	0xbdd12e42	-0.10213901
195	0x3e5dadf4	0.21648389
196	0xbd84548b	-0.06461438
197	0x3dd21bfb	0.10259243
198	0xbe7ff4c4	-0.24995714
199	0xbe1e0a96	-0.15433726
200	0xbe52ebd8	-0.2059778
201	0xbdecad70	-0.11556518
202	0xbe7ea843	-0.24868874
203	0x3d9704c5	0.073739566
204	0xbe11d5ba	-0.14241686
205	0x3d024d80	0.03181219
206	0xbe2e5468	-0.17024386
207	0x3c897b51	0.016782435
208	0xbd6d74b0	-0.05797261
209	0x3eab5995	0.33466783
210	0x3df264f0	0.118356586
211	0x3ba37978	0.0049888454
212	0x3b9f5aee	0.0048631346
213	0xbcc45703	-0.023967272
214	0x3e0d5957	0.13803612
215	0xbdcfa571	-0.10138977
216	0xbe13f72c	-0.14449757
217	0x3c42bce0	0.011885852
218	0xbe3642d5	-0.17798932
219	0xbcc0c684	-0.02353216
220	0xbe5672d1	-0.20942236
221	0x3e037f0d	0.12841435
222	0xbeddbfdb	-0.43310437
223	0xbdcd45bf	-0.10023069
224	0x3da099b6	0.07841818
225	0x3d2310ab	0.039810818
226	0xbd035d55	-0.03207143
227	0x3de13eae	0.10998283
228	0xbdece13b	-0.11566397
229	0xbe1d535b	-0.15363829
230	0x3dd2acd3	0.1028687
231	0x3e746e29	0.23870148
232	0x3d9aaea2	0.0755284
233	0xbe900739	-0.2813051
234	0xbcf42450	-0.029802471
235	0x3dbf1e10	0.09331906
236	0xbd528cd1	-0.051403824
237	0x3df1e4bd	0.118112065
238	0x3debf2ea	0.115209416
239	0xbc2df1c2	-0.010616722
240	0x3da1c3c1	0.07898665
241	0x3d42224b	0.047395986
242	0x3df36a98	0.118855655
243	0xbe014058	-0.12622201
244	0x3c16ac77	0.009196392
245	0x3d51060f	0.05103117
246	0xbd69aff1	-0.057052556
247	0xbd18396b	-0.037164133
248	0xbd76c22e	-0.060243778
249	0x3ddabdde	0.106807455
250	0x3c5ef999	0.013609313
251	0x3d92a61c	0.07160589
252	0xbd7e746e	-0.062122755
253	0xbe4a6c91	-0.19767977
254	0xbe36b9fb	-0.17844383
255	0x3defdf94	0.11712566

8.bias f4 [60]
0	0xbee774ae	-0.45206207
1	0xbdd7eea4	-0.10543564
2	0x3dcbf111	0.09958089
3	0xbc312798	-0.010812663
4	0xbdbca0b5	-0.0921034
5	0xbeae0dcb	-0.33994898
6	0x3da33afc	0.07970235
7	0x3cf5334b	0.029931685
8	0x3d4a3851	0.049370114
9	0xbe872255	-0.2639338
10	0x3e4d130f	0.20026802
11	0x3d091c66	0.03347435
12	0xbd7c03d0	-0.061527073
13	0xbcc47755	-0.023982683
14	0x3c72c1ab	0.014816682
15	0xbd032078	-0.032013386
16	0x3c264d0c	0.010150205
17	0x3ce0f8df	0.027462421
18	0xbe1a297f	-0.15054892
19	0x3e0a9ebc	0.13537115
20	0xbe356143	-0.17712884
21	0xbba7508d	-0.005106038
22	0x3c8c0512	0.017092261
23	0x3d49a6e4	0.049231425
24	0xbe044251	-0.12915923
25	0xbbf0c248	-0.007347379
26	0x3b63813b	0.0034714479
27	0x3b89c206	0.0042040376
28	0xbdfddccc	-0.12395629
29	0x3c9028d0	0.017597586
30	0xbd16a7c2	-0.03678108
31	0x3d50d27d	0.050981987
32	0xbd90ee17	-0.07076662
33	0x3d277a35	0.04088803
34	0xbc6c1503	-0.014409306
35	0xbc74d053	-0.0149422465
36	0x3c2e4330	0.010636136
37	0x3d885631	0.06657065
38	0xbbadea32	-0.0053074593
39	0xbc11b7ef	-0.008893951
40	0x3d8fa7ae	0.07014404
41	0x3ceb3247	0.028710498
42	0xbc66bff2	-0.014083849
43	0x3cb9c22d	0.022675598
44	0xbcb832cd	-0.022485161
45	0xbc8f5a6f	-0.017499177
46	0x3d94fa65	0.072743215
47	0xbc96119c	-0.018318944
48	0x3d67c90c	0.056588218
49	0x3c193f85	0.009353523
50	0xbc9067bc	-0.01762759
51	0xbcccdbd3	-0.025007164
52	0x3d9e6dd6	0.07735793
53	0x3c8fa4c0	0.017534614
54	0xbd13f5ec	-0.0361232
55	0xbd08df58	-0.033416122
56	0x3dbb583f	0.09147691
57	0x3cd7a6ef	0.026324717
58	0xbdbd8b50	-0.092550874
59	0x3d6bc870	0.0575642
