offline_prototype_3_ds_as_sampling/trained_models/ae_model_ransomware_directory_trap.pth (torch, 7551 bytes, 16 tensors)

0.weight f4 [8, 20]
0	0x3b9f5cf0	0.004863374
1	0xbe7fae25	-0.24968775
2	0x3e980df4	0.29698145
3	0x3c6ade9e	0.014335303
4	0x3e330d91	0.17485644
5	0x3cf06bee	0.02934834
6	0x3d258f41	0.04041982
7	0xbdcbe81e	-0.09956382
8	0xbd79c367	-0.060977366
9	0xbd22bdf8	-0.03973195
10	0x3e7d6f00	0.24749374
11	0xbd4b2912	-0.049599715
12	0x3d3b3c88	0.045712024
13	0xbe471f5b	-0.19445555
14	0xbcb3ee9c	-0.021964364
15	0xbe48093c	-0.19534773
16	0xbe4d3627	-0.20040189
17	0xbe10620b	-0.140999
18	0x3dc54832	0.09632911
19	0x3ceafaa4	0.028683968
20	0x3cc3e1f6	0.023911458
21	0x3ed123f1	0.40847734
22	0xbd42ec99	-0.04758892
23	0x3c972764	0.0184514
24	0x3dacf129	0.08444435
25	0x3de296b2	0.11063899
26	0x3c819137	0.015816314
27	0x3da9dab4	0.082936674
28	0x3dbdedf1	0.09273899
29	0x3d98f508	0.07468611
30	0xbe0373d7	-0.12837158
31	0xbd727f9a	-0.05920372
32	0x3db140e3	0.08654954
33	0x3deebcdc	0.11657116
34	0x3d33faf1	0.04394049
35	0xbdef8048	-0.116943896
36	0xbde10500	-0.10987282
37	0x3ddf86f4	0.10914412
38	0x3c07a600	0.008279324
39	0xbd59b92c	-0.05315511
40	0xbde3c15c	-0.11120865
41	0xbdcfe136	-0.101503775
42	0xbe6ddbda	-0.23228398
43	0xbe3d355a	-0.18477383
44	0x3df3d8d3	0.1190659
45	0x3e9585fc	0.29203784
46	0xbd2c3462	-0.042042144
47	0x3d30758c	0.04308085
48	0xbdbd6209	-0.09247214
49	0xbd831769	-0.064009495
50	0x3df2d586	0.118571326
51	0x3d8a7cf0	0.06762111
52	0x3d129614	0.035787657
53	0xbd0d6a1e	-0.03452503
54	0x3da96fc3	0.0827327
55	0xbcb4b53d	-0.022059077
56	0x3d3b4e31	0.045728866
57	0x3d83ec5e	0.06441568
58	0xbc8db3d7	-0.017297668
59	0x3c2158f5	0.009847869
60	0xbdaa8d74	-0.08327761
61	0xbe8cbbb5	-0.2748696
62	0x3e5b6f11	0.21429087
63	0xbcc18625	-0.023623535
64	0xbe41025e	-0.1884856
65	0xbe5e9103	-0.21735005
66	0x3d94ff4d	0.07275257
67	0xbd4a503b	-0.04939292
68	0xbd85193c	-0.06498954
69	0xbe08eb43	-0.13370995
70	0xbd3c2998	-0.045938104
71	0x3d3035bd	0.04302
72	0xbc77ecbb	-0.015132125
73	0xbe49ee5f	-0.19719838
74	0x3ddf9ba7	0.1091836
75	0x3da5d1c0	0.08096647
76	0x3daa1917	0.08305567
77	0xbdd406cc	-0.10352859
78	0xbdf3a715	-0.11897103
79	0x3cc65b00	0.024213314
80	0x3d26f577	0.040761437
81	0x3ea6c489	0.3257182
82	0x3e3764b9	0.17909516
83	0xbe07fd57	-0.13280235
84	0xbdbb34cb	-0.09140929
85	0xbe692621	-0.22768451
86	0xbcd03719	-0.025416898
87	0xbda92e49	-0.08260781
88	0xbe131bc3	-0.14366059
89	0xbd2e0a0d	-0.042490054
90	0x3d826d3b	0.0636849
91	0x3d85ac53	0.06527009
92	0x3a4de061	0.00078535645
93	0xbd98bacc	-0.07457504
94	0xbe2fab82	-0.17155269
95	0x3dceb7de	0.10093664
96	0x3c343f38	0.011001401
97	0xbd808cfe	-0.06276892
98	0x3cca128e	0.02466705
99	0xbdcbc96e	-0.09950529
100	0x3cc99a45	0.024609694
101	0x3e0d06cf	0.13772129
102	0xbe534987	-0.20633517
103	0xbe453448	-0.19258225
104	0xbe718f2c	-0.23589772
105	0xbd386773	-0.045020532
106	0xbe495aea	-0.19663587
107	0x3e193066	0.14959869
108	0x3c296e8d	0.010341299
109	0x3d805e9b	0.062680446
110	0xbb369946	-0.0027862354
111	0xbaecaced	-0.0018056907
112	0x3debec5e	0.11519693
113	0x3d85a924	0.06526402
114	0xbc5605b1	-0.01306288
115	0xbd987c86	-0.07445626
116	0xbc79e334	-0.015251923
117	0x3d13b84a	0.036064424
118	0xbd95b4e2	-0.07309891
119	0xbdef0f57	-0.11672848
120	0xbe3f9e3e	-0.18712708
121	0xbe82209b	-0.254155
122	0x3e16caf3	0.14725856
123	0xbe5ffc4f	-0.21873592
124	0xbd8622d4	-0.06549612
125	0x3e3ca9f5	0.18424208
126	0x3dfbf8b8	0.12303299
127	0x3e485e76	0.19567284
128	0x3d018102	0.031617172
129	0x3dba4cdf	0.09096693
130	0x3e660697	0.22463451
131	0xbc5a7111	-0.013332621
132	0xbe4737f8	-0.19454944
133	0x3c1d9567	0.00961814
134	0x3dc742f7	0.097295694
135	0xbdda6d21	-0.10665346
136	0xbdfeff2e	-0.124510154
137	0x3d2b75b7	0.04186031
138	0x3e238700	0.15969467
139	0x3de89eda	0.113584235
140	0xbdfe6cb1	-0.12423075
141	0xbeab3dcd	-0.33445588
142	0x3d902290	0.07037842
143	0x3d5d4b62	0.05402697
144	0x3e6ba169	0.23010792
145	0xbdd42cfe	-0.10360144
146	0x3e3b4dcc	0.18291396
147	0x3e138d6f	0.14409421
148	0x3d886433	0.066597365
149	0x3dadf7bf	0.084945194
150	0xbe01d658	-0.12679422
151	0x3d178e75	0.037001092
152	0xbe6a5050	-0.228822
153	0x3e337d59	0.17528285
154	0x3e41ecbc	0.18937963
155	0x3dfd4f1e	0.12368606
156	0x3d6b5d5f	0.057462092
157	0x3ca86925	0.02055795
158	0xbe0b6e85	-0.13616379
159	0x3e662e38	0.22478569

0.bias f4 [8]
0	0xbdd5b63d	-0.1043515
1	0x3d149228	0.036272198
2	0xbccf11d8	-0.025277063
3	0x3dbbed24	0.0917609
4	0x3d0e90f8	0.03480622
5	0x3e41f9e2	0.18942979
6	0xbe5517d4	-0.20809871
7	0xbe0ae3b4	-0.13563424

1.weight f4 [8]
0	0x3f681a4d	0.9066513
1	0x3f853d98	1.0409422
2	0x3f3e9621	0.7444783
3	0x3f722a86	0.94596136
4	0x3f83f95d	1.0310475
5	0x3f426f92	0.7595149
6	0x3f7456cc	0.9544494
7	0x3f716d9d	0.9430788

1.bias f4 [8]
0	0x3d107726	0.03526988
1	0xbaaa0d5b	-0.0012973951
2	0x3ee0da20	0.43916416
3	0x3e3161d6	0.17322478
4	0x3dda1a4c	0.10649547
5	0x3df2e19a	0.11859436
6	0x3e0670f6	0.13129029
7	0xbc9f045d	-0.01941126

1.running_mean f4 [8]
0	0xbd7d0f77	-0.061782327
1	0x3acd2a29	0.0015652823
2	0xbd192a40	-0.03739381
3	0x3e46329a	0.1935524
4	0x3daa6158	0.08319348
5	0x3e282bb5	0.16422923
6	0xbdda5f1d	-0.10662673
7	0xbd34e2cc	-0.044161603

1.running_var f4 [8]
0	0x3cbc9f05	0.023025045
1	0x3d42e6fd	0.04758357
2	0x3cf7ab01	0.030232908
3	0x3d1757e2	0.036949046
4	0x3d2fed87	0.042951133
5	0x3cc14730	0.023593515
6	0x3d24414a	0.040101327
7	0x3d46f4d0	0.048573315

3.weight f4 [4, 8]
0	0x3dd20646	0.10255103
1	0xbe87e553	-0.26542148
2	0x3d544f32	0.05183334
3	0x3e8a49a7	0.27009317
4	0xbd431af1	-0.047633115
5	0x3e5f8680	0.21828651
6	0x3e8f409c	0.2797898
7	0xbe66a390	-0.22523332
8	0xbce6a334	-0.028153993
9	0x3ecb715a	0.39734918
10	0x3d9e8dc0	0.077418804
11	0x3e04c118	0.12964284
12	0x3eaf6faf	0.34264895
13	0xbd92d0e2	-0.071687475
14	0xbea2bc90	-0.31784487
15	0xbeab357f	-0.33439252
16	0x3ce07e98	0.027404115
17	0x3e2f3ba5	0.17112596
18	0xbee99f57	-0.4562938
19	0x3e4a248c	0.19740504
20	0x3e6c13cf	0.23054431
21	0xbdf0c8ab	-0.117570244
22	0x3d28c40b	0.041202586
23	0xbcdb2168	-0.026749328
24	0x3e1b9827	0.1519476
25	0xbd400657	-0.046881046
26	0x3c446270	0.01198636
27	0x3e114b6f	0.14188932
28	0xbdb384b4	-0.087655455
29	0xbe955186	-0.2916376
30	0x3dbf02ff	0.09326743
31	0xbd999118	-0.074983776

3.bias f4 [4]
0	0x3e0089a8	0.12552512
1	0x3a56517a	0.0008175593
2	0x3e27c18b	0.16382425
3	0x3e9429a7	0.28938028

5.weight f4 [8, 4]
0	0xbead1123	-0.33802137
1	0xbe56a26c	-0.20960397
2	0x3c7ecdbb	0.01555198
3	0xbebbdd54	-0.36692297
4	0xbd590f89	-0.05299333
5	0x3e63423a	0.22193232
6	0xbf03798a	-0.5135733
7	0x3e09fb9a	0.13474885
8	0x3e35464a	0.17702594
9	0xbe9069f7	-0.28205845
10	0x3e3cb9d6	0.18430266
11	0xbe9555ba	-0.29166967
12	0xbe95f47b	-0.29288086
13	0x3eb40f47	0.35167906
14	0xbe746472	-0.23866442
15	0xbe2a23c6	-0.16615209
16	0xbe96d304	-0.29457867
17	0x3ef8e8a0	0.4861498
18	0xbcbb9c24	-0.022901602
19	0xbeb3bb1d	-0.35103694
20	0xbddd8ee1	-0.108182676
21	0xbe0c2bfd	-0.13688655
22	0xbead15df	-0.3380575
23	0x3ed23698	0.41057277
24	0xbee40f80	-0.44543076
25	0x3c936db3	0.017996645
26	0x3e00af59	0.1256689
27	0x3ee99a26	0.45625418
28	0x3e5874e3	0.21138339
29	0x3eda137d	0.42592993
30	0xbd874bf6	-0.06606285
31	0xbd5c489c	-0.053780183

5.bias f4 [8]
0	0xbcb17fde	-0.021667417
1	0x3ed8e71e	0.42363828
2	0xbd055a60	-0.03255689
3	0xbe8ca0d2	-0.27466446
4	0x3e047748	0.12936127
5	0x3eed7300	0.463768
6	0x3e060818	0.13089025
7	0xbe86e9b0	-0.26350164

6.weight f4 [8]
0	0x3f5cfee9	0.8632646
1	0x3f2250ea	0.63404715
2	0x3f64b53f	0.8933906
3	0x3f57f7f8	0.84362745
4	0x3f6ed557	0.9329428
5	0x3f6ba8c2	0.9205438
6	0x3f3f133c	0.74638724
7	0x3f69a077	0.91260475

6.bias f4 [8]
0	0x3c883203	0.01662541
1	0x3ed76c50	0.42074823
2	0xbd896f4e	-0.06710683
3	0x3e97e8eb	0.2966989
4	0x3ce09a21	0.027417244
5	0x3e30a6ba	0.17251101
6	0x3ed514e6	0.41617507
7	0xbd785738	-0.060630053

6.running_mean f4 [8]
0	0xbe58ab3c	-0.2115907
1	0x3ed4181a	0.41424638
2	0xbda6ebf0	-0.0815047
3	0xbeaff886	-0.34369296
4	0x3d938ef5	0.07205001
5	0x3eeb09c4	0.45905888
6	0x3e16bd1b	0.14720576
7	0xbe23a68e	-0.15981504

6.running_var f4 [8]
0	0x3c596d37	0.013270668
1	0x3bf08d95	0.0073410966
2	0x3c158879	0.009126776
3	0x3d523690	0.051321566
4	0x3e06c75f	0.13161992
5	0x3d1dd795	0.038535673
6	0x3bfe27d4	0.0077562127
7	0x3d06f3fd	0.03294753

8.weight f4 [20, 8]
0	0xbd95f403	-0.07321932
1	0x3e325e5d	0.17418809
2	0xbde11494	-0.10990253
3	0xbe74a25a	-0.23890057
4	0xbea4f6f0	-0.32219648
5	0xbec121b8	-0.37721038
6	0xbd55da1e	-0.052209966
7	0x3e0bd88b	0.13656823
8	0x3e90dcc2	0.28293425
9	0xbdac85ed	-0.08423982
10	0xbea08a94	-0.31355727
11	0x3ef875c5	0.4852735
12	0x3e95b41d	0.29238978
13	0xbee044c3	-0.4380246
14	0x3c558821	0.013032944
15	0xbdf22ebc	-0.1182532
16	0xbef496d2	-0.47771317
17	0xbed8e55d	-0.4236249
18	0x3c32b9dc	0.01090857
19	0xbe334387	-0.17506228
20	0x3da9955f	0.082804434
21	0x3c6ed668	0.014577486
22	0x3e0d17a7	0.13778554
23	0x3ce86d4b	0.028372427
24	0x3ddd0d22	0.107935205
25	0xbedbbb0b	-0.4291614
26	0xbeca51c0	-0.39515495
27	0x3c55cb15	0.013048907
28	0xbde86850	-0.11348021
29	0x3da331d7	0.079684906
30	0x3f16b6e5	0.58872825
31	0xbec91721	-0.39275458
32	0x3e63a023	0.22229056
33	0x3efc7e75	0.4931523
34	0xbf1b71df	-0.6072063
35	0xbd850db4	-0.06496754
36	0xbdf3d0b7	-0.119050436
37	0x3e392d8c	0.18083781
38	0x3f1ed1aa	0.6203867
39	0x39519f18	0.0001999106
40	0xbe9a5061	-0.3013945
41	0x3edfd9c4	0.4372083
42	0xbc054a32	-0.008135365
43	0xbdbc11de	-0.091830954
44	0x3e519631	0.2046745
45	0x3f0fe5b1	0.56209856
46	0xbe01fa58	-0.12693155
47	0x3dd202bb	0.10254427
48	0xbe293e53	-0.16527681
49	0xbd57cf7d	-0.05268811
50	0x3e360344	0.17774683
51	0x3db56f79	0.08859152
52	0x3bda4936	0.0066615595
53	0x3e842d57	0.25815842
54	0x3ea3dafb	0.32003006
55	0xbc63ee48	-0.013911791
56	0x3de7b177	0.113131456
57	0xbd1de0e3	-0.038544547
58	0x3e9969db	0.29963574
59	0x3dca8ba3	0.09889915
60	0xbe8b1b02	-0.27169043
61	0xbe0faa33	-0.1402977
62	0xbe22167d	-0.15828891
63	0x3e67ca9c	0.22635883
64	0x3e65360a	0.22383896
65	0xbe381cfe	-0.1797981
66	0x3d5f5f23	0.05453409
67	0xbd8ee1d2	-0.069766656
68	0x3d8473a8	0.06467372
69	0x3dfb6308	0.12274748
70	0x3e03b099	0.12860335
71	0xbcec8043	-0.028869754
72	0x3e136397	0.1439346
73	0xbde35ccc	-0.11101684
74	0x3dfa41e1	0.12219597
75	0x3d999ec9	0.07500989
76	0xbd6268af	-0.055275615
77	0x3d985603	0.074382804
78	0xbd11ce26	-0.03559699
79	0x3c494f04	0.012286905
80	0xbdb04966	-0.0860775
81	0x3d7e9060	0.062149405
82	0xbdda4d80	-0.10659313
83	0xbcbd7f40	-0.023131967
84	0x3e99452f	0.29935595
85	0x3c963209	0.018334405
86	0xbde93cbf	-0.113885395
87	0xbe4b3933	-0.19846039
88	0xbe03d29b	-0.12873308
89	0x3cf9b0d3	0.030479824
90	0xbcc28245	-0.023743758
91	0x3e0e8ba3	0.13920455
92	0x3dd628b5	0.10456983
93	0x3c89a5ca	0.016802687
94	0xbd180240	-0.03711152
95	0xbe44bfe6	-0.19213828
96	0x3ca5486c	0.020176135
97	0x3e18a7ed	0.14907809
98	0xbdf8d23b	-0.12149473
99	0x3e310b03	0.17289357
100	0xbdefd083	-0.11709692
101	0xbd31c77e	-0.04340314
102	0xbe8f7951	-0.28022245
103	0xbf0105ad	-0.50399286
104	0x3e119f75	0.14220984
105	0x3d231a29	0.03981987
106	0xbcd09fd9	-0.025466846
107	0xbdc6166d	-0.09672246
108	0xbe4d99da	-0.20078221
109	0xbe4fcf9f	-0.20294045
110	0xbb98ab3c	-0.0046590846
111	0xbee3e62b	-0.44511542
112	0xbd3ffb12	-0.0468703
113	0x3db0b50d	0.08628283
114	0x3da139eb	0.07872375
115	0xbc4a2894	-0.012338776
116	0xbe6ac2ba	-0.22925845
117	0xbd7f4b7b	-0.062327843
118	0x3dfb323d	0.122654416
119	0x3e16999c	0.14707035
120	0x3ce81673	0.028331017
121	0x3cdcb9a8	0.026943997
122	0x3c3569a8	0.011072554
123	0xbe66a7b2	-0.22524908
124	0xbc1b37cd	-0.009473753
125	0xbe2d6245	-0.16932018
126	0x3dbb67be	0.091506466
127	0x3db7348c	0.089455694
128	0xbdae35ef	-0.08506381
129	0x3d090129	0.033448372
130	0xbcd69743	-0.026195174
131	0x3e8125f7	0.25224277
132	0xbdb28c56	-0.08718173
133	0xbd0655a3	-0.032796513
134	0xbda5679c	-0.080764025
135	0xbed005e5	-0.40629497
136	0xbd5aac6c	-0.05338709
137	0x3db36daa	0.08761151
138	0x3dd16a94	0.10225406
139	0x3e75d5a6	0.24007282
140	0xbe035b67	-0.12827836
141	0x3dd77780	0.1052084
142	0xbde5ce97	-0.112210445
143	0x3cac9313	0.021066224
144	0x3c2f1077	0.010685078
145	0xbd2da011	-0.04238898
146	0x3c905dff	0.017622946
147	0x3dbf4cb8	0.09340805
148	0xbe27ed5a	-0.16399136
149	0x3ce1155f	0.02747601
150	0x3d802aa9	0.06258137
151	0x3d18ae26	0.037275456
152	0x3b5a9f9e	0.00333593
153	0xbe299211	-0.16559626
154	0xbdafb0e8	-0.08578664
155	0x3e865a6b	0.26240858
156	0x3d701a85	0.05861904
157	0x3ebf7ce2	0.37399966
158	0xbdf9385e	-0.12168954
159	0xbe1fef39	-0.156186

8.bias f4 [20]
0	0xbf152918	-0.5826583
1	0xbe32375f	-0.17403935
2	0x3edc219b	0.4299439
3	0xbe802ad9	-0.2503269
4	0xbee7dadb	-0.4528416
5	0xbf0abe43	-0.54196566
6	0xbe641281	-0.22272684
7	0x3db15a89	0.08659846
8	0xbd3077ed	-0.04308312
9	0xbd1984cc	-0.03748016
10	0xbc7f2376	-0.015572419
11	0x3a16c18c	0.00057508866
12	0xbd91d7bf	-0.071212284
13	0xbc5744af	-0.013138934
14	0xbc270e08	-0.010196216
15	0x3d6778b6	0.056511603
16	0xbd1ca682	-0.03824473
17	0xbe0dcb74	-0.13847142
18	0x3cbbcdbc	0.02292525
19	0xbdd55470	-0.10416496
