offline_prototype_3_ds_as_sampling/trained_models/agent_0.pth (torch, 781007 bytes, 12 tensors)

fc1.weight f4 [256, 15]
-0.020912597 -0.02957171 -0.06756935 -0.11663785 -0.24706101 -0.1974377 -0.13728563 0.2567267
-0.13144352 -0.16571313 0.05983028 0.088234045 0.14498197 0.19498393 0.12396288 -0.2723885
0.020836214 0.14871354 -0.011487477 -0.15747125 0.25190276 -0.08128803 -0.16673301 -0.22763035
0.004163207 0.11071915 0.069986336 0.04753484 -0.19614096 -0.24975303 0.010513737 0.2336182
0.14254515 -0.13163061 -0.027444303 -0.18691623 -0.12146703 0.032006502 0.132928 0.22064297
-0.24147466 0.18583812 -0.18101114 0.09116924 0.1989535 0.009403883 0.23301695 -0.2294145
-0.08084583 0.15190405 -0.051085636 -0.04670778 -0.1208871 0.17171942 0.1365434 0.077669926
-0.13328977 -0.20574212 0.016255371 0.06114997 -0.1254095 -0.073247015 0.17754234 0.021702688
0.0005420968 -0.05979448 -0.23344812 -0.24420047 -0.1270191 -0.13205227 0.081445895 -0.07541405
-0.10597601 0.2521412 0.091488205 0.18969935 -0.12090311 -0.11483981 0.093356855 -0.18225774
-0.157385 -0.011582915 -0.08159775 -0.20056236 0.15949683 0.21678081 0.053506576 -0.041297987
-0.23852824 -0.106759526 0.063081816 0.11946193 -0.040538635 -0.08555816 0.14450781 -0.19497946
0.17454444 -0.11548647 0.0021618647 -0.05059211 0.03163946 -0.067391425 0.18526462 -0.010613258
0.19082373 0.2543029 -0.13346696 -0.19865097 0.22617926 0.20548622 -0.19219674 -0.015861368
-0.2699385 -0.216931 0.058222864 0.064740844 0.06925428 -0.06877956 0.22844267 0.017947495
-0.14966337 -0.020168794 0.06588486 0.08579111 -0.17853703 0.09318465 -0.13028564 -0.20863745
-0.13776632 0.24603504 0.2189445 0.22822438 0.15349887 0.19311887 -0.03675912 -0.14129366
0.127686 -0.14357892 -0.16173735 -0.08224 0.054319926 0.15123853 -0.120068885 -0.16029646
0.04347112 -0.15661661 -0.1589083 0.14212628 -0.051876538 0.23277915 0.24980804 0.06790622
0.086896874 0.06071046 0.009285214 -0.008462266 0.0020262904 0.100129865 0.24525373 -0.078609936
-0.10399865 -0.058441646 -0.12249532 0.042106587 0.18750024 0.20489176 0.12143878 -0.1957021
-0.119220726 -0.051012114 -0.046186704 0.028080631 -0.253624 0.078681886 -0.194693 -0.1683422
-0.20422436 0.2221301 -0.2550176 0.17342013 -0.008780598 -0.028840946 0.15938267 -0.010165818
0.16573362 0.19218962 -0.2133921 0.085335866 0.05163635 0.06273025 0.037295092 0.07589375
-0.12881526 -0.038539805 0.22789024 0.17217328 -0.014039127 -0.25327456 0.023342922 -0.17829503
0.22044435 -0.14053509 -0.03512969 -0.055553168 0.04571656 0.24197759 0.034931388 0.15216264
0.19508833 0.18593398 -0.082263924 -0.05532166 0.11160074 -0.052605078 0.11622979 -0.050433874
-0.17896108 0.105851516 0.033348303 0.13142532 0.24516346 0.19360688 0.24953987 0.0034582566
-0.24371716 -0.18159424 -0.1535835 -0.2329834 -0.12503703 -0.2450729 -0.25097096 -0.14697747
-0.260276 -0.15812314 0.11307801 0.20948903 -0.06667453 -0.07521567 0.13610369 -0.14434534
-0.12171515 0.15132132 -0.23441769 0.04367237 0.23436242 0.049638074 0.08030288 -0.16087086
-0.00167479 0.021963427 0.056518342 0.112847865 0.2233991 -0.20617644 -0.011270162 -0.13941172
00000000: e550 abbc 5f40 f2bc cd61 8abd d3df eebd
00000010: 90fd 7cbe 1c2d 4abe 9b94 0cbe af71 833e
00000020: 2199 06be b4b0 29be 9810 753d 0db4 b43d
00000030: 2776 143e dea9 473e 40e0 fd3d 8176 8bbe
00000040: b5b0 aa3c 5d48 183e f935 3cbc 2540 21be
00000050: 66f9 803e 577a a6bd 0fbc 2abe ee17 69be
00000060: 836b 883b b9c0 e23d ff54 8f3d e4b3 423d
00000070: 2dd9 48be 42bf 7fbe cf41 2c3c 9c39 6f3e
00000080: 5bf7 113e 2dca 06be e0d2 e0bc f866 3fbe
00000090: b5c3 f8bd 4019 033d 471e 083e 3bf0 613e
000000a0: 2245 77be 594c 3e3e fc5a 39be f0b6 ba3d
000000b0: 77ba 4b3e be12 1a3c ff9b 6e3e a2eb 6abe
000000c0: 8092 a5bd bc8c 1b3e 2c3f 51bd a850 3fbd
000000d0: a893 f7bd 37d7 2f3e 08d2 0b3e 6911 9f3d
000000e0: 1d7d 08be 10ae 52be fc29 853c 6478 7a3d
000000f0: 596b 00be 8802 96bd a9cd 353e d6c9 b13c
00000100: 801b 0e3a 0feb 74bd 060d 6fbe b00f 7abe
00000110: 4c11 02be b638 07be 1bcd a63d ae72 9abd
00000120: f309 d9bd a718 813e 2b5e bb3d 8c40 423e
00000130: 0d9c f7bd 2231 ebbd e131 bf3d c6a1 3abe
00000140: 8929 21be 44c6 3dbc b91c a7bd 3860 4dbe
00000150: 2353 233e cafb 5d3e b629 5b3d 1428 29bd
00000160: bf40 74be bda4 dabd 0a31 813d 75a8 f43d
00000170: d70b 26bd 1e39 afbd dbf9 133e b2a8 47be
00000180: c7bb 323e 2c84 ecbd 12ae 0d3b ac39 4fbd
00000190: 6198 013d 8404 8abd 02b6 3d3e 3be3 2dbc
000001a0: 4c67 433e fd33 823e 90ab 08be 296b 4bbe
000001b0: 899b 673e fb6a 523e 39cf 44be b3ef 81bc
000001c0: 6135 8abe 2923 5ebe 197b 6e3d d996 843d
000001d0: 30d5 8d3d 4cdc 8cbd e0ec 693e a006 933c
000001e0: 5b41 19be 0739 a5bc a4ee 863d 40b3 af3d
000001f0: 69d2 36be 98d7 be3d 9969 05be 0ea5 55be
00000200: 9d12 0dbe 9cf0 7b3e fd32 603e a7b3 693e
00000210: cf2e 1d3e f4c0 453e bb90 16bd 49af 10be
00000220: 1ec0 023e 5a06 13be 7a9e 25be 726d a8bd
00000230: 927e 5e3d 46de 1a3e ade6 f5bd c124 24be
00000240: c60e 323d 1b60 20be dbb8 22be 8d89 113e
00000250: 7e7c 54bd a85d 6e3e aecd 7f3e 6b12 8b3d
00000260: fdf6 b13d 88ab 783d 0321 183c 51a5 0abc
00000270: 83cb 043b e310 cd3d cb23 7b3e 3ffe a0bd
00000280: 3ffd d4bd 8260 6fbd d4de fabd f577 2c3d
00000290: 1000 403e 25cf 513e e5b4 f83d 2266 48be
000002a0: ff29 f4bd 14f2 50bd 452e 3dbd 5a09 e63c
000002b0: 01db 81be f823 a13d 9a5d 47be e661 2cbe
000002c0: 3120 51be 1376 633e ab91 82be 0c95 313e
000002d0: 7fdc 0fbc d943 ecbc 3635 233e 888e 26bc
000002e0: 13b6 293e 5bcd 443e 7583 5abe 92c4 ae3d
000002f0: a380 533d b878 803d bdc2 183d 2f6e 9b3d
00000300: 26e8 03be eadb 1dbd 0f5c 693e 314e 303e
00000310: 5e04 66bc 34ad 81be a839 bf3c f992 36be
00000320: 2abc 613e 6ee8 0fbe 26e4 0fbd b88b 63bd
00000330: 4a41 3b3d f9c8 773e 3714 0f3d 86d0 1b3e
00000340: 3cc5 473e 7a65 3e3e fd79 a8bd f798 62bd
00000350: ee8e e43d 6c78 57bd e209 ee3d c093 4ebd
00000360: 9341 37be aec8 d83d 3b98 083d 5c94 063e
00000370: 210c 7b3e e240 463e 6187 7f3e eba3 623b
00000380: fe90 79be d7f3 39be fe44 1dbe 3393 6ebe
00000390: b509 00be 64f4 7abe 447f 80be 4381 16be
000003a0: e542 85be 08eb 21be 7295 e73d 4b84 563e
000003b0: a88c 88bd ac0a 9abd c45e 0b3e 44cf 13be
000003c0: cb45 f9bd faf3 1a3e 310b 70be cde1 323d
000003d0: b4fc 6f3e 4b51 4b3d d675 a43d 55bb 24be
000003e0: a184 dbba a5ec b33c c77f 673d c81c e73d
000003f0: bcc2 643e eb1f 53be 7ca6 38bc f2c1 0ebe

fc1.bias f4 [256]
0.22788295 0.045693982 0.22910483 0.22508791 -0.2136934 -0.16697128 0.16717936 0.2566952
-0.2247065 0.01800031 -0.09972238 0.2562866 0.22780153 0.1964328 0.15431473 -0.0142096095
0.2551274 -0.11145312 0.022033244 -0.06276759 -0.17363383 -0.113283284 0.08164378 -0.012341269
-0.16208225 -0.024524858 0.062251564 -0.16076246 0.166883 -0.21990667 0.015856491 -0.20486778
-0.22926931 -0.01665731 0.24801455 0.2558703 0.10867902 0.21703736 -0.13089205 0.15734744
0.1735913 -0.2412098 -0.18841557 0.13499726 0.043204572 -0.16124415 -0.19675821 0.20071831
0.049646903 0.016283717 -0.23264095 0.23508427 -0.16132924 0.12853186 -0.036187936 0.025681503
0.13609119 -0.060889766 -0.07548236 0.22079428 -0.18890971 0.13062201 -0.054965988 -0.061522786
0.18077907 0.055220302 -0.23813652 0.24829951 -0.1165617 0.23850547 -0.062324062 0.27116066
0.07455376 0.0072129723 0.114738114 0.004094713 -0.113347396 0.15967567 0.18129696 -0.02137083
0.25871143 0.025459914 -0.13331534 -0.1297749 0.18656024 -0.097614765 0.1773147 -0.24684928
0.02320577 -0.17038819 0.10655042 0.22285058 0.11122799 -0.074852124 -0.23755269 -0.10071764
-0.14520791 0.2612076 -0.13419236 0.11074231 0.22330281 0.10881881 -0.21660808 -0.019637246
-0.049608324 0.18313612 -0.02047693 -0.008683084 0.24370155 0.07980819 0.12614438 -0.07000834
0.18586768 0.047966868 -0.056775678 0.058786158 -0.19657443 0.028155569 0.13642551 -0.24059545
-0.124084756 0.17323492 0.0066790683 0.0062783267 0.03375247 -0.10588977 0.23121223 -0.031522222
-0.07666855 0.14845748 -0.20966946 -0.036745764 0.03705498 -0.07113659 0.16101706 -0.20488842
-0.076950155 -0.08882606 0.25186038 0.116136074 -0.17323123 0.11857112 0.007214868 0.25641236
0.1497238 -0.13717335 0.24292497 -0.029023409 -0.042840008 0.08885481 0.2767473 0.084846005
-0.22383727 -0.06672475 0.2593566 -0.07861301 -0.10653815 -0.20448028 -0.12653899 -0.1376722
0.079643935 0.11632448 0.26344806 0.18309222 0.019335853 0.15901393 0.16002904 -0.21642475
0.14493753 -0.16674452 0.21452117 -0.10993744 0.06960364 0.010848181 0.1333183 0.051750287
-0.18951695 0.10970244 0.16934863 -0.12145902 -0.15800065 -0.17095123 -0.12955052 -0.014237152
0.029885406 0.017118478 -0.056720555 0.16911556 0.025362862 -0.1434234 -0.06969924 -0.1315184
-0.075512044 -0.23175614 0.05948776 -0.19042699 0.115345314 0.19432004 -0.17726086 -0.12723123
-0.2088188 0.074392155 0.06599398 -0.1164521 0.17092241 0.11392523 -0.22307758 -0.004522842
-0.0957277 -0.048044536 0.1591437 -0.012162531 -0.17187415 0.19569066 -0.23076697 -0.06739545
0.11327346 0.2441649 0.26143903 -0.04974025 0.09133096 -0.21838999 -0.039028153 -0.065761164
0.0900662 -0.15864271 0.06342238 0.1504815 0.21411481 -0.021904387 0.24388476 -0.24491134
-0.06469146 0.11022262 0.083255954 0.13586612 -0.1528415 0.17315695 -0.24050643 -0.16798127
0.002191584 -0.24310726 -0.24137416 -0.20666987 0.22372521 0.058502823 -0.067604214 0.00403108
-0.22425002 -0.24023655 -0.17407133 -0.25302917 0.18681929 -0.06615671 -0.062286224 -0.21289693
00000000: 265a 693e 9d29 3b3d 759a 6a3e 727d 663e
00000010: 71d2 5abe 85fa 2abe 1131 2b3e 8e6d 833e
00000020: 7619 66be 6375 933c 3f3b ccbd ff37 833e
00000030: ce44 693e ae25 493e ae04 1e3e 6ccf 68bc
00000040: 0fa0 823e 8941 e4bd 107f b43c 4b8c 80bd
00000050: 11cd 31be 1101 e8bd db34 a73d 0933 4abc
00000060: e4f8 25be 5be8 c8bc 7ffb 7e3d ea9e 24be
00000070: 61e3 2a3e 372f 61be 79e5 813c dcc8 51be
00000080: 93c5 6abe e974 88bc 87f7 7d3e 6f01 833e
00000090: 1b93 de3d 0b3f 5e3e 9108 06be b01f 213e
000000a0: ebc1 313e b4ff 76be 03f0 40be b93c 0a3e
000000b0: 47f7 303d 301d 25be fc7a 49be 1a89 4d3e
000000c0: 8d5a 4b3d 6e65 853c 6e39 6ebe eeb9 703e
000000d0: 7e33 25be db9d 033e cd39 14bd 0462 d23c
000000e0: 7d5b 0b3e 8c67 79bd 7f96 9abd e517 623e
000000f0: 8c71 41be c7c1 053e 0424 61bd 51ff 7bbd
00000100: 261e 393e af2e 623d 0fda 73be 3a42 7e3e
00000110: e7b7 eebd c73a 743e 8447 7fbd 92d5 8a3e
00000120: a4af 983d cc5a ec3b d1fb ea3d f12c 863b
00000130: ae22 e8bd 0582 233e e9a5 393e e111 afbc
00000140: d375 843e 4f91 d03c d183 08be b6e3 04be
00000150: a609 3f3e 40ea c7bd fc91 353e 0fc6 7cbe
00000160: 071a be3c 3e7a 2ebe 1b37 da3d f132 643e
00000170: 80cb e33d 124c 99bd 0341 73be 0d45 cebd
00000180: 62b1 14be 01bd 853e b969 09be ddcc e23d
00000190: 7ea9 643e 65dc de3d 82ce 5dbe 4ade a0bc
000001a0: 1932 4bbd 0988 3b3e 3cbf a7bc 7e43 0ebc
000001b0: e68c 793e 7a72 a33d fe2b 013e 8860 8fbd
000001c0: 1954 3e3e e878 443d 9d8d 68bd c1c9 703d
000001d0: cf4a 49be 82a6 e63c 21b3 0b3e a75e 76be
000001e0: 2620 febd 7f64 313e 16dc da3b 6cba cd3b
000001f0: 0840 0a3d bcdc d8bd e6c2 6c3e 721d 01bd
00000200: 6704 9dbd 3d05 183e 97b3 56be ba82 16bd
00000210: f6c6 173d 0fb0 91bd a8e1 243e 45ce 51be
00000220: 0b98 9dbd 70ea b5bd d8f3 803e c0d8 ed3d
00000230: 8763 31be 6ad5 f23d b36a ec3b 7b48 833e
00000240: 3251 193e 2c77 0cbe 53c1 783e 80c2 edbc
00000250: 0179 2fbd 83f9 b53d d2b1 8d3e bec3 ad3d
00000260: 9935 65be fca6 88bd 63ca 843e dcff a0bd
00000270: ac30 dabd 4763 51be 7093 01be f1f9 0cbe
00000280: 5c1c a33d 873b ee3d aae2 863e 877c 3b3e
00000290: 3966 9e3c 8cd4 223e a7de 233e 739e 5dbe
000002a0: 816a 143e 13bf 2abe 70ab 5b3e e126 e1bd
000002b0: 5a8c 8e3d 92bc 313c 9884 083e 1cf8 533d
000002c0: bb10 42be acab e03d ba69 2d3e 82bf f8bd
000002d0: ecca 21be d70d 2fbe e4a8 04be f242 69bc
000002e0: 3dd2 f43c 0d3c 8c3c d053 68bd a12c 2d3e
000002f0: c7c5 cf3c 95dd 12be 7abe 8ebd c2ac 06be
00000300: 0fa6 9abd 7b51 6dbe 70a9 733d 4bff 42be
00000310: 2a3a ec3d d5fb 463e df83 35be e748 02be
00000320: 98d4 55be ea5a 983d da27 873d 707e eebd
00000330: 4906 2f3e a251 e93d 736e 64be 5934 94bb
00000340: e20c c4bd 59ca 44bd 91f6 223e 5a45 47bc
00000350: c7ff 2fbe 2263 483e 2d4e 6cbe a006 8abd
00000360: eafb e73d 5d06 7a3e 56db 853e 6fbc 4bbd
00000370: ba0b bb3d a0a1 5fbe fcdb 1fbd caad 86bd
00000380: a174 b83d 3c73 22be 98e3 813d d317 1a3e
00000390: ea40 5b3e d470 b3bc edbc 793e 0aca 7abe
000003a0: f57c 84bd 66bc e13d 1982 aa3d 7d20 0b3e
000003b0: 7b82 1cbe 0e50 313e 5147 76be 4803 2cbe
000003c0: aea0 0f3b 1cf1 78be ca2a 77be 44a1 53be
000003d0: 3918 653e a8a0 6f3d 1474 8abd 2617 843b
000003e0: cca1 65be 9200 76be c13f 32be 0a8d 81be
000003f0: 8e4d 3f3e 2b7d 87bd d71f 7fbd a701 5abe

fc2.weight f4 [256, 256]
0.0049578883 -0.016101563 -0.047519058 0.034699205 0.05497245 -0.04915978 0.030697878 -0.014569276
-0.0023909302 0.019011969 -0.014444731 0.048419125 0.03434057 -0.045603927 -0.043081164 -0.06710965
0.014721129 -0.049579453 -0.056904804 -0.043197032 -0.06539998 -0.0561792 0.0513969 0.028770193
0.05089776 -0.034191642 -0.03202819 -0.02674284 -0.0033259061 -0.043548256 0.006214374 -0.041575287
0.007132402 0.051829297 0.0056723845 0.040922124 -0.048710298 -0.013777965 -0.04147224 -0.01129741
-0.029913355 -0.040914256 -0.06293431 -0.027400633 0.0019636843 -0.015374279 -0.06304825 0.042620882
0.041814424 -0.042500574 -0.0050058314 0.03637282 -0.06505622 -0.05921008 0.031694215 -0.0064378316
0.014794711 -0.031659123 0.0066738 0.038006216 -0.017985696 -0.02450737 -0.06737952 -0.019277425
0.03518772 -0.0633182 -0.008325687 0.04064929 -0.02189907 -0.026805462 -0.022952722 -0.031388793
0.003883895 -0.065147325 0.019120246 -0.021674493 -0.012513983 -0.009400434 0.030697482 -0.04334164
-0.060847126 -0.04985744 -0.046366844 -0.031178046 0.04519552 -0.0522607 -0.041474234 -0.054011755
-0.03592948 -0.0047070314 -0.042065628 -0.0033895455 0.014639018 -0.016784873 0.02466773 0.011372069
0.052059006 -0.008336031 0.049672976 0.043025073 0.024834896 0.029250385 -0.04515358 -0.046495695
0.021144142 0.017601177 0.05156937 -0.013436154 -0.016030662 0.036141213 -0.0014601765 0.05650999
-0.036608167 -0.027415352 -0.00011809471 0.029391441 -0.05784408 -0.023873504 0.038670834 0.010331065
0.040111184 -0.024786329 -0.043810986 -0.046403706 -0.040011812 -0.0546951 0.024651445 0.012432045
-0.04206012 0.05246762 0.014498023 0.016966214 -0.030408356 0.03927177 -0.04879115 0.042053264
-0.03939747 0.021923356 -0.026285099 0.0359344 -0.054523326 -0.017236626 -0.023091748 -0.0422727
-0.035474595 -0.022267109 0.001472442 0.03775422 -0.013523149 0.056593727 -0.034621675 -0.0381101
-0.012873792 -0.016762456 0.015512851 0.05287544 0.015644895 -0.055298187 -0.027551843 -0.01719755
-0.06338979 0.015783053 0.04882683 0.026476081 -0.004583959 -0.012244251 -0.035270233 -0.0090581365
0.049831558 -0.035035957 0.0047216234 -0.051348962 -0.02076377 -0.0005122105 -0.051737405 0.010760974
-0.05667658 -0.030440345 0.038582977 0.056130935 -0.009979165 -0.04752678 -0.05378315 -0.019393215
-0.035471875 0.04616859 -0.04731611 0.033047076 0.005747073 -0.019480884 0.044231523 0.031393457
-0.004844261 -0.044668198 -0.023800626 0.020704437 0.04949322 -0.025718197 -0.03116477 -0.06559075
0.035061423 0.055276625 0.037250105 -0.03845577 0.040143583 -0.0264721 0.03243708 0.03258653
-0.053977575 0.010130588 0.021170286 -0.04569947 0.05427849 0.04409117 0.047246132 -0.0039368803
-0.0380641 -0.03885577 0.016962627 -0.01706742 0.045431193 0.04859057 -0.00040745013 -0.054397006
0.021264924 0.05206149 -0.020565458 -0.038038418 -0.019675508 0.0034214829 -0.050851166 0.027898649
0.02066915 -0.028403124 -0.028292144 -0.0343351 0.04351724 0.031983178 0.0150510175 -0.008035799
0.011896329 0.056688752 0.018613124 -0.04137749 0.018639904 -0.029049506 -0.0064574913 -0.0451502
-0.0038988073 0.0011342585 -0.039341033 0.034483805 0.052521013 -0.059975628 0.012571383 -0.0464108
00000000: c875 a23b 6de7 83bc 58a3 42bd c120 0e3d
00000010: cb2a 613d c45b 49bd 1e7a fb3c f9b3 6ebc
00000020: 27b1 1cbb fdbe 9b3c 98a9 6cbc 2253 463d
00000030: b3a8 0c3d 2fcb 3abd e075 30bd c970 89bd
00000040: e430 713c d313 4bbd 0315 69bd 5fef 30bd
00000050: 6df0 85bd 291c 66bd 8e85 523d 78af eb3c
00000060: 2b7a 503d 890c 0cbd fe2f 03bd cd13 dbbc
00000070: 72f7 59bb a85f 32bd f3a1 cb3b d94a 2abd
00000080: edb6 e93b f54a 543d 69df b93b f59d 273d
00000090: 7384 47bd f9bc 61bc ccde 29bd c618 39bc
000000a0: da0c f5bc b595 27bd b4e3 80bd 4b77 e0bc
000000b0: 28b1 003b 66e4 7bbc 711f 81bd 3c93 2e3d
000000c0: 9a45 2b3d 1515 2ebd f507 a4bb abfb 143d
000000d0: 323c 85bd 4586 72bd cbd1 013d 72f4 d2bb
000000e0: 8465 723c ffac 01bd e4af da3b 68ac 1b3d
000000f0: bd56 93bc aec3 c8bc 46fe 89bd b1eb 9dbc
00000100: 0021 103d f9ac 81bd 7668 08bc df7f 263d
00000110: ae65 b3bc 2197 dbbc 5907 bcbc 8991 00bd
00000120: f288 7e3b f66b 85bd 10a2 9c3c b58e b1bc
00000130: 7307 4dbc 4704 1abc 4979 fb3c 0187 31bd
00000140: d63a 79bd 5137 4cbd 29eb 3dbd 1a69 ffbc
00000150: f01e 393d 510f 56bd e3e0 29bd 6e3b 5dbd
00000160: ca2a 13bd 713d 9abb 024d 2cbd 2323 5ebb
00000170: 7ed8 6f3c 6e80 89bc fb13 ca3c ea51 3a3c
00000180: d33b 553d d993 08bc e475 4b3d 0f3b 303d
00000190: 8d72 cb3c 819e ef3c f6f2 38bd 4572 3ebd
000001a0: 7b36 ad3c 5830 903c 673a 533d 5123 5cbc
000001b0: bc52 83bc cf08 143d 6563 bfba 0577 673d
000001c0: 72f2 15bd 2996 e0bc 9da9 f7b8 52c6 f03c
000001d0: eaed 6cbd 5e92 c3bc 4f65 1e3d a143 293c
000001e0: a04b 243d b30c cbbc 2673 33bd d011 3ebd
000001f0: 6de3 23bd f807 60bd d4f1 c93c c7af 4b3c
00000200: 3b47 2cbd 49e8 563d 1e89 6d3c bbfc 8a3c
00000210: f21a f9bc 6fdb 203d 3bd9 47bd 0b40 2c3d
00000220: 3e5f 21bd 9c98 b33c d953 d7bc f32f 133d
00000230: da53 5fbd d333 8dbc e82a bdbc 2426 2dbd
00000240: cf4d 11bd 8369 b6bc f4fe c03a 2ba4 1a3d
00000250: 3390 5dbc d3ce 673d 75cf 0dbd 5619 1cbd
00000260: 99ec 52bc 6b51 89bc 9d29 7e3c eb93 583d
00000270: b929 803c 5a80 62bd 67b4 e1bc e0e1 8cbc
00000280: 82d2 81bd 764b 813c a4fe 473d 5ee4 d83c
00000290: 0935 96bb 1c9c 48bc 8577 10bd 9468 14bc
000002a0: 2d1c 4c3d dd81 0fbd d9b7 9a3b 4a53 52bd
000002b0: c818 aabc dd45 06ba 9aea 53bd cc4e 303c
000002c0: b425 68bd 085e f9bc 2f09 1e3d 8de9 653d
000002d0: a77f 23bc 71ab 42bd b84b 5cbd 85de 9ebc
000002e0: f54a 11bd 471b 3d3d 8ace 41bd 5f5c 073d
000002f0: f151 bc3b 6096 9fbc 1d2c 353d 6d96 003d
00000300: 9bbc 9ebb 00f6 36bd 88f9 c2bc 5a9c a93c
00000310: 67b9 4a3d f8ae d2bc 424d ffbc 7154 86bd
00000320: 919c 0f3d be69 623d 9193 183d cc83 1dbd
00000330: 996d 243d 04dc d8bc bedc 043d 7479 053d
00000340: 9717 5dbd c4fa 253c 4f6d ad3c 5e2f 3bbd
00000350: 1f53 5e3d f198 343d 2985 413d f200 81bb
00000360: 1ae9 1bbd 3a27 1fbd 35f5 8a3c f9d0 8bbc
00000370: 0f16 3a3d e806 473d 089f d5b9 65cf 5ebd
00000380: c733 ae3c 6e3e 553d e478 a8bc 2cce 1bbd
00000390: 882e a1bc f53a 603b 5049 50bd b58b e43c
000003a0: 5952 a93c abad e8bc edc4 e7bc f6a2 0cbd
000003b0: 223f 323d cb00 033d 8b98 763c 95a8 03bc
000003c0: d2e8 423c 7732 683d 8d7a 983c 717b 29bd
000003d0: b6b2 983c 3bf9 edbc 5d99 d3bb 6bef 38bd
000003e0: 2283 7fbb 66ab 943a 1024 21bd e43e 0d3d
000003f0: 4620 573d 01a9 75bd 34f8 4d3c 4019 3ebd

fc2.bias f4 [256]
0.053792965 -0.029004214 -0.05333791 -0.015664298 0.0013021519 0.024741657 0.05033915 -0.009408846
0.044352047 -0.030122554 0.04424976 0.00901638 -0.030974595 0.005651686 0.012480415 0.025071993
-0.027847225 0.004118277 -0.041562695 -0.04166871 -0.03635475 0.03281982 -0.008067024 0.0100875385
-0.019107632 0.036063172 -0.05622189 0.025238534 -0.034682874 -0.049061425 -0.033874687 0.05562785
0.06759334 0.026166279 0.014033718 0.05457498 -0.022194378 0.0406607 0.037328694 0.041948702
0.04073598 -0.00900072 -0.05249853 -0.027715025 0.010850626 0.044880766 -0.022617081 0.05300561
-0.0059170616 -0.042759135 -0.047508914 -0.0025554898 0.055714473 -0.016928557 0.061307948 0.055418402
0.05365577 0.0215077 1.2616991e-05 -0.015958553 -0.023247847 -0.035974354 -0.029581591 0.03946593
0.010080178 -0.038393248 0.027666781 0.04607665 -0.047605705 0.032755665 -0.001958987 -0.054262176
0.013114113 0.0056617027 -0.048793353 0.059277475 -0.033252925 -0.016649075 -0.0040469994 -0.028361615
0.02602464 0.022248957 -0.03902423 -0.021604137 0.044109322 -0.02842634 0.022672422 0.030280456
-0.03523657 -0.044823628 0.061217535 0.0044852756 0.04140608 0.026275132 0.0044956934 -0.0046579563
-0.025695099 -0.009490945 -0.025148159 -0.039580487 -0.03688058 0.0074879033 -0.020840008 -0.020851454
-0.022140577 -0.019859035 -0.035496376 -0.008930743 -0.0013365631 -0.03240815 -0.017463611 -0.002570966
-0.03746386 0.024163853 -0.0035588194 0.04130216 -0.034846414 -0.035114717 0.04817759 0.032274395
0.040004604 -0.024200602 -0.05419461 0.021816067 -0.020404391 -0.003095887 -0.047690306 0.028292116
-0.004642834 0.026651213 0.048988033 0.015530864 0.051100176 -0.014858685 0.013043319 -0.017429959
-0.04512106 0.018052397 -0.054348048 0.0141763715 -0.03298005 0.03071089 -0.03935549 -0.030531025
-0.043768268 0.0059551275 0.079576485 0.04391501 0.061487354 0.020454936 0.0049434835 -0.015532189
0.017086234 0.03069642 0.0003206597 0.018376902 0.033731885 0.019148791 -0.019233556 -0.036499124
0.010116941 -0.03588465 0.04416644 -0.03485353 0.029892318 -0.014052114 0.02957921 0.022984762
-0.055827275 0.018925402 0.020167641 -0.013878601 -0.0021535968 -0.027390987 -0.042061396 -0.01950783
0.01106242 -0.03319877 0.0065627103 0.006099448 0.07051175 0.039363198 0.02571332 -0.057903837
-0.027008168 -0.034936566 0.050394557 0.01300469 0.0018027078 0.02930351 0.0017710328 0.05413886
0.011319108 -0.034084886 -0.009909803 0.04722115 -0.024352081 0.036716565 -0.040139582 0.023527427
-0.037133325 -0.04873651 0.0016325222 -0.0033424012 -0.02548615 0.0322093 -0.012109934 -0.0464468
0.012837494 -0.029172728 0.0001359631 -0.0129310135 0.0606682 0.0047075986 -0.046125278 -0.008606983
-0.008178822 0.024699891 -0.045626834 -0.03116774 0.04089992 -0.040454898 -0.04684164 0.0068339296
-0.008564683 -0.033602558 -0.013985476 -0.053458896 -0.05115915 0.050351247 0.037411556 0.027094742
0.057224415 0.008789919 0.026162876 0.02210259 0.0072442014 0.018751923 -0.035552725 -0.030244377
0.06587729 -0.039028965 0.0340121 0.037883367 0.05503038 0.053745344 -0.040195417 -0.034236796
0.053942494 0.048206255 -0.021071611 0.030996747 0.045944408 0.018156555 -0.010812262 0.045136042
00000000: 0356 5c3d 3f9a edbc da78 5abd 6a52 80bc
00000010: f8ac aa3a 04af ca3c 6d30 4e3d 8f27 1abc
00000020: 7eaa 353d 93c3 f6bc 3d3f 353d 70b9 133c
00000030: 6fbe fdbc c731 b93b a87a 4c3c c863 cd3c
00000040: dd1f e4bc 9df2 863b a53d 2abd cfac 2abd
00000050: b8e8 14bd 136e 063d 8d2b 04bc 3446 253c
00000060: 9c87 9cbc fab6 133d ed48 66bd 0bc1 ce3c
00000070: a10f 0ebd a2f4 48bd 2fc0 0abd 07da 633d
00000080: 616e 8a3d aa5a d63c aeed 653c 048a 5f3d
00000090: fcd0 b5bc d68b 263d f9e5 183d 67d2 2b3d
000000a0: c5da 263d c277 13bc b308 57bd 9f0a e3bc
000000b0: d3c6 313c e5d4 373d 7547 b9bc 691c 593d
000000c0: e9e3 c1bb 3424 2fbd b598 42bd 017a 27bb
000000d0: dc34 643d c2ad 8abc 0b1e 7b3d 68fe 623d
000000e0: 27c6 5b3d eb30 b03c 90ad 5337 83bb 82bc
000000f0: 4572 bebc d859 13bd 1855 f2bc 07a7 213d
00000100: 5527 253c 3d42 1dbd 72a5 e23c dfba 3c3d
00000110: 33fe 42bd ce2a 063d 5962 00bb 0442 5ebd
00000120: 94dc 563c ce85 b93b 8adb 47bd f0cc 723d
00000130: 3834 08bd a463 88bc b19c 84bb 9e56 e8bc
00000140: a031 d53c 7243 b63c dfd7 1fbd 29fb b0bc
00000150: faab 343d 5bde e8bc 84bb b93c b80e f83c
00000160: 3954 10bd fb98 37bd 3dbf 7a3d 38f9 923b
00000170: 6c99 293d f23e d73c 9c50 933b c5a1 98bb
00000180: 877e d2bc e97f 1bbc 8303 cebc 261f 22bd
00000190: 1710 17bd 165d f53b aab8 aabc abd0 aabc
000001a0: 2860 b5bc 6aaf a2bc a664 11bd 4052 12bc
000001b0: 9e2f afba 69be 04bd d90f 8fbc a77d 28bb
000001c0: b473 19bd 46f3 c53c 153b 69bb 742c 293d
000001d0: 1dbb 0ebd 73d4 0fbd dd55 453d 2832 043d
000001e0: dedb 233d 5740 c6bc 2bfb 5dbd 9cb7 b23c
000001f0: 1c27 a7bc 5de4 4abb e956 43bd dec4 e73c
00000200: ea22 98bb a553 da3c ada7 483d 2a75 7e3c
00000210: 6b4e 513d d871 73bc a5b3 553c 46c9 8ebc
00000220: dcd0 38bd 9fe2 933c 0f9c 5ebd 0344 683c
00000230: 1716 07bd 6895 fb3c 3933 21bd 331c fabc
00000240: 5b46 33bd 3b23 c33b fff8 a23d 3ae0 333d
00000250: 2ada 7b3d 1c91 a73c f2fc a13b b97a 7ebc
00000260: 6ef8 8b3c 0f77 fb3c 371e a839 288b 963c
00000270: 722a 0a3d eddd 9c3c b18f 9dbc 1b80 15bd
00000280: 87c1 253c c8fb 12bd dee7 343d 93c2 0ebd
00000290: bce0 f43c d73a 66bc 1950 f23c 8a4a bc3c
000002a0: 24ab 64bd 7209 9b3c 9c36 a53c 1263 63bc
000002b0: 5c23 0dbb 1063 e0bc 9248 2cbd e2ce 9fbc
000002c0: 273f 353c 6ffb 07bd 010c d73b e1dd c73b
000002d0: 7768 903d 4e3b 213d bea4 d23c 932c 6dbd
000002e0: 3c40 ddbc a519 0fbd 866a 4e3d a011 553c
000002f0: d648 ec3a ea0d f03c 0022 e83a b6c0 5d3d
00000300: c873 393c 989c 0bbd ba5c 22bc f76a 413d
00000310: 047e c7bc 1c64 163d 6769 24bd 97bc c03c
00000320: 1d19 18bd ef9f 47bd 5bfa d53a 300c 5bbb
00000330: 55c8 d0bc e6ed 033d bf68 46bc 003f 3ebd
00000340: 5a54 523c a5fb eebc 5191 0e39 9adc 53bc
00000350: 387f 783d 3342 9a3b dced 3cbd 4e04 0dbc
00000360: 7700 06bc 6d57 ca3c 34e3 3abd 7d53 ffbc
00000370: ad86 273d 09b4 25bd 05dd 3fbd 28ef df3b
00000380: e252 0cbc d6a2 09bd 5723 65bc b7f7 5abd
00000390: 428c 51bd 1c3d 4e3d dc3c 193d cbf5 dd3c
000003a0: 2664 6a3d 9803 103c 8753 d63c 7e10 b53c
000003b0: c460 ed3b a29d 993c bc9f 11bd 0ec3 f7bc
000003c0: acea 863d d6dc 1fbd 4650 0b3d 972b 1b3d
000003d0: 8967 613d 1424 5c3d f3a3 24bd e23b 0cbd
000003e0: cef2 5c3d ec73 453d 5f9e acbc e4ec fd3c
000003f0: 3430 3c3d 0ebd 943c ea25 31bc 92e0 383d

fc3.weight f4 [4, 256]
-0.027675502 -0.017353933 -0.056592885 -0.017976545 -0.033239044 -0.00890472 0.05325315 0.071811385
-0.03923486 0.03915444 0.037093624 -0.04808517 0.025519278 -0.031010238 0.008856407 0.012934479
0.008481278 0.030965414 0.025338467 0.0008963609 0.04031521 -0.009485616 0.058570035 -0.04340406
0.0025750205 0.06638626 -0.027985713 0.0022932552 0.02557693 0.053953223 0.007957145 -0.047768127
0.037009552 -0.037828125 -0.04472625 -0.04915114 0.068085715 -0.036618855 0.03420368 -0.040104803
0.044160675 -0.03676385 -0.012391679 0.035536423 0.021833906 0.012759871 -0.025600158 -0.012931754
-0.015419767 0.0644934 -0.009805832 -0.042415276 -0.017494079 0.03707732 -0.04318931 -0.0037158313
-0.038426865 -0.008438483 -0.050379537 -0.031723797 -0.015167759 0.021702027 0.06973897 -0.040230814
-0.023125827 0.070820175 0.055529837 -0.05397612 -0.0059994403 -0.039050065 0.015342613 0.02243156
-0.058217973 -0.018240448 -0.070648156 -0.023709258 0.009126763 -0.029718332 0.052063566 0.05183436
0.017885638 -0.017353207 -0.052939076 -0.02000415 0.018056823 0.07487033 -0.053032544 -0.0038022907
0.054433864 0.062036946 0.049796857 0.03603777 0.010351248 -0.0715348 -0.0052068303 -0.056763276
-0.02168489 -0.035764847 0.059367836 0.05669924 0.056943845 0.06107707 0.030851137 0.045846432
0.023729857 -0.0054408805 -0.042513777 0.03105553 0.015625449 0.06320223 -0.0425665 -0.0126143405
-0.013716209 -0.0512236 -0.0069126706 -0.0064500044 0.06055969 -0.05779795 0.06603029 0.029533211
-0.0005033507 -0.044194102 -0.020255763 -0.050018545 0.028474253 0.029176407 -0.035861924 -0.051100112
0.0031808717 0.05338514 0.016273526 -0.037685275 -0.07992689 0.0491577 0.03703047 -0.05312065
-0.04952606 0.02246743 0.003657759 -0.030144436 -0.00065521366 -0.03883876 0.06206751 0.022222234
0.043501016 -0.0452081 -0.0012788743 0.024526425 0.009449111 0.039260905 -0.04711078 0.0077552004
-0.022241151 0.047698233 0.003423549 0.021324458 0.064279206 -0.01086601 -0.051611986 0.013397134
0.06152278 0.035334427 -0.024485549 -0.010293906 -0.02366244 0.07137385 0.026254868 -0.020215463
-0.03331857 -0.05151236 0.053224005 -0.010175786 -0.052627947 0.0106049925 -0.021217495 0.050085653
-0.029136239 0.07545773 0.034857024 0.0070525133 0.02301901 -0.041604966 0.038951997 0.036561277
0.04557875 0.012795154 -0.027196478 0.038998112 0.03143241 -0.04149632 0.02702322 0.06657496
0.06719916 0.022343663 0.06860619 -0.02679397 0.0010014919 -0.032141503 -0.014056258 -0.0038167213
-0.02132073 0.05246702 0.0031214694 0.051098254 -0.0036805922 0.034750033 -0.012870812 -0.0066943895
-0.022055365 -0.056046877 -0.03229674 0.06300665 0.019400459 -0.009518641 0.01334058 0.013771715
0.0042527 0.06262236 -0.0007243206 0.07280266 0.010504952 0.041316662 -0.00558956 0.013102152
0.0010972689 0.058733933 0.06777031 -0.034599002 0.019054156 -0.048103426 -0.004873986 -0.0499292
0.009037895 0.021058762 0.057673994 0.046027202 -0.06599988 0.037432574 -0.05378182 0.043670207
0.0483551 0.030827738 0.038441192 0.0769643 0.022020789 0.011262285 0.038586006 -0.054179963
-0.014082412 0.015760314 0.036453918 -0.05001189 0.0007617457 -0.056546398 0.047015436 -0.034630343
00000000: bcb7 e2bc d629 8ebc f1cd 67bd 8c43 93bc
00000010: aa25 08bd 1ae5 11bc fa1f 5a3d d911 933d
00000020: bcb4 20bd 6860 203d 7cef 173d f5f4 44bd
00000030: ce0d d13c 2f09 febc 771a 113c 23eb 533c
00000040: 0ff5 0a3c 2eab fd3c 9e92 cf3c c3f9 6a3a
00000050: 9021 253d 8f69 1bbc 22e7 6f3d 75c8 31bd
00000060: adc1 283b 85f5 873d 4b42 e5bc 704a 163b
00000070: b686 d13c 0efe 5c3d af5e 023c 83a8 43bd
00000080: 5497 173d aaf1 1abd df32 37bd b552 49bd
00000090: 8670 8b3d a7fd 15bd 2819 0c3d ef44 24bd
000000a0: d3e1 343d b195 16bd 7806 4bbc a48e 113d
000000b0: 05dd b23c c70e 513c 6cb7 d1bc b5df 53bc
000000c0: 31a3 7cbc 1e15 843d a4a8 20bc a4bb 2dbd
000000d0: be4f 8fbc 63de 173d 46e7 30bd 4e85 73bb
000000e0: 7d65 1dbd 9041 0abc c65a 4ebd d0f0 01bd
000000f0: 3182 78bc 73c8 b13c 4ed3 8e3d 11c9 24bd
00000100: 6072 bdbc 2b0a 913d 4173 633d 1016 5dbd
00000110: f496 c4bb f6f2 1fbd 955f 7b3c 64c2 b73c
00000120: f875 6ebd fe6c 95bc fbaf 90bd eb39 c2bc
00000130: 6b88 153c dc73 f3bc 9b40 553d 4450 543d
00000140: e784 923c 5028 8ebc a5d6 58bd bedf a3bc
00000150: e7eb 933c 9e55 993d a738 59bd da2f 79bb
00000160: 0bf6 5e3d 741a 7e3d caf7 4b3d 579c 133d
00000170: 4898 293c d680 92bd 0f9e aabb 9c80 68bd
00000180: 83a4 b1bc 297e 12bd b02b 733d 763d 683d
00000190: f33d 693d f32b 7a3d 86bb fc3c 78c9 3b3d
000001a0: 1e65 c23c 6a49 b2bb ed22 2ebd 2b68 fe3c
000001b0: f100 803c 2c70 813d 365a 2ebd 61ac 4ebc
000001c0: f3b9 60bc d6cf 51bd af83 e2bb 8f5a d3bb
000001d0: 700d 783d 8bbd 6cbd e43a 873d a2ef f13c
000001e0: 4bf3 03ba e004 35bd 6aef a5bc 3fe0 4cbd
000001f0: d642 e93c 5c03 ef3c f4e3 12bd 5a4e 51bd
00000200: 2c76 503b 60aa 5a3d 0f50 853c e05b 1abd
00000210: b6b0 a3bd 9659 493d 43ad 173d 0a95 59bd
00000220: d6db 4abd 9e0d b83c 03b7 6f3b 77f1 f6bc
00000230: a5c2 2bba 6415 1fbd 803a 7e3d 670b b63c
00000240: 1f2e 323d 212c 39bd e79f a7ba a4eb c83c
00000250: 72d0 1a3c 0bd0 203d 3cf7 40bd 561f fe3b
00000260: 1333 b6bc 395f 433d 9f5d 603b a1b0 ae3c
00000270: d1a4 833d 5907 32bc 1767 53bd a77f 5b3c
00000280: 50ff 7b3d d5ba 103d eb95 c8bc c5a7 28bc
00000290: bcd7 c1bc 742c 923d 7314 d73c e69a a5bc
000002a0: 0e79 08bd a0fe 52bd 6a01 5a3d 57b8 26bc
000002b0: 6790 57bd 90c0 2d3c 50d0 adbc 9d26 4d3d
000002c0: 1faf eebc 9589 9a3d 3dc6 0e3d c518 e73b
000002d0: 5d92 bc3c f869 2abd 218c 1f3d 47c1 153d
000002e0: c9b0 3a3d c4a2 513c 26cb debc 7cbc 1f3d
000002f0: 45bf 003d 0cf8 29bd cd5f dd3c 7458 883d
00000300: b79f 893d 0f0a b73c 6781 8c3d 077f dbbc
00000310: 7e44 833a cfa6 03bd 384c 66bc f521 7abb
00000320: d0a8 aebc a8e7 563d 9191 4c3b 674c 513d
00000330: 1736 71bb 0d56 0e3d 19e0 52bc 9c5c dbbb
00000340: 74ad b4bc 6991 65bd 9649 04bd a109 813d
00000350: b6ed 9e3c 13f4 1bbc 7392 5a3c c2a2 613c
00000360: 3c5a 8b3b 2740 803d 55e0 3dba 9019 953d
00000370: f61c 2c3c a93b 293d a128 b7bb 69aa 563c
00000380: 3cd2 8f3a fe92 703d 29cb 8a3d afb7 0dbd
00000390: 7617 9c3c 1908 45bd f5b5 9fbb 9082 4cbd
000003a0: ae13 143c 6d83 ac3c 913b 6c3d 0587 3c3d
000003b0: f22a 87bd e652 193d 534a 5cbd 88df 323d
000003c0: ff0f 463d 748a fc3c 8374 1d3d 759f 9d3d
000003d0: f164 b43c 7285 383c 5c0c 1e3d cfeb 5dbd
000003e0: ebb9 66bc c61b 813c b450 153d 44d9 4cbd
000003f0: e3af 473a 329d 67bd 4293 403d 8cd8 0dbd

fc3.bias f4 [4]
0.057202727 -0.009238834 -0.029006973 -0.046099424
00000000: 684d 6a3d 7a5e 17bc 08a0 edbc c0d2 3cbd

fc1.weight f4 [256, 15]
-0.02094612 -0.029854542 -0.06767652 -0.116689324 -0.24690208 -0.1975595 -0.13726214 0.25648904
-0.131511 -0.16593876 0.05994629 0.08821368 0.14514598 0.195144 0.124115944 -0.2723669
0.020819021 0.14857772 -0.011456074 -0.15719587 0.25197688 -0.0814667 -0.1667249 -0.22784358
0.004314751 0.11088072 0.07000906 0.0474011 -0.1962317 -0.24962889 0.010512269 0.23359048
0.14254312 -0.13172384 -0.027330326 -0.1869539 -0.1214157 0.031868737 0.13291146 0.22064435
-0.24152574 0.1858671 -0.18093972 0.09140222 0.19905655 0.009329115 0.23291048 -0.22951093
-0.08088923 0.15215379 -0.05103447 -0.046728153 -0.12101748 0.17162086 0.13651702 0.077719435
-0.13323528 -0.20559888 0.016510023 0.06128215 -0.12540291 -0.07333175 0.17762232 0.021626394
0.00061760243 -0.05973662 -0.23342064 -0.24409825 -0.12695627 -0.13202284 0.081401184 -0.07545806
-0.106033035 0.25201562 0.09125703 0.18955293 -0.121164165 -0.114810474 0.09365338 -0.18223125
-0.15736991 -0.011652071 -0.08192647 -0.20050842 0.15941855 0.21690351 0.0533737 -0.041317116
-0.23844592 -0.106747605 0.06306854 0.119363956 -0.040565584 -0.08560369 0.14463116 -0.1950332
0.17448752 -0.11556454 0.0020864215 -0.050586287 0.031568013 -0.06736451 0.1853513 -0.010392473
0.1908476 0.25428772 -0.13357045 -0.19869213 0.22616185 0.2056505 -0.19220519 -0.01588537
-0.27007478 -0.21703061 0.05820538 0.06473162 0.069274485 -0.06863033 0.22868855 0.018036293
-0.14967555 -0.020142904 0.06587797 0.085806936 -0.17856681 0.093151 -0.1302567 -0.20867468
-0.13775018 0.24606517 0.21895623 0.22819953 0.15349358 0.19315511 -0.03675088 -0.1412212
0.12767194 -0.14360075 -0.16179983 -0.082025565 0.054259535 0.15121013 -0.120074615 -0.16031475
0.043557666 -0.15666157 -0.15886304 0.14215046 -0.05181118 0.23291685 0.2498082 0.068028286
0.08686024 0.060775176 0.009266811 -0.008476677 0.0020170507 0.099990554 0.24518934 -0.078509636
-0.10409144 -0.05836441 -0.122434765 0.04226137 0.18757953 0.20484945 0.12130967 -0.19583221
-0.1192533 -0.05080742 -0.046285603 0.028039917 -0.25375986 0.07857483 -0.19485703 -0.16834584
-0.20415229 0.22229321 -0.25476757 0.17363572 -0.008815832 -0.028950928 0.15928203 -0.010234537
0.16596253 0.19210494 -0.21343097 0.08519344 0.051536214 0.062619515 0.03733874 0.07593215
-0.12864144 -0.038276203 0.22808011 0.17213248 -0.01413332 -0.25334692 0.023344927 -0.17810309
0.22039096 -0.14056894 -0.035317566 -0.055703234 0.045674875 0.24197009 0.03493811 0.1523019
0.19531658 0.18609348 -0.08230075 -0.05548245 0.11149113 -0.052589938 0.116335236 -0.05044194
-0.17898606 0.10564645 0.0331827 0.13127431 0.24525775 0.19365212 0.24973314 0.0037123007
-0.24351382 -0.18170533 -0.15371998 -0.23296769 -0.12490723 -0.2450206 -0.25093618 -0.14717282
-0.26031134 -0.1581685 0.11297737 0.20958818 -0.06678714 -0.07520755 0.13595751 -0.14436588
-0.12168151 0.151277 -0.23447217 0.04368892 0.23466802 0.04957509 0.08011277 -0.1609001
-0.0018920163 0.0219365 0.05660051 0.11282687 0.2235806 -0.20599787 -0.011041935 -0.13937083
00000000: 3397 abbc 8391 f4bc fd99 8abd d0fa eebd
00000010: e6d3 7cbe 0a4d 4abe 728e 0cbe 8852 833e
00000020: d2aa 06be daeb 29be 3e8a 753d 60a9 b43d
00000030: 26a1 143e d4d3 473e 8030 fe3d ad73 8bbe
00000040: a78c aa3c c224 183e 42b2 3bbc f4f7 20be
00000050: 1d03 813e 03d8 a6bd efb9 2abe d44f 69be
00000060: c162 8d3b 6e15 e33d e960 8f3d a827 423d
00000070: f6f0 48be b79e 7fbe a73b 2c3c 5832 6f3e
00000080: d3f6 113e 9de2 06be d9e3 dfbc d870 3fbe
00000090: cba8 f8bd cb88 023d f119 083e 98f0 613e
000000a0: 8652 77be f253 3e3e 4348 39be 1631 bb3d
000000b0: 7bd5 4b3e 25d9 183c 1680 6e3e ea04 6bbe
000000c0: 41a9 a5bd 34ce 1b3e 8509 51bd 0566 3fbd
000000d0: 03d8 f7bd 61bd 2f3e 1ecb 0b3e 5e2b 9f3d
000000e0: d46e 08be 8388 52be 0740 873c fe02 7b3d
000000f0: 9f69 00be f52e 96bd a0e2 353e d629 b13c
00000100: 99e6 213a 63ae 74bd d205 6fbe e4f4 79be
00000110: d300 02be ff30 07be aab5 a63d c189 9abd
00000120: d927 d9bd 3108 813e f7e4 ba3d 2a1a 423e
00000130: eb24 f8bd c121 ebbd 58cd bf3d d49a 3abe
00000140: 9425 21be 54e8 3ebc 11c9 a7bd 1452 4dbe
00000150: 9e3e 233e f41b 5e3e 619e 5a3d 233c 29bd
00000160: 2b2b 74be 7d9e dabd 142a 813d 1775 f43d
00000170: 1928 26bd fd50 afbd 311a 143e c8b6 47be
00000180: dbac 323e 1aad ecbd 58bc 083b 9133 4fbd
00000190: 764d 013d 67f6 89bd bbcc 3d3e 3145 2abc
000001a0: 8e6d 433e 0032 823e b1c6 08be f375 4bbe
000001b0: f996 673e 0b96 523e 70d1 44be 0922 82bc
000001c0: 3e47 8abe 463d 5ebe c468 6e3d 0392 843d
000001d0: c8df 8d3d 0f8e 8cbd 552d 6a3e d9c0 933c
000001e0: 8c44 19be bb02 a5bc 07eb 863d 8cbb af3d
000001f0: 38da 36be f4c5 be3d 0362 05be d1ae 55be
00000200: 620e 0dbe 82f8 7b3e 1036 603e 23ad 693e
00000210: 6c2d 1d3e 74ca 453e 1788 16bd 4a9c 10be
00000220: 6fbc 023e 130c 13be dbae 25be 05fd a7bd
00000230: 3f3f 5e3d d4d6 1a3e aee9 f5bd 8d29 24be
00000240: 8669 323d e46b 20be feac 22be e48f 113e
00000250: f637 54bd c181 6e3e b9cd 7f3e 6a52 8b3d
00000260: c8e3 b13d 64ef 783d d3d3 173c c3e1 0abc
00000270: 7f30 043b d9c7 cc3d ea12 7b3e a9c9 a0bd
00000280: e52d d5bd 850f 6fbd 14bf fabd 421a 2d3d
00000290: d914 403e 0ec4 513e 3471 f83d 3d88 48be
000002a0: 133b f4bd 711b 50bd f995 3dbd f8b3 e53c
000002b0: d0ec 81be d7eb a03d 9a88 47be da62 2cbe
000002c0: 4c0d 51be d5a0 633e e570 82be 90cd 313e
000002d0: 4870 10bc 7f2a edbc d41a 233e c2ae 27bc
000002e0: 15f2 293e 28b7 443e a68d 5abe e679 ae3d
000002f0: a317 533d a93e 803d 82f0 183d 5182 9b3d
00000300: 95ba 03be 82c7 1cbd d58d 693e 7f43 303e
00000310: 718f 67bc b0b6 81be dc3d bf3c a860 36be
00000320: 2bae 613e 4ef1 0fbe 27a9 10bd 1329 64bd
00000330: 9415 3b3d 02c7 773e 431b 0f3d 07f5 1b3e
00000340: 1201 483e 4a8f 3e3e 4c8d a8bd 9141 63bd
00000350: 7655 e43d 8c68 57bd 2b41 ee3d 359c 4ebd
00000360: 1f48 37be 2a5d d83d 95ea 073d c66c 063e
00000370: d924 7b3e be4c 463e 0bba 7f3e 124a 733b
00000380: b05b 79be f610 3abe c568 1dbe 158f 6ebe
00000390: 5dcf ffbd aee6 7abe b57a 80be 79b4 16be
000003a0: 8747 85be ecf6 21be ae60 e73d 499e 563e
000003b0: b2c7 88bd 6a06 9abd 7238 0b3e a6d4 13be
000003c0: 2834 f9bd 5ce8 1a3e 7919 70be 27f3 323d
000003d0: d04c 703e 400f 4b3d 2a12 a43d ffc2 24be
000003e0: 88fd f7ba 2db4 b33c f0d5 673d c611 e73d
000003f0: 50f2 643e 1bf1 52be 3be9 34bc 3ab7 0ebe

fc1.bias f4 [256]
0.2278458 0.045668226 0.22904122 0.22502713 -0.21374957 -0.16701816 0.16713746 0.25667217
-0.22468205 0.017967772 -0.0997092 0.25623587 0.22772707 0.19640702 0.15429513 -0.014209673
0.25510633 -0.11139829 0.022041155 -0.062808454 -0.17361693 -0.11327725 0.08158977 -0.012389264
-0.16212532 -0.024494201 0.062230445 -0.16091247 0.16685742 -0.21990667 0.015797675 -0.20483802
-0.22931218 -0.016638959 0.24796775 0.2558479 0.10861913 0.21696249 -0.13088243 0.15729544
0.17359413 -0.24120432 -0.18847817 0.13491234 0.043177947 -0.16127536 -0.19684735 0.20064116
0.049618088 0.01627198 -0.23268771 0.23502001 -0.1614642 0.12850422 -0.036231667 0.025646668
0.13603874 -0.06081991 -0.07545067 0.22073852 -0.1889568 0.13061461 -0.05514669 -0.06165321
0.18074372 0.05517887 -0.23819476 0.24821398 -0.116588555 0.23847795 -0.062402602 0.2710995
0.074549854 0.007190616 0.11470935 0.004078615 -0.113758594 0.15965281 0.1812702 -0.02134997
0.25862706 0.025443545 -0.13330054 -0.1296515 0.18653797 -0.09759588 0.17728496 -0.24683563
0.023156047 -0.170455 0.10650936 0.22279528 0.11121982 -0.07491729 -0.23764248 -0.10072658
-0.14527026 0.2611932 -0.1346502 0.11067969 0.22324859 0.108755425 -0.21662314 -0.019665668
-0.04979127 0.18311438 -0.020523675 -0.008689226 0.24364544 0.07972939 0.12610476 -0.06997856
0.18582419 0.04802686 -0.056799486 0.058773115 -0.196583 0.028195372 0.13633479 -0.2405937
-0.1242241 0.17320435 0.0066506504 0.0062730056 0.033742234 -0.10574576 0.23118447 -0.031527374
-0.07666352 0.14844617 -0.20967667 -0.036776494 0.03698137 -0.071155466 0.16097184 -0.20492126
-0.07698819 -0.08887383 0.2516959 0.11607671 -0.17327648 0.11854465 0.0072223563 0.25634173
0.14967753 -0.13717979 0.24288559 -0.02898828 -0.042841766 0.08882823 0.2766313 0.084706746
-0.22406155 -0.06673219 0.259259 -0.07858615 -0.106587976 -0.2044892 -0.12645622 -0.13768229
0.079623014 0.11626868 0.26340705 0.18307103 0.01929302 0.15889636 0.16005333 -0.21642585
0.14490333 -0.166803 0.21445157 -0.109817326 0.069550745 0.0108182775 0.13330391 0.051724907
-0.18939254 0.10964868 0.16932824 -0.121474914 -0.1582758 -0.17080891 -0.12947564 -0.01428033
0.029874736 0.01707168 -0.056714848 0.16907859 0.025397714 -0.14341652 -0.069743976 -0.13157918
-0.07546479 -0.23170722 0.059424337 -0.19036897 0.11532963 0.1942937 -0.17727716 -0.1272684
-0.2087213 0.07427245 0.06595043 -0.116398595 0.17087314 0.113815345 -0.22306852 -0.00456806
-0.09570019 -0.04806386 0.15903354 -0.012022806 -0.17194541 0.19564493 -0.23082559 -0.067420654
0.113258205 0.24416265 0.261386 -0.04977588 0.09130055 -0.21840692 -0.03903172 -0.06587241
0.090017304 -0.15866508 0.063396946 0.15046898 0.21408807 -0.021962129 0.24384204 -0.24495676
-0.06466255 0.11015341 0.083182044 0.13580893 -0.15288788 0.17311694 -0.2405344 -0.1679918
0.0021273433 -0.2431042 -0.24127851 -0.20682451 0.22363088 0.058529917 -0.0676614 0.0039860737
-0.22429384 -0.24024132 -0.1740494 -0.25296098 0.1867665 -0.06623613 -0.062295586 -0.2129188
00000000: 6950 693e 9b0e 3b3d c889 6a3e 836d 663e
00000010: 2be1 5abe cf06 2bbe 1526 2b3e 896a 833e
00000020: 0d13 66be 2631 933c 5634 ccbd 5931 833e
00000030: 4931 693e ec1e 493e 8bff 1d3e b0cf 68bc
00000040: 4c9d 823e c924 e4bd a78f b43c b8a1 80bd
00000050: a3c8 31be e7fd e7bd 8a18 a73d 57fc 4abc
00000060: 2e04 26be 10a8 c8bc 5ae5 7e3d 3dc6 24be
00000070: acdc 2a3e 372f 61be 206a 813c 0fc1 51be
00000080: d0d0 6abe 6d4e 88bc 42eb 7d3e 7ffe 823e
00000090: b573 de3d 6a2b 5e3e 0b06 06be 0e12 213e
000000a0: a9c2 313e 44fe 76be 6c00 41be 7626 0a3e
000000b0: 5cdb 303d 5e25 25be 5a92 49be e074 4d3e
000000c0: 563c 4b3d d14c 853c b045 6ebe 16a9 703e
000000d0: df56 25be 9c96 033e a867 14bd f618 d23c
000000e0: bd4d 0b3e 4c1e 79bd e285 9abd 4709 623e
000000f0: e47d 41be d6bf 053e 7fe1 61bd 1488 7cbd
00000100: e214 393e 3d03 623d 54e9 73be ce2b 7e3e
00000110: fbc5 eebd 9033 743e df99 7fbd 8ecd 8a3e
00000120: 98ad 983d 429f eb3b bcec ea3d e7a5 853b
00000130: 44fa e8bd 077c 233e e59e 393e 22e6 aebc
00000140: c46a 843e fb6e d03c f07f 08be 5dc3 04be
00000150: cf03 3f3e 59e0 c7bd 308a 353e 7bc2 7cbe
00000160: c0b1 bd3c c18b 2ebe 9421 da3d 7224 643e
00000170: 38c7 e33d 3c6e 99bd 8d58 73be bd49 cebd
00000180: bac1 14be 1dbb 853e bee1 09be 09ac e23d
00000190: 479b 643e 2abb de3d 75d2 5dbe e519 a1bc
000001a0: eef1 4bbd 5682 3b3e 4421 a8bc 415d 0ebc
000001b0: 317e 793e 2a49 a33d 9b21 013e eb50 8fbd
000001c0: b248 3e3e d0b7 443d 94a6 68bd 14bc 703d
000001d0: 0e4d 49be fbf9 e63c 599b 0b3e 325e 76be
000001e0: 3469 febd 7b5c 313e b3ed d93b c98d cd3b
000001f0: 4c35 0a3d 3c91 d8bd 9fbb 6c3e d922 01bd
00000200: c301 9dbd 4602 183e 7bb5 56be f3a2 16bd
00000210: c779 173d f5b9 91bd cdd5 243e e1d6 51be
00000220: fcab 9dbd 7c03 b6bd 49de 803e a0b9 ed3d
00000230: 646f 31be 8ac7 f23d 84a9 ec3b 393f 833e
00000240: 1145 193e dc78 0cbe 00b7 783e d478 edbc
00000250: d97a 2fbd 93eb b53d 9ea2 8d3e bb7a ad3d
00000260: 6470 65be e3aa 88bd 98bd 843e c7f1 a0bd
00000270: cc4a dabd 9e65 51be bd7d 01be 96fc 0cbe
00000280: 6411 a33d 461e ee3d 4add 863e f976 3b3e
00000290: 650c 9e3c bab5 223e 05e5 233e bd9e 5dbe
000002a0: 8a61 143e 68ce 2abe 3199 5b3e e8e7 e0bd
000002b0: 9f70 8e3d 253f 313c d280 083e 7fdd 533d
000002c0: 1ef0 41be 7d8f e03d 6264 2d3e d7c7 f8bd
000002d0: 0d13 22be 88e8 2ebe 4395 04be 0cf8 69bc
000002e0: ddbb f43c e8d9 8b3c d44d 68bd f022 2d3e
000002f0: de0e d03c c8db 12be eed5 8ebd b1bc 06be
00000300: 498d 9abd a844 6dbe ef66 733d 15f0 42be
00000310: f131 ec3d edf4 463e 2588 35be a652 02be
00000320: 09bb 55be 271c 983d 0511 873d 6362 eebd
00000330: 5ef9 2e3e 0518 e93d 136c 64be aaaf 95bb
00000340: 76fe c3bd 9cde 44bd b0d9 223e 4efb 44bc
00000350: 7512 30be 2557 483e 8b5d 6cbe d713 8abd
00000360: ebf3 e73d c605 7a3e 63d4 853e cbe1 4bbd
00000370: c8fb ba3d 10a6 5fbe badf 1fbd 1de8 86bd
00000380: fe5a b83d 1979 22be 42d6 813d 8a14 1a3e
00000390: e739 5b3e ece9 b3bc bab1 793e f2d5 7abe
000003a0: cd6d 84bd 1c98 e13d 595b aa3d 7f11 0b3e
000003b0: a48e 1cbe 9145 313e a64e 76be 0b06 2cbe
000003c0: e66a 0b3b 4ff0 78be b711 77be cec9 53be
000003d0: 7eff 643e 11bd 6f3d 0f92 8abd 9c9d 823b
000003e0: 49ad 65be d201 76be 023a 32be 1a84 81be
000003f0: b83f 3f3e cfa6 87bd a829 7fbd 6307 5abe
