offline_prototype_3_ds_as_sampling/trained_models/agent_0.pth (torch, 521679 bytes, 12 tensors)

fc1.weight f4 [60, 46]
-0.15430658 -0.08251461 -0.012243249 -0.08462847 -0.06591023 0.08262086 -0.0054001734 -0.11644451
0.02529135 0.096011154 -0.081872165 -0.13057314 -0.1178775 0.05195378 0.093985885 -0.07797129
0.14930458 0.109898135 -0.11495143 0.15042348 0.059770793 0.0943867 -0.05905127 0.014469523
0.07794652 0.090030365 -0.04406481 0.063527994 -0.08747665 -0.10779601 -0.10127434 -0.08387304
-0.070190094 0.16274522 -0.023734005 0.07351447 0.10662787 0.11661078 0.13038383 -0.04986183
-0.07795151 -0.009923077 0.013552919 -0.16732791 -0.16158585 -0.10136403 0.2001048 0.08864935
-0.002692488 0.14851625 -0.025036445 0.14635348 -0.10609082 -0.01247417 0.09532613 0.026165608
0.12881625 0.0050708707 -0.066869475 -0.08426088 0.097638264 -0.03961537 0.09817981 -0.061078396
-0.0731587 0.046231523 0.14246441 0.04893807 -0.08094994 -0.051010083 0.090967 0.08904134
0.070226125 -0.043889575 0.13350357 -0.0071997056 0.06745347 -0.10730619 -0.053005453 0.042635284
0.019079627 0.1584766 0.043894496 0.038604062 -0.14767848 0.15429492 0.0690898 -0.014503577
-0.08631473 0.052390296 0.051942766 0.13728568 -0.065102376 -0.13273342 -0.09021112 0.04967889
0.04900735 -0.09921131 -0.0011463446 0.09971132 -0.14789765 -0.008659011 -0.09500901 0.12416372
-0.084083274 -0.018166032 -0.14194573 -0.089380816 0.0016837431 0.046197407 -0.047024846 0.120510586
0.12621969 0.103689425 0.0773124 -0.016539292 0.05633184 0.051512286 -0.134083 -0.10955603
0.0711782 0.045212492 0.006809846 -0.10525966 0.14087832 -0.079229034 0.09287465 -0.1448049
-0.13076647 0.041976035 0.034112927 0.06146578 -0.11152082 -0.07661332 -0.043339185 0.12592928
-0.05375258 0.102557935 -0.054461718 -0.04381619 -0.0760666 0.031021731 -0.10579024 -0.017019492
0.12197909 0.0010436428 0.103124626 0.08594138 0.07383419 -0.023522878 -0.063536786 -0.03303033
0.0062670074 0.122243494 0.07845185 0.11492927 -0.14077103 0.11000049 0.15018444 0.07942686
0.101082735 0.055859048 0.015250164 -0.065022215 -0.037850264 -0.11724398 0.1435186 -0.040679775
0.05638691 -0.016347261 -0.015212361 -0.0062682005 0.121665195 0.1293187 0.010241486 0.12586258
-0.10500731 -0.111612424 0.039277315 0.053335004 -0.1139634 -0.018371634 0.009613027 0.0045737834
0.06410347 -0.055848252 0.039130773 -0.051546734 -0.056467496 0.15316671 -0.04426739 -0.02166586
-0.008356106 -0.08247218 0.08761023 0.09093195 -0.08515127 -0.12720719 0.09715007 -0.039507914
-0.12703495 0.019075213 0.143034 0.009328018 -0.053266034 -0.029675923 -0.046262406 0.07616576
-0.0037256968 0.1585303 -0.09288586 0.021411018 0.040958688 0.076929696 -0.062083665 -0.018463124
-0.007598302 0.13775086 0.037393942 0.05018201 -0.090943865 -0.0020249125 -0.12644644 0.09466481
-0.082475886 -0.009611935 0.08529271 0.08758297 0.14658967 0.1410839 0.13758329 0.08020976
0.16267669 0.12229721 0.1295189 -0.08587311 0.080391005 0.04775738 0.16076078 0.07380572
0.021212488 -0.07219754 0.036667902 0.02686872 0.1645749 0.009045427 0.10761283 0.13656779
0.072933525 0.13098307 -0.01016898 0.051114466 0.071666315 0.0654398 -0.1115644 0.09198874
00000000: 8b02 1ebe 6bfd a8bd e997 48bc b151 adbd
00000010: f1fb 86bd 2035 a93d f0f3 b0bb 767a eebd
00000020: ce2f cf3c 7fa1 c43d 98ac a7bd f7b4 05be
00000030: c269 f1bd 7dcd 543d ac7b c03d 69af 9fbd
00000040: 4de3 183e 4612 e13d a86b ebbd 9d08 1a3e
00000050: 38d2 743d d04d c13d bfdf 71bd 9411 6d3c
00000060: 6da2 9f3d d761 b83d 4d7d 34bd f71a 823d
00000070: f526 b3bd 28c4 dcbd ec68 cfbd a1c5 abbd
00000080: d3bf 8fbd afa6 263e d16d c2bc c18e 963d
00000090: b65f da3d a2d1 ee3d 5783 053e eb3b 4cbd
000000a0: 0ba5 9fbd 6794 22bc 100d 5e3c 0258 2bbe
000000b0: c376 25be f297 cfbd 46e8 4c3e ca8d b53d
000000c0: 7474 30bb a514 183e 3b19 cdbc b0dd 153e
000000d0: 2546 d9bd 7660 4cbc 593a c33d 4259 d63c
000000e0: 68e8 033e 8c29 a63b ddf2 88bd f890 acbd
000000f0: 92f6 c73d ba43 22bd 7f12 c93d 572d 7abd
00000100: 3ad4 95bd 445d 3d3d 31e2 113e 4973 483d
00000110: 15c9 a5bd f3ef 50bd e84c ba3d 4e5b b63d
00000120: b7d2 8f3d 8ec5 33bd 29b5 083e 82eb ebbb
00000130: 0b25 8a3d 59c3 dbbd 3f1c 59bd 56a2 2e3d
00000140: e14c 9c3c b147 223e b7ca 333d 4b1f 1e3d
00000150: 0739 17be 7dff 1d3e f47e 8d3d 69a0 6dbc
00000160: c7c5 b0bd 3597 563d f0c1 543d 9e94 0c3e
00000170: 6554 85bd 45eb 07be 9cc0 b8bd 177c 4b3d
00000180: eebb 483d 4d2f cbbd f140 96ba 7335 cc3d
00000190: 7b72 17be 86de 0dbc 1594 c2bd 8c49 fe3d
000001a0: da33 acbd eed0 94bc 395a 11be 4a0d b7bd
000001b0: 0bb1 dc3a 7e39 3d3d 209d 40bd 41ce f63d
000001c0: bc3f 013e 1f5b d43d f755 9e3d 697d 87bc
000001d0: 37bc 663d 8cfe 523d 0e4d 09be e95e e0bd
000001e0: e0c5 913d bc30 393d 2125 df3b 6092 d7bd
000001f0: 6842 103e d542 a2bd 1135 be3d bc47 14be
00000200: a5e7 05be 10ef 2b3d ffb9 0b3d 8bc3 7b3d
00000210: 0765 e4bd 72e7 9cbd 6e84 31bd 9bf3 003e
00000220: aa2b 5cbd e509 d23d 4013 5fbd 9b78 33bd
00000230: cec8 9bbd 4921 fe3c 8ea8 d8bd 766c 8bbc
00000240: 2cd0 f93d d7ca 883a 0133 d33d 0902 b03d
00000250: 6136 973d 0db3 c0bc 931f 82bd d04a 07bd
00000260: 785b cd3b cc5a fa3d 5dab a03d 0a60 eb3d
00000270: 4826 10be f047 e13d f3c9 193e 8daa a23d
00000280: 7704 cf3d 75cc 643d d3db 793c 5e2a 85bd
00000290: e108 1bbd 9d1d f0bd 8af6 123e d69f 26bd
000002a0: f6f5 663d b1ea 85bc 443d 79bc 7a65 cdbb
000002b0: 9a2b f93d 1f6c 043e e8cb 273c 1fe2 003e
000002c0: 130e d7bd 0e95 e4bd 40e1 203d ce75 5a3d
000002d0: a565 e9bd 1c80 96bc f57f 1d3c addf 953b
000002e0: ae48 833d 23c1 64bd 9747 203d ab22 53bd
000002f0: 764a 67bd bcd7 1c3e b951 35bd 9a7c b1bc
00000300: 0ce8 08bc 2de7 a8bd fe6c b33d 883a ba3d
00000310: ca63 aebd 9a42 02be 9ef6 c63d 0dd3 21bd
00000320: 7315 02be 9f43 9c3c 8177 123e 8bd4 183c
00000330: 7c2d 5abd ec1a f3bc a67d 3dbd cbfc 9b3d
00000340: d22a 74bb c455 223e f13a bebd 2966 af3c
00000350: 4cc4 273d 518d 9d3d 714b 7ebd fa3f 97bc
00000360: 2dfb f8bb 900e 0d3e 642a 193d a78b 4d3d
00000370: c740 babd 65b4 04bb 2d7b 01be a0df c13d
00000380: 1ee9 a8bd 617b 1dbc f2ad ae3d b35e b33d
00000390: 9a1b 163e 4c78 103e a2e2 0c3e 0445 a43d
000003a0: b894 263e f676 fa3d 9aa0 043e 3ede afbd
000003b0: 0aa4 a43d 3e9d 433d 799e 243e 7427 973d
000003c0: d0c5 ad3c 4edc 93bd 1531 163d ca1b dc3c
000003d0: 5386 283e 4533 143c 1e64 dc3d 6dd8 0b3e
000003e0: 2c5e 953d 6d20 063e cb9b 26bc 675d 513d
000003f0: cac5 923d 4d05 863d e07b e4bd 9864 bc3d

fc1.bias f4 [60]
0.005845156 0.14167903 -0.03982604 -0.062345494 -0.08591679 0.12798789 0.08037518 -0.0119437985
0.004729224 0.154926 0.05983995 0.14443693 -0.08115038 -0.022608938 0.06766558 0.10484343
0.12501548 -0.01219973 -0.076855995 0.1437748 0.08584199 0.04133191 -0.061306566 -0.08985224
-0.14407922 0.15479852 -0.07223614 0.055525105 -0.11995652 0.067183666 0.03892567 -0.052925084
0.0649636 -0.024932628 -0.1468006 0.030833201 -0.05268793 -0.086938165 0.10690665 0.06503325
-0.12003074 0.15213384 -0.10591975 0.16548511 -0.070531435 0.17209549 0.17210916 0.07795085
0.13130972 0.08116132 -0.03705334 -0.061682597 -0.013941224 -0.047585145 -0.041215647 0.1472135
-0.09943254 0.14578746 0.16683292 -0.08946354
00000000: b988 bf3b 4f14 113e a120 23bd fd5d 7fbd
00000010: 24f5 afbd 420f 033e be9b a43d ecaf 43bc
00000020: 9bf7 9a3b eca4 1e3e bc1a 753d 46e7 133e
00000030: 2c32 a6bd 6136 b9bc 4094 8a3d 27b8 d63d
00000040: 0f04 003e 60e1 47bc ad66 9dbd b339 133e
00000050: edcd af3d a64b 293d 981c 7bbd 7404 b8bd
00000060: 8189 13be 8183 1e3e 8bf0 93bd 4b6e 633d
00000070: c4ab f5bd 9797 893d 8670 1f3d f9c7 58bd
00000080: a30b 853d 833f ccbc e652 16be e995 fc3c
00000090: 4dcf 57bd a30c b2bd e0f1 da3d 2730 853d
000000a0: add2 f5bd f9c8 1b3e 74ec d8bd ee74 293e
000000b0: c972 90bd cd39 303e 623d 303e b2a4 9f3d
000000c0: 0e76 063e e837 a63d 3ec5 17bd e4a6 7cbd
000000d0: bb69 64bc a4e8 42bd bdd1 28bd 23bf 163e
000000e0: 4aa3 cbbd 4f49 153e 40d6 2a3e a938 b7bd

fc2.weight f4 [30, 60]
-0.10219133 0.10458273 0.03367382 -0.07113847 -0.093706556 0.1519332 -0.00015623042 0.15695654
-0.16165528 -0.11417319 -0.16462563 -0.060510006 -0.028789196 0.0017885026 0.11903985 -0.017509704
0.15995026 0.1156995 -0.16634572 0.09596843 0.05021743 0.04787869 -0.001329778 0.17879336
0.017473565 -0.05944703 0.10628708 -0.13631381 -0.0551277 0.1547836 -0.07058265 0.12721065
0.06106763 0.0019164449 -0.03254851 -0.077356584 -0.03245796 0.032641266 -0.046166115 -0.10300076
0.020023331 -0.02098748 -0.0045951456 0.03555717 0.07764528 -0.033895507 0.053741716 -0.005223352
0.14742066 0.13455997 0.059935205 -0.13773012 -0.06263459 -0.048040584 -0.0426453 -0.13257183
-0.094462916 -0.08701115 -0.0012078922 -0.117116064 0.09380412 -0.09452815 -0.09672069 0.06777836
0.13668598 -0.058780327 0.1068134 -0.04130045 0.055487156 0.16738212 0.12517513 0.12336832
0.18266732 -0.18514062 0.06975801 0.1347377 -0.08184713 0.07593113 0.073780484 0.037620887
0.09986796 0.015776834 0.009068216 -0.09517817 -0.063587084 -0.026462706 -0.08155997 0.1767563
-0.09446805 -0.031903487 0.05206429 0.05548075 0.19509093 -0.023341598 -0.09846952 0.12782791
0.10246662 -0.019619925 0.10244743 -0.046368252 -0.020075202 -0.09982023 0.11724933 -0.05225451
0.022485973 0.16481316 -0.016000185 -0.017381255 -0.08312239 -0.16583848 0.1541022 0.0652682
-0.0030700667 -0.058013007 -0.0923673 -0.059587438 -0.10940542 -0.04128351 -0.058430765 0.10738929
-0.046060026 -0.016816903 -0.00794702 0.04801858 0.09333943 0.023047931 0.059123207 0.030913414
-0.029680172 -0.13440223 -0.10587094 0.123276286 0.08406196 -0.041889004 -0.08944026 0.007820226
-0.0195411 -0.08498654 -0.038117662 0.09051965 -0.0027860475 -0.0060577453 -0.019929819 0.045312468
-0.04455246 -0.03815984 0.042896613 -0.049708206 -0.03856713 0.009273161 -0.10358559 0.10051569
-0.13577943 0.09567166 0.075288944 0.12520058 0.032669533 -0.008481628 -0.105120644 0.033637594
0.120736286 0.1750076 -0.022861734 0.025878794 0.07021662 0.06576393 -0.0702961 -0.05221398
0.04723657 0.17944857 -0.07275342 -0.041737214 -0.15489851 -0.12403746 -0.038412042 -0.13005714
-0.0704296 0.14026058 -0.09525127 -0.10467534 0.08886387 -0.0025352878 0.05372411 -0.117095895
0.11710476 0.03749191 0.017104948 -0.0708951 -0.045750808 -0.11751648 -0.044248134 -0.027237637
-0.040109433 -0.054592345 0.028035205 -0.042531203 -0.07832014 0.054044694 -0.012786234 0.046024945
0.0892435 -0.077162154 0.070746265 0.065018244 0.013678633 -0.025757229 -0.049028732 0.077013
0.0012182369 -0.13777883 -0.011785004 -0.020077292 0.06666438 0.02967772 0.043685727 -0.12202339
-0.09121575 -0.015401438 0.11156783 -0.08678015 0.11130154 0.041061122 -0.0068182633 0.035761517
0.026653992 0.063692234 -0.024167735 0.049137846 0.060697455 0.092109665 -0.100634344 0.023150522
-0.01263941 -0.027000807 -0.13055804 0.04380569 -0.030383833 0.05787159 -0.064773954 0.035800256
0.09618918 0.11096137 -0.046388477 0.09849822 0.025178269 0.11062513 0.0081541585 0.07705906
0.10113496 0.08578802 0.033363666 0.106790654 -0.007449021 -0.04057758 -0.023486627 -0.12706307
00000000: b049 d1bd 782f d63d 8fed 093d 0cb1 91bd
00000010: 39e9 bfbd 6094 1b3e c9d1 23b9 37b9 203e
00000020: f688 25be a2d3 e9bd 9f93 28be 57d9 77bd
00000030: 52d7 ebbc 306c ea3a 2acb f33d 8370 8fbc
00000040: 00ca 233e dcf3 ec3d 8856 2abe 198b c43d
00000050: cbb0 4d3d 721c 443d f24b aeba 9b15 373e
00000060: b924 8f3c bb7e 73bd 0aad d93d d995 0bbe
00000070: 95cd 61bd 987f 1e3e a38d 90bd 8243 023e
00000080: 0d22 7a3d 3831 fb3a 9651 05bd 216d 9ebd
00000090: a3f2 04bd d9b2 053d ae18 3dbd 10f2 d2bd
000000a0: f807 a43c f0ed abbc e092 96bb 65a4 113d
000000b0: 7d04 9f3d 04d6 0abd 4620 5c3d a728 abbb
000000c0: 71f5 163e 17ca 093e 9e7e 753d 2009 0dbe
000000d0: 9046 80bd 34c6 44bd d7ac 2ebd e9c0 07be
000000e0: c675 c1bd e732 b2bd 2352 9eba 8cda efbd
000000f0: 601c c03d fa97 c1bd 7f15 c6bd 61cf 8a3d
00000100: 69f7 0b3e a4c3 70bd fcc0 da3d a92a 29bd
00000110: 8046 633d 3866 2b3e e92d 003e 88a8 fc3d
00000120: 240d 3b3e 8195 3dbe 4add 8e3d aef8 093e
00000130: 789f a7bd c881 9b3d 391a 973d 5c18 1a3d
00000140: 9387 cc3d 6b3e 813c db92 143c c6ec c2bd
00000150: f239 82bd 51c8 d8bc ea08 a7bd 9aff 343e
00000160: 7778 c1bd 3bad 02bd 5d41 553d c83f 633d
00000170: ebc5 473e e136 bfbc 63aa c9bd 52e5 023e
00000180: 05da d13d f7b9 a0bc f5cf d13d a3ec 3dbd
00000190: c074 a4bc 8c6e ccbd 6b20 f03d d308 56bd
000001a0: 8134 b83c c8c4 283e d212 83bc 2263 8ebc
000001b0: 123c aabd 90d1 29be f8cc 1d3e 56ab 853d
000001c0: 2c33 49bb 0c9f 6dbd 112b bdbd f511 74bd
000001d0: f30f e0bd e618 29bd 1955 6fbd ebee db3d
000001e0: 70a9 3cbd 9ac3 89bc 3834 02bc 21af 443d
000001f0: be28 bf3d 04cf bc3c 2d2b 723d 213e fd3c
00000200: d523 f3bc bda0 09be ddd2 d8bd 4778 fc3d
00000210: ad28 ac3d ce93 2bbd 742c b7bd 6820 003c
00000220: a814 a0bc 6c0d aebd 4421 1cbd 5e62 b93d
00000230: 1f96 36bb 0d80 c6bb dc43 a3bc 9199 393d
00000240: a47c 36bd 7e4d 1cbd 5cb4 2f3d d59a 4bbd
00000250: 91f8 1dbd 75ee 173c af24 d4bd 2cdb cd3d
00000260: c309 0bbe 81ef c33d 1731 9a3d 9534 003e
00000270: 7dd0 053d 87f6 0abc 7e49 d7bd 93c7 093d
00000280: 9644 f73d 3135 333e 8848 bbbc c4ff d33c
00000290: bbcd 8f3d 3daf 863d 67f7 8fbd 54de 55bd
000002a0: 227b 413d 5ec1 373e bfff 94bd a4f4 2abd
000002b0: b79d 1ebe 5a07 febd f255 1dbd b32d 05be
000002c0: 653d 90bd 78a0 0f3e 1913 c3bd 0660 d6bd
000002d0: 43fe b53d 1227 26bb d00d 5c3d f9cf efbd
000002e0: 9fd4 ef3d 1e91 193d ad1f 8c3c 7331 91bd
000002f0: 3365 3bbd 7bac f0bd 883d 35bd 7721 dfbc
00000300: ca49 24bd 399c 5fbd 16aa e53c 3335 2ebd
00000310: 4f66 a0bd f85d 5d3d 5a7d 51bc a784 3c3d
00000320: 4cc5 b63d 3107 9ebd 6be3 903d 4928 853d
00000330: 581c 603c d300 d3bc 5ad2 48bd feb8 9d3d
00000340: 3fad 9f3a e515 0dbe e415 41bc 2279 a4bc
00000350: 5687 883d b11e f33c ceef 323d 66e7 f9bd
00000360: 53cf babd 5056 7cbc ad7d e43d cbb9 b1bd
00000370: 10f2 e33d b52f 283d bd6b dfbb ab7a 123d
00000380: 7959 da3c 1371 823d 6afb c5bc c444 493d
00000390: e59d 783d fea3 bc3d 6119 cebd 2aa6 bd3c
000003a0: 8715 4fbc cc30 ddbc 02b1 05be 986d 333d
000003b0: 84e7 f8bc c30a 6d3d 35a8 84bd 4aa3 123d
000003c0: d5fe c43d b73f e33d d801 3ebd 6fb9 c93d
000003d0: a842 ce3c 6e8f e23d 0599 053c 24d1 9d3d
000003e0: d91f cf3d a1b1 af3d 57a8 083d 0fb5 da3d
000003f0: eb16 f4bb ad34 26bd 0767 c0bc d21c 02be

fc2.bias f4 [30]
0.045884077 0.10523981 0.106042154 -0.036520008 -0.01603244 0.024795217 -0.11815273 -0.12146001
-0.049024116 0.16713983 0.114120625 0.06290036 0.10642071 0.0903339 -0.047495253 -0.082612254
0.053717937 -0.056774154 0.06265293 0.14770584 0.044387285 -0.12071581 0.041138276 -0.12906654
0.103890695 -0.06589322 -0.05508944 -0.09471073 -0.1277607 0.03487868
00000000: f1f0 3b3d f887 d73d a12c d93d 0196 15bd
00000010: 7756 83bc 571f cb3c 0ffa f1bd 07c0 f8bd
00000020: 83cd 48bd b426 2b3e 13b8 e93d e7d1 803d
00000030: 1af3 d93d fb00 b93d 628a 42bd 9d30 a9bd
00000040: 5707 5c3d 048c 68bd 2e50 803d 3340 173e
00000050: 71cf 353d da39 f7bd 9c80 283d 052a 04be
00000060: a5c4 d43d 06f3 86bd 77a5 61bd b3f7 c1bd
00000070: b3d3 02be f2dc 0e3d

fc3.weight f4 [4, 30]
-0.10971622 0.16793135 -0.07196159 0.17342293 0.14133327 0.069297574 0.13910732 0.16454208
-0.14777227 -0.14549068 -0.053485543 0.12919301 0.058519118 0.03887895 0.0903994 -0.13917126
-0.12759988 -0.012854412 0.1345482 -0.152751 -0.072599225 0.04554357 0.06881594 0.12273474
0.07362153 0.0041439356 -0.12909776 -0.13386795 -0.13478772 0.05977748 -0.22824815 0.21727365
-0.0778107 -0.05252796 -0.118721955 0.13130702 -0.16387081 -0.02526243 0.0481633 0.105870225
-0.07199611 0.19499862 0.15008073 0.059957776 0.016989695 -0.1476518 -0.1779919 0.06528528
0.038305826 0.09056061 0.23259209 -0.032801323 0.23106562 -0.048162825 0.038747087 -0.07449498
-0.15116802 -0.021741465 -0.074441426 0.057171095 0.15993106 -0.08529566 0.0005173323 -0.021423278
0.03416927 -0.24261916 0.040183898 -0.14469838 0.056930587 0.2067924 -0.20849179 -0.16150993
0.0072996556 -0.041190695 0.1461949 0.065728515 0.15816996 0.17167413 0.03548124 0.18280773
0.09176682 0.13675214 -0.17835887 0.14055407 0.0017407982 0.06558564 -0.18937248 0.039079584
0.08509764 0.03642593 0.029305462 -0.16295241 0.24665985 -0.15413424 -0.16824993 -0.21742529
-0.11960325 -0.0054000467 -0.16061068 0.1283782 -0.20847192 0.102847405 0.14949001 -0.12947163
-0.12839758 0.13557261 -0.0075399093 -0.06697492 -0.14035341 0.043473642 0.024761532 -0.08201595
-0.04680394 0.0021503866 0.1776946 -0.062723 0.05032096 -0.048449405 0.05350074 0.030960003
00000000: e6b2 e0bd 32f6 2b3e 9960 93bd c895 313e
00000010: abb9 103e e3eb 8d3d 2672 0e3e b87d 283e
00000020: 9d51 17be 82fb 14be a813 5bbd 2c4b 043e
00000030: beb1 6f3d 893f 1f3d 5223 b93d e982 0ebe
00000040: 8ba9 02be 509b 52bc 01c7 093e c26a 1cbe
00000050: e7ae 94bd e58b 3a3d 5fef 8c3d 5a5c fb3d
00000060: e2c6 963d dac9 873b 3432 04be ae14 09be
00000070: cb05 0abe 3bd9 743d e2b9 69be fc7c 5e3e
00000080: 375b 9fbd 8f27 57bd 7f24 f3bd 5975 063e
00000090: c0cd 27be 28f3 cebc e146 453d 7dd2 d83d
000000a0: b272 93bd b8ad 473e c3ae 193e 4996 753d
000000b0: f92d 8b3c 0932 17be 8243 36be 4ab4 853d
000000c0: 92e6 1c3d d777 b93d 9f2c 6e3e ae5a 06bd
000000d0: 779c 6c3e 6246 45bd 44b5 1e3d d390 98bd
000000e0: cacb 1abe 281b b2bc bf74 98bd 3d2c 6a3d
000000f0: f8c4 233e 7eaf aebd 959d 073a df7f afbc
00000100: 14f5 0b3d 2871 78be df97 243d d02b 14be
00000110: 0c30 693d 63c1 533e df7e 55be dc62 25be
00000120: f331 ef3b 93b7 28bd 1eb4 153e ac9c 863d
00000130: 4ef7 213e 58cb 2f3e c754 113d f331 3b3e
00000140: 3ef0 bb3d c108 0c3e b5a3 36be 68ed 0f3e
00000150: 7f2b e43a c451 863d dcea 41be ea11 203d
00000160: ac47 ae3d 5b33 153d 0212 f03c ffdc 26be
00000170: 6694 7c3e 5ed5 1dbe b649 2cbe bca4 5ebe
00000180: 8cf2 f4bd e0f2 b0bb 2077 24be 9375 033e
00000190: aa79 55be a9a1 d23d e913 193e 3694 04be
000001a0: a87a 03be 8cd3 0a3e 5811 f7bb 262a 89bd
000001b0: ceb8 0fbe 6b11 323d b2d8 ca3c faf7 a7bd
000001c0: 7db5 3fbd 80ed 0c3b 93f5 353e eb74 80bd
000001d0: 5a1d 4e3d e272 46bd 9823 5b3d d59f fd3c

fc3.bias f4 [4]
0.17605491 -0.06430533 0.15875243 0.086862646
00000000: bd47 343e 83b2 83bd ff8f 223e 0be5 b13d

fc1.weight f4 [60, 46]
-0.1542918 -0.08251086 -0.012214373 -0.08460515 -0.06585643 0.082631364 -0.005363476 -0.11644667
0.025318148 0.09602598 -0.08185287 -0.13058463 -0.11787439 0.05198943 0.09398365 -0.077973545
0.1493005 0.10989786 -0.11496364 0.15042007 0.059768453 0.09438285 -0.05905012 0.014486973
0.07794044 0.09003709 -0.04406224 0.06352413 -0.087479256 -0.10776607 -0.10125238 -0.08387151
-0.07011625 0.16273901 -0.023721898 0.07353507 0.10671695 0.11667904 0.13038933 -0.049885467
-0.07792519 -0.009898719 0.013552919 -0.167292 -0.16156995 -0.10133048 0.20007317 0.08864071
-0.002670994 0.14852983 -0.024984006 0.14633615 -0.10606831 -0.012498086 0.095291905 0.026152316
0.12880251 0.0050921254 -0.06682014 -0.08423942 0.097612165 -0.03964146 0.09815165 -0.061060164
-0.073139206 0.046205733 0.1424821 0.048914913 -0.080974296 -0.051035695 0.09098234 0.08907175
0.070238136 -0.04388621 0.13352434 -0.007194799 0.06747091 -0.10729003 -0.052927148 0.042604886
0.019063327 0.15847385 0.04392413 0.03863805 -0.14767589 0.15431288 0.06905666 -0.0145354
-0.08631473 0.052412245 0.051956892 0.13728657 -0.06510239 -0.13275509 -0.09022343 0.049674485
0.049017467 -0.099242575 -0.0011521643 0.099718 -0.14792232 -0.008656296 -0.095004454 0.12416649
-0.08408509 -0.018175231 -0.1419392 -0.08937427 0.0016902531 0.04620201 -0.04702063 0.12051689
0.12622516 0.10369904 0.07731739 -0.01654477 0.056336176 0.051523313 -0.13407679 -0.10954806
0.07118368 0.045219637 0.006821219 -0.10525485 0.1408897 -0.079223126 0.092874214 -0.14481522
-0.13071385 0.041998956 0.03410382 0.061449412 -0.11152423 -0.07662226 -0.043339185 0.12593976
-0.05374815 0.10257623 -0.05449893 -0.04383311 -0.07604593 0.031034421 -0.10571272 -0.01704901
0.12200542 0.0010147095 0.10309446 0.08592727 0.073822565 -0.023514725 -0.0634951 -0.03299383
0.006232027 0.122208506 0.07841407 0.114940114 -0.1407689 0.10996498 0.1501943 0.0793916
0.10105102 0.055838436 0.015256261 -0.064996146 -0.037843276 -0.11724944 0.14353164 -0.04066664
0.05641209 -0.016334934 -0.015110001 -0.0063093565 0.1216489 0.12931849 0.010306148 0.125921
-0.10501055 -0.11162088 0.039247807 0.05331199 -0.1139634 -0.018340092 0.0096284 0.0045807227
0.064136416 -0.055865325 0.03907795 -0.051598802 -0.056556646 0.1531846 -0.044317752 -0.021706963
-0.008317712 -0.08246429 0.087620646 0.0908726 -0.08523787 -0.12724546 0.09714945 -0.03950857
-0.12703294 0.019013742 0.14296523 0.009326006 -0.053328335 -0.029666327 -0.046265062 0.07617138
-0.003786704 0.15845677 -0.092940636 0.021363297 0.040896293 0.07688745 -0.062156186 -0.018521708
-0.0077015935 0.13775592 0.037389416 0.050155297 -0.09092391 -0.0020427476 -0.12646723 0.094599925
-0.08243886 -0.009588401 0.08529271 0.08760146 0.14660433 0.14107524 0.13754405 0.08015774
0.16263592 0.12226192 0.12949914 -0.085891806 0.08034462 0.047716904 0.16071878 0.07374344
0.02114763 -0.07219983 0.03665931 0.026844164 0.1645207 0.008991227 0.107558936 0.1365537
0.07292847 0.13092963 -0.010180971 0.05106362 0.071611844 0.06537323 -0.11157411 0.09197527
00000000: abfe 1dbe 74fb a8bd cb1e 48bc 7745 adbd
00000010: bcdf 86bd a23a a93d 19c0 afbb 977b eebd
00000020: 0168 cf3c 45a9 c43d 7aa2 a7bd fab7 05be
00000030: 2168 f1bd def2 543d 807a c03d 98b0 9fbd
00000040: 3be2 183e 2112 e13d 0f72 ebbd b807 1a3e
00000050: c4cf 743d cc4b c13d 8ade 71bd c55a 6d3c
00000060: 3d9f 9f3d 5e65 b83d 9b7a 34bd f018 823d
00000070: 5328 b3bd 75b4 dcbd 685d cfbd d4c4 abbd
00000080: 1c99 8fbd 0ea5 263e 6d54 c2bc 8e99 963d
00000090: 6b8e da3d 6cf5 ee3d c884 053e b454 4cbd
000000a0: 3e97 9fbd 3d2e 22bc 100d 5e3c 984e 2bbe
000000b0: 9872 25be 5b86 cfbd fbdf 4c3e 4389 b53d
000000c0: d80b 2fbb 3418 183e 42ab ccbc 25d9 153e
000000d0: 583a d9bd c6c4 4cbc 6728 c33d 623d d63c
000000e0: cee4 033e d8db a63b ffd8 88bd b885 acbd
000000f0: e3e8 c73d 155f 22bd bb03 c93d 391a 7abd
00000100: 02ca 95bd 3942 3d3d d4e6 113e 015b 483d
00000110: dad5 a5bd ce0a 51bd f354 ba3d 406b b63d
00000120: 03d9 8f3d 07c2 33bd 9bba 083e 59c2 ebbb
00000130: 302e 8a3d e0ba dbbd 23ca 58bd 7682 2e3d
00000140: b22a 9c3c f846 223e cae9 333d ef42 1e3d
00000150: 5938 17be 3204 1e3e 946d 8d3d e325 6ebc
00000160: c7c5 b0bd 39ae 563d c0d0 543d da94 0c3e
00000170: 6754 85bd f3f0 07be 10c7 b8bd 7977 4b3d
00000180: 8ac6 483d b13f cbbd 3804 97ba f338 cc3d
00000190: f378 17be 23d3 0dbc b291 c2bd 004b fe3d
000001a0: ce34 acbd 39e4 94bc 8258 11be db09 b7bd
000001b0: 7c8b dd3a 523e 3d3d b498 40bd 8fd1 f63d
000001c0: 2b41 013e 2a60 d43d 9458 9e3d e688 87bc
000001d0: c3c0 663d 1c0a 533d 6d4b 09be bc5a e0bd
000001e0: c0c8 913d 3a38 393d 8884 df3b db8f d7bd
000001f0: 6445 103e bc3f a2bd d634 be3d 714a 14be
00000200: dad9 05be 1907 2c3d 72b0 0b3d 61b2 7b3d
00000210: d166 e4bd 22ec 9cbd 6e84 31bd 5af6 003e
00000220: 0527 5cbd 7d13 d23d 453a 5fbd 598a 33bd
00000230: f8bd 9bbd e63b fe3c e97f d8bd 5eaa 8bbc
00000240: fadd f93d 0000 853a 3023 d33d a3fa af3d
00000250: 4930 973d f4a1 c0bc b809 82bd 8a24 07bd
00000260: 0836 cc3b 7448 fa3d 8e97 a03d b965 eb3d
00000270: b925 10be 5235 e13d 89cc 193e 1098 a23d
00000280: d6f3 ce3d d8b6 643d 66f5 793c b31c 85bd
00000290: 8d01 1bbd 7920 f0bd f5f9 123e 1092 26bd
000002a0: 5d10 673d d7d0 85bc f08f 77bc b8be cebb
000002b0: 0f23 f93d 116c 043e 1edb 283c 6ff1 003e
000002c0: c50f d7bd 7d99 e4bd 4fc2 203d ac5d 5a3d
000002d0: a565 e9bd f63d 96bc 70c0 1d3c e319 963b
000002e0: f459 833d 0ad3 64bd 3310 203d 4459 53bd
000002f0: f1a7 67bd 6cdc 1c3e 8886 35bd cdd2 b1bc
00000300: 0347 08bc 0ae3 a8bd 7472 b33d 6a1b ba3d
00000310: 3191 aebd a24c 02be 4af6 c63d bdd3 21bd
00000320: ec14 02be b5c2 9b3c 7a65 123e 1bcc 183c
00000330: d06e 5abd cc06 f3bc 6f80 3dbd beff 9b3d
00000340: 5a2a 78bb 7e42 223e a957 bebd 1502 af3c
00000350: df82 273d 2b77 9d3d 7c97 7ebd d6ba 97bc
00000360: a65d fcbb e30f 0d3e a525 193d a46f 4d3d
00000370: 5136 babd 9edf 05bb a080 01be 9bbd c13d
00000380: b4d5 a8bd ab18 1dbc f2ad ae3d 6568 b33d
00000390: 721f 163e 0776 103e 59d8 0c3e be29 a43d
000003a0: 088a 263e 7564 fa3d 6c9b 043e 0be8 afbd
000003b0: b88b a43d cd72 433d 7793 243e cd06 973d
000003c0: cb3d ad3c 81dd 93bd 1328 163d 4be8 db3c
000003d0: 1d78 283e f04f 133c dc47 dc3d bcd4 0b3e
000003e0: 865b 953d 6b12 063e 16ce 26bc 1628 513d
000003f0: 3ba9 923d 66e2 853d f880 e4bd 885d bc3d

fc1.bias f4 [60]
0.0058323774 0.14164639 -0.039821338 -0.062392 -0.085910596 0.12793542 0.080414034 -0.011975117
0.0047339094 0.15490943 0.05984331 0.14441775 -0.081167616 -0.022644669 0.06766679 0.10484628
0.1250029 -0.01219973 -0.076809816 0.14372118 0.08581531 0.04133191 -0.06130826 -0.08986143
-0.14407922 0.15477882 -0.07224668 0.05552461 -0.11996111 0.06715292 0.03892567 -0.05295757
0.064962834 -0.024965063 -0.1468006 0.030833201 -0.05268394 -0.08698212 0.10698135 0.06503325
-0.12003074 0.15210424 -0.10593819 0.16542186 -0.07053194 0.1720616 0.17208788 0.07791564
0.1312748 0.08113351 -0.037041012 -0.061687093 -0.013920769 -0.047585145 -0.041167732 0.14723077
-0.09943254 0.14577027 0.16680196 -0.089453205
00000000: 871d bf3b c00b 113e b31b 23bd c18e 7fbd
00000010: e5f1 afbd 8101 033e 1db0 a43d 4833 44bc
00000020: e91e 9b3b 94a0 1e3e 421e 753d 3fe2 133e
00000030: 353b a6bd 5081 b9bc e394 8a3d a5b9 d63d
00000040: c300 003e 60e1 47bc 774e 9dbd a52b 133e
00000050: f0bf af3d a64b 293d 5f1e 7bbd 4509 b8bd
00000060: 8189 13be 577e 1e3e 11f6 93bd c66d 633d
00000070: 2cae f5bd 7887 893d 8670 1f3d 09ea 58bd
00000080: 3c0b 853d 8883 ccbc e652 16be e995 fc3c
00000090: 1dcb 57bd af23 b2bd 0a19 db3d 2730 853d
000000a0: add2 f5bd 37c1 1b3e 1ff6 d8bd 5964 293e
000000b0: 0d73 90bd eb30 303e ce37 303e 3c92 9f3d
000000c0: e76c 063e 5329 a63d 51b8 17bd 9bab 7cbd
000000d0: f013 64bc a4e8 42bd 7f9f 28bd aac3 163e
000000e0: 4aa3 cbbd cd44 153e 22ce 2a3e 3e33 b7bd

fc2.weight f4 [30, 60]
-0.10217711 0.10456411 0.033536725 -0.071163274 -0.09371948 0.1519216 -0.00014657245 0.15693556
-0.16165775 -0.11417693 -0.1646261 -0.060499135 -0.028788881 0.0017657167 0.119039394 -0.01751301
0.15992346 0.1156995 -0.16631263 0.09595619 0.050208338 0.04787869 -0.0013399399 0.17876928
0.017473565 -0.05945749 0.10626643 -0.13632536 -0.05512641 0.1547565 -0.07058265 0.12718591
0.061069768 0.0018984855 -0.03254851 -0.077356584 -0.032455444 0.032621093 -0.046188865 -0.10300076
0.020023331 -0.021020211 -0.0046772375 0.035543606 0.077663146 -0.03390548 0.053727776 -0.0052523627
0.14739265 0.13453384 0.059927505 -0.13770752 -0.062629245 -0.048040584 -0.042652987 -0.13257807
-0.094462916 -0.08702503 -0.0012183146 -0.11710907 0.093798526 -0.0945021 -0.096597545 0.06781064
0.13670622 -0.05875608 0.10682303 -0.04126579 0.0554962 0.16739193 0.1251864 0.12336922
0.1826798 -0.1851088 0.06975801 0.13474745 -0.081806265 0.07593113 0.07376521 0.037643626
0.09988936 0.015776834 0.009090164 -0.09514673 -0.063587084 -0.026443236 -0.081530124 0.17677358
-0.09446924 -0.031864878 0.05206429 0.055511534 0.1950989 -0.023309212 -0.09846952 0.12782791
0.102475464 -0.01958836 0.10247539 -0.046368252 -0.020075202 -0.09977556 0.11734149 -0.052229676
0.02246787 0.16483253 -0.015975269 -0.017343339 -0.08308914 -0.1658055 0.15411922 0.06526423
-0.0030784477 -0.058013007 -0.09234649 -0.059585 -0.10940542 -0.041259885 -0.05841112 0.10739117
-0.046085425 -0.016859766 -0.00800032 0.04797084 0.093316026 0.022998722 0.05908586 0.030864168
-0.029710904 -0.13443577 -0.10590338 0.12324429 0.08401912 -0.041932307 -0.08944026 0.0077897506
-0.019595215 -0.08498654 -0.038144756 0.090471886 -0.0028345708 -0.0060577453 -0.019962322 0.04527714
-0.04455246 -0.038202543 0.042851686 -0.049743243 -0.038565837 0.009227201 -0.10358559 0.100468114
-0.13581447 0.0956194 0.075288944 0.12520058 0.032626245 -0.008532909 -0.10514989 0.033637594
0.120736286 0.17495804 -0.02290871 0.025831701 0.0702344 0.06571702 -0.07034164 -0.052265193
0.047186974 0.17940792 -0.072794944 -0.041766882 -0.1548957 -0.12403746 -0.03844946 -0.13005714
-0.0704296 0.14021952 -0.09529579 -0.104705565 0.08886387 -0.0025352878 0.05372411 -0.117095895
0.11710476 0.03749191 0.017104948 -0.0708951 -0.045750808 -0.11751648 -0.044248134 -0.027237637
-0.040109433 -0.054592345 0.028035205 -0.042531203 -0.07832014 0.054044694 -0.012786234 0.046024945
0.0892435 -0.077162154 0.070746265 0.065018244 0.013678633 -0.025757229 -0.049028732 0.077013
0.0012182369 -0.13777883 -0.011785004 -0.020077292 0.06666438 0.02967772 0.043685727 -0.12202339
-0.09121575 -0.015401438 0.11156783 -0.08678015 0.11130154 0.041061122 -0.0068182633 0.035761517
0.026653992 0.063692234 -0.024167735 0.049137846 0.060697455 0.092109665 -0.100634344 0.023150522
-0.01263941 -0.027000807 -0.13055804 0.04380569 -0.030383833 0.05787159 -0.064773954 0.035800256
0.09618918 0.11096137 -0.046388477 0.09849822 0.025178269 0.11062513 0.0081541585 0.07705906
0.10113496 0.08578802 0.033363666 0.106790654 -0.007449021 -0.04057758 -0.023486627 -0.12706307
00000000: 3c42 d1bd b525 d63d ce5d 093d 0dbe 91bd
00000010: 00f0 bfbd 5691 1b3e 3eb1 19b9 b7b3 203e
00000020: 9c89 25be 98d5 e9bd bf93 28be f1cd 77bd
00000030: a9d6 ebbc 9f6f e73a edca f33d 7277 8fbc
00000040: fac2 233e dcf3 ec3d dc4d 2abe ae84 c43d
00000050: 42a7 4d3d 721c 443d eca0 afba 4b0f 373e
00000060: b924 8f3c b289 73bd 37a2 d93d e098 0bbe
00000070: 3bcc 61bd 7d78 1e3e a38d 90bd 063d 023e
00000080: 4b24 7a3d 9ad6 f83a 9651 05bd 216d 9ebd
00000090: 00f0 04bd b29d 053d 8930 3dbd 10f2 d2bd
000000a0: f807 a43c 9432 acbc 8343 99bb 2c96 113d
000000b0: db0d 9f3d 79e0 0abd a811 5c3d 031c acbb
000000c0: 19ee 163e 3dc3 093e 8b76 753d 3303 0dbe
000000d0: c343 80bd 34c6 44bd e6b4 2ebd 8cc2 07be
000000e0: c675 c1bd 2e3a b2bd dbaf 9fba e1d6 efbd
000000f0: 7119 c03d 518a c1bd efd4 c5bd 4ee0 8a3d
00000100: b7fc 0b3e 37aa 70bd 08c6 da3d 5106 29bd
00000110: fc4f 633d ca68 2b3e dd30 003e 00a9 fc3d
00000120: 6a10 3b3e 298d 3dbe 4add 8e3d 3cfb 093e
00000130: 0b8a a7bd c881 9b3d 3712 973d 3430 1a3d
00000140: cb92 cc3d 6b3e 813c e9ee 143c 4adc c2bd
00000150: f239 82bd 7c9f d8bc 44f9 a6bd 2204 353e
00000160: 1779 c1bd bf84 02bd 5d41 553d 1060 633d
00000170: 02c8 473e f6f2 bebc 63aa c9bd 52e5 023e
00000180: a8de d13d c577 a0bc 9ede d13d a3ec 3dbd
00000190: c074 a4bc 2157 ccbd bc50 f03d c9ee 55bd
000001a0: 8a0e b83c dcc9 283e 91de 82bc 9e13 8ebc
000001b0: a42a aabd ebc8 29be 6ed1 1d3e 41a9 853d
000001c0: c8bf 49bb 0c9f 6dbd 2820 bdbd 670f 74bd
000001d0: f30f e0bd 2000 29bd 8040 6fbd e7ef db3d
000001e0: 12c4 3cbd 7e1d 8abc c613 03bc 127d 443d
000001f0: 791c bf3d d167 bc3c 0404 723d dad6 fc3c
00000200: 4864 f3bc 88a9 09be dfe3 d8bd 8167 fc3d
00000210: 3712 ac3d 36c1 2bbd 742c b7bd 2a41 ff3b
00000220: 2586 a0bc 6c0d aebd ad3d 1cbd 5349 b93d
00000230: 35c4 39bb 0d80 c6bb 0688 a3bc 8674 393d
00000240: a47c 36bd 457a 1cbd 4085 2f3d 92bf 4bbd
00000250: 36f7 1dbd b02d 173c af24 d4bd 3ac2 cd3d
00000260: f312 0bbe 1bd4 c33d 1731 9a3d 9534 003e
00000270: 19a3 053d 9dcd 0bbc d358 d7bd 93c7 093d
00000280: 9644 f73d 3328 333e 0cab bbbc 019d d33c
00000290: 0ed7 8f3d a596 863d 470f 90bd 0714 56bd
000002a0: 2147 413d b6b6 373e 8415 95bd c013 2bbd
000002b0: fa9c 1ebe 5a07 febd 2e7d 1dbd b32d 05be
000002c0: 653d 90bd b595 0f3e 702a c3bd df6f d6bd
000002d0: 43fe b53d 1227 26bb d00d 5c3d f9cf efbd
000002e0: 9fd4 ef3d 1e91 193d ad1f 8c3c 7331 91bd
000002f0: 3365 3bbd 7bac f0bd 883d 35bd 7721 dfbc
00000300: ca49 24bd 399c 5fbd 16aa e53c 3335 2ebd
00000310: 4f66 a0bd f85d 5d3d 5a7d 51bc a784 3c3d
00000320: 4cc5 b63d 3107 9ebd 6be3 903d 4928 853d
00000330: 581c 603c d300 d3bc 5ad2 48bd feb8 9d3d
00000340: 3fad 9f3a e515 0dbe e415 41bc 2279 a4bc
00000350: 5687 883d b11e f33c ceef 323d 66e7 f9bd
00000360: 53cf babd 5056 7cbc ad7d e43d cbb9 b1bd
00000370: 10f2 e33d b52f 283d bd6b dfbb ab7a 123d
00000380: 7959 da3c 1371 823d 6afb c5bc c444 493d
00000390: e59d 783d fea3 bc3d 6119 cebd 2aa6 bd3c
000003a0: 8715 4fbc cc30 ddbc 02b1 05be 986d 333d
000003b0: 84e7 f8bc c30a 6d3d 35a8 84bd 4aa3 123d
000003c0: d5fe c43d b73f e33d d801 3ebd 6fb9 c93d
000003d0: a842 ce3c 6e8f e23d 0599 053c 24d1 9d3d
000003e0: d91f cf3d a1b1 af3d 57a8 083d 0fb5 da3d
000003f0: eb16 f4bb ad34 26bd 0767 c0bc d21c 02be

fc2.bias f4 [30]
0.04588145 0.10525059 0.1060007 -0.036520008 -0.01603244 0.024807729 -0.11815273 -0.12146001
-0.049024116 0.16710305 0.11413462 0.06288589 0.10637159 0.09036758 -0.047516037 -0.082612254
0.053686414 -0.056774154 0.06265293 0.14768577 0.044368405 -0.12071581 0.041122284 -0.12906654
0.103826605 -0.06589322 -0.05508944 -0.09471073 -0.1277607 0.03489486
00000000: 30ee 3b3d 9f8d d73d e516 d93d 0196 15bd
00000010: 7756 83bc 9439 cb3c 0ffa f1bd 07c0 f8bd
00000020: 83cd 48bd 101d 2b3e 69bf e93d 51ca 803d
00000030: 59d9 d93d a312 b93d 2da0 42bd 9d30 a9bd
00000040: 49e6 5b3d 048c 68bd 2e50 803d f03a 173e
00000050: a5bb 353d da39 f7bd d76f 283d 052a 04be
00000060: 0ba3 d43d 06f3 86bd 77a5 61bd b3f7 c1bd
00000070: b3d3 02be eaed 0e3d

fc3.weight f4 [4, 30]
-0.10977359 0.16793594 -0.07201853 0.17342293 0.14133327 0.06930671 0.13910732 0.16454208
-0.14777227 -0.14552213 -0.05347159 0.12911046 0.058491413 0.038889855 0.09034839 -0.13917126
-0.12765513 -0.012854412 0.1345482 -0.15277857 -0.072607584 0.04554357 0.06882686 0.12273474
0.0735848 0.0041439356 -0.12909776 -0.13386795 -0.13478772 0.05977748 -0.2282217 0.21726248
-0.077790216 -0.05252796 -0.118721955 0.13129258 -0.16387081 -0.02526243 0.0481633 0.105877146
-0.072003104 0.19505289 0.15008369 0.059941486 0.01697526 -0.1476518 -0.17796448 0.06528528
0.038305826 0.09056185 0.23258077 -0.032801323 0.23105392 -0.048162825 0.038754325 -0.07449498
-0.15116802 -0.021741465 -0.074441426 0.05717957 0.15989032 -0.085279755 0.00047738565 -0.021423278
0.03416927 -0.242597 0.040183898 -0.14469838 0.056930587 0.2067633 -0.20846695 -0.16139077
0.007276001 -0.041169997 0.14623037 0.065728515 0.15813215 0.17167413 0.03548124 0.18278219
0.09174807 0.13675214 -0.17833912 0.14055407 0.0017119541 0.06558564 -0.18937248 0.039079584
0.08509764 0.03642982 0.029256446 -0.162988 0.24661006 -0.15413424 -0.16824993 -0.21745516
-0.11960325 -0.0054000467 -0.16061068 0.12832461 -0.2084935 0.10283072 0.14942952 -0.12950344
-0.12851861 0.13557261 -0.007576194 -0.06697492 -0.14035341 0.04342223 0.024722014 -0.08201595
-0.04682855 0.0021503866 0.1776217 -0.062723 0.05032096 -0.048449405 0.05350074 0.030960003
00000000: fad0 e0bd 66f7 2b3e 737e 93bd c895 313e
00000010: abb9 103e adf0 8d3d 2672 0e3e b87d 283e
00000020: 9d51 17be c103 15be 0705 5bbd 8835 043e
00000030: b194 6f3d f84a 1f3d 9408 b93d e982 0ebe
00000040: 07b8 02be 509b 52bc 01c7 093e fc71 1cbe
00000050: 49b3 94bd e58b 3a3d 19f5 8c3d 5a5c fb3d
00000060: a1b3 963d dac9 873b 3432 04be ae14 09be
00000070: cb05 0abe 3bd9 743d f3b2 69be 0e7a 5e3e
00000080: 7a50 9fbd 8f27 57bd 7f24 f3bd 9071 063e
00000090: c0cd 27be 28f3 cebc e146 453d 1ed6 d83d
000000a0: 5d76 93bd f2bb 473e 8aaf 193e 3485 753d
000000b0: b30f 8b3c 0932 17be 523c 36be 4ab4 853d
000000c0: 92e6 1c3d 7e78 b93d a729 6e3e ae5a 06bd
000000d0: 6699 6c3e 6246 45bd dbbc 1e3d d390 98bd
000000e0: cacb 1abe 281b b2bc bf74 98bd 2035 6a3d
000000f0: 4aba 233e 27a7 aebd 9e49 fa39 df7f afbc
00000100: 14f5 0b3d 596b 78be df97 243d d02b 14be
00000110: 0c30 693d c2b9 533e 5c78 55be 9f43 25be
00000120: 856b ee3b dfa1 28bd 6abd 153e ac9c 863d
00000130: 65ed 213e 58cb 2f3e c754 113d 412b 3b3e
00000140: 6ae6 bb3d c108 0c3e 889e 36be 68ed 0f3e
00000150: a663 e03a c451 863d dcea 41be ea11 203d
00000160: ac47 ae3d 6f37 153d 37ab ef3c 54e6 26be
00000170: 5987 7c3e 5ed5 1dbe b649 2cbe 91ac 5ebe
00000180: 8cf2 f4bd e0f2 b0bb 2077 24be 8767 033e
00000190: 527f 55be ea98 d23d 0d04 193e 8d9c 04be
000001a0: 629a 03be 8cd3 0a3e b941 f8bb 262a 89bd
000001b0: ceb8 0fbe 82db 313d d285 ca3c faf7 a7bd
000001c0: 4bcf 3fbd 80ed 0c3b 77e2 353e eb74 80bd
000001d0: 5a1d 4e3d e272 46bd 9823 5b3d d59f fd3c

fc3.bias f4 [4]
0.17602757 -0.06431828 0.15872312 0.08680805
00000000: 9240 343e 4db9 83bd 5088 223e 6bc8 b13d
