offline_prototype_3_ds_as_sampling/trained_models/autoencoder_model.pth (torch, 7167 bytes, 16 tensors)

0.weight f4 [8, 15]
0.16383933 0.15343936 -0.001039519 0.08039153 -0.43649754 -0.09453606 -0.35717636 0.3408517
0.17693105 -0.14698532 0.027820304 -0.111124024 -0.27597526 -0.06596368 -0.103952296 0.051700696
0.34229493 0.0055515156 -0.10189144 -0.018845756 -0.13551787 0.11375843 -0.15196608 0.2483654
-0.013616006 -0.104662254 0.06648019 -0.09186272 0.05728302 0.00574956 0.08281782 0.050485734
0.035981175 -0.15157375 0.00067596 0.47242498 0.016304646 0.30231357 0.015539444 0.07165551
-0.015163198 -0.025767647 -0.10974834 -0.028180422 0.010214373 0.03192888 0.015937865 0.1163678
-0.024054052 0.046257954 -0.18148375 0.06135859 -0.056347426 0.54794514 0.044774387 0.00387969
0.021148546 -0.010266971 0.016230756 0.036909673 -0.0025447027 0.14857401 -0.114454865 0.021079447
0.3316949 -0.00017698607 0.22473148 -0.3347893 -0.1867117 0.0800384 -0.08854082 -0.044281777
0.2982848 -0.028285963 0.065052666 -0.13966233 -0.08612083 0.19518295 0.08214237 0.34869057
-0.049577855 -0.23544244 0.1738451 -0.17432882 -0.051831666 0.0024364246 -0.060581338 0.123669244
-0.02717671 0.025936728 -0.120227456 -0.20149224 0.20344931 0.1705909 -0.22321467 -0.031753212
0.2373103 -0.14533713 -0.16209023 -0.0040979953 -0.0072565624 -0.09914769 0.19439939 -0.030506106
0.024412245 -0.20004049 -0.06456198 -0.22554493 -0.14454418 -0.18636236 0.16462864 -0.10479149
0.06148038 -0.4089897 -0.24827342 -0.0366492 -0.0758087 0.00018454205 0.0147518115 -0.10688496
00000000: 7fc5 273e 351f 1d3e 7840 88ba 51a4 a43d
00000010: 9b7c dfbe 1f9c c1bd d2df b6be 1d84 ae3e
00000020: 6a2d 353e 5283 16be 68e7 e33c fe94 e3bd
00000030: a14c 8dbe f717 87bd f1e4 d4bd 1cc4 533d
00000040: 4841 af3e 7de9 b53b 76ac d0bd 6a62 9abc
00000050: 32c5 0abe 2efa e83d ff9c 1bbe 8053 7e3e
00000060: ab15 5fbc 2a59 d6bd c426 883d 8622 bcbd
00000070: 9aa1 6a3d ce66 bc3b 649c a93d 21ca 4e3d
00000080: ff60 133d 2636 1bbe e832 313a b0e1 f13e
00000090: 5291 853c d8c8 9a3e 2799 7e3c 20c0 923d
000000a0: 106f 78bc ac16 d3bc bdc3 e0bd a1da e6bc
000000b0: 2f5a 273c dbc7 023d 2090 823c 3e52 ee3d
000000c0: 010d c5bc fb78 3d3d e0d6 39be 2553 7b3d
000000d0: 8fcc 66bd 2246 0c3f 5965 373d 6642 7e3b
000000e0: b73f ad3c cc36 28bc 5df6 843c 992e 173d
000000f0: 07c5 26bb c923 183e 5067 eabd ceae ac3c
00000100: ead3 a93e 5695 39b9 0220 663e 8169 abbe
00000110: 5a31 3fbe 2ceb a33d e454 b5bd cf60 35bd
00000120: c9b8 983e f7b7 e7bc 553a 853d a403 0fbe
00000130: 1e60 b0bd 0ade 473e 423a a83d 9287 b23e
00000140: 2612 4bbd d317 71be 7304 323e 4183 32be
00000150: 714d 54bd 6cac 1f3b 2324 78bd 4d46 fd3d
00000160: b1a1 debc 4379 d43c d039 f6bd fb53 4ebe
00000170: 0455 503e 62af 2e3e 6392 64be a80f 02bd
00000180: 7901 733e 42d3 14be fbfa 25be 7a48 86bb
00000190: 75c8 edbb f20d cbbd a210 473e f1e7 f9bc
000001a0: 30fc c73c 6ad7 4cbe 1239 84bd 40f5 66be
000001b0: 6403 14be c6d5 3ebe 6994 283e ec9c d6bd
000001c0: dad2 7b3d 1967 d1be 633b 7ebe 791d 16bd
000001d0: 9741 9bbd a181 4139 95b1 713c 80e6 dabd

0.bias f4 [8]
0.0007154873 -0.09607664 -0.017892092 -0.17496324 -0.17722647 -0.1506337 -0.08838081 -0.20379144
00000000: 8a8f 3b3a d4c3 c4bd 7092 92bc 9029 33be
00000010: db7a 35be b83f 1abe 0001 b5bd b4ae 50be

1.weight f4 [8]
1.0361413 0.85350084 0.5828586 0.754465 0.7987865 0.63347626 0.47016484 0.78314584
00000000: 47a0 843f 087f 5a3f 3936 153f 9e24 413f
00000010: 467d 4c3f 802b 223f 72b9 f03e 3f7c 483f

1.bias f4 [8]
-0.45511916 0.2189447 0.77409416 0.30022117 -0.28044322 0.36768088 0.83959734 0.10430053
00000000: 6105 e9be 0a33 603e 092b 463f 97b6 993e
00000010: 4196 8fbe ab40 bc3e daef 563f 849b d53d

1.running_mean f4 [8]
-0.2152815 -0.14938739 -0.024851987 -0.22586264 -0.183646 -0.016820945 -0.0010703652 0.043140855
00000000: c172 5cbe 02f9 18be 6596 cbbc 8948 67be
00000010: b20d 3cbe 14cc 89bc 7f4b 8cba 77b4 303d

1.running_var f4 [8]
0.03793423 0.048606653 0.014371159 0.015556635 0.027477631 0.022807475 0.038854882 0.019350184
00000000: ec60 1b3d c517 473d 0275 6b3c 42e1 7e3c
00000010: c518 e13c bed6 ba3c 4c26 1f3d 4784 9e3c

3.weight f4 [4, 8]
0.63560414 -0.1427213 0.0143088205 0.033107534 -0.41976568 0.057920683 0.29470712 -0.034515932
-0.18133487 0.07705779 0.09660468 -0.024318421 0.087549694 -0.25646088 0.1903294 0.02286898
-0.20584373 0.020340128 0.3151213 0.019657362 0.028042015 0.056916576 0.07183961 -0.022916568
-0.18701547 0.04987592 0.14216077 -0.08932126 0.13553365 0.035865784 -0.036398936 0.07661611
00000000: f4b6 223f 8825 12be 8b6f 6a3c c49b 073d
00000010: 87eb d6be 3d3e 6d3d dae3 963e 9460 0dbd
00000020: d9af 39be 79d0 9d3d add8 c53d 6d37 c7bc
00000030: 414d b33d d74e 83be b6e5 423e ba57 bb3c
00000040: b3c8 52be 57a0 a63c 9457 a13e 7a08 a13c
00000050: 5eb8 e53c 5b21 693d a520 933d 87bb bbbc
00000060: fc80 3fbe b14a 4c3d 9892 113e 11ee b6bd
00000070: 55c9 0a3e 00e8 123d 0d17 15bd e8e8 9c3d

3.bias f4 [4]
0.8702588 0.4360059 0.18779898 0.17393182
00000000: 48c9 5e3f 2a3c df3e 604e 403e 2f1b 323e

5.weight f4 [8, 4]
0.26197243 -0.009050061 0.20958549 0.4439452 0.051335905 -0.012757259 -0.2856912 0.4723428
-0.003033342 -0.07176042 -0.4457383 -0.19819364 -0.6553095 0.24833594 0.22156484 -0.084638886
0.33897465 -0.11456895 -0.039069336 -0.06718668 0.42332768 -0.046362426 0.047362566 -0.043776944
-0.15202317 0.0008472976 0.034128033 -0.32058725 0.06387551 0.5682558 -0.16408455 -0.14793554
00000000: 4021 863e b546 14bc 949d 563e c94c e33e
00000010: 9945 523d d303 51bc 1e46 92be ead6 f13e
00000020: 09cb 46bb 21f7 92bd cf37 e4be 46f3 4abe
00000030: 5dc2 27bf c74b 7e3e e5e1 623e 2757 adbd
00000040: 168e ad3e 20a3 eabd 2b07 20bd 2c99 89bd
00000050: 68be d83e 87e6 3dbd 40ff 413d 744f 33bd
00000060: f6ab 1bbe 2e1d 5e3a d6c9 0b3d 0324 a4be
00000070: 2ad1 823d 3679 113f c805 28be 6a7c 17be

5.bias f4 [8]
0.0072961445 -0.029854119 0.12020564 0.14011681 -0.45412838 -0.18451887 0.42106473 0.19477749
00000000: 7f14 ef3b a090 f4bc 602e f63d c87a 0f3e
00000010: 8483 e8be 84f2 3cbe cc95 d73e c073 473e

6.weight f4 [8]
0.99925107 0.40688407 0.94018376 1.0394144 1.1645122 1.1992848 0.76549 0.59478635
00000000: ebce 7f3f 1c53 d03e e2af 703f 880b 853f
00000010: bc0e 953f 2a82 993f 27f7 433f eb43 183f

6.bias f4 [8]
-0.2403996 0.87956357 0.34423026 0.39116114 -0.55679965 0.6651911 0.5510404 0.89830875
00000000: 502b 76be 142b 613f f33e b03e 4646 c83e
00000010: 6c8a 0ebf f749 2a3f fc10 0d3f 90f7 653f

6.running_mean f4 [8]
0.38829312 -0.0042138724 -0.08517609 -0.3163965 -0.2056908 0.20272894 0.23763046 0.41112575
00000000: 5bce c63e 8614 8abb cd70 aebd b9fe a1be
00000010: 9ca0 52be 2d98 4f3e 6655 733e 137f d23e

6.running_var f4 [8]
0.0128074605 0.001447739 0.009237476 0.14475812 0.039276063 0.052818187 0.004176126 0.007340554
00000000: 62d6 513c 0fc2 bd3a c858 173c 793b 143e
00000010: f0df 203d e257 583d e2d7 883b 0889 f03b

8.weight f4 [15, 8]
9.250972e-05 0.001507527 0.00082506455 0.0050739376 -0.009009779 0.0075142165 0.0022748155 -0.00065653876
-0.2193887 -0.026255425 -0.13681851 0.6037908 -0.4558244 -0.54163885 -0.08542905 0.0071196943
-0.07646007 -0.3674835 -0.041965347 0.02683663 -0.47965834 0.33012217 -0.042320307 -0.026910428
-0.21749131 -0.026231661 0.008020213 0.053179957 0.13403626 0.045478936 0.03291608 -0.0033311257
0.052181453 -0.14587072 0.056904953 0.043087155 0.2004887 -0.31727648 0.15932177 -0.61004305
0.05489896 -0.10911826 -0.48885924 0.31735575 -0.86933833 -0.088872045 -0.7735685 0.015342283
0.045568112 -0.41512322 0.07151449 0.04054078 0.35863075 -0.40285805 -0.038776126 0.5862089
-0.018112142 -0.27511552 0.026481703 0.017795756 -0.18081026 0.3370461 -0.03742977 -0.23948517
-0.16021475 -0.91527593 0.08132233 0.149716 -0.06711036 0.4360353 0.33756015 -0.10299357
-0.06695336 -0.15727115 -0.017056156 -0.06586777 -0.1095635 0.0917479 0.06254223 0.011707445
-0.7396549 0.08450541 -0.89438003 -0.30806026 -0.0099455 0.011119297 -0.0717641 0.00448365
-0.2526762 -0.06393327 -0.1489596 -0.06110382 -0.46836895 -0.09383475 -0.03572096 0.013015643
-0.27084318 0.09711777 -0.19675751 0.12737589 -0.07312754 0.2565939 0.036338396 -0.046420958
0.074140005 0.05056361 0.061498486 -0.04214846 -0.08483145 -0.016207488 0.01938659 -0.015449608
0.028872233 -0.08309365 0.030746216 0.09581895 -0.09859653 0.09951503 0.060675178 0.0033320438
00000000: c701 c238 3698 c53a 2549 583a 4643 a63b
00000010: c19d 13bc d139 f63b 1215 153b 921b 2cba
00000020: 6ea7 60be 9e15 d7bc 271a 0cbe 0992 1a3f
00000030: d161 e9be d8a8 0abf 6df5 aebd 534c e93b
00000040: 1997 9cbd cc26 bcbe dbe3 2bbd 7ed8 db3c
00000050: c795 f5be c605 a93e 0f58 2dbd 4273 dcbc
00000060: 0bb6 5ebe c8e3 d6bc 3667 033c 3ad3 593d
00000070: cd40 093e 1f48 3a3d 03d3 063d 044f 5abb
00000080: 38bc 553d 225f 15be 2b15 693d 287c 303d
00000090: e94c 4d3e 1072 a2be 3f25 233e c82b 1cbf
000000a0: bbdd 603d 6579 dfbd c24b fabe 747c a23e
000000b0: f58c 5ebf 8c02 b6bd 9608 46bf 335e 7b3c
000000c0: a1a5 3a3d 088b d4be 3076 923d 170e 263d
000000d0: 739e b73e 6943 cebe b7d3 1ebd c911 163f
000000e0: ea5f 94bc f1db 8cbe 28f0 d83c 68c8 913c
000000f0: 5326 39be 4e91 ac3e f54f 19bd 9a3b 75be
00000100: 560f 24be 864f 6abf 528c a63d 274f 193e
00000110: 2871 89bd 0540 df3e afd4 ac3e 4bee d2bd
00000120: d81e 89bd b00b 21be 5ab9 8bbc aee5 86bd
00000130: d462 e0bd 53e6 bb3d 2416 803d 95d0 3f3c
00000140: 065a 3dbf 2c11 ad3d 17f6 64bf 13ba 9dbe
00000150: 73f2 22bc b62d 363c 0ef9 92bd 95eb 923b
00000160: c65e 81be 72ef 82bd de88 18be 0048 7abd
00000170: 0ece efbe 6f2c c0bd 2450 12bd 903f 553c
00000180: f5ab 8abe aee5 c63d cd7a 49be d36e 023e
00000190: e4c3 95bd 4760 833e 92d7 143d e723 3ebd
000001a0: b7d6 973d ca1b 4f3d d6e5 7b3d dda3 2cbd
000001b0: 1cbc adbd 91c5 84bc a0d0 9e3c 5a20 7dbc
000001c0: 7685 ec3c 012d aabd 7ddf fb3c ba3c c43d
000001d0: faec c9bd 89ce cb3d 8986 783d 6b5e 5a3b

8.bias f4 [15]
-0.76068634 -0.21780314 0.20908011 -0.8333683 0.5730063 0.49440846 -0.08289614 0.14537482
0.05784979 0.25991005 0.40589786 0.12092577 -0.14704414 0.012976845 -0.119095385
00000000: 57bc 42bf c907 5fbe 1919 563e a057 55bf
00000010: 8ab0 123f 1b23 fd3e 74c5 a9bd 23dd 143e
00000020: e7f3 6c3d ee12 853e d8d1 cf3e eea7 f73d
00000030: bd92 16be d59c 543c 48e8 f3bd
