offline_prototype_3_ds_as_sampling/trained_models/autoencoder_model.pth (torch, 7167 bytes, 16 tensors)

0.weight f4 [8, 15]
00000000: ef32 b93d 3892 1f3e da10 263e 7cd9 f33d
00000010: cbc7 dbbe c9f8 a0bd 098d b5be ce11 743e
00000020: 5b69 1c3e 1aa5 8bbd f2e7 713d 7767 c1bd
00000030: 194f 6a3c 0437 2bbe 9e99 793e 81a7 133d
00000040: 2810 9c3e 808f 0c3d 5f71 c8bd 0dc5 363d
00000050: 53ac 63bd 1395 b73b ca6c ecbd e66b 983e
00000060: c33a 0b3e 5828 a3bd 0eab 1fbe 8ad5 9fbd
00000070: d016 9a3d b261 ec3c 5ed2 5b3c ef8b 48bd
00000080: 9e39 983d 743d 0fbe d027 313d e8d3 e43e
00000090: 0343 083d 0a96 a43e 7494 fbbc 5992 623c
000000a0: fa1a c2bd e252 8d3d ffba 79ba b273 38bb
000000b0: f59b 903c d56b 92bb a60b a33c 2ccf b03d
000000c0: 4983 13bd 237e 2bbd d5c6 82be 0063 53bd
000000d0: 4044 91bd 6cfd fb3e ac2e e63c 9dbe 8c38
000000e0: 32cd ebbd 81b0 1fbd 891e babd db3c a9bd
000000f0: 50df bc3d 5f84 313e cd2f 4cbe 235b 883c
00000100: 8de3 9f3e ac1f a43d 387e 413e 27c3 91be
00000110: 98d9 a3be 4aa2 6fbd ce31 bbbd a5f0 513e
00000120: 926b 3d3d 134f 1f3e d38d 5ebc 136c 9dbd
00000130: f109 cfbc 2289 6a3d 1ceb c33d 224c c93e
00000140: fab3 36be bb7d 90be 6996 5c3e bc6f 0bbd
00000150: 5342 7c3b 607a 983c 3e07 233c 52d6 86bb
00000160: f3f1 5d3d 38a9 03bc 5739 e2bd 9897 3bbe
00000170: 1ca3 f73d 1523 513e db5d 34be 0c4d 04be
00000180: 43cb 383e 0d76 55bd a74e eebd 511e 0ebd
00000190: dd3f 27bd 8c15 723e 7f41 1f3d 9177 793e
000001a0: 8f76 4b3d 56b7 47be a042 2fbe b858 45be
000001b0: d179 c1bd 9b14 85be 5c76 113e 1f38 4ebd
000001c0: 4ace c73d 68b9 d9be fa00 28be aaa5 123d
000001d0: d476 ca3b 0106 bbbd ef0b b43d bd82 513c
0.09042918 0.15583122 0.16217366 0.11906716 -0.42925867 -0.07859952 -0.35459164 0.23834917
0.15274565 -0.068186 0.05905909 -0.094435625 0.014301085 -0.16720206 0.24375007 0.036048416
0.30481076 0.03431654 -0.09787249 0.044621516 -0.055584263 0.005602488 -0.11544187 0.2976982
0.13596635 -0.07966679 -0.15592596 -0.07804401 0.075238824 0.028855179 0.013416855 -0.048961576
0.074328646 -0.13988286 0.04325086 0.44692922 0.033267032 0.3214572 -0.030710436 0.013828837
-0.094778016 0.06900574 -0.0009526461 -0.0028145132 0.017652491 -0.004468421 0.019903015 0.08633265
-0.036013875 -0.04186834 -0.25542322 -0.051608086 -0.07093096 0.49216783 0.028098427 6.711225e-05
-0.11513747 -0.038986687 -0.09087855 -0.082635604 0.09222281 0.17335652 -0.1994011 0.01664502
0.31228295 0.080138534 0.18895805 -0.28469202 -0.32001948 -0.05850438 -0.09140359 0.20501955
0.046245165 0.15557508 -0.013583618 -0.07686629 -0.025273295 0.057259686 0.09566328 0.39315897
-0.17842093 -0.28220925 0.21541752 -0.034042105 0.003849168 0.01861304 0.009950457 -0.0041149044
0.05418582 -0.00803595 -0.11046093 -0.18319547 0.120916575 0.20423539 -0.17613928 -0.12920016
0.18046288 -0.052114535 -0.116360955 -0.03469688 -0.04083239 0.23641032 0.03888082 0.24362017
0.049673613 -0.19503531 -0.17115259 -0.19272125 -0.09447063 -0.25992283 0.14205307 -0.05034649
0.097561434 -0.42524266 -0.16406623 0.03580252 0.006178716 -0.091320045 0.08791339 0.012787518

0.bias f4 [8]
00000000: 5893 3b3a d4c3 c4bd 7092 92bc 9029 33be
00000010: db7a 35be b83f 1abe 0001 b5bd b4ae 50be
0.000715544 -0.09607664 -0.017892092 -0.17496324 -0.17722647 -0.1506337 -0.08838081 -0.20379144

1.weight f4 [8]
00000000: fb59 813f 3f87 583f d3de 0d3f 8ffd 303f
00000010: ef7f 333f fdb9 063f 329a 303f 4a1c 4b3f
1.0105585 0.8458137 0.5541813 0.691369 0.70117086 0.52627546 0.68985283 0.7934004

1.bias f4 [8]
00000000: 9335 fdbe fde8 1e3e 24b4 203f ebb5 673e
00000010: 3473 dbbe 61d2 873e 22da 043f 81bd 963d
-0.49454936 0.15518565 0.6277487 0.2262799 -0.4286133 0.26527694 0.51895344 0.07360364

1.running_mean f4 [8]
00000000: 758d b8bd 687d b5bd d14b 1a3d b46d 25be
00000010: 0e98 a2be 6392 b0bd 35a3 b0bc 5b90 a33b
-0.09011356 -0.0886181 0.03766996 -0.1615513 -0.31756634 -0.08621671 -0.021562198 0.0049915737

1.running_var f4 [8]
00000000: 68ee 093d 1da3 153d 5196 1a3c c83a 4d3c
00000010: c7d2 f83c 48d4 b83c 2773 d03c 1e7d 013d
0.033674628 0.03653251 0.009435252 0.012526222 0.030373944 0.022562161 0.025445534 0.03161346

3.weight f4 [4, 8]
00000000: ea2f 843e ba8c 82bd 8786 bd3d 017b 8d3d
00000010: 2a54 c4be a960 4ebc 03c5 dc3d 38db c3bc
00000020: 4281 b7bd 658b 8b3c 3df3 c03c 3e66 e8ba
00000030: e07f 833d dca9 aebe 14e8 0c3d 7337 4dbc
00000040: 1348 4cbe ce49 a93d 2928 373e de5c 073d
00000050: 1e61 513e 3046 733d fbbd 88bd 4e15 1cbd
00000060: 4293 b9bc 90fd 52bd 2eec 0b3e 9d8c f1bd
00000070: 7be1 dc3d 2d91 e23c aa5d 5fbd b304 9f3d
0.25817806 -0.06374498 0.09254175 0.06908227 -0.38345462 -0.012596288 0.107797645 -0.023908243
-0.08960201 0.017034242 0.023553485 -0.0017730666 0.064208746 -0.34113967 0.034401014 -0.012525427
-0.19949369 0.0826603 0.17886414 0.03304755 0.20447204 0.059393108 -0.06676861 -0.038106255
-0.022653226 -0.051511347 0.13664314 -0.11794398 0.107851945 0.027657116 -0.054532684 0.07764568

3.bias f4 [4]
00000000: fa2d 443f 7d30 b63e 937b e13e 3e7d 053c
0.76632655 0.3558387 0.44039592 0.008147536

5.weight f4 [8, 4]
00000000: ed3f 88bd 6b0c 35bd 7355 5ebe 53e0 0a3f
00000010: 5f1a b13e f6f7 3dbe 504d 0dbd 5aef d0bd
00000020: 99a7 c53e 53f5 cebd 2329 64be 2196 093d
00000030: 05bb 00bf 6eee 673e 9925 e23e 4c36 61be
00000040: 6bbb 8d3e c2aa 09be cd5e c1bc 998e 4abe
00000050: 761c 7a3e 5d7c e73d 021f b03e 34f6 073e
00000060: a182 d7bd d5dd aebd 66d1 27be 8339 93be
00000070: 4837 ea3c b06d 0e3f 12d3 19be adff 883c
-0.06652818 -0.044201296 -0.21712284 0.5424854 0.34590432 -0.18551621 -0.03449756 -0.10201903
0.3860443 -0.10105386 -0.22281317 0.03359044 -0.5028537 0.22649547 0.4416931 -0.21993369
0.2768205 -0.13444045 -0.023604775 -0.19780959 0.2442492 0.11303017 0.34398657 0.13277513
-0.10522962 -0.08538405 -0.16388473 -0.28754815 0.028590813 0.5563612 -0.15021923 0.016723478

5.bias f4 [8]
00000000: 9514 ef3b a090 f4bc 602e f63d c87a 0f3e
00000010: 8483 e8be 84f2 3cbe cc95 d73e c073 473e
0.0072961547 -0.029854119 0.12020564 0.14011681 -0.45412838 -0.18451887 0.42106473 0.19477749

6.weight f4 [8]
00000000: acf7 003f ec1e 853f 7019 a43f 8820 703f
00000010: 4ffe 993f b406 213f 6068 863f 23c4 1d3f
0.5037792 1.0400062 1.2820263 0.9379964 1.2030734 0.62900853 1.0500603 0.61627406

6.bias f4 [8]
00000000: b773 2a3f 0529 dcbc f37e e33e 24ca b93d
00000010: b4f8 48bf 8cb3 0c3f de85 d93e 36df 473f
0.66582817 -0.026875028 0.44432792 0.090717584 -0.7850449 0.54961467 0.42484945 0.7807497

6.running_mean f4 [8]
00000000: bdcd f5bd 8a1a 2c3e 33ba 963e 9dd6 6dbc
00000010: fd93 96be 9d72 143e 2658 863e 4887 873e
-0.12002132 0.16806999 0.29438934 -0.0145165 -0.2940978 0.14496846 0.26239127 0.264704

6.running_var f4 [8]
00000000: 0789 8f3a 6a96 1f3c b2a5 7a3c 5974 023d
00000010: ac6a d63b 1922 453b b2a4 af3a 6f7f 853b
0.0010950872 0.009740451 0.015298294 0.03184924 0.006543478 0.0030080138 0.0013400523 0.004074029

8.weight f4 [15, 8]
00000000: 521f b03a 6385 713c 8b65 85bb 4ebf 173b
00000010: 59df 1abc 9a35 c1b9 bcae 3a3a c27d d33a
00000020: 7b07 d4bd b1e1 23bf 35af 0dbf c3a6 1d3f
00000030: 9505 b6be 0274 7ebd 32bc d13b 0c5e 8d3d
00000040: 1b1b 23be 402f 623e d2be f8bc 5ce6 263d
00000050: 554a 24be c805 8a3d 2377 94bd fe52 563d
00000060: c6a0 b6be 62cf 5cbe 5de4 b3bd 8a13 dc3d
00000070: e805 c13e dce2 e9bd 0286 3f3e cb35 d53c
00000080: 6c1d a7bd 7184 12be a077 ddbe a1b9 82bd
00000090: da69 e33e beaa 573d c095 293b 6b32 16bf
000000a0: 1ed1 473e 45a0 1fbe 50f2 41be d291 033d
000000b0: d8d1 0abf fe48 6b3e ec45 dbbe e944 193e
000000c0: 7617 85be 6d24 99be 7e55 7dbe e4b8 e5bc
000000d0: 9520 eb3e c638 023e edbe e23c 1183 1d3f
000000e0: d397 05be 0fff 83be 41fc 033f f39e e3bd
000000f0: 70a0 8ebe 61b3 153e 8e7f 25bd 7c62 c7be
00000100: b22e 4ebf bc92 ccbe e1b8 6f3e 91f1 65be
00000110: 5a2a b63b 8c47 7d3e 821d 553c fdfd ebbd
00000120: 5f7a 8cbe 5990 54bd 01ca dabc 3e39 51be
00000130: ac6d 8e3d 6e38 8ebe cc16 1abf 9e04 90bc
00000140: ed22 a43d 98b0 7ebe 6ea2 8fbe 72be 99bd
00000150: efac 92be 124e b5be bcb6 0abf 4e47 c7bc
00000160: a405 b0bd 5d62 3abe a182 773e 6299 5b3e
00000170: d957 5dbe edc8 623d 9e80 9f3d 53b6 02bc
00000180: c541 96bd 0e7a 083e ca13 06be 094a 6dba
00000190: fd78 e53c 16f6 adbc 320f 763b 618c 353d
000001a0: cc0f b1bd e8ed 7a3d 09d3 503e 4f31 483e
000001b0: b4fc b0be 74cb 10be 66b1 4fbe 503f 66bd
000001c0: 55e7 0ebb 998a 3d3e c8e5 c13d 25d0 173e
000001d0: e098 97be 06b3 bdbd 80e8 d6bd d97d 30bc
0.0013437069 0.0147412745 -0.0040709428 0.0023154798 -0.009452664 -0.00036851765 0.00071213744 0.0016135501
-0.10352989 -0.6401625 -0.5534547 0.61582583 -0.35551134 -0.062122352 0.0064006085 0.06902704
-0.15928309 0.22088337 -0.030364428 0.04074703 -0.1604398 0.06739384 -0.07249286 0.05232524
-0.35669535 -0.21563485 -0.08783791 0.10745914 0.3769982 -0.11420223 0.18703464 0.026026627
-0.08159909 -0.14308335 -0.4325533 -0.06383062 0.44416696 0.052653067 0.0025876611 -0.5867068
0.19513366 -0.15588482 -0.18940091 0.032121487 -0.54226446 0.22977063 -0.42826784 0.14967693
-0.25994462 -0.29910603 -0.24739644 -0.028042264 0.45923296 0.1271697 0.027678931 0.61528116
-0.13046198 -0.25780532 0.51556784 -0.111143015 -0.2785678 0.14619209 -0.04040485 -0.38942325
-0.8054 -0.399557 0.2341037 -0.22455432 0.005559248 0.24734324 0.0130075235 -0.11523054
-0.27437112 -0.051895473 -0.026707651 -0.20431992 0.06954512 -0.27777427 -0.60191035 -0.017580327
0.08014474 -0.24872053 -0.28053612 -0.07507028 -0.28647563 -0.35411125 -0.5418508 -0.024325993
-0.08594826 -0.18201585 0.24170925 0.2144523 -0.21615542 0.0553674 0.07788204 -0.00797804
-0.07336763 0.1332781 -0.13093486 -0.00090518646 0.028011793 -0.021235507 0.0037545678 0.04432333
-0.08645591 0.06126204 0.20393004 0.1955006 -0.34567797 -0.14140111 -0.20282516 -0.056212723
-0.0021805365 0.18509902 0.094676554 0.14825495 -0.29608822 -0.09262662 -0.104935646 -0.010772192

8.bias f4 [15]
00000000: 4a39 41bf 700e 2abe 46e7 ae3e 9bde 5abf
00000010: b319 1f3f 2ecd aabd 6053 95be 548c 4b3d
00000020: d3b9 903e 1e39 403f ead6 783e 837b b1be
00000030: 750c a1bc 721e f33d 5b56 b83a
-0.7547804 -0.1660707 0.34160823 -0.8549592 0.6214859 -0.08339916 -0.29165173 0.049694374
0.28266773 0.75087154 0.24300733 -0.34664544 -0.01965926 0.11871041 0.0014063822
