offline_prototype_2_raw_behaviors/trained_models/ae_model_pi3.pth (torch, 7167 bytes, 16 tensors)

0.weight f4 [8, 15]
00000000: 0510 803e 22f2 b33e 161c 3b3e 6d68 753e
00000010: 3cc5 53bd 64a3 39bc 42dc 3cbe 737b 953d
00000020: 6aee de3c dc4d 21be fbf3 64bc 1fe0 c43c
00000030: 02fc da3d b8a4 7b3d d365 2b3e b26f 03be
00000040: eb5f 6c3d 567c a2bd c669 3cbb 5a8a 053d
00000050: 7122 87bc f66a e7be 26e0 1ebc c220 163c
00000060: 4f71 8c3d bdaa 73bd 418a 543c 4c60 303e
00000070: a602 dcbd 1701 9cbd 9f08 913d a764 40be
00000080: 6eaa 063f 1891 02bd 43ce 6d3d a5a0 5bbd
00000090: 6ff9 19bd ef61 b53d 0f09 f0bb d88b 3ebc
000000a0: 06a7 06bd 125a 32bd 723e 013d e81e feba
000000b0: 7c99 00bd 9ad7 c5bd 4839 8f3e a69f fabd
000000c0: 2958 a53e ede2 2ebe 9eea dabd 71f1 d03c
000000d0: c892 49be ec96 6c3e 1100 fc3d 2e2e 213d
000000e0: 718b 833d cc86 10bb d638 233d 2adf 9ebc
000000f0: 27f4 bfbd df01 c9bd 7c76 74be 0baa f9bd
00000100: e049 a53e a2ae 90bd fbd9 76be 5703 75be
00000110: bf3b 67be d551 26be cad0 253d 87b1 043e
00000120: 5490 7c3d 977a c1bc 3df6 31bd f42a 8abc
00000130: 6b5c 37be a1f8 21bd d374 ff3b 5d15 0f3d
00000140: de9a 84bd 8363 afbe 90fc 573e b123 2fbb
00000150: 4b0e ae3e 7591 2e3d 8ee5 883d 1927 fa3d
00000160: 0240 cfbd eaa6 6a3c 2e0f 053d d00a 2cbd
00000170: 6802 623d 2215 073e 1d1d 573d 20c9 1b3d
00000180: adef d33e 38fe 63be 946e 95bd 65bd b7bd
00000190: c9fb d73a bc93 b6bd 005f 78be 4b01 25bd
000001a0: e9b4 fb3c 1b4f 53be c1b9 80be 7d8f b0be
000001b0: f1e7 87bd a3f5 5cbc 73a9 713e 257e ecbc
000001c0: db28 1a3c 0e19 05be ced0 16be 25c1 e7bc
000001d0: 4181 ea3c ac42 e0bd ba0e 7dbe 5715 50be
0.25012222 0.3514567 0.18272433 0.23965617 -0.05170177 -0.011330459 -0.18443397 0.07298937
0.027213294 -0.15752357 -0.013974185 0.02403265 0.10692598 0.061436385 0.16738062 -0.12835577
0.057708662 -0.079338714 -0.002874957 0.032602645 -0.016495915 -0.45198792 -0.009696996 0.0091630835
0.068575494 -0.059489 0.012972415 0.17224234 -0.10742693 -0.07617395 0.070817225 -0.18788396
0.52603805 -0.031876653 0.058058035 -0.05362 -0.037591394 0.0885657 -0.0073252986 -0.011630021
-0.03287413 -0.04354293 0.031553693 -0.0019387873 -0.031396374 -0.09660263 0.2797339 -0.12237482
0.32293823 -0.17078753 -0.10689281 0.025505753 -0.19684899 0.23104447 0.123047 0.03935068
0.06423081 -0.0022053001 0.039849125 -0.019393522 -0.0937274 -0.0981481 -0.23873323 -0.12190636
0.32282925 -0.070645586 -0.2410659 -0.23927055 -0.22581385 -0.16242154 0.04048232 0.12958346
0.06166108 -0.023618026 -0.04344772 -0.016866185 -0.17906348 -0.03954375 0.007795909 0.034932483
-0.06474851 -0.3425561 0.21092439 -0.0026724155 0.3399528 0.042619187 0.06684409 0.122144885
-0.101196304 0.014322022 0.03248518 -0.0420025 0.055178076 0.13191655 0.052518 0.038033605
0.41393796 -0.22264946 -0.07296482 -0.08971671 0.0016478236 -0.08914897 -0.2425499 -0.040284436
0.030725913 -0.20635645 -0.2514172 -0.34484473 -0.06636036 -0.013486299 0.23599796 -0.028868744
0.009409155 -0.12997839 -0.1472809 -0.02829034 0.028626086 -0.10950217 -0.24712649 -0.2032064

0.bias f4 [8]
00000000: f591 3b3a d4c3 c4bd 7092 92bc 9029 33be
00000010: db7a 35be b83f 1abe 0001 b5bd b4ae 50be
0.0007155233 -0.09607664 -0.017892092 -0.17496324 -0.17722647 -0.1506337 -0.08838081 -0.20379144

1.weight f4 [8]
00000000: db7d 563f de3b 3a3f e276 773f 67a4 2d3f
00000010: 56b3 2e3f f811 543f 2f78 7a3f 3fea 6c3f
0.8378579 0.727476 0.96665776 0.67828983 0.68242395 0.8283992 0.97839636 0.9254493

1.bias f4 [8]
00000000: b005 143e 9132 8a3e 1b3a e53e 00ff 803e
00000010: 2541 c83e cecf 5e3d 203b 5c3e 7cbd 7a3e
0.14455295 0.26991704 0.44770893 0.2519455 0.391122 0.054397397 0.2150693 0.24486345

1.running_mean f4 [8]
00000000: fc94 a2bd 5426 9dbc a1e4 adbd c6e4 543d
00000010: 49eb 11be d874 2bbe 7433 4fbd 07f6 22be
-0.07938573 -0.019183315 -0.08490873 0.051975988 -0.1424991 -0.16743791 -0.05058618 -0.15914164

1.running_var f4 [8]
00000000: 9fd1 2b3d db9f aa3c c919 e53d 3068 c53c
00000010: 4f7b 563d 951e ac3c e992 983c 7ef7 a93d
0.041947957 0.020828178 0.11186559 0.024097532 0.05236369 0.021010676 0.01862474 0.082991585

3.weight f4 [4, 8]
00000000: 79c8 73bd 97f3 19be 1290 dd3e 9820 17bd
00000010: 11b0 ebbd dde0 963d db4f 033d cae0 cebe
00000020: 3fad 9abb 0e6d 8fbe 127a 443c bcfb 05bc
00000030: 1afc f13d 43a6 69be e03d 8a3e e3cd bf3d
00000040: 8a1f 543e aca3 e93d c6f7 2e3e 6b5e e83d
00000050: 5dcc 963e 3b44 1abe 89f9 a13d 71f7 89be
00000060: 61fa 2d3d 7e36 59bd 07a3 803e cf00 f6bd
00000070: 569c 743e e938 e83b fc23 0a3d 9776 aebd
-0.059517357 -0.15034328 0.4327398 -0.03689632 -0.115081914 0.07367108 0.032058578 -0.40405875
-0.0047203596 -0.2801289 0.011991994 -0.008177694 0.11815663 -0.2281733 0.27000332 0.09365442
0.20715156 0.11408171 0.17086706 0.11346134 0.29452792 -0.1506509 0.07908923 -0.26946595
0.042475108 -0.053030483 0.2512438 -0.12011873 0.23887762 0.0070868623 0.033725724 -0.08518713

3.bias f4 [4]
00000000: 2723 c73e eb8e dc3e b1be 803e 4767 9e3d
0.38894007 0.43077788 0.25145486 0.07734542

5.weight f4 [8, 4]
00000000: 68fd 913b 8af5 e83c c7f9 acbe 0259 e73e
00000010: e924 7b3c 735a d0be 3b96 1a3d c3a4 fd3c
00000020: 8e44 4e3c 986a f8bc 2b48 b3be 864c 96be
00000030: ecd9 00bf 875e 023d e71b b43e 284d d3be
00000040: f63d 65be d006 903d b953 00be 61c1 8bbe
00000050: 0295 933e 830c f9bd 4976 863e b523 40be
00000060: ea36 ce3d 9c06 82bb d09f b43a aa78 a6be
00000070: 803c 463d 742a 0c3f 4386 ec3d 0a3d 38bd
0.004455257 0.028437395 -0.33784315 0.45185095 0.015328624 -0.40694007 0.037740927 0.030962354
0.012589587 -0.030324265 -0.35015997 -0.29355258 -0.5033252 0.03182843 0.35177538 -0.41269803
-0.22386917 0.070325494 -0.12531938 -0.27295974 0.2882462 -0.121605895 0.2626212 -0.18763621
0.10069068 -0.003968073 0.0013780538 -0.32513934 0.04839754 0.5475228 0.11549046 -0.044980086

5.bias f4 [8]
00000000: 8114 ef3b a090 f4bc 602e f63d c87a 0f3e
00000010: 8483 e8be 84f2 3cbe cc95 d73e c073 473e
0.0072961454 -0.029854119 0.12020564 0.14011681 -0.45412838 -0.18451887 0.42106473 0.19477749

6.weight f4 [8]
00000000: b6a5 423f 2b67 973f 704f 6c3f 83e0 523f
00000010: 6777 823f 8e70 673f f4f9 313f ceb8 803f
0.76034105 1.1828359 0.9230871 0.8237383 1.0192689 0.9040612 0.69522023 1.0056398

6.bias f4 [8]
00000000: 0b68 df3d 0bdd 093d 5df2 3c3e f57c a53e
00000010: d21c 1f3c 9f2d 933e 7e30 0f3f de6e 7b3e
0.109085165 0.03365807 0.18451829 0.32321897 0.009711461 0.28745744 0.5593337 0.24554011

6.running_mean f4 [8]
00000000: 040b e1bc b259 17be bcc9 63bd 847b 333d
00000010: 64d6 16bf dcb2 98bd 3895 cc3e 9233 dc3e
-0.027471073 -0.1478031 -0.05561231 0.043818966 -0.58920884 -0.0745599 0.39957595 0.43008095

6.running_var f4 [8]
00000000: 2a75 5a3b a877 893c 3546 ba3c 6907 5f3d
00000010: 4c87 033d ff45 c73c 237f 903a 0efd 1b3d
0.0033333995 0.01678069 0.022738555 0.054450426 0.03211145 0.024325369 0.0011024218 0.03808313

8.weight f4 [15, 8]
00000000: 9279 07bb 60e3 313a 7adf 4abc a22c 40bc
00000010: cc0e 9f3c 261e ddba cbe5 613a 1ab7 21bb
00000020: 3433 17bf 5a5d 26be 7f26 1fbe d50a 983e
00000030: 8733 72be cb9a 6f3e a627 493e 5b1d 7f3c
00000040: 4662 143d de46 29bc 04e2 2f3d 8ef8 d2be
00000050: 1833 d9be 8b92 273f 149b c5bb e2f5 d23d
00000060: 6f96 61be 2bf8 a53d e717 d33b 4b51 633e
00000070: 2a6a 2d3e 82cf ca3d 18f0 153e c913 6c3d
00000080: 6d64 893c 3cfe 713e 7f7f 37bf c5ed 32be
00000090: 8089 f9bd b0a5 f9be 99fd a8be dfa0 593d
000000a0: b433 02be c654 a8be aa47 94be f540 08be
000000b0: f661 aebe 5d08 073e d69d ce3b b7b7 16bf
000000c0: 4a95 013e 9eea 17bf c506 89bd caee d6be
000000d0: 0b2c 7c3e 6ddd 09be 6cf4 a43e 5d19 4d3e
000000e0: e926 2e3e 914d d1be 16c3 9f3e 96d8 c6be
000000f0: 1b4e 0bbc 387b 8fbd c587 6a3e e8a8 5dbe
00000100: 9ea7 65be 8b75 103e 369f c93c be15 c2bc
00000110: d751 3c3e 9cd5 2f3e 79bf c23e 530b 393c
00000120: 93a5 9b3d 6ed5 ed3e fdf6 223e e7f4 9abe
00000130: fa54 a1bd b19c b5bd 56da 8f3e 1e67 9c3d
00000140: e44e 153d 5187 6b3d e7a3 f6bd 7f42 03be
00000150: f0bb 1d3d 4f91 bfbd 90dc bb3c bf7f 1d3c
00000160: 25a3 65bd 5c55 8dbe 17c2 e23d 3c6c 343e
00000170: 3d05 7abe 6d2f 143d b3fa 39be 062e acbd
00000180: 7912 86bc 31ff 6fbe 4575 8d3d 44b4 b43d
00000190: e1a6 13be 30f8 a13d c669 8bbd 2788 54be
000001a0: 3921 c03b 1f06 30be ea42 16be 3a23 823d
000001b0: ec87 88be ab6d a6bd 24d2 023e a19a 40bd
000001c0: 9ece fdbd 8d7f 95bc bc3a 0dbd a3b9 babd
000001d0: d5dd c039 d8e1 3abd cf86 a03a 7bc4 b9bb
-0.0020671827 0.00067858957 -0.0123823825 -0.011729391 0.019416235 -0.0016869947 0.00086173107 -0.0024675787
-0.59062505 -0.16246548 -0.15542029 0.29695764 -0.23652469 0.23398893 0.19644031 0.015570964
0.036226533 -0.010331837 0.042940155 -0.41205257 -0.42421794 0.6545798 -0.0060304496 0.10300805
-0.22030042 0.08103975 0.0064420584 0.2219898 0.1693503 0.0990286 0.1464237 0.057636056
0.01677152 0.23632139 -0.7167892 -0.17473514 -0.12184429 -0.48759222 -0.3300598 0.053131934
-0.12715036 -0.32877177 -0.28960925 -0.13306029 -0.34059113 0.13186784 0.0063054366 -0.58874077
0.12654606 -0.5934237 -0.06690744 -0.41979057 0.24626176 -0.13463373 0.3221773 0.20029207
0.1700703 -0.4087949 0.31203526 -0.38837117 -0.0085025085 -0.07005924 0.22903354 -0.21646464
-0.22427222 0.14107339 0.02461205 -0.023692008 0.18390594 0.1717133 0.38036707 0.011294204
0.0759994 0.46451896 0.15914531 -0.3026497 -0.07877536 -0.08867777 0.28096265 0.076368555
0.03645219 0.057502095 -0.12042981 -0.12818335 0.03850931 -0.09353887 0.02293232 0.009612977
-0.05606379 -0.27604187 0.11072176 0.17619413 -0.24416061 0.03617804 -0.1816204 -0.08407216
-0.01636623 -0.23437192 0.06907133 0.088234454 -0.14419128 0.07908666 -0.06807284 -0.20755063
0.0058633354 -0.17189835 -0.14673963 0.06354375 -0.266662 -0.08126386 0.12775475 -0.047022466
-0.12392925 -0.018249298 -0.03447984 -0.09117439 0.00036786371 -0.045625538 0.0012247207 -0.0056691743

8.bias f4 [15]
00000000: 2525 3fbf 7746 3a3d aa9f 20bd 4760 263e
00000010: d912 b43e 4659 24bf 4d25 883d 4543 02be
00000020: 19af e8be e0c5 77be 49f0 f43d 6f3a 1f3e
00000030: 882d 0a3e 7b0c eb3d 0294 113e
-0.74666053 0.045477357 -0.039214768 0.16247664 0.3517063 -0.6419872 0.066477396 -0.12720974
-0.4544609 -0.24196577 0.11959893 0.15549634 0.13493931 0.1147699 0.14216617
