offline_prototype_2_raw_behaviors/trained_models/ae_model_pi3.pth (torch, 8255 bytes, 16 tensors)

0.weight f4 [8, 30]
00000000: 07c9 b13d 1dc6 1a3d dd15 2ebe 76c4 bb3d
00000010: 46f4 d0bd 60e9 163d 73ef f3bb a3cb 47be
00000020: 7049 ad3d 0dc1 dcbc 4058 103e 8fc4 59bd
00000030: e6d4 b33d 0d0a 2b3e 91b3 893e 8a0f 223e
00000040: d012 06be 826a 073e b63e 3a3e 2a55 55bd
00000050: b317 f5bd ecae 97bd c32e 49bd 1e65 c239
00000060: 0920 27bd a141 b1bd 6184 c53d ee6f 473d
00000070: deae 023e eb9e 06be 5820 eb3d e1c2 57bb
00000080: d20c f13e 4abf 6e3c 9e7c 29bc ed51 d83d
00000090: c706 463b a9ba cdbd 5c29 35bd a274 01bc
000000a0: 2153 193e 1ebf 19bd 2393 573d 98bd 0f3c
000000b0: 8057 4b3e 01b9 613d fcd2 2fbd 0d7c 143d
000000c0: 6027 dd3d d65e acbd c40b d3bd bc2a 9dbd
000000d0: ab37 c7bc 3527 c53d 95a0 d7bc afee e43c
000000e0: 7e46 99bc 7097 cc3b ee73 673d b2db 88bd
000000f0: d22b bf3c 78a2 93bd acaa f23c ce3c 1b3d
00000100: 2948 883d 9252 ddba 448c 1a3f 318b d9bc
00000110: ffaf 9e3d c284 28bd 1c19 03be abb1 df3b
00000120: 2f15 843c e575 833d fb0b babc 4ebd 22bd
00000130: a9c1 cc3c bb00 e8bc 5c47 abbd 1669 cd3c
00000140: ecf3 ef3c 12ad 76bc 5d32 05bd f00e dfbb
00000150: 543b 4abd 2b0f dabc 4dd3 f13c 2f98 18bd
00000160: 2ce3 ddbd 4c04 183d 4b13 c03d a14c 15be
00000170: 5c1e 4b3b da90 d13d a202 04be 40b6 a6bd
00000180: faf7 c0be 22d2 a5bd 0547 a43d 6205 97bd
00000190: fbe8 fbbd 8c85 b13d c245 903d 84df c03e
000001a0: 8731 3d3d 5f22 3ebd a258 d8bd 657e 7f3b
000001b0: d381 ddbd 4363 0cbc 52d6 c3bc 78c0 09bd
000001c0: 6213 93bd 4b2f 923c f6d3 01be 9c89 29be
000001d0: dc42 6d3d 8f74 3e3e 9442 b13d 5709 c63d
000001e0: 8f7a 033d 7c94 b3be 1b92 2bbd 8cee 8ebe
000001f0: ee81 77bd 32c9 c1bd 1ed3 57bd 6901 b6bc
00000200: 32bf 92bd ca96 e73d 4785 a5bd f2e3 313e
00000210: f48a a3bd 2512 0d3e af27 02be 1cda 0fbe
00000220: 0a86 84bd c1c8 1bbc 20f1 0abe da1e bdbc
00000230: e494 5fbd d35d fcbd de9e 4ebc 2e66 0b3d
00000240: 6204 a8bc 76f1 3fbd 8c7c 01bc 2bc1 ef3c
00000250: f53b 153e 775f 91bd 7bf8 85bd d332 16be
00000260: 4b9e 0fbe c554 bbbd 6889 5a3e 8b3d b3bd
00000270: c706 8abd 93e9 563e 56e1 4d3c 8a24 813c
00000280: 1bb1 853d 1755 be3b 9313 cc3c 5b5c 4f3d
00000290: 30a1 6f3d ca90 4b3d 2e12 15be f9cf 2e3e
000002a0: d299 493e 484d 63bd 141c ffbd f0f2 12be
000002b0: e4e2 2bbd d464 813d ac10 31bb 71f5 ae3c
000002c0: b576 a1bd 0eb6 f7bb 8cfb 323e bd33 81bd
000002d0: 88e4 2e3d a2bd 253e c643 083e 76a6 efbd
000002e0: 683a f23d b159 0dbe c832 6cbd 0e01 603d
000002f0: 0b7e 7cbd 7ceb 48bc 8112 80be 7d2d 043e
00000300: 31bd 5ebd 59dd 893c 43a9 96be d85d 10be
00000310: cd5f 643e e28b 16be 11f9 4cbe 1c56 55b7
00000320: 921d 603d c009 4abd 105c bdbb 686f 583c
00000330: 979a 0fbb ecce 933d e536 48bd 6309 2abd
00000340: fc40 96bd 0941 b63d 62d4 0a3e f032 953d
00000350: c202 f5bd ab09 f6bd 5d97 ae3c 8651 0b3f
00000360: ea34 07be bc53 ea3d 73e0 413a fe70 5ebd
00000370: d8d1 16bc 8957 15bd f4c0 163d 6ffe 413d
00000380: c1dc 383d bd16 943d ce96 193a 4a45 d03c
00000390: a6ba ee3d 4b4d acbd b1f9 aebd df63 2f3c
000003a0: 64ff fbbb 1975 023e f876 15bc 4028 29bc
000003b0: fd6e 3ebb 9385 5fba 3931 dabd a158 24bc
0.08680921 0.03778659 -0.17000528 0.09168331 -0.102028415 0.036843657 -0.007444316 -0.19511275
0.08461273 -0.026947523 0.14096165 -0.05316597 0.087808415 0.16703053 0.2689481 0.1582624
-0.13093114 0.13224223 0.18187985 -0.052083172 -0.11967411 -0.074064106 -0.04911686 0.00037077902
-0.040802035 -0.08655096 0.0964439 0.04869073 0.12762019 -0.1314656 0.114807785 -0.0032922553
0.47080094 0.014571974 -0.010344652 0.10562501 0.0030216442 -0.10045368 -0.044228896 -0.007901343
0.14973117 -0.03753578 0.052630555 0.00877323 0.19857597 0.055108074 -0.04292582 0.036251117
0.10798526 -0.08416526 -0.103049785 -0.076741666 -0.024318537 0.09626619 -0.026321689 0.027945844
-0.018710371 0.0062436387 0.056507044 -0.066825286 0.023336325 -0.07208723 0.029622398 0.037899785
0.066543885 -0.001688557 0.6037028 -0.02655563 0.07748412 -0.041142233 -0.12802547 0.0068265996
0.016123382 0.06418971 -0.02271079 -0.039731316 0.024994688 -0.02832066 -0.0836322 0.025074523
0.029291116 -0.015055912 -0.032518733 -0.0068072006 -0.049372986 -0.02661856 0.029519701 -0.03725451
-0.10834345 0.037113473 0.0937868 -0.14580013 0.0030993437 0.10232706 -0.1289163 -0.0814023
-0.3768919 -0.0809672 0.080213584 -0.073740736 -0.12300297 0.0866805 0.07044555 0.3767053
0.04618981 -0.046419498 -0.1056378 0.003898525 -0.10815778 -0.008568588 -0.023905907 -0.033630818
-0.07181431 0.017844817 -0.12678513 -0.165564 0.05792509 0.18599151 0.08655277 0.0966975
0.032099303 -0.35074222 -0.041887384 -0.27916372 -0.060426645 -0.09462203 -0.05269157 -0.02221747
-0.07165374 0.113080576 -0.08082061 0.1737211 -0.079854876 0.13776453 -0.1271045 -0.14048046
-0.064708784 -0.009508313 -0.13568544 -0.023086 -0.054585353 -0.12322583 -0.012611119 0.034032993
-0.020509902 -0.046861134 -0.007903229 0.029266914 0.14573653 -0.070982866 -0.065415345 -0.14667825
-0.14025228 -0.09147028 0.21341479 -0.08751973 -0.06739574 0.20987539 0.012565931 0.015764493
0.06527921 0.0058084833 0.024911677 0.050625186 0.05850333 0.04969863 -0.14557716 0.17071523
0.19687584 -0.055493623 -0.12456527 -0.14350486 -0.041964427 0.063180596 -0.0027017994 0.02135727
-0.0788397 -0.0075595444 0.1747877 -0.063086964 0.042698413 0.1618562 0.13307104 -0.11701672
0.11827546 -0.13803746 -0.057665616 0.054688506 -0.06164364 -0.012263175 -0.25014117 0.12907977
-0.054379646 0.01682918 -0.2942601 -0.14098299 0.2230217 -0.14701799 -0.20016886 -1.2715838e-05
0.0547157 -0.049325705 -0.005778797 0.013210155 -0.002191221 0.072172016 -0.048880477 -0.041512858
-0.073366135 0.08899123 0.1355758 0.07285106 -0.11963417 -0.12013563 0.02131241 0.5442127
-0.13203779 0.11441752 0.0007395811 -0.054306976 -0.009205304 -0.036460433 0.03680511 0.047361787
0.045132402 0.072308995 0.00058589585 0.025423665 0.11656694 -0.0841318 -0.085437186 0.0107049635
-0.007690357 0.12739982 -0.009122603 -0.010324538 -0.0029057853 -0.0008526679 -0.1065392 -0.010030896

0.bias f4 [8]
00000000: b810 993d 2b94 b7bd 6080 16bd 3330 d7bd
00000010: 6845 08bd 0c96 03be e851 f4bd b00f 783d
0.07473892 -0.08963808 -0.03674352 -0.1050724 -0.033269316 -0.12850207 -0.11929685 0.060561836

1.weight f4 [8]
00000000: 5a3f e63e 33a6 a43f c7ab 113f a00c 613f
00000010: 633f 483e 5641 3f3f 69ff bb3e 451d 213f
0.44970208 1.286322 0.56902736 0.8790989 0.1955543 0.7470907 0.367183 0.62935287

1.bias f4 [8]
00000000: b329 e93e 3573 243e 05f0 ab3e f0ed bd3e
00000010: 401b 3b3f 5455 333e 8d44 d1bd 7398 3a3d
0.45539626 0.16059573 0.33581558 0.37095594 0.73088455 0.17513019 -0.10218153 0.045555543

1.running_mean f4 [8]
00000000: fe65 1b3d aa27 41be f40b babd 0ec0 53be
00000010: f202 c9bd e51c abbd 1f77 06be fbca f13a
0.037939064 -0.18862787 -0.09084311 -0.20678732 -0.09815015 -0.083551206 -0.13131379 0.0018447334

1.running_var f4 [8]
00000000: 83bb 803c bf5a b03d df20 c93c 8b3f 963c
00000010: 319f 0f3d 4e9c c73c 7910 9d3c d45f e13c
0.015714413 0.086110584 0.024551807 0.018340847 0.035063926 0.024366524 0.019172894 0.027511515

3.weight f4 [4, 8]
00000000: 5de0 e0bd 9b57 113e cd12 8cbc b717 363d
00000010: 5eb2 a03e 56c3 fbbd aecd b7be f1da 05bb
00000020: a466 4a3e 87cf 93bc b92e 783e 8247 e6bd
00000030: 6a76 0b3e 6f14 ccbb f757 b83e 79be 04bf
00000040: 0844 183e 0744 533d a988 6fbd 443c ec3d
00000050: 91ad 0ebd 76ba a0bd cdc4 c33e ad9b 9fbb
00000060: ab70 e1bd 40e5 363d fb6d ac3d e373 61be
00000070: 4935 82be a98a 893c 72a8 abbd 38de 383d
-0.10980294 0.14193575 -0.017098809 0.04445621 0.31386083 -0.12293117 -0.3589911 -0.0020424689
0.19765717 -0.018043293 0.24236573 -0.11244108 0.1361939 -0.006228022 0.36004612 -0.5185314
0.14869702 0.051578548 -0.05847994 0.11534932 -0.034833495 -0.078480646 0.38236085 -0.004870853
-0.11007818 0.044652224 0.084194146 -0.22016864 -0.25431278 0.016789751 -0.08381738 0.0451338

3.bias f4 [4]
00000000: a37f 143e 9321 3fbe 1827 f33e 3d28 1d3f
0.14501815 -0.18665151 0.47490764 0.61389524

5.weight f4 [8, 4]
00000000: f9c1 d0bd da72 72bc faf5 82be acea 233f
00000010: 9bb1 353e ba8d 38bd a3e5 f6be 85f0 40be
00000020: 0554 65be 1e4a 1cbf 0d2c b03e ceb9 8dbe
00000030: 1cc4 bdbe 66ce 093d 1d5b 3bbe 8043 75be
00000040: 3ffa 413d 37c1 a83e f27b 983c c6cd afbe
00000050: b3be 29bf bf82 273c 74a1 bf3c adb7 c7bd
00000060: 486d 29be acfc 383e 02d3 073f 74ab 193d
00000070: 576a 3dbe fbf6 2d3e add0 243f 9f37 5b3d
-0.10193247 -0.014797891 -0.2557829 0.64029956 0.17743532 -0.045057036 -0.48222074 -0.18841751
-0.22395332 -0.61050594 0.34408608 -0.2768082 -0.37063682 0.033644103 -0.18296476 -0.2395153
0.047357794 0.3295991 0.01861379 -0.3433668 -0.6630661 0.010224043 0.023392417 -0.0975183
-0.16545594 0.18065137 0.5305635 0.037517026 -0.18497597 0.16988747 0.64380914 0.05351984

5.bias f4 [8]
00000000: f4a0 ab3e 2063 fc3e 10e8 9cbd 2889 d43d
00000010: d2ed b1be e105 d3bd e496 bd3e c23c 833e
0.33521235 0.49294376 -0.0766145 0.10377723 -0.34751755 -0.10303856 0.37029183 0.25632292

6.weight f4 [8]
00000000: 8602 8e3f 3da3 9e3f a301 243f a1a5 893f
00000010: 37ba f23e 419f a03e 33b6 483f 0ca4 d83f
1.109452 1.2393566 0.64065 1.0753671 0.47407696 0.313715 0.78403014 1.6925063

6.bias f4 [8]
00000000: d30c 28bf 4fe8 1a3f 1cc6 293f 57bd 583e
00000010: 30cc 0d3f 0209 653f 536f 873e 3c42 9dbf
-0.6564457 0.60510725 0.66317916 0.21165977 0.5538969 0.8946687 0.2645212 -1.2285838

6.running_mean f4 [8]
00000000: fbb1 c13e 3adf 963e aed6 56bd 576b e2bd
00000010: 3d2c d9be 6252 86be ce9b 0c3f 95a3 f53e
0.378311 0.29467183 -0.05245083 -0.1105563 -0.42416564 -0.26234728 0.5492524 0.47976366

6.running_var f4 [8]
00000000: 9044 0a3c 5f02 c23b 975f 023c 8f0a 463b
00000010: cdfc 103b e20f 823b da14 f83b 4e10 2e3c
0.008439198 0.005920693 0.007957361 0.0030218696 0.0022123337 0.0039691785 0.007570845 0.0106240045

8.weight f4 [30, 8]
00000000: 1b6c 8db8 ca8e 7dba 1cd9 8eb8 3811 2c39
00000010: 2b5b 0f3a ec3e a9b9 b979 27bb f063 b93a
00000020: c8bf 0cbd 28ef 37bf 6e24 1fbe 17ab ed3c
00000030: 3e40 04bf 4df3 463e a15f 09be 11e9 2f3e
00000040: 32a5 b33c 1e5a 3439 a4f1 c1bd b7e1 cbbe
00000050: bffb 93be 3618 73bf 28d8 6c3f 31ac 41be
00000060: 1214 e03c 1555 02bf 51bb b23d 2ceb 1bbe
00000070: 209b e93a 7b90 fd3e a488 09be e5b4 e9bd
00000080: 93a9 cb3d 83c2 98bd bd62 21be b94f 113f
00000090: 3878 a3be d67b 923d ec2f 60bf da75 51be
000000a0: a1cd 473e c328 023e 6cc6 0e3f 2c7f babe
000000b0: ea13 28bf fe2d bdbd cdd3 a1be 4281 833d
000000c0: 4db3 af3e 8461 a73d 2ca5 26bf 5081 6abe
000000d0: 9d61 ae3e cb8f 3b3e 897f a13e 6e80 69be
000000e0: e7c4 e03e 7867 343d 3a44 f13e 8e98 ba3e
000000f0: 578d 66be a292 b3be 131f 03bf da08 67bf
00000100: e39e 02bf 9e13 a5be 5219 c53e f697 ae3d
00000110: 5b86 173f 5859 073d fee4 623e 7ce2 a3be
00000120: d77c 91be 46fc 8f3e 409e 95be a61e 83bd
00000130: ea63 65be d8b3 0dbe 6ba7 13be e578 bf3d
00000140: 321b 47be 3d4c 74bd 01e2 8ebe 6eb8 7e3d
00000150: e682 b5be 1361 17be 72a7 9bbe 84a2 e93d
00000160: 50b5 2ebe 07eb 8b3d b5a0 b4bc 1247 0bbc
00000170: a995 9b3d 8e90 cdbd b1e4 70be a672 fbbe
00000180: 325d 0e3e 6a56 e1bd 1670 213e 3ef2 503c
00000190: 4bcf 063e af02 efbc cf54 683e afd7 3dbe
000001a0: 10f1 a1be 985b 0abe 5ccd 7bbd e46d 2b3d
000001b0: a5a9 643d eac9 cebb 8f3e 7cbe e359 073e
000001c0: 507d 8d3c bf26 cfbd fcc4 e2bc 82a0 073d
000001d0: fb8d 303c 724e 6ebe bea4 793d da2d 4bbe
000001e0: 4139 ecbd db2d 48be 556d 16be 081f 613d
000001f0: 29e2 60be 9baf 013e 6af7 7abe 98d0 fb3d
00000200: 133d ea39 0422 bbbc 36ec 833c b83a 44bc
00000210: 80ec 6dbd 6a22 663e 1d56 c33d 9e90 25bd
00000220: 7ee9 1a3d de97 953d 9e3f d43c f81a 593e
00000230: e02e 0b3c af36 99be c424 bcbd ce4f 10bf
00000240: dc59 05bb 1dc6 1fbe 0b91 85bc d112 8b3d
00000250: b861 bbbd 2934 4dbc a462 91bd c432 3a3c
00000260: d6f4 703c c988 6a3d a149 353c 522c 533c
00000270: eec3 353d d488 2dbd dd10 c0bb a77a 5b3c
00000280: 1b73 cfba ce38 8bbc 784a 7abb 9038 d43c
00000290: b2d8 0abc 885e c73d 22c6 42bc 9a39 e83b
000002a0: 60fc 2cbd d5df e4bc 0beb 4cbd ec72 d7bc
000002b0: b25e a6bd ee81 383e e0c7 96bd 675c 633d
000002c0: 384f ecbc c466 7abb c42e e63b 3233 07bd
000002d0: 4888 133c e9d7 85bb 5299 8abe 472b 39bf
000002e0: 50d6 d9bb eb87 b3bb 06c3 1ebd 08c1 ebbc
000002f0: 81a4 c43b 82d8 f03c 2c3e a3be 3d45 34bf
00000300: eac8 ecb9 bddf be3c ac71 043c 957a 263d
00000310: 73f8 c73b e5fb b7bd 364f 813c b610 99ba
00000320: 3bf9 05bd dffb 0bbd 7b23 54bc d2d9 05bd
00000330: 1cd8 adbc 10c4 8f3d 1ade 89bd 0be3 0b3d
00000340: d855 f5ba 1b4b 09bd 997d 843c 2a89 363c
00000350: 2930 be3c 0c83 22bd 63a7 c3bc e095 c63b
00000360: 77ae 8c3d f1de 543d 3760 b737 8761 6cbc
00000370: 265b 89bb 02e3 90bc ab37 b13d d845 2fbd
00000380: eeed 56bb b74a e23c 1e19 18bc 8030 19bd
00000390: 87bd 82bc 2029 963d ca98 47be fc39 57bf
000003a0: c4c1 613c 02eb a73c 6154 03bc 7b49 30bd
000003b0: 4db5 acbc 496e 743d 742e 9a3d bda7 44bd
-6.74354e-05 -0.00096724613 -6.8115274e-05 0.00016409613 0.0005468602 -0.00032281072 -0.002555473 0.0014144164
-0.034362584 -0.718493 -0.1554124 0.029012246 -0.51660526 0.1942875 -0.13415386 0.17178752
0.021929357 0.00017199709 -0.094699174 -0.39820644 -0.28903005 -0.9495882 0.9251733 -0.18913342
0.02735332 -0.50911075 0.08727134 -0.1522643 0.001782272 0.49524292 -0.1343103 -0.11411456
0.09944453 -0.07458975 -0.15760322 0.5676227 -0.31927657 0.07152526 -0.8757312 -0.20455113
0.19512035 0.12710862 0.5577152 -0.3642515 -0.65655386 -0.09237288 -0.31606904 0.06421138
0.34316483 0.081728965 -0.6509578 -0.22900891 0.34058848 0.18316571 0.31542614 -0.22802898
0.43900225 0.044043988 0.47122365 0.36444515 -0.22514854 -0.3507281 -0.5121929 -0.9024788
-0.5102369 -0.3224153 0.3849588 0.08525078 0.59189385 0.03304419 0.22157666 -0.3200873
-0.28415558 0.28122157 -0.29222298 -0.0640233 -0.22401395 -0.13838136 -0.14419334 0.09349231
-0.19443968 -0.05964302 -0.27906802 0.062187605 -0.3545143 -0.14783125 -0.30401188 0.114079505
-0.17061353 0.06831937 -0.022049287 -0.008500831 0.07596905 -0.10037337 -0.23524739 -0.49110907
0.13902739 -0.1100281 0.15765414 0.012753068 0.13165013 -0.029176084 0.22688602 -0.18539308
-0.3162923 -0.13511503 -0.061475143 0.041852847 0.055825848 -0.006310691 -0.24633239 0.13217883
0.017271668 -0.10114812 -0.02768182 0.033112057 0.010776038 -0.23272112 0.060948126 -0.1984171
-0.11534358 -0.19548742 -0.14690144 0.054961234 -0.21961273 0.12664644 -0.24508443 0.122956455
0.00044677462 -0.022843368 0.016103845 -0.01197689 -0.058086872 0.22474065 0.09537909 -0.04042112
0.03782033 0.07304357 0.025909241 0.21201694 0.008495063 -0.29924533 -0.091867 -0.5637177
-0.002034775 -0.15602918 -0.016304513 0.06790698 -0.09149498 -0.012524643 -0.07098892 0.0113646425
0.014706811 0.057259355 0.011064918 0.012888985 0.044376306 -0.042366818 -0.0058613853 0.013395942
-0.0015827151 -0.01699486 -0.003819136 0.025905877 -0.008474516 0.09734827 -0.011888059 0.0070869448
-0.04223287 -0.027938763 -0.050028842 -0.026299916 -0.081235304 0.18018314 -0.07362342 0.055508044
-0.028846368 -0.0038208226 0.007024618 -0.033007808 0.00900466 -0.0040845764 -0.270701 -0.7233166
-0.0066478625 -0.005478849 -0.038760208 -0.028778568 0.0060010557 0.029400114 -0.3188337 -0.7041815
-0.0004516312 0.023300046 0.008083742 0.040644247 0.0061026155 -0.08983592 0.015784841 -0.0011677954
-0.032708388 -0.03417575 -0.012947912 -0.032678433 -0.021221213 0.07019818 -0.06731816 0.034152072
-0.00187176 -0.03351889 0.01617317 0.011141101 0.023216324 -0.039675757 -0.023883527 0.006060347
0.06869214 0.051970426 2.1860104e-05 -0.014427549 -0.004191774 -0.01768637 0.08653196 -0.042791218
-0.0032795626 0.027623517 -0.009283332 -0.03739977 -0.015959514 0.07332063 -0.19491878 -0.8407285
0.0137791075 0.020497803 -0.008015723 -0.043038826 -0.021082545 0.05967549 0.075283915 -0.04801153

8.bias f4 [30]
00000000: bc30 40bf 6fd8 633f bcee 333f 142b adbe
00000010: 5aaf 4cbe c4fc 68bd 4873 85bd 32c1 96be
00000020: 0b4b 2dbf adf0 9cbd 6011 0e3f a58d 2cbe
00000030: b089 a83c f69e 2e3e 3992 7f3e 7ac6 9f3e
00000040: 0689 1dbe 0486 cabb 28ec 503e 63ad 9dbd
00000050: dc7f 4bbd 6502 023d 1e70 79bd 4746 56bc
00000060: 0128 af3c 3fd2 223d 1a93 3f3d 9731 f4bc
00000070: 17a0 ddbd a734 43bd
-0.7507436 0.89002126 0.70286155 -0.33821929 -0.19988766 -0.05688168 -0.06516129 -0.2944427
-0.6769263 -0.07663093 0.5549526 -0.16850908 0.020573467 0.17052826 0.24958123 0.31206113
-0.15384302 -0.0061805267 0.20402586 -0.076990865 -0.049682483 0.031740565 -0.06089794 -0.013078279
0.02138138 0.039751288 0.046771146 -0.029808803 -0.1082155 -0.047657635
