prototype_1/trained_models/target_net_0.pth (torch, 286047 bytes, 6 tensors)

fc1.weight f4 [256, 15]
0	0x3e45dd86	0.19322786
1	0x3e5d5115	0.21612962
2	0xbd820691	-0.06348909
3	0x3e7924f6	0.24330506
4	0xbd6b0c50	-0.05738479
5	0x3d562f72	0.05229134
6	0xbe0b4b13	-0.13602857
7	0x3e1d65e0	0.15370893
8	0x3e6672c8	0.22504723
9	0xbe468dd5	-0.19390042
10	0x3e66bb03	0.22532277
11	0x3d137068	0.03599587
12	0x3e405d64	0.18785626
13	0x3cf26039	0.029586898
14	0x3df081ec	0.11743531
15	0xbd864a3c	-0.06557128
16	0x3e4e3905	0.20138939
17	0x3d25c9cc	0.04047565
18	0xbe138062	-0.14404443
19	0x3dad3438	0.084572256
20	0xbdbf6380	-0.0934515
21	0xbd4f8397	-0.050662603
22	0xbdb59812	-0.08866896
23	0x3e16ff80	0.14745903
24	0xbe609bec	-0.2193448
25	0xbdbdb543	-0.092630886
26	0xbdab2bd4	-0.08357969
27	0xbe16b58a	-0.14717689
28	0x3d4120db	0.047150474
29	0xbe72329e	-0.23652121
30	0x3e59f59e	0.21285102
31	0xbe6590fd	-0.2241859
32	0x3e58bc8b	0.21165673
33	0x3d10d38c	0.035357997
34	0xbd8e30b5	-0.06942884
35	0x3e31b69c	0.17354816
36	0x3c6d6297	0.014488838
37	0x3e620f1b	0.22076075
38	0x3c67916e	0.014133794
39	0xbdc5c3c6	-0.096564814
40	0x3db0e794	0.0863792
41	0xbd942f17	-0.07235544
42	0x3df3c44e	0.119026765
43	0x3e77c243	0.24195199
44	0x3e387971	0.18015076
45	0xbdeff7e6	-0.11717205
46	0x3e1adbb8	0.15122879
47	0x3d25f66b	0.040518206
48	0x3e0c6b6a	0.1371285
49	0xbe21f065	-0.1581436
50	0xbe84b5af	-0.25919864
51	0xbdd00c4a	-0.10158594
52	0xbe418e4f	-0.18901943
53	0x3e4e7dfb	0.20165245
54	0x3d78b44a	0.060718812
55	0x3df929ea	0.121661976
56	0x3da57d1f	0.080805056
57	0xbb97d5eb	-0.0046336553
58	0x3e52bfae	0.20580932
59	0xbe45256d	-0.19252558
60	0x3afdabf6	0.0019353617
61	0xbe38400a	-0.17993179
62	0x3daaa56d	0.08332334
63	0xbdc9c44a	-0.09851892
64	0x3db5b061	0.08871532
65	0xbd3802de	-0.04492461
66	0x3e4a8d70	0.19780517
67	0xbe13b2f5	-0.14423735
68	0xbe271fe7	-0.16320764
69	0xbe23ed08	-0.16008389
70	0x3e7a6176	0.24451241
71	0x3daeac85	0.08528999
72	0x3e84072c	0.25786722
73	0xbe5350e7	-0.2063633
74	0xbe6cab12	-0.23112133
75	0xbe55bfb8	-0.20873916
76	0xbe353143	-0.17694573
77	0x3e01d023	0.12677054
78	0x3d9d4ae6	0.07680301
79	0x3e66654f	0.22499584
80	0xbdf10e5f	-0.11770319
81	0xbe4d1cd2	-0.20030525
82	0x3e0ea1c4	0.13928896
83	0xbdee0bb9	-0.1162333
84	0x3e1b300d	0.15155049
85	0xbd4ebfaa	-0.050475754
86	0x3e174053	0.14770631
87	0xbe436f82	-0.19085506
88	0xbdf6826f	-0.12036597
89	0x3dd6f161	0.10495258
90	0x3d6bfd3b	0.057614546
91	0xbd86a402	-0.06574251
92	0x3e1e5b45	0.15464504
93	0x3e33e819	0.17569007
94	0xbe47f93e	-0.19528672
95	0xbe1d4248	-0.15357316
96	0x3e71c717	0.23611103
97	0xbda56e64	-0.08077696
98	0xbdbb1cb8	-0.09136337
99	0xbe7eedc4	-0.24895388
100	0xbe206181	-0.15662195
101	0x3d6f6feb	0.058456343
102	0xbd10dd2e	-0.035367183
103	0xbe3dff5b	-0.18554442
104	0x3bd6e5b7	0.006558146
105	0xbe4c2490	-0.19935822
106	0xbe6699b0	-0.22519565
107	0xbe18147b	-0.14851563
108	0xbe86708b	-0.26257738
109	0xbe17756a	-0.14790884
110	0x3e8dfaf0	0.27730513
111	0x3d0da00a	0.034576453
112	0x3dcc1fe1	0.09967018
113	0xbe898dc1	-0.26865962
114	0xbe41de5d	-0.18932481
115	0xbd7211ae	-0.059098892
116	0x3cc89b58	0.024488136
117	0xbe59bfdf	-0.212646
118	0xbdb235e9	-0.08701689
119	0xbdf34778	-0.11878866
120	0x3af018f4	0.0018317983
121	0xbde4955c	-0.111613005
122	0xbc9cef44	-0.01915706
123	0xbe42cb62	-0.19022897
124	0xbe25bd41	-0.16185476
125	0xbe1d33d8	-0.15351808
126	0xbdaf771d	-0.08567641
127	0xbe4ee216	-0.20203432
128	0x3e63e91a	0.2225689
129	0xbd967d7d	-0.07348154
130	0x3e795c11	0.24351527
131	0x3db8661e	0.09003852
132	0xbe5f105e	-0.21783587
133	0x3e358727	0.17727338
134	0xbd5a7fbf	-0.053344484
135	0xbdff9569	-0.124796696
136	0xbe664b20	-0.22489595
137	0xbe89b543	-0.26896104
138	0x3da56fdc	0.08077976
139	0xbd4977ef	-0.049186643
140	0x3df434f1	0.1192416
141	0xbe5d1a61	-0.21592094
142	0x3e5dba78	0.21653163
143	0xbe618740	-0.2202425
144	0xbd90f052	-0.070770875
145	0x3dac9292	0.084263936
146	0x3debf08b	0.11520489
147	0x3e6d9745	0.23202236
148	0x3e85cce1	0.26132873
149	0xbe34bce5	-0.17650183
150	0x3d2290e8	0.039688975
151	0xbdff48e3	-0.12465074
152	0xbca37d8c	-0.019957326
153	0xbe4951e4	-0.19660145
154	0x3e827497	0.25479576
155	0xbe2d8add	-0.16947503
156	0x3dd74272	0.1051072
157	0x3dc11740	0.09428263
158	0x3d937ebf	0.07201909
159	0xbe13e58f	-0.14443038
160	0x3e7da62d	0.24770422
161	0x3d67652a	0.056492962
162	0x3d22188d	0.039574195
163	0xbe5f82e6	-0.21827278
164	0x3e03b73e	0.1286287
165	0xbd56545c	-0.052326545
166	0xbe01e0e4	-0.12683445
167	0x3e71c4ef	0.2361028
168	0x3d382afe	0.044962876
169	0xbe0011e8	-0.1250683
170	0xbde6b72a	-0.112654045
171	0xbd146f15	-0.03623875
172	0x3e1cbcfe	0.1530647
173	0xbd9c165e	-0.07621454
174	0xbe1b5de8	-0.15172541
175	0xbd963177	-0.073336534
176	0xbe445647	-0.19173537
177	0x3dd4be6a	0.10387881
178	0x3e53074d	0.20608254
179	0xbe575516	-0.21028551
180	0x3d00148a	0.031269588
181	0x3e06d3b7	0.131667
182	0x3d2d2581	0.042272095
183	0xbdd7bf68	-0.10534555
184	0x3e1a2e35	0.15056689
185	0x3e1f798b	0.15573709
186	0x3d784e06	0.060621284
187	0xbcb3b545	-0.021937022
188	0xbdc2c15b	-0.09509536
189	0x3976f469	0.00023551438
190	0xbbc56835	-0.0060243853
191	0xbdabfcb2	-0.08397807
192	0x3e453b2a	0.1926085
193	0x3e79201d	0.24328656
194	0x3c93c4b4	0.018038131
195	0xbd9e372c	-0.07725367
196	0xbc20c04a	-0.00981147
197	0xbc4b2ed1	-0.012401299
198	0x3d4a3531	0.049367134
199	0x3da587d1	0.080825455
200	0xbe56e62d	-0.20986243
201	0xbdda9367	-0.10672646
202	0x3e6eac91	0.23308016
203	0x3d99bc00	0.07506561
204	0xbcef53da	-0.029214788
205	0xbe03eed1	-0.1288407
206	0xbe295ff9	-0.16540517
207	0xbe59855a	-0.21242276
208	0xbd8020f1	-0.06256283
209	0x3de323a6	0.11090784
210	0x3e262a87	0.1622716
211	0x3e0939ec	0.13401002
212	0xbe7a3587	-0.24434482
213	0xbe1cf11b	-0.1532635
214	0xbc96d6bc	-0.01841294
215	0x3e83bb00	0.25728607
216	0x3d07c0c3	0.033142816
217	0xbd86b850	-0.065781236
218	0x3dc9edc3	0.098598026
219	0xbdc3c40c	-0.09558877
220	0xbe357cf7	-0.17723452
221	0x3e4a2a22	0.19742635
222	0xbde14857	-0.11000126
223	0xbd6587f0	-0.056037843
224	0xbe7ca105	-0.24670799
225	0x3e3f7b1e	0.18699309
226	0x3e4bbd92	0.19896534
227	0x3dc10704	0.09425166
228	0xbe3f1aa3	-0.18662505
229	0xbe831130	-0.2559905
230	0xbe537354	-0.20649463
231	0x3e4e70e9	0.2016026
232	0x3e14f007	0.14544688
233	0x3e521d24	0.20518929
234	0x3e025be7	0.1273037
235	0x3da2114d	0.07913456
236	0x3c3399fc	0.010962006
237	0xbe445603	-0.19173436
238	0xbe5d1dfa	-0.21593466
239	0xbe607b1e	-0.21921965
240	0x3dc7d487	0.09757333
241	0xbe130460	-0.14357138
242	0xbd74ee51	-0.05979759
243	0xbe2af1c2	-0.16693786
244	0xbce5d383	-0.028054958
245	0xbe259f61	-0.1617408
246	0xbe42e88c	-0.19034022
247	0x3dc26607	0.094921164
248	0xbdb29cb0	-0.08721292
249	0x3e184509	0.14870085
250	0xbd8c55ab	-0.06852277
251	0xbe48a389	-0.19593634
252	0xbd16c3f9	-0.036807988
253	0xbe0c95df	-0.13729046
254	0xbd5825ae	-0.05277031
255	0xbe8bb870	-0.27289152

fc1.bias f4 [256]
0	0xbe5e4475	-0.21705802
1	0x3dd3460d	0.103160955
2	0x3e388789	0.18020453
3	0xbcbb58b1	-0.02286944
4	0x3d8c3766	0.06846504
5	0x3e02af69	0.12762226
6	0xbe8155dc	-0.25260818
7	0xbcac6d88	-0.021048322
8	0xbda62667	-0.081127934
9	0xbde0a54d	-0.109690286
10	0x3e2cf6ee	0.16891071
11	0x3e896bdc	0.26840103
12	0x3d649a25	0.055811066
13	0x3e2e6e46	0.17034253
14	0xbe38e03b	-0.18054287
15	0x3d7ed0cd	0.062210847
16	0xbc88f0f4	-0.016716458
17	0xbe1696af	-0.14705919
18	0x3d74489e	0.059639566
19	0x3dc6ae57	0.097012214
20	0x3b54d1cb	0.003247368
21	0x3dfc34f5	0.12314788
22	0x3e0e9378	0.13923442
23	0x3e7ac412	0.24488857
24	0x3d02ace2	0.031903155
25	0x3c9d7767	0.019221975
26	0x3b227794	0.0024790512
27	0x3d376efa	0.04478357
28	0xbe21e805	-0.15811165
29	0xbcb2691a	-0.021778632
30	0xbe596fb6	-0.2123402
31	0xbe2cba1e	-0.16867873
32	0xbe5eb593	-0.21748953
33	0x3e4f3d87	0.20238315
34	0xbe06e215	-0.13172181
35	0xbc6e8946	-0.014559096
36	0x3d061162	0.03273142
37	0x3e710f62	0.23541024
38	0x3e06379b	0.1310715
39	0xbe3a8598	-0.18215024
40	0x3e89c137	0.26905224
41	0xbe6c4a8c	-0.23075312
42	0x3d44e817	0.0480729
43	0x3e7d0b9c	0.2471146
44	0x3e720bf4	0.23637372
45	0xbd534e3e	-0.05158829
46	0xbe2b7751	-0.16744734
47	0x3dfad07f	0.12246799
48	0x3e550789	0.20803656
49	0xbdfef1de	-0.12448476
50	0xbd06e0f5	-0.03292938
51	0xbe1c0a4b	-0.15238301
52	0x3defcfd3	0.11709561
53	0x3d97dab6	0.07414763
54	0x3e0cd254	0.13752109
55	0xbda0d1d9	-0.07852525
56	0xbe6b2730	-0.22964168
57	0xbdb7aa28	-0.089680016
58	0xbe474fe8	-0.19464076
59	0xbd2d0d86	-0.042249225
60	0x3dd330a7	0.10312014
61	0xbe5bf594	-0.214804
62	0x3c8b9e52	0.017043266
63	0xbe778566	-0.24171981
64	0xbe29cb8f	-0.16581558
65	0xbe2b59da	-0.16733494
66	0xbd976691	-0.0739261
67	0xbddd7495	-0.10813252
68	0x3d59fc6e	0.05321925
69	0x3e2f32fc	0.17109293
70	0x3e598af2	0.2124441
71	0x3dbde26e	0.09271704
72	0x3c6ff030	0.0146446675
73	0xbd0a31c6	-0.033738874
74	0x3e3dc4a7	0.18532048
75	0xbe05ac1a	-0.13053933
76	0x3e4e4609	0.20143904
77	0xbe717d00	-0.2358284
78	0xbe397cfb	-0.18114083
79	0x3d9ed681	0.07755757
80	0xbdcb7a79	-0.09935469
81	0x3d94df8a	0.07269199
82	0x3e6c5973	0.23080997
83	0x3dff0a36	0.124531195
84	0x3e867204	0.26258862
85	0xbdc004c7	-0.09375911
86	0xbdcd9a75	-0.10039226
87	0xbd01f534	-0.031727985
88	0xbce9d8ae	-0.028545704
89	0xbde19f0b	-0.11016663
90	0xbbbc64d7	-0.0057493257
91	0x3e7c2afd	0.24625774
92	0xbe053da8	-0.13011801
93	0x3e1f5499	0.15559615
94	0x3e04cea7	0.12969457
95	0x3e221e35	0.15831836
96	0x3dac651a	0.08417721
97	0xbd95f7a3	-0.073226236
98	0x3df0ec99	0.117638774
99	0xbde383a1	-0.111090906
100	0xbe16e99f	-0.14737557
101	0x3e855c8e	0.26047176
102	0x3e68df02	0.2274132
103	0xbe3a6b81	-0.18205072
104	0x3e5e939e	0.21735999
105	0x3d7edc27	0.062221672
106	0x3d9ad1c7	0.07559543
107	0x3e8638eb	0.262153
108	0xbbc4edf9	-0.006009814
109	0xbd82ede6	-0.06393032
110	0x3e31e534	0.1737259
111	0xbd3ef888	-0.046623737
112	0xbd3bd0fb	-0.045853596
113	0xbdbb0a2a	-0.09132798
114	0x3e8841f3	0.26612815
115	0x3e10ba57	0.14133583
116	0xbcec37db	-0.028835228
117	0x3c1357fe	0.008993147
118	0x3cc5e378	0.024156317
119	0xbe1702d8	-0.14747179
120	0x3da267aa	0.079299286
121	0xbe35a5ab	-0.17738979
122	0xbbaf6c05	-0.005353453
123	0xbd03c079	-0.032165978
124	0xbdb62d26	-0.0889533
125	0x3e7725d4	0.24135524
126	0x3d98c6dc	0.074598044
127	0x3e0b97e9	0.13632168
128	0xbe1d20f0	-0.15344596
129	0x3d51c947	0.051217344
130	0x3dc4499c	0.095843524
131	0x3e158e23	0.14605002
132	0xbd78ac9f	-0.0607115
133	0xbd325a5d	-0.04354321
134	0xbe4c799c	-0.19968265
135	0x3e2c4d13	0.16826276
136	0x3e444efc	0.19170755
137	0x3e09f218	0.13471258
138	0x3e18b730	0.1491363
139	0x3e352bb7	0.17692457
140	0x3e81825d	0.25294772
141	0x3dc6fac5	0.09715799
142	0x3dc928b9	0.0982222
143	0x3dd26e5d	0.102749564
144	0xbe09fd1c	-0.1347546
145	0x3d96d5a8	0.073649704
146	0x3dcc664a	0.099804476
147	0xbe3faabb	-0.18717472
148	0xbd8959bb	-0.06706568
149	0xbe11dae9	-0.14243664
150	0xbe1ac4a3	-0.15114073
151	0x3e4a0f35	0.19732364
152	0x3e5bfa0d	0.21482106
153	0xbc681e46	-0.014167374
154	0x3dbea6a1	0.09309126
155	0xbd2dfe4d	-0.04247885
156	0x3d6e845e	0.058231704
157	0xbcdf3426	-0.027246546
158	0xbdf5f902	-0.12010385
159	0xbdbfc1a0	-0.09363103
160	0x3e895b7b	0.26827607
161	0x3d79c10f	0.06097513
162	0xbe09b70f	-0.13448738
163	0x3d4c3bac	0.049861595
164	0xbe756269	-0.23963322
165	0x3c89f915	0.016842404
166	0x3e60d374	0.21955663
167	0x3d31273e	0.043250315
168	0x3dacee1b	0.084438525
169	0xbe7445b5	-0.23854716
170	0xbccce4cd	-0.025011444
171	0x3e2b5914	0.167332
172	0xbe3f9810	-0.18710351
173	0xbdd75dd9	-0.10515947
174	0x3e402bf2	0.18766764
175	0x3da9ee4b	0.08297404
176	0x3e081227	0.13288175
177	0xbe750b38	-0.23930061
178	0x3e2f2e3b	0.1710748
179	0xbd37efe4	-0.044906512
180	0x3d77b19d	0.06047212
181	0x3e66c7b4	0.22537118
182	0xbe68be25	-0.22728784
183	0x3da76244	0.081730396
184	0xbe6e8bf4	-0.23295575
185	0x3e4fe9e1	0.20304061
186	0x3dad837b	0.084723435
187	0x3d21a98a	0.039468326
188	0xbdc39fe0	-0.09551978
189	0x3de580b1	0.112061866
190	0xbdea023e	-0.11426209
191	0x3d7219ea	0.059106745
192	0x3e6d2524	0.231587
193	0xbe35be5d	-0.17748399
194	0xbd80fcc5	-0.06298212
195	0x3d9c6f86	0.07638459
196	0x3d89a11c	0.06720182
197	0x3cda6ba2	0.026662651
198	0x3e71a91f	0.23599671
199	0xbd8165bf	-0.06318235
200	0x3d984e90	0.074368596
201	0x3e1ac133	0.15112762
202	0xbcc0229d	-0.023454005
203	0x3e36dbb6	0.1785725
204	0x3e35df61	0.17760994
205	0x3e094801	0.13406374
206	0xbd5ce0d5	-0.053925354
207	0x3e7190ac	0.23590344
208	0xbe0b9285	-0.13630112
209	0x3dbb4564	0.091440946
210	0x3d7e8766	0.062140845
211	0x3e426322	0.18983129
212	0xbe44b38d	-0.19209118
213	0x3d746972	0.059670873
214	0xbe1067c0	-0.14102077
215	0x3e177536	0.14790806
216	0x3dd2f046	0.10299735
217	0xbe41cde8	-0.18926203
218	0xbc0cedc3	-0.008601609
219	0x3db0d643	0.08634617
220	0x3df05685	0.11735252
221	0x3e7b7165	0.24554975
222	0x3e0f4bf9	0.13993825
223	0x3d6e341a	0.058155157
224	0x3e1bd13c	0.15216535
225	0xbe6fab5f	-0.23405217
226	0x3e3dba1c	0.18528026
227	0xbc9fbc7c	-0.019499056
228	0x3e2b7f6a	0.16747823
229	0x3db68a06	0.08913045
230	0x3c4f4069	0.012649634
231	0x3e4a4a85	0.1975499
232	0xbe130d59	-0.1436056
233	0x3db4a58d	0.08820639
234	0x3df95a5c	0.12175438
235	0xbdb5dca6	-0.08879976
236	0x3ddd0946	0.107927844
237	0xbe75aaf5	-0.23990996
238	0xbdedf298	-0.11618537
239	0x3e06e718	0.13174093
240	0x3e23e4ee	0.16005298
241	0xbe641717	-0.22274433
242	0x3dc5016e	0.09619413
243	0x3d1e083b	0.038582068
244	0x3e8a992c	0.27069986
245	0xbe7f0392	-0.24903706
246	0xbd6fcb58	-0.058543533
247	0xbe110f66	-0.1416603
248	0xbe0b0668	-0.13576663
249	0xbd0357c6	-0.03206613
250	0xbe6817e4	-0.22665364
251	0x3e571026	0.21002254
252	0xbda00c2a	-0.0781482
253	0x3ddafe78	0.10693067
254	0xbe10d008	-0.14141858
255	0x3c40e216	0.011772653

fc2.weight f4 [256, 256]
0	0xbd3653a9	-0.04451338
1	0x3d50df8f	0.050994452
2	0x3d548f48	0.051894456
3	0x3d534530	0.051579654
4	0xbcb25a29	-0.021771507
5	0x3d26d482	0.040730007
6	0xbd7edfd8	-0.062225193
7	0x3cce8a5f	0.025212465
8	0xbc85fe10	-0.016356498
9	0xbd5d65fd	-0.05405234
10	0xbd4d38db	-0.05010305
11	0xbd6f4668	-0.058416754
12	0x3c3d1839	0.01154142
13	0xbcabb0ae	-0.02095827
14	0xbd079661	-0.033102397
15	0x3d6a9e16	0.05727967
16	0xbc9fd018	-0.019508407
17	0x3ca80469	0.020509915
18	0xbc1fc0ea	-0.009750584
19	0x3d228cca	0.03968505
20	0x3c8c0a55	0.01709477
21	0x3d2a6971	0.041604463
22	0x3c7f3cb8	0.015578441
23	0xbc657e3a	-0.014007146
24	0x3d596c83	0.053082
25	0xbb29fc02	-0.0025937562
26	0xbd0e0152	-0.034669228
27	0x3ca4c481	0.020113232
28	0xbbe9acbd	-0.0071311877
29	0xbd54fb58	-0.051997513
30	0x3beac7a8	0.007164914
31	0xbc7e7e74	-0.015533078
32	0xbd0e6cd9	-0.034771774
33	0xbcdaa76a	-0.026691157
34	0xbd1d98e2	-0.03847588
35	0xbc9ffd38	-0.019529924
36	0x3bca387a	0.0061712833
37	0x3d79660b	0.06088833
38	0xbd16e680	-0.036840916
39	0xbd0cdbe0	-0.034389377
40	0xbd2aadce	-0.04166966
41	0xbb919f64	-0.0044440497
42	0x3bb20942	0.0054332325
43	0xbd2e050c	-0.04248528
44	0x3ce4333c	0.027856462
45	0xbd79e96e	-0.06101363
46	0x3d6e424c	0.058168694
47	0x3c4b05f8	0.01239156
48	0xbbbb8cc5	-0.005723568
49	0xbccaffef	-0.024780242
50	0x3ced5241	0.028969886
51	0x3d32a371	0.0436129
52	0xbd21640e	-0.03940206
53	0xbc7d26b3	-0.015451121
54	0x3d43081e	0.047615163
55	0xbc5b84fa	-0.013398403
56	0xbd5a2cfa	-0.05326555
57	0xbc92ed0e	-0.017935302
58	0x3b00bcc9	0.0019643775
59	0xbc5b9275	-0.013401617
60	0xbd2e41f5	-0.04254337
61	0xbd2061ca	-0.03915576
62	0x3c5815fc	0.013188835
63	0x3d2bf57b	0.041982155
64	0x3d44c2d3	0.04803736
65	0xbb9b5ceb	-0.0047413013
66	0x3cc98c45	0.024603019
67	0xbd582dd4	-0.05277808
68	0x3d00dc85	0.031460304
69	0x3d6b729d	0.05748235
70	0x3d013ef2	0.03155417
71	0xbcc4408a	-0.023956556
72	0x3d4297c8	0.04750803
73	0xbd6be21b	-0.057588678
74	0xbbe57654	-0.007002631
75	0xbc688b53	-0.014193374
76	0xbd7f67e9	-0.062354956
77	0xbd161f11	-0.03665072
78	0xbd44e6ba	-0.0480716
79	0x3c86bb55	0.016446749
80	0xbba1e559	-0.0049406704
81	0x3ce0c249	0.027436392
82	0xbc456c4b	-0.012049745
83	0x3d5576e6	0.052115344
84	0x3beacc3a	0.007165459
85	0x3d505b08	0.050868064
86	0x3d477d65	0.04870357
87	0xbd61d58c	-0.055135295
88	0xbd3145a4	-0.043279305
89	0x3d1e91c6	0.03871324
90	0x3d7657a9	0.060142193
91	0xbd5ceb54	-0.053935364
92	0x39d2c7a6	0.0004020307
93	0xbcc321fe	-0.02381992
94	0x3d78284a	0.060585298
95	0x3d4a2a19	0.049356554
96	0x3d330a91	0.04371125
97	0x3d07aed1	0.033125702
98	0xbbd0f05e	-0.0063763103
99	0x3d778066	0.060425185
100	0xbd1705ae	-0.03687065
101	0x3b5bc361	0.0033533203
102	0xbc8eb6a0	-0.017421067
103	0xbd5500db	-0.05200277
104	0xbce4e7a2	-0.027942482
105	0x3c8e60d7	0.017380161
106	0xbb2c5106	-0.002629341
107	0xbd283b19	-0.041071985
108	0xbbb2a255	-0.0054514804
109	0x3c345bfd	0.01100826
110	0xbd304f32	-0.043044277
111	0x3d1773ba	0.0369756
112	0xbd50768a	-0.050894298
113	0x3a9b99b0	0.0011871364
114	0xbd4f70c6	-0.05064466
115	0xbd6dcf94	-0.05805929
116	0xbc00d666	-0.007863617
117	0x3d6c60e5	0.057709593
118	0x3d6fa92e	0.05851095
119	0x3cba4111	0.022736104
120	0x3d4a86a6	0.049444817
121	0xbd20c697	-0.03925189
122	0x3d0ada91	0.033899847
123	0x3d234ac1	0.039866213
124	0xbd7f652f	-0.062352356
125	0xbd402b68	-0.046916395
126	0x3cd2ca80	0.025731325
127	0x3b9d333f	0.004797369
128	0xbd32b303	-0.04362775
129	0xbd49d425	-0.049274582
130	0x3d34dd22	0.0441562
131	0x3bf67d0d	0.0075222314
132	0x39a7be08	0.00031994306
133	0xbd68d276	-0.056841336
134	0x3d344e22	0.044019826
135	0xbd2f09c1	-0.04273391
136	0x3cdd514d	0.027016306
137	0xbc053f8d	-0.0081328275
138	0x3ac17839	0.0014760561
139	0x3ced4dbb	0.028967729
140	0xbc905781	-0.01761985
141	0xbc85ca9b	-0.016331961
142	0x3d43a357	0.047763195
143	0xbd4436ac	-0.0479037
144	0x3ceef3bf	0.029168962
145	0xbc69fdfd	-0.014281747
146	0xbca77927	-0.020443512
147	0x3d0343a3	0.032046925
148	0x3bc9a7ae	0.006154022
149	0xbd65b50e	-0.05608087
150	0x3d5b4b04	0.053538337
151	0xbcfc34fc	-0.030786984
152	0x3d599d5a	0.053128578
153	0xbcb58e39	-0.022162544
154	0x3d7a5e3d	0.06112503
155	0x3bfd6058	0.0077324323
156	0xbb969d8e	-0.0045964187
157	0x3ce26006	0.027633678
158	0xbbaf1c49	-0.005343948
159	0xbd0527c1	-0.032508615
160	0x3d0b80a9	0.034058247
161	0x3d2a8feb	0.041641157
162	0xbc3fcadd	-0.011706081
163	0x3d6f2ec8	0.058394223
164	0xbbb5e7fb	-0.005551336
165	0xbd041f00	-0.032256126
166	0xbd0a8470	-0.03381771
167	0x3d299d06	0.041409515
168	0xbcd7123b	-0.02625381
169	0x3d0111b2	0.031511016
170	0xbd82cdfd	-0.063869454
171	0x3b3eef06	0.0029134168
172	0xbd5c9067	-0.05384865
173	0x3cc41b27	0.023938728
174	0x3d43a8a5	0.047768254
175	0x3cb4da1e	0.022076663
176	0xbc99692f	-0.018726913
177	0xbd6f8eec	-0.05848591
178	0xbcf871a8	-0.030327633
179	0xbd21a71c	-0.03946601
180	0x3d69be73	0.057066392
181	0xbd080e37	-0.03321668
182	0x3ccbf621	0.024897637
183	0x3d5116c7	0.051047113
184	0x3cbf0aa8	0.023320511
185	0xbd63fa53	-0.05565865
186	0xbc019617	-0.007909319
187	0xbc8853a2	-0.016641442
188	0x3cfbc731	0.03073463
189	0xbbdbd5c4	-0.0067088325
190	0xbc171de0	-0.009223431
191	0x3d5b3abb	0.053522807
192	0x3c50832e	0.012726588
193	0x3cfb2048	0.030655041
194	0xbc9827a5	-0.018573591
195	0x3d2f8322	0.042849667
196	0x3c14f7f7	0.009092323
197	0xbc5ef01b	-0.01360705
198	0x3c22021e	0.0098882
199	0xbd4dacbe	-0.050213568
200	0x3afa6934	0.0019104839
201	0x3d02d0af	0.031937297
202	0xbd75b618	-0.05998811
203	0xbd0c5b91	-0.034267012
204	0x3d1b8182	0.037965305
205	0x3a611a17	0.00085869565
206	0xb9934b37	-0.00028094064
207	0x3bb60b9c	0.005555583
208	0xbca946d2	-0.020663653
209	0x3d58eafe	0.05295848
210	0xbbe32ecf	-0.0069330703
211	0xbcc8f2b5	-0.024529794
212	0x3d00abdd	0.0314139
213	0xbd59f9a4	-0.05321659
214	0xbc674361	-0.0141151855
215	0x3c054021	0.008132965
216	0xbc958501	-0.018251898
217	0x3d031b5f	0.032008525
218	0xbd57e479	-0.052708123
219	0xbc7ea039	-0.01554113
220	0xbcd018eb	-0.025402507
221	0x3d69ffbe	0.05712866
222	0x3caa4019	0.020782517
223	0xbd4c3113	-0.04985149
224	0x3cc000e7	0.02343793
225	0xbc11b7e4	-0.008893941
226	0x3d7129dd	0.058877815
227	0x3cf5d974	0.030010916
228	0xbd1351fd	-0.035966862
229	0x3d636ca6	0.055523537
230	0xbc863a7a	-0.016385306
231	0xbc66b2f9	-0.014080756
232	0x3c9176cc	0.017756842
233	0x3d7ba729	0.061438713
234	0x3caf2101	0.021378042
235	0xbd692d15	-0.05692776
236	0xbc9a8d3e	-0.018866178
237	0x3d465f4d	0.04843073
238	0xbc7e0f9b	-0.01550665
239	0xbcee58ea	-0.029095132
240	0xbd545841	-0.051841978
241	0xbd33313c	-0.043748125
242	0xbd09b94f	-0.03362399
243	0x3c83300a	0.016014118
244	0x3cbe9777	0.023265583
245	0x3d5ebc4a	0.054378785
246	0x3d1f46e4	0.038885966
247	0xbb66a885	-0.003519566
248	0x3cef9782	0.02924705
249	0x3d1d8035	0.038452346
250	0xbd7d16d8	-0.061789364
251	0x3cfb8415	0.03070263
252	0xbd210f1e	-0.039321057
253	0x3d468a3d	0.048471678
254	0xbcf1c739	-0.029513942
255	0x3c53852e	0.0129101705

fc2.bias f4 [256]
0	0xbd092e58	-0.033491462
1	0x3d771865	0.060326
2	0xbc84c34f	-0.016206412
3	0xbd21d3b0	-0.03950852
4	0xbc47ae62	-0.012187572
5	0xbd38b9f1	-0.045099203
6	0xbd19ae93	-0.037520003
7	0xbc801938	-0.015637025
8	0xbc9af316	-0.01891474
9	0xbd5c9240	-0.053850412
10	0xbcd27b21	-0.025693478
11	0x3c698c19	0.014254593
12	0x3d74d060	0.059769034
13	0x3d52afc4	0.051437154
14	0x3cf804af	0.03027567
15	0xbd188258	-0.03723368
16	0x3c9e7135	0.01934109
17	0xbd2bda2a	-0.041956104
18	0x3ccebeea	0.02523752
19	0xbc0b2cb2	-0.008494543
20	0x3aac34ce	0.0013138296
21	0x3ce76f5c	0.028251342
22	0x3c94a3d5	0.018144527
23	0x3cd923d2	0.026506338
24	0xbd10cb18	-0.035349935
25	0x3d496115	0.04916485
26	0x3c06f263	0.0082365
27	0x3d18d336	0.0373108
28	0xbd681ac4	-0.05666615
29	0x3d5cbe21	0.05389226
30	0x3d367c34	0.044552043
31	0x3c9135c7	0.017725838
32	0x3d1ef449	0.038807187
33	0x3c828a78	0.015935168
34	0xbc93383c	-0.01797115
35	0xbd56423e	-0.052309267
36	0x3c4c539a	0.012471104
37	0xbc4ee12d	-0.012626928
38	0x3d68d2a9	0.056841526
39	0x3c128181	0.008942009
40	0xbcefca90	-0.029271394
41	0xbbd5bf3e	-0.006523042
42	0x3b3deed2	0.002898146
43	0x3d69364c	0.056936547
44	0x3d4a1226	0.049333714
45	0xbbd13da4	-0.006385522
46	0xbd7c748e	-0.061634593
47	0xbd2e72d3	-0.042589974
48	0x3d675178	0.05647418
49	0x3c7c7826	0.015409505
50	0xbc23d8a5	-0.010000383
51	0xbc20c1bd	-0.009811816
52	0x3d9d82cc	0.07690963
53	0xbc307219	-0.0107693905
54	0x3d79731c	0.060900792
55	0x3cb44ddd	0.022009784
56	0x3c50f8bc	0.012754615
57	0x3c5b8028	0.013397254
58	0xbb8e03fa	-0.00433397
59	0x3bee75c4	0.0072772224
60	0x3d027b16	0.031855665
61	0xbcde94b8	-0.027170524
62	0xbbafc0fe	-0.0053635826
63	0xbcb20db1	-0.021735044
64	0xbcd912a9	-0.026498156
65	0x3d58befa	0.052916504
66	0x3d79f21f	0.06102192
67	0x3d76ab1a	0.06022177
68	0x3d0f8feb	0.03504936
69	0x3ca8184f	0.020519404
70	0x3c911a72	0.017712805
71	0x3c8c620c	0.017136596
72	0x3d92b9f0	0.07164371
73	0x3d5306b4	0.051520064
74	0xbb4b2f23	-0.0031003437
75	0xbd316f44	-0.043319
76	0x3d18fe05	0.037351627
77	0x3d02bf99	0.031921003
78	0x3c2407ce	0.010011626
79	0x3d5015a3	0.050801884
80	0x3cdd5d8d	0.027022148
81	0xbd1901f9	-0.037355397
82	0x3d8a80f6	0.067628786
83	0xbd50fe57	-0.051023807
84	0x3ba90319	0.00515784
85	0xbd065126	-0.032792233
86	0x3d07b01d	0.03312694
87	0xbcd264f8	-0.025682911
88	0x3c846d68	0.01616545
89	0xba80e641	-0.0009834246
90	0xbcc8441a	-0.024446536
91	0x3d28a274	0.041170552
92	0xbcf5efc0	-0.030021548
93	0x3d76b1e8	0.06022826
94	0xbd546ae8	-0.051859766
95	0xbd5f6230	-0.054537
96	0xbd61e87f	-0.055153366
97	0x3ca0a1fa	0.019608486
98	0xb97dc79c	-0.0002420232
99	0xbc705541	-0.014668764
100	0x3c2190b2	0.009861158
101	0xbd33f11c	-0.04393111
102	0xbd4c8be9	-0.049938116
103	0x3ca19f82	0.01972938
104	0xbd16c44d	-0.0368083
105	0xbd265c49	-0.040615354
106	0xbbb9233e	-0.005649953
107	0xbcccf416	-0.025018733
108	0xbb313f7d	-0.0027045899
109	0x3d080d31	0.033215705
110	0x3d1fc9d5	0.03901084
111	0x3c920dec	0.017828904
112	0xbcf94cfb	-0.030432215
113	0x3c33b315	0.010967989
114	0x3cf87fea	0.030334432
115	0xbca36995	-0.019947806
116	0x3d0e7784	0.034781948
117	0x3c9af2bc	0.018914573
118	0xbd276d21	-0.040875558
119	0x3ca1cf7f	0.019752262
120	0x3c3c24a4	0.011483345
121	0xbcd45f09	-0.025924223
122	0xbc277a1c	-0.010221984
123	0x3d0d93b0	0.034564674
124	0x3c98e108	0.01866199
125	0x3d5ffc30	0.054683864
126	0xbc2ef216	-0.010677835
127	0x3d90e26c	0.070744365
128	0x3d1a0201	0.037599567
129	0x3cd01577	0.02540086
130	0x3b9b99c4	0.004748555
131	0xbcb824d8	-0.022478506
132	0xbd519c72	-0.05117459
133	0x3d01dc33	0.03170414
134	0x3d26df10	0.040740073
135	0x3cc2505f	0.023719965
136	0x3cc7d18e	0.024391916
137	0x3d8249ce	0.063617334
138	0xbd0f195d	-0.034936298
139	0xbd2947c1	-0.041328195
140	0xbbd859d0	-0.0066025034
141	0x3cd47f4a	0.025939602
142	0x3d565816	0.0523301
143	0x3d6d00ba	0.05786202
144	0x3c8fb482	0.017542128
145	0x3d187ed5	0.03723033
146	0x3d603f11	0.054747645
147	0x3d03af97	0.032149877
148	0x3b8637f6	0.0040960265
149	0xbbce1f31	-0.0062903394
150	0xbca25bbd	-0.019819135
151	0x3d75e6ce	0.060034566
152	0xbd764110	-0.060120642
153	0x3c9c6b13	0.019094026
154	0x3c3f23e6	0.011666274
155	0xbc5e141e	-0.013554601
156	0xbd2996c8	-0.04140356
157	0xbd47cd15	-0.048779566
158	0xb98735f1	-0.00025789396
159	0xbcfdb31a	-0.030969191
160	0x3cc4f7f1	0.024044009
161	0xbd160a99	-0.0366312
162	0xbc3001df	-0.010742634
163	0x3c4d82de	0.012543408
164	0x3cccc663	0.024996942
165	0x3d2901df	0.04126155
166	0x3d665236	0.056230746
167	0x3c46ff37	0.012145809
168	0xbd8280e5	-0.06372241
169	0xbc6e0c93	-0.014529365
170	0x3cb7fa90	0.022458345
171	0x3ccc1fb3	0.02491746
172	0x3d61bdb4	0.055112556
173	0xbd337ec2	-0.043822058
174	0xbbe82889	-0.0070849103
175	0x3d4d9272	0.05018849
176	0x3d006cd8	0.0313538
177	0xbcb8964c	-0.022532605
178	0x3c8076c2	0.015681628
179	0x3d0a7494	0.033802584
180	0xbabd33ce	-0.0014434995
181	0x3b574d71	0.0032852555
182	0x3bfd59e7	0.0077316645
183	0xbc974d53	-0.018469488
184	0xbd6897ac	-0.05678527
185	0x3d032631	0.032018844
186	0x3cb5a145	0.022171626
187	0xbd2657aa	-0.040610947
188	0x3c725a42	0.014792027
189	0xbc9e009f	-0.019287406
190	0x3d7b66bf	0.061377283
191	0xbc9ce9a2	-0.019154374
192	0x3d7f2f13	0.062300753
193	0x3cc2d9ae	0.023785438
194	0x3bf60039	0.0075073508
195	0x3ca016c5	0.019542107
196	0x3c1db9dd	0.009626833
197	0x3d0a8746	0.033820413
198	0xbcd153ed	-0.025552714
199	0xbc4c4710	-0.0124681145
200	0xbce98879	-0.028507458
201	0x3c3bf1d7	0.011471233
202	0xbca8ca9f	-0.02060443
203	0x3cf38fce	0.029731657
204	0xbc3a7a60	-0.011381716
205	0x3d7160dd	0.058930267
206	0x3cc6a1fe	0.024247166
207	0xbd4dbc3f	-0.050228354
208	0x3c3b00f2	0.0114138
209	0x3cd85e44	0.026412137
210	0xbd1315ae	-0.035909347
211	0x3c2e252b	0.010628979
212	0x3cfd2d0d	0.030905271
213	0xbd405762	-0.046958335
214	0xbd47d48f	-0.048786696
215	0x3a89a8cb	0.0010502575
216	0x3cb36e5b	0.021903208
217	0xbcc1d7e5	-0.023662517
218	0xbd0054df	-0.03133094
219	0xbcd8b34b	-0.026452681
220	0x3c62be0c	0.013839256
221	0xbcb5f8be	-0.022213336
222	0xbce6138d	-0.028085494
223	0x3b98931c	0.0046562087
224	0xbb38de00	-0.0028208494
225	0xb918eebe	-0.00014584788
226	0x3d204de2	0.039136775
227	0xbd50572a	-0.050864376
228	0x3bca78cc	0.006178951
229	0x3b36e5e7	0.0027908029
230	0x3d024893	0.031807493
231	0xbcc34f27	-0.023841454
232	0x3cbc499f	0.022984324
233	0xbd719545	-0.058980245
234	0x3d4b4f3f	0.04963612
235	0x3c5ebdc4	0.013595048
236	0xb8183b75	-3.6294998e-05
237	0xbd498ca8	-0.049206406
238	0x3d6b7ab0	0.05749005
239	0x3d4a9158	0.049455017
240	0x3d288c35	0.041149337
241	0xbd1f6b18	-0.038920492
242	0xbb8d5949	-0.004313622
243	0xbcdbcf25	-0.026832173
244	0xbca462d3	-0.020066654
245	0xbd399235	-0.04530545
246	0x3d1df639	0.038564894
247	0xbb375fb5	-0.002798063
248	0x3d36a6a9	0.044592533
249	0xbaa9a17a	-0.00129418
250	0xbb86e4f6	-0.0041166497
251	0xbae1fa1b	-0.0017240675
252	0xbd1c972c	-0.038230106
253	0xbd40d1c7	-0.04707506
254	0x3d2a2c61	0.04154623
255	0xbaf6e9e3	-0.0018838014

fc3.weight f4 [4, 256]
0	0xbbb14bb7	-0.0054106372
1	0xbb46d217	-0.0030337626
2	0x3a89fe43	0.0010528046
3	0x3d1f201d	0.038848985
4	0xbcaf51c3	-0.021401292
5	0xbc9e3e86	-0.019316923
6	0xbd67608e	-0.056488566
7	0x3c218518	0.009858392
8	0x3d47db90	0.048793375
9	0xbd0bd972	-0.03414292
10	0xbcdae3a6	-0.02671988
11	0xbcc3c322	-0.023896758
12	0x3d9e6d09	0.077356406
13	0xbd6a65b3	-0.057225894
14	0x3d616eba	0.055037238
15	0xbd2da4ba	-0.042393424
16	0xbd506dd3	-0.050885987
17	0x3d8b701e	0.06808494
18	0x3cd4af73	0.025962567
19	0x3d20e9ab	0.039285343
20	0xbcbd5ae2	-0.023114625
21	0xbd6a4ab6	-0.057200156
22	0x3ce68bca	0.028142828
23	0x3c94fde5	0.018187473
24	0x3d58b31a	0.05290518
25	0xbd2ad92e	-0.041711025
26	0x3d98a02d	0.07452426
27	0x3d6ddaca	0.05806998
28	0xbd224912	-0.039620467
29	0xbcac5a0d	-0.021039033
30	0x3d8a981d	0.067672946
31	0x3c760532	0.015015887
32	0xbd6034e2	-0.054737933
33	0xbd733c4c	-0.059383675
34	0xbd85a111	-0.065248616
35	0xbd26e871	-0.040749017
36	0x3d59ee04	0.053205505
37	0xbd135aba	-0.035975195
38	0x3d8b392d	0.06798015
39	0x3c5d20af	0.013496562
40	0x3d5f3409	0.054492984
41	0xbd355db3	-0.04427881
42	0x3d8a7e18	0.06762332
43	0x3c8ac4de	0.016939577
44	0x3d856be7	0.06514721
45	0x3ca0c781	0.01962638
46	0xbd768eec	-0.060194895
47	0x3d745255	0.05964883
48	0xbcb92ed9	-0.022605347
49	0xbd2c3cfb	-0.042050343
50	0x3d6032c0	0.0547359
51	0xbd61d699	-0.055136297
52	0x3d183bc7	0.037166383
53	0xbd75658d	-0.0599113
54	0xbd5e4f70	-0.054274976
55	0x3ccfec40	0.025381207
56	0x3d0db12f	0.034592804
57	0x3d682974	0.056680158
58	0x3d5a7e2f	0.053342994
59	0xbd151858	-0.03640017
60	0x3d8b45fb	0.06800457
61	0x3da68c49	0.08132226
62	0x3ca98fde	0.020698484
63	0x3d4c958c	0.049947307
64	0x3d70c59b	0.0587822
65	0xbd541c96	-0.051785074
66	0x3d28b2c7	0.04118612
67	0x3d512117	0.051056948
68	0xbd7f164c	-0.062277123
69	0x3cdaf1cc	0.026726626
70	0x3d19dc48	0.037563592
71	0x3cfc6e21	0.030814232
72	0xbbaf6af6	-0.005353327
73	0x3c1a49aa	0.009416977
74	0x3d1c6e7d	0.038191307
75	0x3cf7892b	0.030216774
76	0xbd18530a	-0.037188567
77	0xbc8bbf36	-0.01705895
78	0x3d96ee79	0.07369704
79	0x3d42dc51	0.04757339
80	0xbd02d7cf	-0.031944092
81	0xbd5e92c6	-0.054339193
82	0x3d62fb18	0.055415243
83	0x3d6e0f53	0.058120083
84	0xbd3aa0a5	-0.04556336
85	0xbd876be2	-0.06612374
86	0xbc62c4ec	-0.013840895
87	0xbc341716	-0.010991832
88	0x3c6f1c67	0.014594174
89	0x3d3070a6	0.04307618
90	0xbc52c0e2	-0.01286337
91	0x3d19d26e	0.037554197
92	0xbd2eb2dc	-0.042651042
93	0x3d36f132	0.044663616
94	0x3c175930	0.009237573
95	0xbd09340e	-0.03349691
96	0xb7eb6d83	-2.8065178e-05
97	0x3c81cf01	0.015845777
98	0x3c92567e	0.017863508
99	0xbcec4410	-0.028841048
100	0x3b85cc2e	0.004083178
101	0xbd266dfe	-0.04063224
102	0xbd24c9bf	-0.040231463
103	0xbd1f36ac	-0.0388705
104	0x3c954b31	0.01822433
105	0xbbf8abc6	-0.0075888364
106	0x3c2b2483	0.010445717
107	0xbd0cb992	-0.03435666
108	0x3d1ea986	0.03873589
109	0xbd38fd00	-0.045163155
110	0x3c58253a	0.013192469
111	0xbd5d38fd	-0.054009426
112	0xbd946478	-0.072457254
113	0xbd62feb0	-0.05541867
114	0x3d51def0	0.051238
115	0x3d8c3565	0.06846122
116	0x3ceb8f25	0.02875478
117	0x3c120d87	0.008914358
118	0x3d8d7020	0.06906152
119	0xbcca2041	-0.024673583
120	0x3d322fa3	0.04350246
121	0x3d30f91a	0.04320631
122	0x3d582d4c	0.052777573
123	0x3d166262	0.03671492
124	0xbbc2a4d4	-0.005940059
125	0xbd640748	-0.055671006
126	0xbcb81cfd	-0.02247476
127	0x3b96f8e2	0.004607306
128	0x3d3a18f1	0.045433942
129	0xbca4b0ea	-0.02010389
130	0x3d689b5c	0.056788787
131	0xbbc189b8	-0.00590631
132	0xbd59d543	-0.053181898
133	0xbd5775a5	-0.05260243
134	0xbbc1e949	-0.0059177023
135	0x3d371436	0.04469701
136	0xbc71e713	-0.014764565
137	0x3d6e6d26	0.05820956
138	0x3d8b476c	0.06800732
139	0x3d5d2cc4	0.05399777
140	0x3ce2e872	0.02769873
141	0x3a23da45	0.0006250481
142	0xbd0a8b9a	-0.03382454
143	0xbd335217	-0.04377946
144	0xbd33d378	-0.043902844
145	0xbd122b5e	-0.03568589
146	0x3cd84c42	0.02640355
147	0x3c83af6c	0.016074859
148	0xbd4ae7cd	-0.04953747
149	0x3cf74a9f	0.03018695
150	0x3d50bcbe	0.05096125
151	0xbd4033a6	-0.046924256
152	0x3d168343	0.036746275
153	0xbb70b08b	-0.0036726322
154	0xbd71a5fc	-0.058996186
155	0x3c74af65	0.014934395
156	0x3c120678	0.008912675
157	0xbd53f56f	-0.051747736
158	0x3d0a08db	0.03369985
159	0xbd1adf9d	-0.03781091
160	0xbc7a2352	-0.01526721
161	0xbb614df4	-0.003437874
162	0xbd3929a4	-0.045205727
163	0x3d1d3d84	0.038388744
164	0x3cbd62fb	0.023118487
165	0xbd11fcd2	-0.0356415
166	0xbca9306b	-0.02065297
167	0x3d6009c2	0.054696806
168	0xbd443d24	-0.04790987
169	0x3c9eb4a3	0.019373244
170	0x3d4eb49f	0.050465222
171	0xbd3d04ff	-0.046147343
172	0xbd1fecf5	-0.03904434
173	0x3d858eac	0.06521353
174	0x3be35504	0.006937625
175	0x3d5df2b3	0.054186534
176	0x3cd1853c	0.025576226
177	0xbc3215de	-0.010869471
178	0xbc1e5c06	-0.009665495
179	0xbd23e87a	-0.04001663
180	0xbc11c7fd	-0.008897779
181	0xbcd635c0	-0.026148677
182	0xbd85ef1b	-0.065397464
183	0xbd62eb77	-0.055400338
184	0xbcb94bf6	-0.022619229
185	0xbcd056fd	-0.025432104
186	0xbd029234	-0.03187771
187	0xbcca958e	-0.024729516
188	0xbcc39bb4	-0.023877956
189	0xbd29f758	-0.04149565
190	0xbcc3eefa	-0.023917664
191	0x3c9dd672	0.019267295
192	0xbd2cf8ca	-0.04222945
193	0xbc730693	-0.01483311
194	0xbc587cb1	-0.0132133225
195	0xbd70fe6b	-0.058836382
196	0x3d04e6a6	0.032446526
197	0xbcaf6013	-0.021408116
198	0x3d284899	0.04108486
199	0xbd42c213	-0.047548365
200	0xbd2063bc	-0.039157614
201	0x3d183701	0.03716183
202	0x3caa7168	0.02080603
203	0x3d1e4564	0.038640395
204	0xbcdeef15	-0.027213613
205	0xbd82c2a3	-0.0638478
206	0x3cb330e2	0.021873895
207	0xbc84655b	-0.016161611
208	0xbb14e68c	-0.0022720424
209	0xbd42e87c	-0.047584996
210	0x3caf7ea4	0.021422692
211	0xbb9d4cc5	-0.0048004114
212	0x3ce3e4c6	0.027819049
213	0x3d86d228	0.06583053
214	0x3c4bb2e7	0.01243279
215	0x3d718f69	0.058974657
216	0xbcde337f	-0.027124165
217	0x3c5c6e7b	0.013454075
218	0xbc8ad503	-0.016947275
219	0xbd3f8a17	-0.046762552
220	0x3c331c54	0.010932047
221	0xbd6b9637	-0.057516303
222	0x3c98a423	0.018632954
223	0xbd09c27c	-0.03363274
224	0x3cb3a17d	0.02192759
225	0xbd6a22dd	-0.057162154
226	0xbd0f4837	-0.03498098
227	0xbd20b96e	-0.03923934
228	0x3be5cd23	0.0070129796
229	0x3d973dd6	0.07384841
230	0x3d5ca4d5	0.053868134
231	0x3d97a61c	0.0740473
232	0x3d0420f5	0.032257993
233	0x3c026b01	0.007960082
234	0xbc5b4430	-0.013382956
235	0x3cc5c465	0.0241415
236	0x3ceadd12	0.028669868
237	0xbb6b063a	-0.0035861866
238	0x3d0d021f	0.03442585
239	0x3d04c145	0.03241088
240	0x3ceaa4b3	0.028642988
241	0xbcb481e8	-0.0220346
242	0xbd31baa6	-0.043390892
243	0x3c017afe	0.007902859
244	0xbd1412a0	-0.036150575
245	0x3d313d03	0.043271076
246	0xbd0a04b9	-0.03369591
247	0x3cdcf9d4	0.026974596
248	0xbca28513	-0.019838845
249	0x3cd65084	0.02616144
250	0x3ca172a3	0.019707983
251	0xbd6b2db0	-0.057416618
252	0x3cd53ac2	0.026028994
253	0x3c8c80cf	0.017151264
254	0xbc31d21e	-0.0108533185
255	0xba7922a9	-0.0009503761

fc3.bias f4 [4]
0	0x3c7ec655	0.015550216
1	0xbcd28328	-0.025697306
2	0xbd4ea184	-0.050447002
3	0x3d7d3f98	0.061828226
