prototypes/prototype_02/experiments/experiment_01/ae_model_pi3.pth (torch, 21075 bytes, 16 tensors)

0.weight f4 [30, 46]
0.03269427 0.023732051 -0.045187198 0.012779327 -0.230169 0.015852677 -0.036984857 -0.008392887
0.07592096 -0.12253133 0.13533017 0.005332823 0.040940516 -0.00894729 0.057263885 -0.034072645
0.050271075 0.02556221 -0.070582375 0.0030395577 -0.07119682 -0.11373153 -0.08959178 0.26800892
-0.122300506 -0.06508581 -0.025417896 -0.04846397 0.003193847 -0.25719446 0.05135444 -0.1342821
0.027459752 0.04155934 -0.064840905 0.027170343 0.15832019 0.10203917 0.039024103 0.04304954
0.0124654425 -0.022088278 0.062052056 0.03291101 -0.0060283383 -0.015849734 -0.06691482 0.1596532
0.15973017 0.05724079 0.055669006 -0.033693817 0.061033197 0.18211187 0.017142667 0.040903494
-0.034491725 0.010957768 0.12496885 -0.1451781 0.040933654 -0.06932659 0.085872315 0.022192994
0.09872818 -0.0080622295 0.11652641 -0.11476977 -0.117766894 0.054676894 0.13500504 0.07146095
0.17604643 -0.041805927 -0.07832662 -0.0582823 -0.14728573 0.10202425 0.06806738 0.089895524
-0.1394361 -0.086267985 0.13836518 0.05140786 0.20833609 0.041619744 0.11058326 0.003947847
-0.07440655 0.05421879 -0.02955283 0.026174828 -0.029728407 0.0305905 -0.072723605 0.037928585
-0.02111477 -0.043606672 -0.047463518 -0.07654483 -0.009179153 0.034817442 -0.01388144 -0.05604275
-0.03313003 -0.07620557 -0.12920707 -0.084518924 -0.09220334 -0.06262833 0.1600368 -0.035186805
0.07191236 -0.091398 -0.08670758 -0.15589653 0.04938963 -0.108731665 0.013044995 -0.027766291
-0.0014502315 0.00834957 -0.0010933892 -0.072516814 -0.36303538 -0.044731006 -0.011847957 -0.046144776
0.16822767 0.012346247 0.112606525 -0.05076741 -0.24671796 0.076143034 -0.04056789 -0.004652114
-0.078297 -0.059808485 0.009366669 0.16850284 0.1612876 -0.05185196 -0.06255637 -0.06999554
0.09064092 0.06579469 0.015191594 0.082407 0.10732945 -0.10696575 -0.03678172 -0.036570128
0.048491243 -0.04636385 0.13677183 -0.16265155 0.036981888 0.044853114 0.03645781 -0.0049718646
0.081961475 -0.08835648 0.012185816 -0.1106354 0.0060242885 -0.04302083 -0.07794953 0.05231755
0.025975699 -0.09439692 -0.3622516 0.14267024 0.08106836 0.010024764 -0.17345017 0.018728055
-0.030960098 -0.03564645 0.21263732 -0.05295263 0.034243494 0.08946894 0.0858464 0.0004105199
-0.020541206 -0.042465255 -0.11652777 -0.020777052 0.08093822 -0.018732531 -0.11069491 0.046412516
0.2234248 0.13333628 -0.06283192 0.03653643 0.045074005 -0.15568306 0.071368575 0.07898686
0.008763151 -0.0629001 0.11019986 0.1115062 -0.027456587 0.047908757 -0.14478874 -0.12452584
-0.06922991 0.032667708 0.03924233 0.025776107 -0.09821835 -0.17084976 -0.09307377 0.14042413
0.04508196 0.027039675 -0.06709199 -0.1664377 -0.07579939 -0.16884902 -0.08454988 0.1043972
0.05213207 0.10307815 0.11170712 0.010660558 0.004220177 -0.14709243 -0.07950326 0.12877148
0.095376916 0.07402036 0.025260976 0.06770586 0.057497766 -0.105127916 -0.088659525 -0.1661087
0.02737369 -0.036872726 -0.03759289 -0.19553433 -0.0421251 -0.11965753 -0.06394964 0.016606294
-0.059501722 0.06168389 -0.083341956 -0.1212399 -0.13994686 -0.05249686 -0.08877131 -0.16034038
00000000: 6dea 053d b869 c23c 3616 39bd 6260 513c
00000010: 6cb1 6bbe 79dd 813c 6f7d 17bd 5282 09bc
00000020: 737c 9b3d b5f1 fabd fe93 0a3e f6be ae3b
00000030: 3eb1 273d a797 12bc 898d 6a3d c28f 0bbd
00000040: 0be9 4d3d d767 d13c 7e8d 90bd 5133 473b
00000050: a3cf 91bd 14ec e8bd e57b b7bd 7738 893e
00000060: b078 fabd b64b 85bd 3139 d0bc 2882 46bd
00000070: dc4f 513b feae 83be 0959 523d 3f81 09be
00000080: 46f3 e03c 203a 2a3d 4fcb 84bd 5794 de3c
00000090: b01e 223e eaf9 d03d bdd7 1f3d b754 303d
000000a0: db3b 4c3c 7af2 b4bc 4c2a 7e3d b2cd 063d
000000b0: 5e89 c5bb 4dd7 81bc a30a 89bd 217c 233e
000000c0: 4e90 233e 5275 6a3d 2f05 643d 8702 0abd
000000d0: f2fd 793d 897b 3a3e c76e 8c3c 6c8a 273d
000000e0: 3247 0dbd 3688 333c abef ff3d 91a9 14be
000000f0: 0caa 273d 19fb 8dbd d3dd af3d 15ce b53c
00000100: 0032 ca3d 7117 04bc 66a5 ee3d 6a0c ebbd
00000110: c52f f1bd e1f4 5f3d c33e 0a3e 1e5a 923d
00000120: 8445 343e b13c 2bbd b569 a0bd 6cb9 6ebd
00000130: 12d2 16be 17f2 d03d e966 8b3d 251b b83d
00000140: 56c8 0ebe 45ad b0bd 9aaf 0d3e 0c91 523d
00000150: 0e56 553e 7779 2a3d 7a79 e23d f15c 813b
00000160: 7662 98bd 8614 5e3d c718 f2bc 986c d63c
00000170: fd88 f3bc ee98 fa3c 1df0 94bd 015b 1b3d
00000180: e2f8 acbc e99c 32bd 1b69 42bd 89c3 9cbd
00000190: 2864 16bc bc9c 0e3d fb6e 63bc 158d 65bd
000001a0: 5bb3 07bd aa11 9cbd dc4e 04be 4218 adbd
000001b0: 1bd5 bcbd 4843 80bd b0e0 233e 0a20 10bd
000001c0: ca46 933d e02e bbbd be93 b1bd 57a3 1fbe
000001d0: c84c 4a3d b5ae debd adba 553c 2276 e3bc
000001e0: b215 beba a3cc 083c 0e50 8fba b283 94bd
000001f0: c6df b9be dc37 37bd ef1d 42bc 4e02 3dbd
00000200: e043 2c3e ea47 4a3c 409e e63d 7df1 4fbd
00000210: a2a3 7cbe e1f0 9b3d 842a 26bd c370 98bb
00000220: 2d5a a0bd bef9 74bd a876 193c 028c 2c3e
00000230: 9428 253e b962 54bd 8e1d 80bd d259 8fbd
00000240: f2a1 b93d 5ebf 863d 2ae6 783c 00c5 a83d
00000250: 8bcf db3d dc10 dbbd 6ea8 16bd 8fca 15bd
00000260: c19e 463d 05e8 3dbd ea0d 0c3e 218e 26be
00000270: 527a 173d e6b7 373d c954 153d 06eb a2bb
00000280: 6bdb a73d 3ef4 b4bd 04a7 473c d094 e2bd
00000290: 6567 c53b 9c36 30bd 01a4 9fbd ed4a 563d
000002a0: fdca d43c 2c53 c1bd 0b79 b9be 2618 123e
000002b0: 2b07 a63d e83e 243c ec9c 31be 946b 993c
000002c0: 08a0 fdbc 0302 12bd 99bd 593e dbe4 58bd
000002d0: e842 0c3d 7e3b b73d 3dd0 af3d 0c3b d739
000002e0: 0846 a8bc 0cf0 2dbd 1da6 eebd a334 aabc
000002f0: f0c2 a53d f774 99bc 03b4 e2bd 0d1b 3e3d
00000300: 79c9 643e 4e89 083e 06ae 80bd 39a7 153d
00000310: 859f 383d 616b 1fbe b029 923d ddc3 a13d
00000320: 5293 0f3c c5d1 80bd 77b0 e13d 5d5d e43d
00000330: a3ec e0bc f93b 443d 8043 14be 6707 ffbd
00000340: 69c8 8dbd 93ce 053d 91bc 203d 6a28 d33c
00000350: b426 c9bd 3df3 2ebe 769d bebd 58cb 0f3e
00000360: dca7 383d 4f82 dd3c 8667 89bd a56e 2abe
00000370: b63c 9bbd c2e6 2cbe 7d28 adbd 33ce d53d
00000380: 7088 553d a31a d33d b4c6 e43d 9fa9 2e3c
00000390: 6949 8a3b 669f 16be 9bd2 a2bd acdc 033e
000003a0: f954 c33d fd97 973d 1bf0 ce3c 5fa9 8a3d
000003b0: c782 6b3d 4e4d d7bd 2093 b5bd 6618 2abe
000003c0: ca3e e03c db07 17bd 01fb 19bd 273a 48be
000003d0: 5e8b 2cbd 020f f5bd 07f8 82bd ec09 883c
000003e0: 14b8 73bd 3fa8 7c3d 30af aabd a04c f8bd
000003f0: 3b4e 0fbe f306 57bd bccd b5bd 4530 24be

0.bias f4 [30]
0.10671389 -0.14631139 0.12141225 -0.12568732 0.13218334 -0.0061100973 -0.13066559 0.04100254
-0.030011334 -0.13243139 -0.05345334 0.015202148 0.114834666 -0.04532803 0.08757579 0.018463952
0.0049699484 0.02821228 -0.09676154 -0.12255349 -0.04632797 -0.13739437 -0.068759635 0.006783184
-0.097106636 -0.06115833 -0.026493318 -0.016985819 -0.08139011 0.0070847347
00000000: d08c da3d a7d2 15be fca6 f83d 2db4 00be
00000010: 125b 073e 3637 c8bb 33cd 05be 48f2 273d
00000020: 54da f5bc 189c 07be e4f1 5abd 6e12 793c
00000030: 702e eb3d e2a9 39bd f05a b33d b741 973c
00000040: f3da a23b 701d e73c ea2a c6bd 53fd fabd
00000050: 66c2 3dbd 1cb1 0cbe dad1 8cbd 7945 de3b
00000060: d8df c6bd 2881 7abd 8408 d9bc d825 8bbc
00000070: dcaf a6bd 1027 e83b

1.weight f4 [30]
0.801745 0.69943976 0.8415483 0.8443025 0.70690995 0.8193313 0.73748136 0.8646048
0.9029181 0.82802296 0.80848235 0.85656816 0.8824949 0.72639126 0.6455362 0.77120113
0.69680226 0.69579357 0.6887677 0.74440765 0.8402509 0.6612171 0.81359816 0.7315425
0.8422063 0.7445548 0.58150876 0.8377649 0.59355646 0.73265433
00000000: 293f 4d3f 7c0e 333f b66f 573f 3524 583f
00000010: 0df8 343f b2bf 513f 94cb 3c3f bd56 5d3f
00000020: a425 673f 50f9 533f b3f8 4e3f 0d48 5b3f
00000030: 30eb 613f c7f4 393f dc41 253f 706d 453f
00000040: a261 323f 871f 323f 1453 303f 8091 3e3f
00000050: af1a 573f 8645 293f f847 503f 5f46 3b3f
00000060: d59a 573f 259b 3e3f c2dd 143f c377 563f
00000070: 51f3 173f 3c8f 3b3f

1.bias f4 [30]
0.092396215 0.023123572 0.09588637 -0.03191693 0.08725805 -0.020477612 0.48247924 0.05124677
0.19065252 0.45759153 -0.0023053798 0.11294072 -0.022013519 0.14177282 0.04105457 0.34818736
0.3396328 0.2487989 0.058724705 -0.032848172 0.028477972 0.46385708 0.5255343 0.29087424
0.21657068 0.030462883 0.34343833 0.034087297 0.10765936 0.4162139
00000000: 3a3a bd3d a56d bd3c 1360 c43d 54bb 02bd
00000010: 59b4 b23d aac0 a7bc 8507 f73e 22e8 513d
00000020: 6a3a 433e 7049 ea3e db15 17bb 774d e73d
00000030: b255 b4bc e52c 113e d628 283d 9d45 b23e
00000040: 5ae4 ad3e 24c5 7e3e 5189 703d ce8b 06bd
00000050: a34a e93c ad7e ed3e 6a89 063f 78ed 943e
00000060: b4c4 5d3e 4c8d f93c 26d7 af3e 1f9f 0b3d
00000070: 837c dc3d fd19 d53e

1.running_mean f4 [30]
0.016262628 0.32670233 -0.28628048 0.09237685 -0.03308187 -0.42198417 -0.3589714 -0.26342168
-0.062046457 -0.13580838 0.33928916 0.26131177 -0.21679439 -0.39606005 -0.31872344 -0.30293098
-0.03231607 -0.26311904 -0.086098604 -0.19549236 -0.37827525 -0.5150699 -0.030866679 0.19240656
-0.14062643 0.6374699 -0.03188202 -0.49448583 0.26144695 -0.26862875
00000000: 3439 853c 8745 a73e 5b93 92be 1330 bd3d
00000010: db80 07bd 4f0e d8be 19cb b7be 35df 86be
00000020: 6d24 7ebd 5a11 0bbe 4fb7 ad3e a8ca 853e
00000030: 59ff 5dbe 62c8 cabe b82f a3be c519 9bbe
00000040: db5d 04bd 8ab7 86be 7754 b0bd 262f 48be
00000050: 4bad c1be 9fdb 03bf 1edc fcbc 3a06 453e
00000060: 6000 10be 3a31 233f b996 02bd 3f2d fdbe
00000070: 60dc 853e b589 89be

1.running_var f4 [30]
0.03629232 0.07178219 0.029555071 0.037827395 0.022026502 0.05015089 0.032403704 0.03995669
0.04865904 0.026910234 0.07578802 0.14292116 0.062410858 0.07983948 0.025244197 0.054603685
0.041684393 0.046984557 0.02922973 0.05215872 0.047202878 0.045480184 0.04509971 0.07108268
0.04915119 0.07459152 0.019279586 0.061321925 0.056577776 0.045367762
00000000: 41a7 143d 8a02 933d 7a1d f23c e6f0 1a3d
00000010: ec70 b43c 056b 4d3d bfb9 043d a0a9 233d
00000020: b44e 473d da72 dc3c c036 9b3d ed59 123e
00000030: 87a2 7f3d e282 a33d ebcc ce3c 1da8 5f3d
00000040: 41bd 2a3d e172 403d 3073 ef3c 62a4 553d
00000050: ce57 413d 6e49 3a3d 79ba 383d cc93 913d
00000060: c252 493d 70c3 983d 39f0 9d3c b32c 7b3d
00000070: 19be 673d 8cd3 393d

3.weight f4 [15, 30]
0.021100568 0.04148264 -0.083860494 0.052096616 0.035349727 -0.10333941 -0.13927521 -0.04130512
-0.032069314 0.06708342 0.007900401 -0.07609911 0.031429943 0.034264207 -0.010826053 -0.19879359
0.040063884 -0.09731865 0.046365328 0.23394676 -0.030049823 0.16316614 0.11245358 0.21883412
-0.042373545 0.032850772 0.016729368 0.01796392 0.23318319 0.053909276 -0.09594306 -0.266297
0.017942663 -0.107046455 -0.1444087 -0.09053434 0.111442365 -0.097157456 -0.13132715 0.118022494
0.054377627 -0.13448535 0.061852947 0.1592019 0.10058856 0.07704276 0.020427244 0.14446603
0.13072464 0.06675754 -0.09019484 0.059118852 -0.07033166 0.031509243 0.01877749 0.03855418
0.11263273 0.04242081 0.10306422 0.17497662 -0.13369952 0.045825887 -0.14669903 0.1557968
-0.0068720714 0.07516165 0.14485988 -0.056140002 0.031663325 -0.052897498 -0.10612399 0.2519149
-0.049873937 -0.09849403 -0.04466847 0.0061629484 0.023289174 0.17454001 0.044978485 0.073405445
0.12072292 0.05044663 -0.06025808 -0.041397832 -0.19994248 -0.121295944 -0.16618338 -0.0063138003
0.13463566 0.24012968 0.019571641 0.031558916 0.037897665 -0.06254961 0.0138363205 -0.0014262125
0.19610396 -0.08705292 0.11091244 0.012998592 -0.26505858 0.41257802 0.25937384 0.00032459982
0.05283099 0.12108401 -0.03182138 0.081470095 0.06989812 -0.13467579 0.20369744 -0.019552032
0.1309677 0.11129949 0.0216976 -0.014367897 0.041615013 0.09496047 0.15379949 -0.053741474
0.07359515 -0.055172686 -0.06675859 -0.13056152 -0.09642139 -0.012175451 0.13625543 0.0088918395
-0.10120073 -0.055379696 0.018190421 0.12079104 0.12912491 0.09149247 0.11053118 -0.11351678
0.28147024 0.08100467 -0.0058880006 0.041987892 -0.0905596 0.12997559 0.18509158 0.107193455
0.2409538 0.040546726 -0.050609518 -0.2739446 -0.045770407 -0.061350055 -0.06407545 -0.031152163
0.07407783 -0.053098984 -0.12445387 0.08369479 0.05099626 0.07849994 -0.031604435 0.07122569
0.17314923 0.3806802 -0.04063298 0.018015398 0.06612075 0.042489793 -0.09818697 0.043148246
-0.048096742 -0.03356826 -0.14054212 -0.062367857 0.210257 0.09371942 0.030570922 0.003557528
-0.06799787 -0.06770819 0.17257984 0.07136766 0.06940162 0.13460119 0.021205353 -0.095284
0.03512526 -0.0044269646 -0.040666264 -0.04666344 0.043513607 0.055282507 -0.026053134 0.20235129
-0.03645944 -0.19675234 0.043462764 0.06450745 -0.05092531 -0.066277966 0.086924195 -0.055254437
-0.038038418 0.29784912 -0.08976805 -0.1266846 0.08494368 0.00585101 -0.043058302 -0.0985727
0.18165565 0.13586915 0.07647138 -0.05724119 0.008861673 0.021353666 -0.019693546 0.002193437
0.14293972 -0.15784769 0.3028417 0.09309901 0.021046484 -0.04453306 -0.09395975 0.07623363
-0.14916578 -0.056382768 -0.032804113 -0.033536572 0.12487558 -0.030915262 0.0074119936 0.015886044
0.122744225 0.026791375 0.14717379 -0.009073426 -0.012171038 -0.0005272504 0.3635472 -0.025519038
-0.08827013 -0.021138713 0.030983234 -0.018537033 0.07368954 -0.1094259 -0.10501234 -0.075876094
0.1368556 -0.032368705 0.096022 0.31204042 0.081797644 0.097936586 -0.12484971 0.10833822
00000000: 19db ac3c b3e9 293d 0dbf abbd 4363 553d
00000010: e0ca 103d 9da3 d3bd 299e 0ebe 8f2f 29bd
00000020: 1d5b 03bd 0863 893d af70 013c dad9 9bbd
00000030: afbc 003d a058 0c3d c25f 31bc 8c90 4bbe
00000040: 071a 243d 004f c7bd 92e9 3d3d bd8f 6f3e
00000050: 0c2b f6bc 0615 273e 104e e63d 0d16 603e
00000060: e28f 2dbd 888e 063d 070c 893c 1229 933c
00000070: 93c7 6e3e f9cf 5c3d cc7d c4bd 1558 88be
00000080: 7efc 923c 2c3b dbbd e0df 13be 116a b9bd
00000090: e53b e43d 7dfa c6bd a07a 06be c7b5 f13d
000000a0: 13bb 5e3d 87b6 09be 8459 7d3d d305 233e
000000b0: 6001 ce3d 98c8 9d3d 0957 a73c e7ee 133e
000000c0: aedc 053e 2db8 883d 13b8 b8bd 9c26 723d
000000d0: 0c0a 90bd d60f 013d 40d3 993c fdea 1d3d
000000e0: fdab e63d 71c1 2d3d 5513 d33d 122d 333e
000000f0: 87e8 08be edb3 3b3d 4538 16be 3289 1f3e
00000100: 1d2f e1bb 5aee 993d 2656 143e 0ff3 65bd
00000110: 67b1 013d 0cab 58bd 8957 d9bd fdfa 803e
00000120: 9d48 4cbd 3db7 c9bd 49f6 36bd 8ff2 c93b
00000130: f0c8 be3c 9eba 323e 5c3b 383d 9855 963d
00000140: 943d f73d 20a1 4e3d 2dd1 76bd c690 29bd
00000150: b9bd 4cbe 026a f8bd fa2b 2abe ffe3 cebb
00000160: eedd 093e 8ee4 753e b554 a03c ec43 013d
00000170: 953a 1b3d 031a 80bd bcb1 623c c0ef baba
00000180: 7acf 483e cd48 b2bd 1026 e33d 0cf8 543c
00000190: c2b5 87be 6d3d d33e a6cc 843e 0d2f aa39
000001a0: 4f65 583d e5fa f73d 2357 02bd cbd9 a63d
000001b0: bf26 8f3d 73e8 09be 1096 503e 952b a0bc
000001c0: 661c 063e fdf0 e33d 2abf b13c 5467 6bbc
000001d0: 8174 2a3d a37a c23d 9d7d 1d3e 0520 5cbd
000001e0: 0eb9 963d c1fc 61bd bab8 88bd ebb1 05be
000001f0: 9478 c5bd 8b7b 47bc 8b86 0b3e 14af 113c
00000200: 5442 cfbd d2d5 62bd 1404 953c 4b61 f73d
00000210: 5239 043e 6760 bb3d 2c5e e23d 7c7b e8bd
00000220: de1c 903e c7e5 a53d 21f0 c0bb 7ffb 2b3d
00000230: 5077 b9bd 5218 053e a688 3d3e 3e88 db3d
00000240: 98bc 763e 5314 263d ed4b 4fbd 7742 8cbe
00000250: c079 3bbd 324a 7bbd fd39 83bd d232 ffbc
00000260: 1eb6 973d 527e 59bd ace1 febd 2d68 ab3d
00000270: 74e1 503d 94c4 a03d a773 01bd c6de 913d
00000280: 084e 313e 84e8 c23e c56e 26bd 0795 933c
00000290: 516a 873d c709 2e3d 4016 c9bd 37bc 303d
000002a0: 1701 45bd df7e 09bd 46ea 0fbe 7075 7fbd
000002b0: 9c4d 573e f8ef bf3d df6f fa3c 6a25 693b
000002c0: 7842 8bbd 97aa 8abd c5b8 303e 3529 923d
000002d0: 7022 8e3d e5d4 093e d9b6 ad3c 4224 c3bd
000002e0: 81df 0f3d 1210 91bb ab91 26bd 2a22 3fbd
000002f0: 533b 323d e96f 623d 626d d5bc 2d35 4f3e
00000300: 7e56 15bd 7279 49be 0306 323d 7b1c 843d
00000310: 0f97 50bd bebc 87bd 5005 b23d 7a52 62bd
00000320: 2cce 1bbd ae7f 983e 50d8 b7bd 9cb9 01be
00000330: f4f6 ad3d d4b9 bf3b e75d 30bd 7ce0 c9bd
00000340: f003 3a3e 4821 0b3e 079d 9c3d bd75 6abd
00000350: 8d30 113c e2ed ae3c 5c54 a1bc c4bf 0f3b
00000360: ca5e 123e d3a2 21be 110e 9b3e b2aa be3d
00000370: ad69 ac3c 4c68 36bd f86d c0bd 6120 9c3d
00000380: eabe 18be 9ef1 66bd 9b5d 06bd a55d 09bd
00000390: c5be ff3d 0142 fdbc 4fe0 f23b 7323 823c
000003a0: 5361 fb3d 9679 db3c bab4 163e b5a8 14bc
000003b0: 0969 47bc 2d37 0aba dc22 ba3e 4d0d d1bc
000003c0: f8c6 b4bd 182b adbc 8dd0 fd3c fada 97bc
000003d0: 8bea 963d b01a e0bd b610 d7bd ed64 9bbd
000003e0: e023 0c3e 0c95 04bd 2fa7 c43d c3c3 9f3e
000003f0: 8685 a73d fa92 c83d 34b1 ffbd 6ee0 dd3d

3.bias f4 [15]
0.43667412 0.094454385 0.33380672 0.4628437 0.044003036 0.49917188 0.3244464 0.40487948
0.50871575 0.56420326 0.52819675 0.18289074 0.39729428 0.27367166 0.16238748
00000000: c093 df3e 4d71 c13d b7e8 aa3e d9f9 ec3e
00000010: 873c 343d 7593 ff3e d71d a63e 5d4c cf3e
00000020: 323b 023f a06f 103f e737 073f b647 3b3e
00000030: 286a cb3e b11e 8c3e e748 263e

5.weight f4 [30, 15]
0.037101287 -0.05469608 0.08294022 -0.092268474 0.026389105 -0.16134053 -0.19311568 0.20857659
0.06291917 0.030033708 0.033926103 -0.15241215 0.09883239 0.34802285 -0.01225163 -0.01126988
0.26583073 -0.30202365 -0.15978192 -0.092311054 -0.33503044 0.035324827 -0.19548342 -0.09635764
0.0032768338 0.036518067 -0.20632629 -0.04379917 0.13547903 0.07013738 0.17875041 -0.23555633
-0.18289219 -0.098654866 0.007918157 -0.08428742 -0.13639708 0.108265504 -0.3460911 -0.0577793
-0.015390339 -0.122492336 -0.12273883 0.24558067 -0.20731628 -0.2214872 -0.100049034 -0.007319385
-0.06296961 -0.026708016 0.06844907 0.14810927 -0.098411545 0.2934431 0.024155872 -0.37258387
0.045213677 -0.4288526 -0.09922233 -0.33060345 -0.099686086 0.1985233 -0.20855072 0.14619473
-0.06629217 0.4484985 -0.07593277 0.05256805 0.048687287 0.056266103 0.2165294 -0.27832922
-0.15884027 0.17632684 -0.32871297 -0.16120943 -0.03131831 -0.06756302 -0.036266934 -0.063859046
-0.033257768 -0.42022142 -0.01782283 0.14001347 0.07132718 0.081037514 -0.030245634 0.0013624189
-0.045839425 -0.020649336 -0.21085179 -0.074539274 0.24137405 -0.19932044 0.04313787 -0.00028392253
-0.13065448 -0.07388214 -0.18365349 0.08435341 0.18394622 -0.40236396 -0.03708754 0.1300715
0.1987859 0.079536766 0.13561435 0.26786315 -0.15820241 0.06944045 -0.17424381 -0.26324818
-0.17584243 -0.11930189 0.042632747 0.09153725 -0.09105762 -0.025061257 -0.037007913 -0.34070265
6.922228e-05 -0.017142924 0.0539168 -0.027644042 -0.13646929 -0.19427721 -0.33433354 0.042287692
-0.1608483 -0.07098468 -0.095806204 -0.09243599 0.09246533 -0.0032842506 0.044330027 0.14231911
-0.03345477 -0.13877541 -0.14838172 -0.22249414 -0.14508311 0.21609412 -0.059278943 -0.067305475
0.35388947 0.069497235 -0.24892126 -0.007005865 -0.19865079 -0.018775864 0.21384673 -0.07695403
0.041630037 0.11314081 0.011700158 0.24078839 0.3643607 -0.037794843 -0.27914426 -0.16958565
-0.13681427 -0.028585006 -0.08040101 0.04901507 -0.10572571 0.024997564 -0.27095994 -0.20684543
-0.12970082 0.00013878365 0.055931587 0.10845907 0.30020893 0.165132 0.044141293 -0.098780625
-0.020613153 0.31019056 -0.1776884 -0.29543188 -0.049419507 -0.024719786 0.019843826 -0.28766754
-0.35936403 -0.11043301 -0.11899232 -0.024851821 -0.027784606 0.18742089 -0.002685845 -0.07169836
-0.10155214 0.14680849 0.071102776 -0.034961224 0.09742203 -0.27053624 0.20014918 -0.08695158
0.07023666 0.1532928 -0.004589014 -0.024672957 0.019958446 -0.19554244 0.15117949 -0.064575955
0.015619562 0.2991818 0.1574573 -0.20949803 -0.03830655 0.25216526 -0.08424721 0.0896933
0.0066572824 -0.013619328 0.1953608 -0.033057 -0.11268463 0.22812356 0.09687035 -0.049903646
-0.19745289 -0.033441648 -0.01804042 0.044272535 -0.5415017 -0.12047216 0.24360812 -0.026936464
0.25301668 0.058789033 -0.18759231 0.08632351 0.3493807 -0.16676728 0.041243084 0.0505223
0.2084272 0.3062582 0.22122106 -0.013676796 0.13695306 0.18359338 -0.12820831 0.22837387
0.26158684 0.08084029 -0.09774586 0.06907499 -0.04471234 0.05531651 0.03318177 0.21705304
00000000: 85f7 173d ff08 60bd 90dc a93d 41f7 bcbd
00000010: f72d d83c 7436 25be 1ec0 45be 1a95 553e
00000020: c4db 803d 4009 f63c 19f6 0a3d ee11 1cbe
00000030: a368 ca3d 0d30 b23e 10bb 48bc 4ea5 38bc
00000040: f71a 883e d8a2 9abe df9d 23be 940d bdbd
00000050: 1c89 abbe c4b0 103d ce2c 48be 2857 c5bd
00000060: 26c0 563b f893 153d 3347 53be c266 33bd
00000070: 04bb 0a3e 30a4 8f3d 590a 373e ae35 71be
00000080: 1748 3bbe 900b cabd 28bb 013c e29e acbd
00000090: adab 0bbe 4eba dd3d da32 b1be fda9 6cbd
000000a0: c327 7cbc 43dd fabd 7f5e fbbd 8079 7b3e
000000b0: b84a 54be 8acd 62be 82e6 ccbd 74d7 efbb
000000c0: 36f6 80bd c5ca dabc 072f 8c3d f5a9 173e
000000d0: fe8b c9bd 2d3e 963e 89e2 c53c 50c3 bebe
000000e0: fa31 393d 9192 dbbe 1435 cbbd db44 a9be
000000f0: 3828 ccbd b149 4b3e 528e 55be 12b4 153e
00000100: 30c4 87bd 98a1 e53e a482 9bbd 9851 573d
00000110: 526c 473d 4977 663d e2b9 5d3e 2b81 8ebe
00000120: 06a7 22be 068f 343e 114d a8be 1614 25be
00000130: a147 00bd 7b5e 8abd a38c 14bd 88c8 82bd
00000140: 4c39 08bd 4327 d7be 2f01 92bc b15f 0f3e
00000150: fc13 923d fff6 a53d b1c5 f7bc 3193 b23a
00000160: 1fc2 3bbd cc28 a9bc 88e9 57be 0ca8 98bd
00000170: c22a 773e a81a 4cbe 56b1 303d 70db 94b9
00000180: 4aca 05be 854f 97bd a90f 3cbe 7bc1 ac3d
00000190: 665c 3c3e a602 cebe 1be9 17bd 7731 053e
000001a0: 888e 4b3e 2ce4 a23d 7dde 0a3e 5c25 893e
000001b0: d0ff 21be cb36 8e3d f86c 32be 77c8 86be
000001c0: 0a10 34be 8d54 f4bd ad9f 2e3d e277 bb3d
000001d0: 6b7c babd 444d cdbc 9c95 17bd 9470 aebe
000001e0: 6e2b 9138 516f 8cbc ddd7 5c3d c275 e2bc
000001f0: 9bbe 0bbe 9bf0 46be c42d abbe dc35 2d3d
00000200: 6bb5 24be 6a60 91bd 0b36 c4bd 154f bdbd
00000210: 775e bd3d 953c 57bb 6793 353d 1abc 113e
00000220: de07 09bd 241b 0ebe 61f1 17be 81d5 63be
00000230: ab90 14be c747 5d3e 7ace 72bd 74d7 89bd
00000240: 0031 b53e 9154 8e3d 37e5 7ebe 7591 e5bb
00000250: 1d6b 4bbe d7cf 99bc a3fa 5a3e 139a 9dbd
00000260: 4284 2a3d 5eb6 e73d 05b2 3f3c 3b91 763e
00000270: 7c8d ba3e c4ce 1abd ffeb 8ebe dca7 2dbe
00000280: 0a19 0cbe 1a2b eabc 49a9 a4bd 07c4 483d
00000290: b986 d8bd b1c7 cc3c 43bb 8abe 4acf 53be
000002a0: 4bd0 04be 7486 1139 8518 653d ca1f de3d
000002b0: fcb4 993e 5d18 293e 80cd 343d 7f4d cabd
000002c0: eadc a8bc 4cd1 9e3e f3f3 35be d942 97be
000002d0: 1c6c 4abd 2681 cabc 858f a23c 2949 93be
000002e0: 90fe b7be b42a e2bd 3fb2 f3bd 0c96 cbbc
000002f0: 8b9c e3bc 43eb 3f3e 0005 30bb 97d6 92bd
00000300: 92fa cfbd f754 163e 559e 913d 8033 0fbd
00000310: 3485 c73d ba83 8abe e8f3 4c3e ac13 b2bd
00000320: 3dd8 8f3d caf8 1c3e 715f 96bb f11e cabc
00000330: e57f a33c 473c 48be ccce 1a3e 6640 84bd
00000340: 31e9 7f3c 5b2e 993e 7d3c 213e a786 56be
00000350: 54e7 1cbd ce1b 813e cd89 acbd 1fb1 b73d
00000360: 5525 da3b 9a23 5fbc a90c 483e c766 07bd
00000370: 33c7 e6bd 3999 693e f663 c63d c467 4cbd
00000380: 1731 4abe 1cfa 08bd 81c9 93bc 1e57 353d
00000390: db9f 0abf 1cba f6bd 6874 793e dca9 dcbc
000003a0: 678b 813e c5cc 703d 3318 40be 61ca b03d
000003b0: 07e2 b23e 0bc5 2abe 82ee 283d 79f0 4e3d
000003c0: f16d 553e e0cd 9c3e c687 623e a414 60bc
000003d0: 6c3d 0c3e e7ff 3b3e 0a49 03be d7da 693e
000003e0: b6ee 853e 988f a53d fb2e c8bd 3077 8d3d
000003f0: 4924 37bd 9193 623d 9ce9 073d 2743 5e3e

5.bias f4 [30]
0.01448038 -0.08359778 0.0658589 -0.17839727 -0.11012286 -0.051868394 -0.06066505 -0.24459238
0.10264206 0.21262214 -0.14241564 0.069601715 -0.029944435 -0.009417147 0.015050413 0.22375065
0.034596205 -0.16335651 -0.09287764 0.1261372 0.08057213 0.0050182655 -0.034076303 -0.1004592
-0.0916418 -0.13619629 0.042308927 0.0725131 0.19771451 -0.058330595
00000000: 1e3f 6d3c 5035 abbd 08e1 863d c6ad 36be
00000010: 1888 e1bd f473 54bd ea7b 78bd 6d76 7abe
00000020: 0036 d23d 9eb9 593e 68d5 11be 588b 8e3d
00000030: 084e f5bc 614a 1abc 0296 763c e41e 653e
00000040: c0b4 0d3d ee46 27be a236 bebd 1c2a 013e
00000050: 0003 a53d 4370 a43b 9893 0bbd 8ebd cdbd
00000060: b2ae bbbd 0a77 0bbe 204c 2d3d c081 943d
00000070: ac75 4a3e 10ec 6ebd

6.weight f4 [30]
0.79182607 1.0793719 0.95440507 0.53494805 0.56628066 0.7426672 1.0419632 0.9431021
0.85782695 0.8861666 0.55560607 0.38956338 0.8379671 0.5949453 0.85187936 0.6691006
0.6474493 0.6459003 0.5535451 0.9033035 1.0669062 0.89395523 0.88037163 0.34550434
0.99438536 0.41170055 0.55213183 0.596791 1.033104 0.7134334
00000000: 1db5 4a3f dc28 8a3f e453 743f 5bf2 083f
00000010: c5f7 103f 701f 3e3f 0d5f 853f 246f 713f
00000020: 8c9a 5b3f d0db 623f 333c 0e3f da74 c73e
00000030: 0385 563f 564e 183f c414 5a3f 2d4a 2b3f
00000040: 3dbf 253f b959 253f 22b5 0d3f e63e 673f
00000050: 6290 883f 40da 643f 0960 613f f2e5 b03e
00000060: 0a90 7e3f 6aca d23e 8358 0d3f 4cc7 183f
00000070: c03c 843f 92a3 363f

6.bias f4 [30]
0.12991941 0.006048673 0.027133204 0.36422902 0.21923546 -0.023953246 0.049871076 0.059127703
0.063460864 0.2322009 0.22643776 0.33150792 0.056541707 -0.39106736 -0.015379445 0.4593849
0.06652548 0.43869075 0.30448404 0.2620596 0.05996948 0.12959532 -0.044612672 0.66010386
-0.19988216 0.43391916 0.2760198 0.26235965 -0.053631846 -0.08335706
00000000: 9809 053e f233 c63b 7446 de3c 3a7c ba3e
00000010: 437f 603e 9939 c4bc 9d45 4c3d e42f 723d
00000020: c5f7 813d 13c6 6d3e 4ddf 673e 68bb a93e
00000030: 4798 673d fb39 c8be 11fa 7bbc 7f34 eb3e
00000040: 833e 883d 139c e03e 55e5 9b3e ad2c 863e
00000050: 8fa2 753d a3b4 043e c7bb 36bd 91fc 283f
00000060: e9ad 4cbe a72a de3e 7852 8d3e 0154 863e
00000070: 11ad 5bbd 1bb7 aabd

6.running_mean f4 [30]
0.033571523 -0.6561045 -0.4491883 -0.6319343 0.09328851 -0.22963804 -0.3780896 -0.7002407
-0.3187697 0.04988712 -0.123466864 0.13655692 -0.40973663 0.2036978 0.3426423 0.15513045
0.64779866 -0.09366824 -0.11434828 -0.24152307 -0.46022406 -0.4206165 0.23557268 -0.3697192
-0.44983986 -0.32443184 0.028133323 -0.23949073 -0.42082086 -0.43415943
00000000: 4b82 093d 77f6 27bf 02fc e5be 72c6 21bf
00000010: 0c0e bf3d 3c26 6bbe f694 c1be f942 33bf
00000020: c835 a3be 7056 4c3d 32dc fcbd 94d5 0b3e
00000030: 00c9 d1be 2896 503e d06e af3e 84da 1e3e
00000040: 22d6 253f 22d5 bfbd 6e2f eabd d351 77be
00000050: 7da2 ebbe 0c5b d7be f739 713e d64b bdbe
00000060: 6951 e6be ee1b a6be db77 e63c 0f3d 75be
00000070: d575 d7be 254a debe

6.running_var f4 [30]
0.03228796 0.13196176 0.10085628 0.0490096 0.019366706 0.03051001 0.11134383 0.06710004
0.059693668 0.045995396 0.041650865 0.023304394 0.08723808 0.028006658 0.090203114 0.054489817
0.060919106 0.04250023 0.060854252 0.08545433 0.069214664 0.054633263 0.06481713 0.049368497
0.10616692 0.03185769 0.04734422 0.071271285 0.16308218 0.07838913
00000000: 6140 043d fc20 073e bd8d ce3d 4abe 483d
00000010: eda6 9e3c 21f0 f93c 3c08 e43d bf6b 893d
00000020: 5981 743d ab65 3c3d 199a 2a3d dbe8 be3c
00000030: e1a9 b23d 386e e53c 69bc b83d b730 5f3d
00000040: 5086 793d b914 2e3d 4f42 793d ae02 af3d
00000050: 6bc0 8d3d 21c7 5f3d d8be 843d 9f36 4a3d
00000060: 0b6e d93d 367d 023d 03ec 413d aef6 913d
00000070: 04ff 263e 7b8a a03d

8.weight f4 [46, 30]
-0.10994147 0.02297714 -0.040021583 -0.07645738 0.05100253 -0.02271377 -0.2683219 -0.050639205
-0.031320903 0.52992827 -0.0066944985 0.27601972 0.17071873 -0.16234009 0.2949024 -0.101025656
0.013162571 0.057009585 0.09019157 -0.108833216 0.019748826 -0.26082748 -0.25021943 -0.111225426
0.14374961 0.070574276 0.015433588 -0.119174615 0.17358018 -0.10238688 0.03874405 -0.08666449
0.021969177 0.013173078 0.086495236 -0.06263542 0.12008721 0.046639908 0.10821391 0.035620905
0.17395733 0.1307514 0.10105729 -0.03122351 0.010295338 0.057068735 -0.14656489 0.01809175
-0.020665789 -0.010257544 -0.12067868 0.114354834 0.0018121472 0.054201663 -0.01880594 -0.0095774215
-0.028739298 0.09842957 -0.13204159 -0.0011153099 -0.047893737 -0.124034196 0.061570637 -0.04369817
0.18897139 -0.05066563 0.10894053 0.03003084 -0.017830916 0.080396876 0.09272648 0.087027475
0.03186108 -0.02273266 0.019387197 0.0771313 -0.19358802 0.0008269416 -0.028722426 0.058282558
-0.056819838 0.109879784 0.083762765 0.05451679 -0.111857705 0.00581705 -0.040281344 0.07684269
-0.16703473 0.08523609 0.010984848 0.07967361 0.061315805 0.03688624 0.062627435 -0.10538363
0.042586245 -0.016522707 0.06740692 -0.030573893 0.21316311 0.23081905 0.14747612 -0.00297798
-0.042301368 0.09361964 -0.19483963 0.08454587 0.038016617 0.016242495 -0.090826966 0.16014722
0.019210663 0.011239381 -0.11106881 -0.027833197 -0.17913163 0.061004326 -0.0038754048 -0.19594346
-0.25131613 -0.026904598 -0.113168284 0.16993663 -0.036115434 -0.07593289 -0.22624834 0.25831306
-0.21204962 0.02345798 0.01757985 0.051976684 0.07057313 -0.14889885 0.13005891 -0.025872279
0.040528636 0.114076875 -0.08966259 0.1243287 -0.10697102 0.24554725 0.039886873 0.057183575
0.043464508 0.05775567 -0.036957424 -0.23967107 -0.027915338 -0.080769025 -0.009154631 -0.008250171
-0.00013686216 0.026582554 -0.0037660468 -0.03381006 0.0053368323 -0.023692984 -0.03831479 -0.0039012516
-0.0023360734 0.019889837 0.019789252 0.092882484 -0.02591765 0.0058786822 -0.006912092 0.0074861324
0.051667154 0.02783153 0.0031490892 0.033647843 -0.012929168 0.02805075 0.08443327 -0.0068728807
-0.040109325 -0.028188955 -0.094842196 0.067758195 -0.022438325 -0.14362602 0.09569344 -0.09189584
0.14162551 -0.036933478 0.11779503 0.04950479 -0.012666479 0.10245556 0.11051122 0.081556685
-0.0164819 -0.112463266 0.037305772 0.065285854 -0.16382737 0.029835606 -0.022022782 0.058131024
-0.063656546 0.13272282 0.07065041 0.023228226 -0.10495616 0.007626339 0.048573907 -0.0062077125
-0.13670422 0.02819447 0.06341796 0.079287946 0.13812673 0.029110016 -0.01737062 0.0389709
-0.282647 0.03488584 0.11327057 0.060513895 -0.108316876 0.07493937 -0.3731431 -0.10207842
0.26645827 -0.025202662 -0.053759906 -0.0067247762 -0.15727893 0.047507145 -0.04036669 0.058170363
-0.028700203 0.35834715 0.012633738 -0.6024064 0.0757133 0.20316008 0.11831019 -0.05500379
0.14679028 0.123556666 0.35350895 0.16676566 -0.2037992 -0.069378376 -0.28411177 0.041155137
0.06737302 0.033520333 0.04015298 0.07252993 0.26544392 0.10928992 0.1629069 0.38432434
00000000: fe28 e1bd 8e3a bc3c aced 23bd b095 9cbd
00000010: 07e8 503d 3a12 babc 7d61 89be 0e6b 4fbd
00000020: 594a 00bd 61a9 073f 865d dbbb 7552 8d3e
00000030: e4d0 2e3e 7b3c 26be 73fd 963e 8ae6 cebd
00000040: d3a7 573c e282 693d 5cb6 b83d f3e3 debd
00000050: 4ac8 a13c 2e8b 85be c31c 80be 28ca e3bd
00000060: 1933 133e 3f89 903d 29dd 7c3c d211 f4bd
00000070: 01bf 313e 36b0 d1bd 15b2 1e3d 277d b1bd
00000080: b4f8 b33c e5d3 573c 6a24 b13d 0047 80bd
00000090: 48f0 f53d 7d09 3f3d 419f dd3d 3ae7 113d
000000a0: df21 323e b2e3 053e 20f7 ce3d 72c8 ffbc
000000b0: c7ad 283c e8c0 693d 1b15 16be 2635 943c
000000c0: 4d4b a9bc 420f 28bc 6226 f7bd de32 ea3d
000000d0: 9285 ed3a 9002 5e3d ea0e 9abc 9eea 1cbc
000000e0: ad6e ebbc 7195 c93d e935 07be 972f 92ba
000000f0: 392c 44bd a405 febd 7e31 7c3d dafc 32bd
00000100: b781 413e c386 4fbd 361c df3d 3c03 f63c
00000110: 2412 92bc 1ea7 a43d 61e7 bd3d 763b b23d
00000120: c480 023d d839 babc e6d1 9e3c 04f7 9d3d
00000130: f03b 46be 1dc7 583a 4b4b ebbc b1b9 6e3d
00000140: ebbb 68bd a708 e13d d08b ab3d ff4c 5f3d
00000150: a715 e5bd f49c be3b 0dfe 24bd b35f 9d3d
00000160: 270b 2bbe 4290 ae3d cbf9 333c eb2b a33d
00000170: 4826 7b3d 0716 173d d042 803d 5fd3 d7bd
00000180: ea6e 2e3d a15a 87bc a40c 8a3d 1a76 fabc
00000190: 6e47 5a3e d45b 6c3e fb03 173e 372a 43bb
000001a0: 3344 2dbd a7bb bf3d 0a84 47be 6326 ad3d
000001b0: 50b7 1b3d fb0e 853c 7d03 babd a2fd 233e
000001c0: ae5f 9d3c 6125 383c 0b78 e3bd 7202 e4bc
000001d0: 486e 37be acdf 793d 81fa 7dbb 67a5 48be
000001e0: 82ac 80be 0867 dcbc c6c4 e7bd de03 2e3e
000001f0: c7ed 13bd b482 9bbd a5ad 67be 9c41 843e
00000200: 8923 59be f32a c03c 9e03 903c 81e5 543d
00000210: a588 903d f178 18be 2a2e 053e 1af2 d3bc
00000220: 5b01 263d 23a1 e93d 05a1 b7bd 0ca0 fe3d
00000230: 9f13 dbbd bd70 7b3e 6b60 233d 5339 6a3d
00000240: d707 323d 3691 6c3d ab60 17bd 556c 75be
00000250: b5ae e4bc 3b6a a5bd 4efd 15bc ba2b 07bc
00000260: a882 0fb9 a8c3 d93c c8cf 76bb 6b7c 0abd
00000270: 98e0 ae3b ca17 c2bc f8ef 1cbd 24ac 7fbb
00000280: cf18 19bb 03f0 a23c 121d a23c 2c39 be3d
00000290: 4051 d4bc f6a1 c03b d57e e2bb 3b4e f53b
000002a0: f0a0 533d f3fe e33c f360 4e3b 52d2 093d
000002b0: dcd4 53bc b0ca e53c 5aeb ac3d e735 e1bb
000002c0: ad49 24bd 86ec e6bc a03c c2bd cfc4 8a3d
000002d0: 94d0 b7bc b312 13be ecfa c33d e333 bcbd
000002e0: 4706 113e 8f47 17bd 853e f13d 89c5 4a3d
000002f0: 1087 4fbc 38d4 d13d b553 e23d 3107 a73d
00000300: 0d05 87bc 2453 e6bd f0cd 183d 97b4 853d
00000310: 5dc2 27be cd69 f43c 1f69 b4bc cc1a 6e3d
00000320: 5d5e 82bd 7ee8 073e 2ab1 903d 1f49 be3c
00000330: 41f3 d6bd 5ee6 f93b 6ff5 463d 116a cbbb
00000340: 31fc 0bbe 17f8 e63c 47e1 813d b861 a23d
00000350: 1871 0d3e 2178 ee3c d54c 8ebc f39f 1f3d
00000360: 1cb7 90be 74e4 0e3d 67fa e73d 6bdd 773d
00000370: 3dd5 ddbd d079 993d 9d0c bfbe 7e0e d1bd
00000380: 386d 883e d075 cebc 5933 5cbd 835b dcbb
00000390: ba0d 21be da96 423d 8b57 25bd 0c44 6e3d
000003a0: b01c ebbc 4779 b73e bdfd 4e3c 4e37 1abf
000003b0: 930f 9b3d 3209 503e 9d4c f23d a74b 61bd
000003c0: 3150 163e 470b fd3d 20ff b43e 9ec4 2a3e
000003d0: bdb0 50be 4016 8ebd 1977 91be 4a92 283d
000003e0: defa 893d 9e4c 093d 7377 243d 928a 943d
000003f0: 44e8 873e 65d3 df3d 11d1 263e 29c6 c43e

8.bias f4 [46]
0.29957837 0.43266916 0.26813972 0.58993995 0.19706005 -0.017644424 0.34183264 0.5508618
-0.12760583 0.38563937 0.415007 0.10452789 0.014017278 0.008845067 0.2516406 0.27399915
0.26482034 0.12122312 0.13097534 0.2998446 0.17138408 0.6142154 0.11929767 0.6009141
0.17741404 0.17043449 0.21463804 0.26024896 0.15931824 0.29924655 -0.004129384 0.13259923
0.0042822952 0.2992863 0.13701104 0.22150844 0.009182958 0.049378283 0.18566053 0.31986898
0.12444793 0.1956595 -0.021667648 0.23972525 0.26206163 0.69350165
00000000: 5662 993e d086 dd3e 9c49 893e 4e06 173f
00000010: 1cca 493e 0a8b 90bc b004 af3e 4705 0d3f
00000020: 1aab 02be 8672 c53e cc7b d43e b812 d63d
00000030: baa8 653c e6ea 103c 09d7 803e 9e49 8c3e
00000040: 8896 873e d443 f83d 661e 063e 3b85 993e
00000050: 4f7f 2f3e 383d 1d3f 5652 f43d 82d5 193f
00000060: 07ac 353e 6186 2e3e 13ca 5b3e 5a3f 853e
00000070: 5224 233e d836 993e c94f 87bb 18c8 073e
00000080: 7f52 8c3b 0e3c 993e 9f4c 0c3e 1cd3 623e
00000090: 1e74 163c e240 4a3d cb1d 3e3e dec5 a33e
000000a0: 8ede fe3d f75a 483e 5a80 b1bc 897a 753e
000000b0: f12c 863e 5389 313f
