prototype_2/trained_models/autoencoder_model.pth (torch, 4087 bytes, 8 tensors)

0.weight f4 [6, 15]
00000000: c626 233d 3e44 09be b2f4 cabe cd92 b5bf
00000010: 887b cc3c a11d b03d 7800 47bd 1e1c a4bd
00000020: 1dd8 0dbd 4c36 253e 3ad7 a5bb 0c33 1f3d
00000030: 6e73 37bc 8f87 253e 0a9a acbc 8962 d3bd
00000040: ff29 81bb ac7d 553c 2952 dcbd b32c 663e
00000050: 8979 b2bf 0d86 dd3d 533f ddbc df39 f0be
00000060: 9ae2 05bd 2b05 54be 59b1 6cbd 728e e4bd
00000070: 42ed a8bd 1f5d 29bc b16f 1a3e cb45 9abd
00000080: 9814 b6bc 4ca4 9bbc 539f 3dbe be42 9abe
00000090: 5aee 9fbf ab37 8a3e d291 063f 7ffd 2d3d
000000a0: 4638 593e ad0c 99bc c34c c13d 1f3f af3d
000000b0: 1dc9 48bd 5b88 6ebd 605c 353e 29d6 253d
000000c0: 73ac 17bd 1ae8 5c3d 1d27 43bd 249c 0cbe
000000d0: f984 6bbf 0b57 323e 789a 4dbf 5201 273e
000000e0: 6c86 0fbf 6c27 c43d 3180 7b3e 6b0b 463c
000000f0: 1964 f53d ca58 81be 54ba c0be 25fb ba3d
00000100: b51b e2bd 3fd0 b2bd 8fc7 2bbd 6e11 39bf
00000110: f004 f1be 5f7e 603e dc70 c03e 865c 483f
00000120: a300 883e a1ce 82bd a48c bb3e d3d6 88be
00000130: dee7 0ebf 3dd2 60bf 5d30 e93d db6d 173e
00000140: 410f 113e 658a 0b3d 409f 163e 82bc a13e
00000150: 1617 c3be 3cee b1be 6d98 2cbf 84ff 6ebe
00000160: e0f3 033d d060 7fbe
0.0398319 -0.13404939 -0.39639813 -1.4185425 0.024961248 0.08599401 -0.04858443 -0.080131754
-0.03462993 0.16133994 -0.0050610574 0.03886704 -0.011196954 0.16164993 -0.021069545 -0.103215285
-0.003941774 0.013030451 -0.10757858 0.22477989 -1.394334 0.10816584 -0.027007734 -0.46919152
-0.032686807 -0.20705096 -0.05778632 -0.11159982 -0.08248378 -0.010337143 0.1508167 -0.07532843
-0.022226617 -0.018999241 -0.18517809 -0.30129045 -1.2494614 0.26995596 0.52566254 0.04247808
0.21212873 -0.018682802 0.09438469 0.08556961 -0.04901992 -0.058235507 0.1771102 0.040487442
-0.037029695 0.053932287 -0.047644723 -0.13731438 -0.91999775 0.17416017 -0.80313826 0.16309097
-0.56064487 0.095778316 0.2456062 0.012087683 0.11981983 -0.25263053 -0.37642157 0.09129933
-0.11040441 -0.08731126 -0.04193836 -0.7229222 -0.4707408 0.21923207 0.37586105 0.7826618
0.26562986 -0.063870676 0.36630738 -0.26726398 -0.5582255 -0.878208 0.11386178 0.14788
0.14165975 0.03406753 0.14709187 0.31589133 -0.3810355 -0.3475207 -0.67420083 -0.23339659
0.032215 -0.24939275

0.bias f4 [6]
00000000: b994 5f3d ead1 86bd 2299 1d3e 16bd 333e
00000010: 97bb 3fbe 0627 0dbe
0.054585192 -0.06583007 0.15390447 0.175526 -0.18723904 -0.13784418

1.weight f4 [6]
00000000: 8df4 d93e 7875 ab3e 9418 b33e 6dcf 863e
00000010: 7788 9b3e 9366 063f
0.4256939 0.3348806 0.3497969 0.26330128 0.30377552 0.52500266

1.bias f4 [6]
00000000: faf5 143f 0a89 143f f515 fc3e a9c0 ca3e
00000010: b0ca 3b3f c759 7b3f
0.5818783 0.58021605 0.49235502 0.39600113 0.7335615 0.98183864

1.running_mean f4 [6]
00000000: 397b c83b 2db4 c2bc 382e 0f3e 1647 573e
00000010: 6ea0 83be 9fd3 1fbe
0.006118205 -0.023767555 0.13982475 0.21023211 -0.25708336 -0.15608071

1.running_var f4 [6]
00000000: cb22 e53e e24f 7d3e 9cac 303e 54b3 b33d
00000010: 715e 0c3e c6d0 d03e
0.44753107 0.24737504 0.17253345 0.087744385 0.13707902 0.40784281

3.weight f4 [15, 6]
00000000: a9b7 2fb5 d6ca 2ab5 322d 23b5 a4af 48b5
00000010: 1c3d feb4 c2c0 d8b4 e98c 9d3c 124e 1c3a
00000020: 2159 acbd 8cb2 8d3e feb0 0cbf c38b 51bf
00000030: f93f aebe e4c0 91bd 4257 ffbd 1bd9 3f3e
00000040: 5800 07bf 77dd 5ebf f550 05c0 7a6c c1bd
00000050: 0500 843a eeb5 93bd 86f6 433e ede4 763e
00000060: 439c 16bd 741b 51bf 12d7 083f 08b8 6fbe
00000070: 4687 ce3e d1be d93d 414e 0c3e 5dd3 d0bf
00000080: db0c c4be e2ca c8bc 3907 06bd a3d0 f5bc
00000090: 74f4 e3ba f6c9 0c3e 711e dfbf fbca f6bd
000000a0: b8cf b4bd 3a1d fe3d c726 43bc 47b1 db3d
000000b0: 8c45 8b3e 5560 a1bf db07 38bf 8a01 f73d
000000c0: 92da 12bd 1b80 b0be dceb ae3e c9e9 583e
000000d0: 31f0 b8be d2ab 4a3e b1ee 073d 5668 b5bd
000000e0: 523b 18bd 0b02 5fbf 24af fb3d ffd3 14be
000000f0: ff28 ab3d c767 83bd ac20 363e b363 5c3e
00000100: 9a25 4f3e 474e 10be a986 1a3e e363 90bd
00000110: d471 003d f27e 41bf e023 3a3f 325e edbe
00000120: 09d4 9dbd c878 97bd 312f 813c 0918 e93d
00000130: ef29 463e 0fd4 aebd 6065 66bc 5dca cbbd
00000140: 6022 323c 2c07 903e b2e7 97bd 7ada 543d
00000150: 85eb cb3c 6969 843b ebfc 633c 3218 4f3a
00000160: e5d9 8f3e 83cf 29be
-6.545984e-07 -6.36251e-07 -6.0788e-07 -7.4761397e-07 -4.735565e-07 -4.0373385e-07 0.01923223 0.0005962561
-0.084154375 0.27675283 -0.5495757 -0.81853884 -0.34033182 -0.07116869 -0.12467815 0.18735163
-0.527349 -0.8705668 -2.0830662 -0.094445184 0.0010070807 -0.07212435 0.1913701 0.24110766
-0.036770117 -0.81682515 0.5345317 -0.23410046 0.4033758 0.106320985 0.13701726 -1.6314503
-0.38291058 -0.024510805 -0.03272173 -0.030006712 -0.0017391578 0.13748917 -1.7431165 -0.12050434
-0.08828682 0.12407918 -0.011911101 0.10727172 0.27201498 -1.2607523 -0.71886986 0.120608404
-0.035852976 -0.34472737 0.3416432 0.21182932 -0.36120752 0.19792107 0.03318662 -0.08857791
-0.037165947 -0.8711249 0.12289265 -0.14533995 0.08357429 -0.06416278 0.17785901 0.21522407
0.20229188 -0.1409236 0.15090431 -0.07050302 0.031358555 -0.7558433 0.7271099 -0.46360928
-0.07706458 -0.07396084 0.015769573 0.113815375 0.19351934 -0.08536541 -0.014062256 -0.09950707
0.010872453 0.28130472 -0.07417239 0.051966168 0.024892578 0.004040886 0.013915281 0.0007900029
0.28095928 -0.16583066

3.bias f4 [15]
00000000: 4975 40bf 58a4 663f 0a48 b73f d1a6 083f
00000010: 7e34 a0bf 167f 403f f5d3 003f 12dd c13e
00000020: 78b2 713d 4526 b03e 0183 3cbe 1c05 7d3d
00000030: 7ec6 95ba 74ea 8fbd 024e 79bd
-0.7517896 0.9009452 1.431886 0.5337954 -1.2516019 0.7519392 0.5032342 0.37863976
0.05900809 0.34404197 -0.18409349 0.06177245 -0.0011426953 -0.0702714 -0.06086541
