offline_prototype_1_raw_behaviors/trained_models/agent_0.pth (torch, 770191 bytes, 12 tensors)

fc1.weight f4 [256, 15]
000000 23 96 5c 3e a1 64 70 3e f8 69 99 bd b1 cc 53 3e
       0.21541648 0.23475887 -0.07490915 0.20683552
000010 7a 71 6d bd e7 b5 43 3d cb 99 fd bd dc 40 1b 3e
       -0.057969548 0.047780897 -0.12382849 0.1516146
000020 f5 18 5d 3e 6b 5d 3f be dd a7 6d 3e 47 e5 38 3d
       0.21591552 -0.1868798 0.23208566 0.04514053
000030 ce a8 33 3e 74 d0 09 3d 2c c4 08 3e f6 48 40 bd
       0.17544863 0.033646062 0.13356084 -0.04694458
000040 10 3b 61 3e c6 2e 14 3d 5f 7e f1 bd 5a 0b 9d 3d
       0.21995187 0.03617742 -0.117916815 0.07668181
000050 8a de cb bd aa 0a f5 bc 63 01 e8 bd 3e 2d 3b 3e
       -0.09954555 -0.029912312 -0.113283895 0.18278977
000060 15 3e 40 be 1a 97 04 be 96 cb 8a bd 3c 14 13 be
       -0.18773682 -0.12948266 -0.06777112 -0.14363188
000070 b5 67 96 3c ea 36 80 be 5c 82 5f 3e 5e ce 73 be
       0.018359998 -0.25041896 0.21827072 -0.23809192
000080 a9 18 4e 3e 38 2f a5 3c 1a d5 b8 bd 71 2d 28 3e
       0.20126595 0.020164117 -0.09025021 0.16423585
000090 50 e7 03 3d c9 ed 63 3e d8 59 b3 3c c0 a1 85 bd
       0.03220302 0.22258677 0.021893427 -0.06524992
0000a0 0a fe 86 3d 6b 27 46 bd 94 c5 ca 3d 15 5f 5d 3e
       0.06591423 -0.048377436 0.09900966 0.21618302
0000b0 5e dd 2c 3e 55 fe 00 be 68 af 29 3e 8e dc 15 3d
       0.1688132 -0.1259702 0.16570818 0.03658729
0000c0 3b 85 09 3e 9a ea 13 be c0 5a 71 be 82 65 f7 bd
       0.1342973 -0.14444962 -0.23569775 -0.12079908
0000d0 6e fe 58 be 21 6a 57 3e a1 51 a0 3d cf a0 d2 3d
       -0.21190807 0.21036579 0.078280695 0.10284578
0000e0 81 f8 bf 3d 76 1a 17 3c 28 da 4c 3e 4d bc 30 be
       0.0937357 0.009222617 0.20005095 -0.17259331
0000f0 28 ec b6 3c 40 85 43 be d2 0b a3 3d 4d b4 d6 bd
       0.022329405 -0.190938 0.07961239 -0.104836084
000100 25 e1 95 3d e9 5b 8c bd 84 42 4b 3e bf 9d 13 be
       0.073183335 -0.06853468 0.19849592 -0.14415644
000110 2d d8 16 be b0 30 09 be 46 da 68 3e c1 fb ba 3d
       -0.14730902 -0.13397479 0.22739515 0.091300495
000120 33 fb 71 3e 2f 17 56 be c7 0c 70 be 95 73 44 be
       0.23630981 -0.20907281 -0.23442374 -0.19184716
000130 1d 6d 3d be 8b f6 e0 3d 48 9f a7 3d b3 d6 43 3e
       -0.18498655 0.10984524 0.08184677 0.1912487
000140 48 cf fd bd eb 61 2b be dd 75 19 3e 6e 73 b4 bd
       -0.123930514 -0.16736571 0.14986368 -0.08811079
000150 66 a2 28 3e 1e 36 69 bd 7c 73 27 3e e9 30 49 be
       0.164682 -0.056936376 0.16352648 -0.19647564
000160 2b cd 01 be 45 77 ad 3d 32 14 93 3d a5 57 8f bd
       -0.12675922 0.084700145 0.07181586 -0.06999139
000170 92 6d 27 3e bd 3c 32 3e b8 e7 57 be 6c 7a 0a be
       0.16350392 0.17405982 -0.21084487 -0.13523263
000180 16 f5 84 3e cd ed 9c bd 4a 87 b2 bd 7a 47 7d be
       0.25968236 -0.076625444 -0.087172106 -0.24734297
000190 a4 bc 1b be e5 ac 5e 3d b5 da f1 bc 24 54 40 be
       -0.1520868 0.054364104 -0.029523233 -0.18782097
0001a0 f7 c7 25 bc 9e 55 43 be cb de 6f be 38 0a 12 be
       -0.010118476 -0.19075629 -0.23424833 -0.1426171
0001b0 2c e1 82 be ee 99 42 be ab 0d 83 3e d2 6c 60 3d
       -0.25562418 -0.19004032 0.25596365 0.05479128
0001c0 92 22 d6 3d e4 5f 5d be f0 3b 1b be ff 2f d9 bd
       0.104558125 -0.2161861 -0.15159583 -0.10604858
0001d0 4c 7e 79 3d 39 b8 6c be 15 d2 fb bd 97 d2 1f be
       0.06091146 -0.2311715 -0.12295929 -0.15607677
0001e0 75 d0 c5 bc b0 96 d5 bd 02 ad 7f bc b1 5e 41 be
       -0.024147252 -0.10429132 -0.015605213 -0.18883778
0001f0 b0 4b 55 be 96 16 16 be 64 b7 c7 bd b2 e8 1e be
       -0.20829654 -0.14657053 -0.09751776 -0.15518454
000200 fe e0 6d 3e 86 78 67 bd 01 b9 4b 3e 21 3c c8 3d
       0.23230359 -0.056511424 0.19894792 0.09777094
000210 87 97 55 be 7c e3 34 3e c2 73 aa bd 65 42 bc bd
       -0.20858584 0.17664903 -0.0832286 -0.09192351
000220 14 61 73 be b5 46 78 be 05 01 9b 3d 8e 53 a0 bd
       -0.23767501 -0.24245723 0.07568554 -0.07828437
000230 57 20 9e 3d 64 7f 56 be 4b 17 4a 3e 5b ff 2c be
       0.07721012 -0.20947033 0.19735448 -0.16894285
000240 24 c7 19 bd 44 1e 73 3d c9 83 06 3e 24 20 67 3e
       -0.03754343 0.059355035 0.1313621 0.22570854
000250 b8 80 64 3e 03 81 5c be 43 12 87 3d 6a a4 fe bd
       0.22314727 -0.21533589 0.0659528 -0.12433703
000260 ef e7 d9 bc e1 ef 46 be 88 88 68 3e 98 a3 44 be
       -0.026599852 -0.19427444 0.22708333 -0.19203031
000270 21 34 06 3e 8e 69 d5 3d 28 6c a0 3d ef 04 0c be
       0.13105823 0.104205236 0.07833129 -0.13673757
000280 60 ce 6f 3e bd e6 43 3d 6e ef 0e 3d 7c 5a 60 be
       0.2341857 0.04782747 0.034896307 -0.21909517
000290 df 93 e9 3d 7c 93 d7 bc 00 ca 05 be 99 e6 5f 3e
       0.11405157 -0.026315443 -0.13065338 0.2186531
0002a0 2c 4d 49 3d 13 99 19 be 44 ba 05 be b4 f4 49 bc
       0.049145862 -0.149998 -0.13059336 -0.012326408
0002b0 15 34 20 3e 11 35 8c bd 5a ff 12 be e1 f9 af bd
       0.15644868 -0.06846059 -0.14355221 -0.085925825
0002c0 cc 72 36 be 38 a8 cc 3d b9 45 4d 3e 7a 99 6a be
       -0.17817229 0.09993023 0.20046128 -0.22910109
0002d0 17 82 28 3d 5f e9 18 3e aa 4d 19 3d 81 b4 cd bd
       0.04113969 0.14932774 0.03742758 -0.10044194
0002e0 e6 9e 11 3e 6a 52 15 3e ea 0b b5 3d f7 98 7a bd
       0.14220771 0.1458222 0.08840163 -0.061181035
0002f0 a8 10 8d bd 72 b5 1c 3d 57 c8 5c bd 77 2f 68 bd
       -0.068879426 0.038258977 -0.053901996 -0.05668589
000300 09 95 36 3e f2 d9 47 3e 78 ed 93 bc 70 76 77 bd
       0.1783029 0.19516733 -0.01805757 -0.060415685
000310 37 87 45 3c 1f 9b 65 bc 57 56 76 3d dd e1 8b 3d
       0.0120561635 -0.0140140345 0.060140934 0.068301894
000320 ba ed 5f be e6 96 bf bd 15 a0 5d 3e b6 45 db 3d
       -0.21868029 -0.093549535 0.21643098 0.10706656
000330 58 65 b3 bc d6 f9 2c be 3d 82 24 be 71 bd 57 be
       -0.02189891 -0.1689218 -0.16065307 -0.2106836
000340 ff a1 90 bd 05 59 e6 3d 10 0e 37 3e 61 fd 06 3e
       -0.07062148 0.11247448 0.17876458 0.13182594
000350 1d 40 75 be 56 df 31 be af 74 31 bd 54 49 81 3e
       -0.23950239 -0.17370352 -0.04332417 0.25251257
000360 ec 1a 3c 3d b6 56 99 bd 99 2a bd 3d 39 27 a2 bd
       0.045924112 -0.07487242 0.092366405 -0.079176374
000370 88 89 19 be f9 61 43 3e e4 07 f7 bd b8 9b 56 bd
       -0.1499387 0.19080342 -0.12062052 -0.0523946
000380 18 62 79 be 6a 87 3a 3e 69 ad 34 3e 95 39 ae 3d
       -0.24353826 0.18215719 0.17644276 0.08507077
000390 7a 5a 47 be 1e f5 85 be 92 c8 59 be 90 e8 38 3e
       -0.19468108 -0.26163572 -0.21267918 0.18057466
0003a0 f3 d5 ef 3d a5 c1 43 3e af a1 16 3e ef b7 a1 3d
       0.117107294 0.19116838 0.14710115 0.07896411
0003b0 87 c4 34 bc 4d b9 4c be df 69 64 be 3e 3c 62 be
       -0.011033184 -0.19992562 -0.22306012 -0.22093293
0003c0 af 52 da 3d 3f 9a 0c be fe d8 6d bd 36 bf 39 be
       0.10660302 -0.13730715 -0.058068268 -0.18139347
0003d0 6d e9 93 bd ba 54 38 be 28 ce 2f be 01 fe c6 3d
       -0.07222257 -0.1800107 -0.17168486 0.09716416
0003e0 12 22 a3 bd 78 50 34 3e d7 26 bf bd 2d 11 31 be
       -0.07965483 0.17608821 -0.0933358 -0.17291708
0003f0 47 a7 5a bd fe 88 0d be b5 0e 81 bd f5 41 84 be
       -0.053382184 -0.1382179 -0.06301633 -0.2583157

fc1.bias f4 [256]
000000 c2 f5 55 be 6f 6a bd 3d 29 be 4b 3e 2a 54 eb bc
       -0.2089453 0.09248816 0.19896759 -0.028726656
000010 8d 51 b1 3d f5 94 02 3e d7 0a 78 be ed a8 9a bc
       0.08658133 0.12752135 -0.24222885 -0.018879378
000020 c7 2f c1 bd b5 76 01 be 99 a9 2f 3e 2d 04 8f 3e
       -0.09432941 -0.1264294 0.1715454 0.27932873
000030 5a 41 73 3d 77 6f 39 3e 05 a3 3f be 27 65 93 3d
       0.059388496 0.18108927 -0.18714531 0.07197028
000040 97 bb 00 bc 27 e8 18 be 72 14 88 3d 28 55 d8 3d
       -0.007857225 -0.14932309 0.06644525 0.10563117
000050 07 c6 74 3c a8 20 04 3e a5 e3 17 3e db 05 80 3e
       0.0149397915 0.12903082 0.14832933 0.25004467
000060 02 8b c4 3c 98 f5 09 3d 13 fc 06 3c 8c 58 3c 3d
       0.023992065 0.033681482 0.00823881 0.045982882
000070 a4 34 23 be 47 d9 86 bc dd a6 4f be 61 76 39 be
       -0.1593805 -0.016461028 -0.20278497 -0.18111564
000080 c0 a4 55 be 8f 42 58 3e 53 96 08 be 53 bc 5e bc
       -0.20863628 0.2111914 -0.13338594 -0.013594705
000090 ab 46 11 3d 9a 7e 76 3e 4e d5 0d 3e 32 cc 38 be
       0.035467785 0.24071732 0.138509 -0.18046644
0000a0 2d 78 8d 3e 0b dd 5d be cf b3 6d 3d ea 65 83 3e
       0.2763075 -0.21666352 0.058032807 0.25663692
0000b0 55 05 7d 3e 42 bc 37 bd c2 cd 32 be 6d a1 f2 3d
       0.24709065 -0.04485727 -0.17461303 0.11847196
0000c0 37 83 6d 3e 81 d8 fc bd d2 91 bc bc d1 bd 03 be
       0.23194586 -0.12345982 -0.023018751 -0.12865378
0000d0 7b b5 03 3e fd 24 8b 3d d9 6e 17 3e cf 37 87 bd
       0.12862198 0.06794164 0.14788379 -0.066024415
0000e0 38 a1 65 be eb ac cb bd 91 ef 42 be 17 a0 10 bd
       -0.22424781 -0.09945091 -0.190367 -0.035308924
0000f0 81 30 bf 3d f6 02 53 be 88 b4 25 bc 1d 3c 77 be
       0.09335423 -0.20606598 -0.010113843 -0.24144025
000100 df ed 23 be 91 ce 30 be 44 35 9a bd fe 1e 01 be
       -0.1600871 -0.17266299 -0.07529691 -0.12609479
000110 1d c2 5a 3d 79 79 1c 3e 60 12 65 3e b8 11 b1 3d
       0.053407777 0.15280713 0.22370291 0.08645958
000120 d7 67 9d 3c 0d 3c 07 bd 6b 01 41 3e c1 c8 04 be
       0.019214554 -0.033016253 0.18848197 -0.12967207
000130 a2 0f 56 3e fa 36 79 be 8a 63 44 be 78 61 a3 3d
       0.20904401 -0.24337378 -0.19178596 0.07977575
000140 b0 db dc bd 86 5b 88 3d 0a 9e 79 3e f4 0a 14 3e
       -0.107840896 0.06658082 0.24376693 0.14457303
000150 eb fb 89 3e 40 6f ba bd f7 37 ed bd 43 56 b8 bc
       0.2695001 -0.091032505 -0.1158294 -0.02250207
000160 63 be 12 bd 95 1c ce bd 8f de fa bb 06 fa 7c 3e
       -0.0358261 -0.10064045 -0.0076559256 0.24704751
000170 69 b0 02 be 56 1e 27 3e 57 5e 11 3e c4 63 29 3e
       -0.12762608 0.16320166 0.14196144 0.16541964
000180 a8 b6 a8 3d d3 20 b5 bd a5 f6 07 3e cb 50 d7 bd
       0.08237964 -0.08844151 0.13277681 -0.10513457
000190 12 07 18 be ac aa 87 3e 57 87 76 3e 7f a6 2a be
       -0.14846447 0.264974 0.24075066 -0.16665076
0001a0 2a 76 69 3e 77 80 9a 3d 90 b5 68 3d e0 b2 8b 3e
       0.22798982 0.07544034 0.056813776 0.27284908
0001b0 e5 f6 8c bb 81 2a 9e bd 62 9b 3a 3e 84 15 4b bd
       -0.004301893 -0.07722951 0.18223336 -0.049581066
0001c0 2c 69 53 bd 1b 59 bc bd b9 cb 8d 3e ed 43 1e 3e
       -0.05161397 -0.09196683 0.2769449 0.15455599
0001d0 f8 8b 1b bd 80 b3 92 3c c1 ba 1b 3d 8a 66 22 be
       -0.03797528 0.017907858 0.0380199 -0.15859428
0001e0 94 ed ae 3d 1d c2 38 be 80 d9 7f bc 13 24 5d bd
       0.08541408 -0.18042798 -0.015615821 -0.05398948
0001f0 74 60 b4 bd 93 fa 7b 3e b8 2a 95 3d 37 b2 1b 3e
       -0.088074595 0.24607305 0.072835386 0.15204702
000200 a0 72 16 be 80 b1 7a 3d 8e 44 a9 3d b0 5d 1a 3e
       -0.14692163 0.061204433 0.08265029 0.15074801
000210 c5 ee a9 bd 69 2d 17 bd bc 5d 43 be 80 e7 38 3e
       -0.08297495 -0.03690854 -0.19078726 0.1805706
000220 31 dd 4e 3e 1c af fd 3d a0 8f 12 3e 86 1e 3a 3e
       0.20201565 0.12386915 0.14312601 0.18175706
000230 8f df 89 3e ae 63 b3 3d 8c de ee 3d 58 1e d4 3d
       0.26928374 0.08759247 0.11663541 0.1035735
000240 02 4c 13 be b9 18 96 3d 6a a2 be 3d 0c 4e 52 be
       -0.14384463 0.07328934 0.09308322 -0.20537585
000250 d8 27 4e bd 70 46 1a be de 43 12 be 78 c3 48 3e
       -0.050330967 -0.15065932 -0.14283702 0.19605815
000260 db 55 64 3e d8 75 3f bd cf 3a c8 3d 00 73 35 bd
       0.22298376 -0.046743244 0.09776842 -0.044299126
000270 1d 36 30 3d 67 65 a7 bc 9f 04 e1 bd 22 98 ae bd
       0.043020356 -0.020434095 -0.109872095 -0.08525111
000280 70 f0 8b 3e df 1d 86 3d 37 e1 00 be 01 a3 33 3d
       0.27331877 0.06548666 -0.12585913 0.043856625
000290 cb 20 7d be f8 2f 77 3c ea 60 61 3e f4 7a 44 3d
       -0.24719541 0.01508712 0.22009626 0.04796882
0002a0 7f 2f bc 3d 5e 6e 6c be b1 88 f7 bc 3b 78 31 3e
       0.09188747 -0.23088977 -0.030216547 0.1733102
0002b0 10 aa 3a be c7 06 eb bd 8d 89 57 3e 08 d9 c0 3d
       -0.18228936 -0.11475902 0.21048565 0.094163954
0002c0 81 3a 0e 3e 1f be 66 be 66 ca 4a 3e 0f 6f 14 bd
       0.13889505 -0.22533463 0.19803771 -0.036238726
0002d0 ca f5 a0 3d 05 97 6e 3e 5c 9d 64 be 6c ef c2 3d
       0.078593805 0.23299797 -0.22325653 0.09518322
0002e0 ea 58 53 be e7 50 5e 3e 8c 83 bd 3d c5 8d 41 3d
       -0.20639387 0.2171055 0.09253606 0.047254343
0002f0 d4 76 c4 bd 7d b3 00 3e e0 ec db bd 47 ee 72 3d
       -0.09592977 0.1256847 -0.1073854 0.05930927
000300 71 f5 75 3e 46 73 3d be 33 43 66 bd b0 48 a9 3d
       0.2401941 -0.18501005 -0.05621643 0.08265817
000310 36 16 6b 3d de 0f bc 3c 08 2d 83 3e 8f cf 25 bd
       0.05739423 0.022956785 0.25620294 -0.040481146
000320 21 f3 8c 3d 20 50 1a 3e 4b cc d7 bc c9 b5 44 3e
       0.06882311 0.15069628 -0.026342532 0.1920997
000330 cf 28 2d 3e 1d de 09 3e 9f 75 23 bd e3 53 73 3e
       0.16910098 0.13463636 -0.039907094 0.23762469
000340 ba eb 12 be c0 e3 bb 3d 0f bb 7e 3d 05 74 4d 3e
       -0.14347735 0.09174299 0.06219011 0.20063789
000350 cc 98 47 be c3 ee 80 3d 94 85 06 be 4d 76 25 3e
       -0.19491881 0.0629554 -0.13136894 0.1615841
000360 5a eb dd 3d 80 01 30 be 01 36 48 3c d7 13 6a 3d
       0.108359054 -0.17188072 0.012219907 0.057147827
000370 51 e5 fd 3d 05 d1 83 3e 3a 39 15 3e 90 c1 86 3d
       0.12397254 0.25745407 0.14572611 0.06579888
000380 87 7f 2a 3e 50 5a 7b be a3 8f 44 3e f9 d2 94 bc
       0.1665021 -0.2454617 0.19195418 -0.018167006
000390 0d 89 1d 3e a6 88 af 3d 4d 38 cb 3b 85 c8 4b 3e
       0.15384312 0.085709855 0.00620178 0.19900711
0003a0 8e bd 12 be 65 f0 b2 3d 3f 8e 06 3e 16 42 a1 bd
       -0.14330122 0.08737258 0.131402 -0.07873933
0003b0 18 5c e8 3d e1 e6 78 be 9d 15 ee bd fd 72 f9 3d
       0.113456905 -0.24306823 -0.11625216 0.121801354
0003c0 c6 28 23 3e ba e0 5b be 7b 8a e8 3d 03 73 22 3d
       0.15933523 -0.21472445 0.11354538 0.039660465
0003d0 1e ad 8c 3e c6 39 7b be 32 46 5c bd 2b fd 0e be
       0.27475828 -0.24533758 -0.05377788 -0.13963763
0003e0 d9 f6 19 be 04 5b bc bc 08 bf 5d be e4 35 67 3e
       -0.15035571 -0.022992618 -0.21654904 0.22579151
0003f0 33 b2 9a bd 6d 41 d6 3d c1 7d 04 be 1e 8b bf 3c
       -0.0755352 0.10461698 -0.12938596 0.023381766

fc2.weight f4 [256, 256]
000000 e1 b8 24 bd 84 82 47 3d cc 90 7e 3d c9 38 5b 3d
       -0.040215377 0.048708454 0.062149808 0.05352095
000010 8b 25 40 bc 91 44 42 3d 15 41 2f bd 2c fd 0e 3d
       -0.011727701 0.04742867 -0.042786676 0.034909412
000020 23 d4 80 39 a4 b1 38 bd a1 1d 40 bd a9 4a 65 bd
       0.00024572117 -0.045091286 -0.046903256 -0.055979405
000030 19 4a 8c 3c 27 0d c9 bc 71 62 f6 bc 9d f2 8b 3d
       0.017125176 -0.024542404 -0.030076237 0.06833384
000040 3d 19 6e bc 70 d4 bc 3c bf 7f 06 bc 5c 7e 45 3d
       -0.014532384 0.023050517 -0.008209168 0.04821621
000050 09 eb fd 3c 59 85 17 3d cc f7 81 3c 55 21 8b bc
       0.030995863 0.036992405 0.01586523 -0.016983667
000060 92 b1 71 3d 33 cf 2b 3b 50 0e da bc 32 c7 e0 3c
       0.059007235 0.002621603 -0.026618153 0.027438734
000070 23 11 e8 bb 1a 61 fd bc b0 b6 49 3c 98 22 0b bc
       -0.007082121 -0.03093009 0.0123116225 -0.0084921345
000080 f7 a8 86 bc 69 e9 d0 bc 32 a5 4f bc a3 f2 e1 bc
       -0.01643799 -0.025501924 -0.012673663 -0.027581519
000090 5a 4a 63 3c 4c b4 7b 3d 01 f2 f2 bc da 7b a4 bc
       0.013872707 0.06145124 -0.029656412 -0.020078588
0000a0 76 72 39 bd e5 f2 1e 3c 30 dc 77 3c a2 de 3b bd
       -0.045275174 0.009701465 0.01512818 -0.045866616
0000b0 5a 92 fa 3c 97 4d 4d bd c6 75 63 3d f1 14 80 3c
       0.030587364 -0.050122824 0.05553224 0.015634986
0000c0 81 ac 14 bb 8c 2e b6 bc f3 65 d8 3c f6 c5 3f 3d
       -0.0022685828 -0.022238992 0.0264158 0.04681965
0000d0 e6 b5 07 bd 8e 61 07 bc de 2c 51 3d d3 3d 23 bc
       -0.033132456 -0.008263005 0.05106818 -0.0099634705
0000e0 85 33 21 bd a3 e0 57 bc 38 c4 27 3c 31 97 11 bc
       -0.039355773 -0.013176116 0.010239653 -0.0088861445
0000f0 50 9f 2c bd 17 de bd bc 7d 15 88 3c d9 f0 50 3d
       -0.04214412 -0.02317719 0.016611809 0.05101094
000100 6c 9a 5b 3d 88 54 73 3b 7c 22 0b 3d fc 78 3e bd
       0.053614065 0.0037129242 0.033968434 -0.0465021
000110 0a 49 17 3d c6 46 74 3d c4 21 11 3d 3b 83 90 bc
       0.03693489 0.059637807 0.035432592 -0.0176407
000120 16 cd 72 3d 6a 1c 45 bd 8b 8b 8b 3a da 93 49 bc
       0.059277616 -0.0481228 0.0010646445 -0.012303317
000130 53 0f 72 bd 0b 31 f3 bc 11 c2 30 bd b2 01 b3 3c
       -0.059096646 -0.029686471 -0.043153826 0.021851394
000140 fa 0f 10 3c ae ac e1 3c f2 83 55 bc 1e 8d 6a 3d
       0.008792872 0.02754816 -0.0130319465 0.057263486
000150 a4 19 98 3b 69 f8 6e 3d 42 57 6f 3d b0 74 68 bd
       0.0046417285 0.05834237 0.058432825 -0.056751907
000160 f5 51 e7 bc 16 1d 04 3d dc 08 87 3d 08 9c 38 bd
       -0.028237322 0.0322543 0.06593487 -0.045070678
000170 e1 94 44 3c 10 42 ce bc ed a7 66 3d 9f 44 5f 3d
       0.011998386 -0.025177985 0.05631249 0.0545088
000180 e1 75 5f 3d 25 8e 49 3d c1 67 40 bb f3 17 7d 3d
       0.054555777 0.049207825 -0.0029358717 0.061790418
000190 f1 23 df bc 2f 83 a9 3b c6 c1 86 bc 80 db ce bc
       -0.027238818 0.005173109 -0.01644982 -0.02525115
0001a0 06 a7 e5 bc 95 d2 c8 3c c2 bd 5b bb 1c fd 0c bd
       -0.028033745 0.024514476 -0.0033529853 -0.03442107
0001b0 cf 18 b6 b9 49 69 a9 3c c6 1c 1f bd e4 7c 4c 3d
       -0.0003473223 0.020680087 -0.0388458 0.049923792
0001c0 ce 45 38 bd a4 d1 02 3c f7 cb 64 bd e2 66 73 bd
       -0.044988446 0.0079845525 -0.05585858 -0.05942429
0001d0 5b b9 48 3a e2 5d 62 3d 58 71 7d 3d f3 29 db 3c
       0.00076570146 0.055265315 0.06187567 0.026753401
0001e0 52 64 71 3d 26 0b 1a bd c4 b8 03 3d a2 3f 3f 3d
       0.058933564 -0.03760829 0.032158628 0.046691544
0001f0 6a 40 27 bd 16 93 37 bd fe 87 af 3c eb e3 40 3c
       -0.040832914 -0.044818006 0.02142715 0.01177309
000200 3e 93 02 bd 2c 90 45 bd 8f 94 45 3d 9f 7d 5d 3c
       -0.031878702 -0.048233196 0.04823738 0.01351872
000210 57 8e b5 3b 50 cc 50 bd b3 3e 7d 3d 7f 6c 16 bd
       0.00554065 -0.050976098 0.061827373 -0.036724564
000220 c6 61 e3 3c cc ee f1 b9 90 f4 3d 3b 80 e2 13 3d
       0.027756583 -0.0004614502 0.0028984882 0.03610468
000230 6d 43 39 bc 6b be 41 bc 6e 4b 69 3d 95 f5 3b bd
       -0.011307579 -0.011825184 0.0569567 -0.045888502
000240 e2 a0 13 3d 6e 09 85 bc ca 93 61 bc f3 78 5a 3d
       0.0360421 -0.016239848 -0.013768146 0.053338002
000250 90 bd d5 3b 4a fa 6f bd 26 fa 68 3d c7 53 f1 bc
       0.0065228418 -0.058588304 0.056879185 -0.029458893
000260 62 db 6f 3d 6e 9b a8 bc a8 b4 88 3d cc 47 ee 3c
       0.05855883 -0.020581927 0.066750824 0.02908697
000270 8b ac 3a bb f7 4b be 3c 7d c4 bd bb 4f c7 0c bd
       -0.0028484191 0.023229582 -0.0057912455 -0.034369763
000280 40 fc 27 3d 82 ff 5a 3d d9 f1 aa ba 68 97 81 3d
       0.04101205 0.053466327 -0.0013042047 0.063277066
000290 fa 5c 83 3c 85 7b 12 bd 6d 5f 0a bd b1 09 63 3d
       0.016035546 -0.03576233 -0.03378241 0.055429164
0002a0 e1 84 93 bc 83 e1 38 3d 88 8d 45 bd f0 72 c8 3b
       -0.018007698 0.04513694 -0.048230678 0.0061172172
0002b0 8c 78 0b bd 29 4e e3 3c ee 68 6d 3d a8 56 06 3d
       -0.03405051 0.02774723 0.057961397 0.032797486
0002c0 d6 47 8a bc 95 a2 5b bd a3 d7 e9 bc 0e 8e d3 bc
       -0.016879957 -0.053621847 -0.028545206 -0.025824573
0002d0 2e bc 70 3d 4f 66 fe bc 8d f5 ac 3c d5 86 79 3d
       0.058773212 -0.031054644 0.021113181 0.0609196
0002e0 31 04 94 3c d3 47 4b bd 99 44 40 39 a5 28 86 bc
       0.018068405 -0.049629044 0.00018336101 -0.016376803
0002f0 f9 98 80 3d ea 0f f0 bb e0 1a e0 ba 5e 64 72 3d
       0.06279177 -0.007326116 -0.0017097853 0.05917775
000300 67 cf 87 3c da 6a 03 3d 50 77 60 bc 2d c7 43 3d
       0.01657839 0.032084323 -0.013700321 0.04779737
000310 7b 21 42 3c 16 f2 59 bc 34 18 ae 3c c8 e4 5b bd
       0.011848803 -0.013302347 0.021251775 -0.05368498
000320 d7 eb 80 3b e5 1e 02 3d 45 8f 60 bd 7a 70 e6 bc
       0.0039343643 0.031767745 -0.054824132 -0.028129805
000330 cb 37 14 3d 1a 4c b3 3b 9c 5a 93 ba a5 4f 66 3c
       0.03618602 0.0054717185 -0.0011242214 0.014057075
000340 e8 15 a8 bc cc 81 56 3d 32 88 16 bc 52 eb 8a bc
       -0.020518258 0.052369878 -0.009187745 -0.016957913
000350 c6 e4 32 3d d4 17 59 bd 31 b9 48 bc ad 1d 66 3c
       0.043675207 -0.05300124 -0.012251184 0.014045161
000360 59 92 69 bc fa 72 fa 3c 08 20 4b bd 66 04 4c bc
       -0.014256083 0.030572403 -0.049591094 -0.012452221
000370 a9 f3 91 bc b9 12 79 3d 56 a3 0e 3d 92 e6 1c bd
       -0.017816382 0.06080887 0.034823738 -0.038305826
000380 b0 05 0d 3d dc a1 13 3c 81 27 6d 3d da c1 0d 3d
       0.034429252 0.009010758 0.057899002 0.0346087
000390 c7 5f 18 bd 21 13 69 3d b1 00 b8 bb 92 10 f0 bb
       -0.037200715 0.05690301 -0.005615317 -0.007326194
0003a0 33 13 f0 3c f1 50 86 3d 30 8f c2 3c 1d 5f 5c bd
       0.02930603 0.06558407 0.023749918 -0.053801645
0003b0 e9 f9 39 bc 15 fc 8c 3d 97 79 46 bc bd 72 f2 bc
       -0.011351087 0.06884018 -0.01211395 -0.029595727
0003c0 f2 55 27 bd c0 1e fe bc 11 29 dc bc 28 13 be 3c
       -0.04085345 -0.031020522 -0.02687505 0.023202494
0003d0 8c 51 fa 3c 09 f9 83 3d 59 3a 0b 3d 83 90 40 3b
       0.030556463 0.06443984 0.03399119 0.002938301
0003e0 c7 61 2c 3d 6a d8 03 3d 48 6b 4e bd 93 5e 0c 3d
       0.042085435 0.03218881 -0.05039528 0.03426988
0003f0 7c 00 24 bd 22 78 4c 3d 9a 70 df bc d5 71 ad 3c
       -0.040039524 0.049919255 -0.027275372 0.021172443

fc2.bias f4 [256]
000000 94 1d 06 bd 75 34 84 3d 7d 19 83 bc 79 30 16 bd
       -0.03274305 0.06455318 -0.016003365 -0.03666732
000010 1b 96 12 bb b4 45 36 bd 1e fb 01 bd 8e 95 87 bc
       -0.0022367302 -0.044500068 -0.031733625 -0.016550805
000020 8b 02 65 bc 11 80 85 bd a0 61 c8 bc 49 d1 19 3c
       -0.013977657 -0.06518567 -0.024460614 0.009388276
000030 49 0c 7d 3d 13 a2 75 3d ce 5a 31 3d d5 c7 1f bd
       0.061779294 0.05996902 0.04329949 -0.039008934
000040 ce ab 94 3c f4 2e ed bc 78 3c e1 3c 38 8c 01 bc
       0.01814833 -0.028953053 0.027494654 -0.007906966
000050 86 32 a7 3a d8 7d 94 3c 1d 54 bb 3c b9 f8 25 3d
       0.0012756146 0.018126413 0.022867257 0.040520404
000060 be 38 52 bc c3 2c 35 3d d9 bd 86 3c eb 9c 42 3d
       -0.012830911 0.04423214 0.016447948 0.04751293
000070 1f 60 67 bd 23 5f 6b 3d a4 54 6c 3d 1c 82 e4 3c
       -0.056488153 0.057463776 0.057697907 0.027894072
000080 8a 05 21 3d ad 89 38 3c 6e 5a 8c bc d6 28 63 bd
       0.039311923 0.011263293 -0.017132964 -0.055458866
000090 d6 ef 18 3c 09 8c 15 bc c4 49 7b 3d 64 1c 58 3c
       0.009334525 -0.009127625 0.061349645 0.013190363
0000a0 5e 64 8f bc 39 42 7f bc 10 4e 1e 3c e4 58 8a 3d
       -0.017503913 -0.015579754 0.009662166 0.06755236
0000b0 ac 27 6a 3d 08 f6 2e bc de 6e 67 bd 4c 1b eb bc
       0.05716674 -0.010678776 -0.056502216 -0.02869954
0000c0 a8 e3 8a 3d 19 7f 72 3c 26 fc c5 bb 9a 96 44 bc
       0.06781703 0.01480081 -0.0060420213 -0.011998797
0000d0 03 1d ac 3d c7 a3 34 bc 3f 90 6a 3d d2 e4 07 3d
       0.08403971 -0.011025376 0.05726647 0.033177204
0000e0 b2 a0 93 3c 28 80 5b 3c e8 e8 99 ba 82 52 65 bb
       0.018020961 0.013397254 -0.0011742385 -0.0034991805
0000f0 d5 33 34 3d 8d 6d e8 bc 91 e4 51 bb 2f 8a 90 bc
       0.043994743 -0.02837255 -0.0032027105 -0.017644016
000100 5a 52 8a bb c5 9a 43 3d fe 99 7f 3d 7a 67 8a 3d
       -0.004221243 0.04775502 0.062402718 0.06758018
000110 fe 89 e3 3c b6 95 e0 3c 39 aa b8 3c cd 61 d3 3c
       0.02777576 0.027415138 0.022542106 0.025803471
000120 af c5 6b 3d 5d ce 3b 3d dd 17 ed 3b 8c ba 76 bc
       0.057561573 0.0458511 0.0072355107 -0.015059125
000130 94 98 24 3d 92 87 2b 3d 1a 49 93 3c 34 cb 85 3d
       0.040184572 0.041877337 0.017979193 0.065328985
000140 60 bf fe 3c ee 44 f0 bc 0d 79 a9 3d 3a 1a 2d bd
       0.031097114 -0.029329743 0.08275042 -0.04226134
000150 03 6b b3 3a 43 03 2f bd 19 33 ec 3c 77 6d c7 bc
       0.0013688508 -0.04272772 0.028832959 -0.02434419
000160 43 8a c8 3c 93 b7 c5 3b e1 cd d1 bc 6b 6f 85 3d
       0.02447999 0.0060338466 -0.025610866 0.06515392
000170 c8 ad 39 bd 05 b1 87 3d e8 6a 54 bd d4 b6 6e bd
       -0.045331746 0.06625561 -0.051859766 -0.058279827
000180 da 12 4b bd ca 36 ef 3c ab c6 e9 bb 3f 7f 40 bc
       -0.049578525 0.02920093 -0.007134279 -0.011749088
000190 a3 b0 a3 3c 8c 86 19 bd 84 f1 3e bd 12 39 49 3c
       0.019981688 -0.03748183 -0.046617046 0.012281673
0001a0 3c f6 cb bc ca b1 ff bc 91 ad 00 3c 96 b9 8a bc
       -0.024897687 -0.031212706 0.007853881 -0.016934197
0001b0 68 3e 09 3c 49 44 bf 3c b8 7f 50 3d aa a3 8a 3c
       0.008376695 0.02334799 0.050903052 0.016923744
0001c0 27 56 0c bd af 05 19 3c f5 e0 3d 3d 7b a4 42 bc
       -0.03426185 0.009339734 0.046357114 -0.0118800355
0001d0 8a 8a 37 3d a9 15 f9 3c 25 96 74 bd da c0 41 3c
       0.044809856 0.030405836 -0.0597135 0.011825765
0001e0 c4 2a b4 3c de 3d bd bc e4 c2 93 bb f4 1e 20 3d
       0.021993048 -0.02310079 -0.0045093168 0.03909202
0001f0 27 01 e4 3c 20 f6 57 3d 57 80 f9 bc d0 38 a4 3d
       0.02783258 0.052724957 -0.030456705 0.080186486
000200 c7 53 52 3d c2 18 96 3c fe f4 53 3c cf f9 90 bc
       0.051349428 0.018322352 0.012936829 -0.017697243
000210 d5 67 3f bd 89 a5 e7 3c 04 06 37 3d a3 1d 9f 3c
       -0.04672988 0.028277176 0.04468347 0.019423312
000220 de 4b f3 3c 01 54 91 3d ab a6 c4 bc ec 65 01 bd
       0.029699262 0.070961006 -0.024005255 -0.03159134
000230 1b 8b 0d 3c 62 80 05 3d d6 29 51 3d e6 23 68 3d
       0.008639122 0.03259314 0.05106529 0.05667486
000240 46 a9 2c 3c c0 dd f2 3c 8e 5e 84 3d 2b 44 31 3d
       0.010538405 0.029646754 0.064633474 0.0432779
000250 40 d0 14 bc ec f0 e6 bc f3 14 3e bc c1 e8 6c 3d
       -0.009082854 -0.028191052 -0.011601674 0.05783916
000260 54 fa 43 bd d1 fb d3 3c e5 b1 b4 3c 3e 92 07 bc
       -0.047846153 0.025876911 0.022057483 -0.008274613
000270 f4 b0 09 bd e0 e8 50 bd 81 ee 71 3c 4b f8 0b bd
       -0.03361602 -0.051003337 0.014766336 -0.034172338
000280 ae 05 ae 3c b5 6a af bc a7 65 df ba 24 f2 30 bc
       0.021242943 -0.021413187 -0.0017043845 -0.010799918
000290 63 b0 06 3d 87 00 55 3d 46 d9 56 3d c6 7c cb 3c
       0.03288306 0.052002456 0.0524533 0.02483977
0002a0 7c 5b 7e bd 12 6c ab bb 4b 6d 31 3d a3 39 fd 3c
       -0.062098965 -0.005231389 0.04331712 0.030911272
0002b0 8e 80 78 3d 22 dc 13 bd 11 61 06 bc d3 05 6b 3d
       0.060669474 -0.036098607 -0.008201853 0.0573786
0002c0 11 30 14 3d 7a 46 98 bc 01 a5 da 3b bb c5 1f 3d
       0.036178652 -0.018588293 0.006672502 0.03900693
0002d0 ce 81 13 bb 92 91 0b 3c d9 81 9a 3c 1f a9 bc bc
       -0.002250779 0.008518593 0.018860744 -0.023029862
0002e0 8a 9c 7d bd b3 c1 12 3d 3f f2 46 3c ef e9 19 bd
       -0.061916865 0.035829257 0.012142717 -0.037576612
0002f0 e6 13 84 3c 2b 86 c8 bc 2d 0e 6c 3d 68 1e 8e bc
       0.01612277 -0.024478039 0.057630707 -0.017348483
000300 e5 4e 68 3d cb 05 be 3c 81 a5 f3 3b e3 bc 13 3c
       0.056715865 0.023196122 0.007435501 0.009017202
000310 ff 6a 83 3c ec d5 04 3d 36 61 4a bc ab 2a 2d bc
       0.01604223 0.032430574 -0.012352278 -0.010569255
000320 41 5e 14 bd b8 16 eb 3c 91 eb a1 bc cd b6 6a 3d
       -0.0362227 0.028697357 -0.019765647 0.05730324
000330 37 77 27 bc 44 4b 72 3d 33 82 02 3d 3a 8f 66 bd
       -0.010221294 0.05915381 0.03186245 -0.056288935
000340 22 9b 93 3c e2 a9 07 3d d7 2b d4 bc bc 86 fa 3b
       0.018018309 0.033120997 -0.02589981 0.007645456
000350 f5 25 10 3d ce 23 2e bd c0 e3 0e bd a0 a8 c5 3b
       0.03519245 -0.042514615 -0.034885168 0.0060320646
000360 5f f1 00 3d a2 00 38 bc 70 0a 0e bd 8b 50 16 bd
       0.03148019 -0.01123062 -0.034677923 -0.036697906
000370 2a c6 ac 3c a0 e8 c0 bc 83 c6 e2 bc 93 15 10 3a
       0.021090586 -0.023548424 -0.027682548 0.0005496379
000380 7d e3 82 3c 2f 50 31 bc 56 81 34 3d 79 18 4d bd
       0.015977615 -0.01082234 0.044068657 -0.050072167
000390 1b 1e 29 bc 66 5e 4d 3c 7b cf 37 3d 79 c6 88 bc
       -0.010322119 0.012534713 0.044875603 -0.016696202
0003a0 6a 45 6a bb 16 14 49 bd 11 ff 4b 3d d6 71 c8 3c
       -0.003574694 -0.04909142 0.049803797 0.024468344
0003b0 74 bd 51 3c ff 49 30 bd b4 4c 9a 3d e8 a0 4d 3d
       0.012801517 -0.04303932 0.07534161 0.05020228
0003c0 55 77 63 3d b6 a5 15 bd db 9a 7f bb 0c ea 9d bc
       0.055533726 -0.036534987 -0.0039002213 -0.019276641
0003d0 eb b1 c7 bc aa a7 11 bd 5c e3 fd 3c d7 d2 ca 3b
       -0.02437683 -0.035560288 0.030992202 0.006189685
0003e0 d6 18 2c 3d 93 8f e9 ba 9b 2f 2a 3c 1d 2d 4f bb
       0.042015873 -0.0017819278 0.010387327 -0.0031612583
0003f0 85 2d 21 bd 5d dd 2e bd a9 d9 09 3d ee 8e 0e bc
       -0.03935005 -0.042691577 0.033654843 -0.008701069

fc3.weight f4 [4, 256]
000000 9a bb d4 bb 86 09 69 3c 7c 93 35 bb 40 93 19 3d
       -0.0064920904 0.014223462 -0.0027706316 0.037493944
000010 35 b1 bf bc 58 85 91 bc 7a c3 92 bd 9c 64 85 3c
       -0.023399929 -0.017763779 -0.071661904 0.016283326
000020 0e 0b 59 3d 8b 14 c3 bc e2 75 bd bc 7e 8e 01 bd
       0.05298906 -0.023813507 -0.0231275 -0.03163003
000030 fa 3d a4 3d fb 91 97 bd 67 47 37 3d 52 ed 38 bd
       0.080196336 -0.074008904 0.04474583 -0.0451482
000040 dc b8 5a bd 8b f0 86 3d 47 d2 b9 3c 5b 04 e8 3c
       -0.053398952 0.06588849 0.022683276 0.02832239
000050 97 c8 eb bc 66 2a 91 bd e5 69 25 3c f0 21 52 3d
       -0.028782172 -0.07088165 0.010096048 0.051301897
000060 12 1d 79 3d 89 f8 ea bc c5 ff a2 3d 43 f9 99 3d
       0.06081874 -0.028682964 0.079589404 0.07518246
000070 14 e8 12 bd cf 69 28 bc ec 8a 94 3d 22 17 3f 3d
       -0.03586586 -0.010279133 0.0725306 0.04665292
000080 84 10 8f bd 2b 65 90 bd 6c a4 7b bd 36 ee 02 bd
       -0.06985572 -0.07050546 -0.0614361 -0.031965457
000090 a5 5d 1c 3d 8a be 2e bd ab a6 95 3d b2 06 ec bc
       0.038175244 -0.04266218 0.0730718 -0.028811786
0000a0 b4 94 6e 3d f1 b3 04 bd 08 e0 89 3d f4 ee c9 3c
       0.058247283 -0.032398168 0.06732184 0.024650075
0000b0 dd 95 69 3d b4 b7 eb 3c e8 d1 71 bd 8d 18 66 3d
       0.057027686 0.02877412 -0.059038073 0.056175757
0000c0 4a bc 91 bc 38 ea 02 bd db 0e 32 3d 11 9f 8c bd
       -0.017789979 -0.03196165 0.0434712 -0.06866277
0000d0 11 16 98 3c 16 86 95 bd 43 fa 1c bd b1 af 3b 3d
       0.01856521 -0.073009655 -0.038324606 0.04582185
0000e0 95 ee 1d 3d 74 29 68 3d f8 03 52 3d 56 86 64 bd
       0.038557608 0.056680158 0.051273316 -0.055792175
0000f0 31 c6 93 3d b6 3e 69 3d 2e b9 c3 bc b7 c1 4b 3d
       0.072155364 0.05694457 -0.023892011 0.049745288
000100 da af 32 3d f9 78 3f bd 5d 9c 45 3d e8 2b 4e 3d
       0.043624736 -0.046746228 0.048244823 0.05033484
000110 65 ef 61 bd a0 ba 99 3c 34 07 d3 3c 47 4b fe 3c
       -0.055159945 0.018765748 0.02576027 0.031041754
000120 4d 91 c1 bc 01 8a b7 3c 37 5a 48 3d 5e 35 4d 3d
       -0.023628855 0.022404673 0.04891416 0.050099723
000130 3d a4 7f bd ae 5d 01 bd d3 32 96 3d 4a ca 56 3d
       -0.06241249 -0.03158348 0.07333913 0.05243901
000140 19 81 b7 bc e1 b0 8e bd 7d 65 84 3d bd ff 8b 3d
       -0.022400426 -0.06967331 0.0646467 0.068358876
000150 d5 c3 63 bd 62 c1 99 bd 49 c2 0f bc 6c bb cd ba
       -0.05560668 -0.07507588 -0.008774349 -0.0015696115
000160 92 e6 ea 3c 17 be 04 3d a2 45 c9 bc b1 78 6c 3d
       0.028674398 0.032407846 -0.024569336 0.057732288
000170 c7 3b 45 bd fd 18 4f 3d 30 59 17 3c 1b b5 30 bd
       -0.04815271 0.05056094 0.009237573 -0.043141466
000180 9c b2 8a 3c 11 0e 9b 3c c5 5a dc 3c 07 ae 31 bc
       0.01693087 0.018927606 0.026898751 -0.010844714
000190 82 d4 98 3c ee a9 6a bd 2c 38 4b bd 84 43 75 bd
       0.01865602 -0.057290964 -0.049614117 -0.05987884
0001a0 74 0a 14 3d 48 d0 6f 3b ff 79 be 3c 90 d2 55 bd
       0.03614278 0.003659265 0.023251532 -0.05220276
0001b0 8c 7e bd 3c 81 7a 88 bd 55 f0 d5 3c 27 90 8d bd
       0.023131631 -0.06663991 0.026115576 -0.069122605
0001c0 68 ba b5 bd 96 8f 7b bd 85 e1 91 3d 43 48 8d 3d
       -0.08873445 -0.06141623 0.071230926 0.068985485
0001d0 00 3a 11 3d 3f f2 fe 3c bd de 5e 3d 30 55 e9 bc
       0.035455704 0.031121371 0.05441164 -0.028483003
0001e0 26 e8 71 3d a2 f5 27 3d 9f 46 63 3d 8f d6 11 3d
       0.059059285 0.041005738 0.05548727 0.03560501
0001f0 13 b5 3f 3c f7 9f 47 bd a7 3f 7c bd c9 b2 8a 3c
       0.011700886 -0.04873654 -0.06158414 0.016930955
000200 3f 52 53 3d 59 ac 5a bc 82 01 70 3d 44 b2 d8 3b
       0.051592108 -0.013346755 0.058595188 0.006613048
000210 17 32 74 bd f7 33 40 bd f8 88 f5 3b 35 10 2d 3d
       -0.059618082 -0.046924558 0.0074931346 0.042251784
000220 48 24 b8 bc 2c 29 85 3d 7e 27 80 3d 8a ba 89 3d
       -0.022478238 0.065019935 0.062575325 0.06725033
000230 41 dc 23 3d b3 c8 92 3c db 2e 17 bd b6 0f 15 bd
       0.040004972 0.017917966 -0.03690992 -0.036391936
000240 6f e6 73 bd a4 ab 34 bd 58 e7 36 3d 48 06 f3 3c
       -0.05954593 -0.044109 0.04465422 0.029666081
000250 8b 3c 38 bd cc 36 73 3c c9 72 7a 3d ba b3 6e bd
       -0.044979613 0.014844608 0.061144624 -0.05827687
000260 d9 de 48 3d 37 4e 8e bc 9b 1c a0 bd 8a e1 eb 3c
       0.04904065 -0.01737128 -0.07817956 0.028794069
000270 15 1c a1 3c b8 61 2e bd 17 e0 69 3d 2b 09 75 bd
       0.01966671 -0.04257366 0.057098474 -0.059823196
000280 3b a8 5c bc 8b ca a3 bc 0f 66 7b bd f8 17 9f 3c
       -0.013467844 -0.019994041 -0.061376628 0.019420609
000290 09 08 06 3d 18 0b 51 bd 15 43 5b bc db bd 63 3d
       0.032722507 -0.05103597 -0.013382693 0.055600982
0002a0 24 3d 44 bd 5b 17 2c 3d 49 74 69 3d 10 29 80 bd
       -0.04790987 0.04201446 0.056995664 -0.06257832
0002b0 d7 dd 5f bd 0f a1 7b 3d fc af ba bc 0d 97 64 3d
       -0.054654922 0.061432894 -0.022788994 0.055808116
0002c0 30 f3 09 3d 52 9a b9 3a 3f b9 a9 bb d0 fa 4b bd
       0.033679187 0.0014160371 -0.0051795538 -0.04979974
0002d0 6b be 31 bc 09 a3 21 bd 3f 46 98 bd 8d cc 98 bd
       -0.010848622 -0.039462123 -0.074352734 -0.0746089
0002e0 d4 1b 98 bc 55 d9 29 bc cb c8 f9 bc ae a6 2a bd
       -0.018567957 -0.010366757 -0.030491253 -0.041662864
0002f0 00 e5 00 bd 4a d7 50 bd 4e 63 1b bd c5 75 7a 3b
       -0.03146839 -0.050986566 -0.0379365 0.0038217169
000300 eb 4b 39 bd cc c7 b5 bb f0 47 ee bc 23 11 85 bd
       -0.045238417 -0.0055474993 -0.029087037 -0.06497409
000310 97 29 28 3d 39 1d e3 bc df 1d 76 3d 23 6b 82 bd
       0.04105529 -0.027723895 0.06008708 -0.06368091
000320 45 9a 2d bd 01 8b 59 3d af 65 06 3d 48 bb 81 3d
       -0.04238345 0.05311108 0.032811817 0.06334549
000330 ab d9 bb bc 37 63 85 bd e5 81 15 3d 7d 16 65 bc
       -0.02293094 -0.06513064 0.03650083 -0.013982412
000340 5c ea 8c 3c ba 1d 58 bd 12 16 4d 3d 6f 75 d7 3b
       0.017201595 -0.052762724 0.050069876 0.0065752785
000350 69 69 d7 3c 43 8c 68 3d 2d 3d d7 3c 49 fd 76 3d
       0.02629538 0.05677439 0.026274288 0.060300145
000360 12 71 27 bd b6 e8 a7 ba 44 c5 9d bc 6c d8 7b bd
       -0.040879317 -0.0012810442 -0.019259103 -0.061485693
000370 b3 47 c2 3c f2 81 63 bd e2 f5 da 3c ba ae 42 bd
       0.02371583 -0.055543847 0.026728574 -0.047529913
000380 6c 27 1d 3d fb 6b 63 bd f7 22 ac bc 4f 3f a1 bd
       0.038367674 -0.0555229 -0.021012766 -0.07873403
000390 5e 56 cb bb db e5 97 3d c2 b7 7d 3d 5f 87 9b 3d
       -0.006205364 0.07416888 0.061942823 0.07594179
0003a0 63 24 0b 3c bc 92 a8 3c 30 2b 9c bb f8 08 10 3d
       0.008492562 0.02057778 -0.0047658905 0.035164803
0003b0 18 7c 5e 3c 15 cd 13 3c 6e cc c1 3c f2 01 b9 3c
       0.013579391 0.009021063 0.02365705 0.022583935
0003c0 5f a6 22 3d c3 aa 9b bb 2e 76 11 bd 95 04 cb ba
       0.039709445 -0.004750581 -0.035513096 -0.0015489036
0003d0 a8 fb 77 bd 2b 5b 6e 3d e5 b3 20 bd 71 51 0f 3d
       -0.060542732 0.058192413 -0.03923406 0.034989778
0003e0 a9 26 04 bd 4b 7e e4 3c cc bb 20 3d fb cf 5c bd
       -0.03226343 0.027892252 0.039241597 -0.053909283
0003f0 06 3b 02 3d ea 72 cb b9 45 e7 10 bd 94 99 82 bb
       0.03179457 -0.00038804795 -0.035376806 -0.003985593

fc3.bias f4 [4]
000000 42 f4 01 3d 4a a4 a6 bc a6 af 5b bd e7 f1 82 3d
       0.031727083 -0.020342011 -0.05363431 0.063937955

fc1.weight f4 [256, 15]
000000 83 87 5c 3e 65 52 70 3e 4f 47 99 bd ae 37 54 3e
       0.21536069 0.23468931 -0.07484304 0.20724365
000010 9c f7 6d bd 7a f9 44 3d df 62 fd bd 9d 6c 1b 3e
       -0.058097467 0.048089482 -0.12372374 0.15178151
000020 7d d6 5c 3e 6c 7a 3f be 23 40 6d 3e 9d d5 38 3d
       0.21566196 -0.18699044 0.23168997 0.045125592
000030 90 a9 33 3e 68 f3 09 3d cc e3 08 3e 9a a7 40 bd
       0.17545152 0.033679396 0.13368148 -0.047034837
000040 03 3d 61 3e 49 23 14 3d 61 18 f1 bd 5c 06 9d 3d
       0.2199593 0.036166463 -0.11772228 0.076672286
000050 99 cb cb bd 4c 0d f5 bc 4c e0 e7 bd 9d 33 3b 3e
       -0.099509425 -0.029913567 -0.11322078 0.18281408
000060 d2 65 40 be 6e b5 04 be ac 49 8a bd e3 25 13 be
       -0.18788841 -0.12959835 -0.06752333 -0.14369921
000070 f4 ab 96 3c 76 25 80 be b9 88 5f 3e ec dc 73 be
       0.01839254 -0.2502858 0.218295 -0.23814744
000080 c5 14 4e 3e 1b fe a2 3c 11 b0 b8 bd 04 f1 27 3e
       0.2012511 0.019896558 -0.09017957 0.16400534
000090 2c 85 03 3d ff ca 63 3e 47 b2 b4 3c 99 75 85 bd
       0.032109424 0.22245406 0.022057666 -0.065165706
0000a0 7c cc 87 3d 6a c3 45 bd 10 fc ca 3d 5b 4b 5d 3e
       0.06630799 -0.048282064 0.09911358 0.21610777
0000b0 ea cc 2c 3e d7 27 01 be b6 aa 29 3e 44 88 15 3d
       0.16875044 -0.12612854 0.16569027 0.036506906
0000c0 7a 97 09 3e c1 f4 13 be 88 4a 71 be 57 86 f7 bd
       0.1343669 -0.14448835 -0.23563588 -0.1208617
0000d0 d5 ef 58 be 6e 6c 57 3e 32 79 a0 3d c9 8c d2 3d
       -0.21185239 0.21037456 0.07835616 0.10280759
0000e0 c7 e8 bf 3d bd 98 15 3c 96 ed 4c 3e a1 a8 30 be
       0.09370571 0.009130654 0.20012507 -0.17251827
0000f0 60 78 b6 3c 66 84 43 be 5f 1e a3 3d c8 28 d7 bd
       0.022274196 -0.19093475 0.07964777 -0.10505825
000100 44 0f 96 3d 58 df 8c bd 74 42 4b 3e 48 c3 13 be
       0.073271304 -0.06878537 0.19849569 -0.14429963
000110 78 91 16 be 12 41 09 be b7 26 69 3e 0a 2d bb 3d
       -0.1470393 -0.13403729 0.22768675 0.0913945
000120 0a 14 72 3e b1 33 56 be 85 18 70 be fc 8e 44 be
       0.23640457 -0.20918156 -0.23446853 -0.19195169
000130 c9 53 3d be 20 e7 e0 3d 65 aa a7 3d c4 f1 43 3e
       -0.18488993 0.109815836 0.08186797 0.19135195
000140 90 ce fd bd f2 5d 2b be 90 58 19 3e 9d 35 b4 bd
       -0.12392914 -0.16735056 0.1497519 -0.087992884
000150 43 80 28 3e cc c7 69 bd b7 ac 27 3e ab 25 49 be
       0.16455178 -0.057075307 0.16374479 -0.19643275
000160 9a cc 01 be 72 bc ad 3d 32 07 93 3d eb 5a 8f bd
       -0.12675706 0.08483209 0.07179107 -0.06999763
000170 d9 64 27 3e fd 3c 32 3e 9c b9 57 be 99 82 0a be
       0.16347064 0.17406078 -0.21066898 -0.13526382
000180 0d eb 84 3e 90 97 9c bd cb c2 b2 bd 3c 9d 7d be
       0.2596058 -0.07646096 -0.0872856 -0.24767011
000190 12 b6 1b be 34 e5 5f 3d 04 80 f4 bc a3 0b 40 be
       -0.15206173 0.054661945 -0.029846199 -0.18754439
0001a0 d2 fc 2b bc 99 3e 43 be 4a d7 6f be 38 07 12 be
       -0.010497289 -0.19066848 -0.2342197 -0.14260566
0001b0 13 d2 82 be 50 a1 42 be 82 26 83 3e ad 9a 60 3d
       -0.255509 -0.19006848 0.25615317 0.05483501
0001c0 04 fc d5 3d 86 75 5d be 65 2d 1b be a8 7a d9 bd
       0.10448459 -0.21626863 -0.15154035 -0.10619098
0001d0 22 58 79 3d 4e 8c 6c be 7f 18 fc bd 53 0f 20 be
       0.060875066 -0.23100397 -0.1230936 -0.15630846
0001e0 17 62 c6 bc 70 75 d5 bd 04 87 7d bc 1e 3c 41 be
       -0.024216695 -0.1042279 -0.015474085 -0.18870589
0001f0 1f 5e 55 be b6 3c 16 be 12 cd c7 bd 55 01 1f be
       -0.20836686 -0.14671597 -0.09755911 -0.15527852
000200 32 d7 6d 3e fe 07 68 bd b9 98 4b 3e 5c e3 c7 3d
       0.23226622 -0.056648247 0.19882478 0.09760162
000210 03 6e 55 be d3 f2 34 3e 86 27 aa bd 93 08 bc bd
       -0.20842747 0.17670755 -0.0830832 -0.09181323
000220 2c 73 73 be 48 71 78 be 75 5b 9b 3d 27 2c a0 bd
       -0.23774403 -0.24261963 0.075858034 -0.078209214
000230 f6 a3 9e 3d 22 83 56 be 5b 81 4a 3e 28 b9 2c be
       0.07746117 -0.2094846 0.19775908 -0.16867507
000240 18 49 1a bd 93 50 72 3d 30 11 06 3e 9e 9a 66 3e
       -0.037667364 0.059158873 0.13092494 0.2251992
000250 8c 88 64 3e 3d 49 5c be a5 1c 87 3d 61 c3 fe bd
       0.22317713 -0.21512313 0.065972604 -0.12439609
000260 fa f6 d9 bc 66 30 47 be 16 9e 68 3e fb ae 44 be
       -0.026607025 -0.19452056 0.22716555 -0.19207375
000270 29 10 06 3e 07 25 d5 3d a9 a3 a0 3d 26 d3 0b be
       0.13092102 0.10407453 0.07843716 -0.13654765
000280 b8 3d 70 3e 8b c3 44 3d 31 f2 0f 3d 79 82 60 be
       0.23461044 0.048038047 0.03514308 -0.21924771
000290 ad 4e e9 3d 6b cf d7 bc d0 d5 05 be 90 e2 5f 3e
       0.11391959 -0.026344022 -0.13069844 0.2186377
0002a0 be cf 48 3d 27 79 19 be c5 b1 05 be 4f a1 4b bc
       0.049026243 -0.14987622 -0.13056095 -0.012428596
0002b0 92 17 20 3e 4b d8 8b bd a9 ea 12 be 78 c9 af bd
       0.15633991 -0.06828364 -0.14347328 -0.08583349
0002c0 ad 76 36 be 8d c3 cc 3d ad 0f 4d 3e 96 9d 6a be
       -0.17818709 0.09998236 0.20025511 -0.22911677
0002d0 22 9f 28 3d fa 05 19 3e c4 37 19 3d 1b cf cd bd
       0.041167386 0.14943686 0.037406698 -0.10049268
0002e0 d5 aa 11 3e d2 37 15 3e 58 dc b4 3d 6d 76 7a bd
       0.14225323 0.14572075 0.0883109 -0.061148096
0002f0 cc a6 8c bd b0 53 1c 3d 90 8d 5c bd 2c 2c 68 bd
       -0.068677515 0.038165748 -0.053845942 -0.05668275
000300 31 5e 36 3e a2 ca 47 3e 4b 1f 93 bc 6e f5 77 bd
       0.17809369 0.19510892 -0.017959258 -0.060536794
000310 64 83 45 3c a2 61 65 bc 83 80 76 3d f4 f0 8b 3d
       0.012055252 -0.014000328 0.060181152 0.068330675
000320 21 d3 5f be 48 50 bf bd 96 79 5d 3e 26 7f db 3d
       -0.21857883 -0.09341484 0.21628413 0.10717611
000330 ac 0d b4 bc 46 0e 2d be 48 70 24 be 72 cf 57 be
       -0.021979176 -0.16899976 -0.16058457 -0.21075228
000340 a2 a7 90 bd 0f 69 e6 3d 07 07 37 3e c9 fe 06 3e
       -0.070632234 0.11250507 0.17873774 0.1318313
000350 cc 28 75 be 4e 88 31 be fd c6 31 bd 1e 60 81 3e
       -0.23941344 -0.17337152 -0.04340266 0.25268644
000360 ec 1c 3c 3d cd 22 99 bd cc 27 bd 3d 8a 94 a2 bd
       0.04592602 -0.07477341 0.09236106 -0.07938488
000370 54 fd 19 be ca 45 43 3e c2 6e f7 bd 68 c3 56 bd
       -0.15038043 0.19069591 -0.12081672 -0.052432448
000380 09 25 79 be 9f 8c 3a 3e 91 b1 34 3e 2a 3d ae 3d
       -0.24330534 0.18217705 0.17645861 0.0850776
000390 79 a8 47 be 12 ef 85 be 8b 11 5a be cc cc 38 3e
       -0.19497861 -0.2615896 -0.21295755 0.18046874
0003a0 55 a5 ef 3d 7d fb 43 3e da 9d 16 3e fd 4f a2 3d
       0.117014565 0.19138904 0.14708653 0.07925413
0003b0 30 91 36 bc d7 e0 4c be ab 63 64 be 54 3c 62 be
       -0.011143014 -0.20007645 -0.22303645 -0.22093326
0003c0 14 8f da 3d c2 7f 0c be 2c 98 6d bd 95 02 3a be
       0.10671821 -0.1372061 -0.05800645 -0.18165047
0003d0 a3 b3 93 bd af 8c 38 be 2f ee 2f be 6e e2 c6 3d
       -0.07211997 -0.18022417 -0.17180704 0.09711157
0003e0 3a df a2 bd a0 42 34 3e c2 74 be bd d2 4c 31 be
       -0.07952733 0.1760354 -0.092996135 -0.17314461
0003f0 2f e4 5b bd f4 6f 0d be d3 04 81 bd 7f 44 84 be
       -0.05368441 -0.13812238 -0.06299748 -0.25833508

fc1.bias f4 [256]
000000 15 f1 55 be 0a 5b bd 3d fd b2 4b 3e 43 e0 ea bc
       -0.20892747 0.0924588 0.19892497 -0.02867139
000010 27 21 b1 3d 4f 9c 02 3e 0b 09 78 be 73 f7 9a bc
       0.086489014 0.1275494 -0.242222 -0.018916821
000020 8f 22 c1 bd fe 62 01 be 8f 9a 2f 3e 29 fe 8e 3e
       -0.0943042 -0.12635419 0.17148803 0.27928284
000030 4d 58 73 3d 4d 59 39 3e 27 97 3f be 55 42 93 3d
       0.059410382 0.18100472 -0.18710004 0.07190386
000040 5c 41 fe bb cb e4 18 be ac f2 87 3d 01 30 d8 3d
       -0.0077592563 -0.14931028 0.06638083 0.10556031
000050 23 83 75 3c 36 08 04 3e 13 d7 17 3e 61 08 80 3e
       0.014984879 0.12893757 0.14828138 0.25006393
000060 f4 6d c5 3c 91 d2 09 3d 2f 34 07 3c ad 3f 3c 3d
       0.024100281 0.033648077 0.008252188 0.045959163
000070 a8 4f 23 be ee 1c 87 bc cc 85 4f be 75 a7 39 be
       -0.15948355 -0.016493287 -0.20265883 -0.18130286
000080 c9 97 55 be b0 32 58 3e 2c b6 08 be 2c ff 5d bc
       -0.20858683 0.21113086 -0.13350743 -0.013549607
000090 5f 99 11 3d 3e 6d 76 3e a6 c2 0d 3e 1c ae 38 be
       0.035546657 0.2406511 0.13843784 -0.18035167
0000a0 46 74 8d 3e d3 e6 5d be 60 9a 6d 3d 6f 62 83 3e
       0.27627772 -0.21670084 0.05800855 0.25661036
0000b0 fd f0 7c 3e 5b 11 38 bd 18 c6 32 be cc 95 f2 3d
       0.24701305 -0.044938426 -0.1745838 0.11844978
0000c0 59 6d 6d 3e c6 fc fc bd 53 28 bc bc e3 c3 03 be
       0.23186244 -0.123529 -0.022968447 -0.12867694
0000d0 3d 95 03 3e 4e 10 8b 3d b6 5d 17 3e e9 21 87 bd
       0.12849899 0.06790219 0.14781842 -0.06598265
0000e0 cd d5 65 be 83 c5 cb bd 32 fb 42 be db b7 10 bd
       -0.2244484 -0.09949782 -0.19041136 -0.03533159
0000f0 a8 f7 be 3d 47 fb 52 be 5c b0 23 bc 11 44 77 be
       0.093245804 -0.20603667 -0.009990778 -0.24147059
000100 1d f4 23 be d9 cd 30 be 6c 8e 9a bd 80 2a 01 be
       -0.1601109 -0.17266025 -0.07546696 -0.12613869
000110 56 b5 5a 3d e7 7f 1c 3e 22 03 65 3e 52 0b b1 3d
       0.05339559 0.15283166 0.22364476 0.08644737
000120 2b 71 9d 3c 29 b1 07 bd de 22 41 3e ea e5 04 be
       0.019219002 -0.033127937 0.18860957 -0.1297833
000130 71 09 56 3e 74 50 79 be 03 6b 44 be a0 40 a3 3d
       0.20902039 -0.24347097 -0.19181447 0.079713106
000140 86 91 dc bd d4 4a 88 3d f2 8f 79 3e 47 ff 13 3e
       -0.10769944 0.06654897 0.24371317 0.1445285
000150 17 f6 89 3e fb 43 ba bd e8 1c ed bd 46 c3 b6 bc
       0.26945564 -0.090949975 -0.11577779 -0.02230991
000160 da c0 12 bd 1d fc cd bd 5e 18 f7 bb ad f9 7c 3e
       -0.03582845 -0.100578524 -0.0075407466 0.24704619
000170 f4 ab 02 be 6a 08 27 3e ff 51 11 3e 89 5e 29 3e
       -0.12760907 0.16311803 0.14191435 0.16539969
000180 e4 98 a8 3d 21 4b b5 bd 43 ef 07 3e b3 39 d7 bd
       0.082322866 -0.0885222 0.13274865 -0.10509052
000190 f2 f3 17 be 08 9c 87 3e f7 73 76 3e e2 da 2a be
       -0.14839152 0.2648623 0.24067675 -0.1668506
0001a0 e3 6e 69 3e 63 51 9a 3d 8b ca 68 3d b8 af 8b 3e
       0.22796206 0.075350545 0.056833785 0.272825
0001b0 ed ee 8c bb 1c 3c 9e bd f5 96 3a 3e 4b e9 4a bd
       -0.004300943 -0.07726309 0.18221648 -0.04953889
0001c0 d7 94 53 bd 64 66 bc bd 3a bf 8d 3e 6c 3c 1e 3e
       -0.051655617 -0.09199217 0.27684957 0.15452737
0001d0 b1 90 1b bd b5 8b 91 3c 8a 62 1b 3d e2 76 22 be
       -0.037979785 0.017766813 0.03793577 -0.15865663
0001e0 5a 15 af 3d 9d b1 38 be ec 2f 80 bc 29 d6 5c bd
       0.08548994 -0.18036504 -0.01564785 -0.053915177
0001f0 53 7f b4 bd 55 e3 7b 3e c5 5c 95 3d 33 a8 1b 3e
       -0.08813348 0.24598439 0.07293085 0.15200882
000200 9f 6e 16 be a2 c4 7a 3d 8a 2e a9 3d 0e 62 1a 3e
       -0.14690636 0.06122268 0.0826083 0.15076467
000210 69 41 aa bd 1e 7a 17 bd c9 72 43 be 1d c1 38 3e
       -0.08313257 -0.036981694 -0.19086756 0.18042417
000220 6f d6 4e 3e 6d d4 fd 3d d6 9a 12 3e f5 0e 3a 3e
       0.20198987 0.123940326 0.14316878 0.18169768
000230 5f d9 89 3e 69 69 b3 3d 0b e9 ee 3d 8f f9 d3 3d
       0.26923653 0.0876034 0.11665543 0.10350334
000240 8f 2f 13 be f9 0f 96 3d ff 63 be 3d ce 5b 52 be
       -0.14373611 0.07327265 0.092964165 -0.20542833
000250 b3 01 4e bd d8 18 1a be aa 6c 12 be e5 c5 48 3e
       -0.05029459 -0.1504854 -0.14299265 0.19606741
000260 fc 54 64 3e c2 d9 3e bd bb 1b c8 3d d7 8d 34 bd
       0.22298044 -0.04659439 0.09770914 -0.04408058
000270 72 e9 2f 3d ac 3c a7 bc d5 12 e1 bd f8 81 ae bd
       0.04294724 -0.020414673 -0.1098992 -0.08520883
000280 cc e5 8b 3e c3 23 86 3d e2 c4 00 be d5 83 33 3d
       0.2732376 0.0654979 -0.12575105 0.043826897
000290 70 12 7d be 2a 5e 76 3c 8a 52 61 3e 3d ba 44 3d
       -0.24714065 0.015037099 0.22004142 0.048029173
0002a0 f1 08 bc 3d 2b 51 6c be cf 75 f7 bc ec 53 31 3e
       0.09181393 -0.23077838 -0.030207543 0.1731717
0002b0 89 8a 3a be 52 11 eb bd 51 6e 57 3e ee c2 c0 3d
       -0.1821691 -0.11477913 0.21038176 0.0941218
0002c0 0e 40 0e 3e 92 c5 66 be 7e b2 4a 3e 3e d2 14 bd
       0.13891622 -0.22536305 0.19794652 -0.036333315
0002d0 56 e9 a0 3d e1 94 6e 3e d1 93 64 be 19 dc c2 3d
       0.07857005 0.2329898 -0.22322012 0.095146365
0002e0 09 5b 53 be bd 41 5e 3e e4 81 bd 3d 31 73 41 3d
       -0.20640196 0.21704765 0.0925329 0.047228996
0002f0 e9 6c c4 bd ef b0 00 3e 14 fd db bd f3 f2 72 3d
       -0.095910855 0.12567495 -0.1074163 0.059313726
000300 b7 e4 75 3e d4 6a 3d be 90 77 65 bd fd 2b a9 3d
       0.24013029 -0.18497783 -0.056022227 0.08260343
000310 4a 20 6b 3d f5 f4 bc 3c 6c 20 83 3e d5 e4 25 bd
       0.05740384 0.023066023 0.25610673 -0.040501434
000320 a2 2e 8d 3d d4 51 1a 3e 5a 10 d7 bc 45 a6 44 3e
       0.0689366 0.15070277 -0.026252914 0.19204052
000330 ee 3c 2d 3e 50 d5 09 3e 4f b8 23 bd 27 49 73 3e
       0.16917774 0.13460279 -0.039970692 0.23758374
000340 5f 0f 13 be 9d bc bb 3d 60 08 7e 3d ad 70 4d 3e
       -0.14361332 0.091668345 0.062019706 0.20062514
000350 25 a4 47 be 49 1a 81 3d 09 7b 06 be 74 73 25 3e
       -0.1949621 0.063038416 -0.13132872 0.16157323
000360 04 de dd 3d ca f5 2f be e0 36 46 3c dc 25 6a 3d
       0.10833362 -0.17183605 0.012098044 0.05716501
000370 76 e5 fd 3d a6 c1 83 3e 1a 29 15 3e 05 bd 86 3d
       0.12397282 0.2573368 0.1456646 0.06579021
000380 f6 68 2a 3e 23 5f 7b be 03 7a 44 3e b5 eb 93 bc
       0.16641602 -0.2454801 0.19187169 -0.01805673
000390 da 91 1d 3e 35 81 af 3d 07 55 ca 3b 21 bb 4b 3e
       0.15387669 0.08569566 0.006174687 0.19895603
0003a0 6f b3 12 be 26 d5 b2 3d 7f 84 06 3e d2 4b a1 bd
       -0.14326261 0.08732061 0.13136481 -0.0787579
0003b0 a3 64 e8 3d 01 ee 78 be e8 51 ee bd 1d 94 f9 3d
       0.1134732 -0.24309541 -0.11636716 0.121864535
0003c0 3a 1d 23 3e 90 be 5b be 9d 79 e8 3d 8e 5c 22 3d
       0.15929118 -0.21459413 0.11351321 0.03963905
0003d0 18 ae 8c 3e 18 e4 7a be 7b 96 5c bd c9 fa 0e be
       0.27476573 -0.24501073 -0.053854447 -0.13962854
0003e0 97 f6 19 be af 22 bd bc 1e 8d 5d be 00 45 67 3e
       -0.15035473 -0.023087827 -0.21635863 0.22584915
0003f0 6c c2 9a bd 42 3f d6 3d b2 6b 04 be 74 4c bf 3c
       -0.07556614 0.10461284 -0.12931708 0.023351885
