prototypes/prototype_03/__del_trained_models/ae_model_all_ds_as.pth (torch, 16971 bytes, 16 tensors)

0.weight f4 [23, 46]
000000 be bd 7f be f9 c0 90 bd c0 2c ee 36 90 af ca 3a
       -0.24974725 -0.070680566 7.0981623e-06 0.0015463699
000010 67 fc b3 bc 2d 8b 2f 3d ba bb ae 3d 2c 39 4e bd
       -0.02197094 0.042857338 0.085319 -0.050347492
000020 b8 79 c5 bb 8d 95 47 3c 8a e5 07 3b 70 df 00 bd
       -0.006026473 0.012181652 0.0020736181 -0.031463087
000030 69 c2 4d bd 08 3b 2b 3e 5b 6b 8d 3d 4c 0c 86 bd
       -0.050234232 0.16721737 0.06905242 -0.06545314
000040 56 ff d2 bd 1e d9 51 bd bc 0e 7b bd e0 3c c9 bc
       -0.10302608 -0.05123245 -0.06129335 -0.02456516
000050 04 49 73 3d 19 89 b9 3d b4 6c 49 3e 1f 48 05 3d
       0.059395805 0.090593524 0.19670373 0.032539483
000060 13 f2 f8 3c 96 04 00 bd 8f 7a 64 3d 03 6c b0 bd
       0.030388867 -0.031254373 0.055780943 -0.086143516
000070 9a 86 9b bd 60 cd c6 3d fd b7 35 3e 72 f1 b2 3c
       -0.075940326 0.09707141 0.17745967 0.021843646
000080 2e 2b cb be 28 98 5b 3d ca 35 3f 3e 90 d1 18 3e
       -0.3968138 0.053611904 0.18672863 0.14923692
000090 83 47 f5 bd 4e c7 c8 3c d6 5b dd bd a6 d7 64 bc
       -0.119765304 0.024509098 -0.10808532 -0.01396743
0000a0 1f 6c 1e bc 67 06 7b 3c b0 a1 f1 3d 3b b4 ac 3d
       -0.009669333 0.015321351 0.117984176 0.08432814
0000b0 3c 6d 83 bd 4a b5 0e bd f1 a4 63 3d 18 c7 d5 bc
       -0.06417319 -0.03484086 0.055577222 -0.026095912
0000c0 0e 48 ff 3d 33 95 5d 3d f5 06 3b bd c3 17 d0 bd
       0.12464915 0.054097366 -0.04566093 -0.10160782
0000d0 62 dd 1e 3d 37 eb 2c bd d4 32 08 3e 99 b0 44 bd
       0.038785346 -0.042216506 0.1330064 -0.04801998
0000e0 0a e7 ea bd 8c 89 11 3d 8f ec ea bc 4d b9 76 bd
       -0.114698485 0.035531566 -0.028677253 -0.06023531
0000f0 f9 5e a8 3d d9 2e 3c bd 0e 78 d4 3c cf 98 a5 bd
       0.082212396 -0.045943115 0.025936153 -0.080857866
000100 76 34 a0 3c 69 f7 9e bd 42 bc 35 3d d1 cb b1 3c
       0.019556265 -0.077620335 0.04436899 0.021703633
000110 f7 6b 22 3c f8 26 a7 3d d6 0c 69 bd c2 62 93 bc
       0.009913436 0.081617296 -0.056897007 -0.017991427
000120 b9 3b 84 3d 3e 62 83 3d e1 7a d6 3c b0 a9 42 3e
       0.06456704 0.064152226 0.02618164 0.19010043
000130 48 dd 2d 3d a5 4e 66 bc 02 ca 14 bf 14 3b 12 3d
       0.04244736 -0.014056836 -0.5812074 0.035700873
000140 31 11 2a bc a2 22 ae 3d 14 2d 63 3b 99 04 39 bc
       -0.010380075 0.085026994 0.003466432 -0.0112926
000150 e3 48 05 be c3 02 26 bd 02 57 18 be fd d6 da 3c
       -0.13016085 -0.040529978 -0.14876941 0.026713843
000160 ea 3f 34 bd 60 27 82 bd 9b 78 65 be 70 44 ad bd
       -0.044006266 -0.063551664 -0.22409289 -0.08460319
000170 52 ab f5 3c fa 99 6a 3b 38 cc 8f bd 0d bc b4 bc
       0.029988918 0.0035797344 -0.070213735 -0.022062326
000180 6f 7d cd 3c b6 b3 88 3c 5b a1 a1 3d 12 de 2d bd
       0.025084225 0.016687255 0.07892104 -0.04244811
000190 f9 63 4f 3e 53 c5 db bd 70 1c 55 bb bc 73 31 bb
       0.2025298 -0.10730996 -0.003251817 -0.002707704
0001a0 5c dd 8c bd 54 bd 40 3d fb 70 2a bd a6 22 5c bd
       -0.068781585 0.047055557 -0.041611653 -0.05374398
0001b0 76 1e 5e bd df e1 87 3d 68 26 dc 3d 23 fd 51 3d
       -0.05422827 0.06634878 0.10749513 0.0512668
0001c0 15 92 05 bd 55 2f 42 3c 4d 5a 7e 3b e0 0e f2 3c
       -0.032610018 0.011852105 0.0038811148 0.029548109
0001d0 5f c5 a4 bb bf 68 3d 3e 6a b7 cf 3c d2 a1 55 bd
       -0.0050284113 0.18496989 0.025356013 -0.052156277
0001e0 4a 06 bc bd 46 74 16 bc b3 7f 61 3d 42 fe 58 3b
       -0.09180887 -0.009182995 0.055053424 0.0033110534
0001f0 af 98 25 3e de cf a7 bc 60 f1 0b bd 4d 9c 8c bd
       0.16171525 -0.020484861 -0.03416574 -0.068657495
000200 98 23 46 bd 8e 3e a2 bc e6 db d6 bd 68 5f d1 be
       -0.04837379 -0.019805219 -0.10491161 -0.40893102
000210 20 96 6e be b9 2d 81 3a ce 5f 12 be 65 33 af 3d
       -0.23299456 0.0009855545 -0.14294359 0.085547246
000220 c7 b4 21 3e 75 07 57 bd 45 bd e7 3c 76 aa 79 3c
       0.15791617 -0.052497346 0.028288493 0.015238395
000230 4c 74 b3 bd 2c 25 40 3e 66 c9 84 3c a5 f4 91 bc
       -0.08762416 0.1876418 0.016209316 -0.01781685
000240 c9 8f 29 3d 1f 98 aa 3c 8b ac c8 bc 71 cd 2e 3e
       0.04139689 0.02082449 -0.024496337 0.17070557
000250 02 93 cd 3d 4d 6f 83 bd 70 59 6f bd ee ed 54 bd
       0.10037805 -0.06417713 -0.058434904 -0.05198472
000260 3c c0 39 3e 26 14 de 3c 2c 79 4e 3d 9c 02 f4 bc
       0.18139738 0.027109217 0.050408527 -0.0297864
000270 fb 16 7f 3c f8 7b 08 3d 20 89 8d bd 9a e3 9c bc
       0.015569444 0.03332135 -0.0691092 -0.019151498
000280 2f 1c a5 3c 58 b8 49 bd 05 f1 4f bd 71 d6 f0 bb
       0.02015504 -0.04924807 -0.050766964 -0.007349782
000290 f9 b7 18 bc 63 3f 3e 3d be 9c 9f bd a0 bb 96 3d
       -0.009321206 0.04644717 -0.07793568 0.073600054
0002a0 40 08 8a bc 53 05 10 3e 42 3a 04 bd 6a 4e 69 3d
       -0.016849637 0.14064531 -0.03228212 0.056959547
0002b0 a8 d7 07 3e 43 6c 69 3c 88 91 44 be 96 f9 de be
       0.1326586 0.014247003 -0.19196141 -0.43549794
0002c0 d6 c0 d6 3d bb a0 82 be d9 da 70 bd a2 05 03 3d
       0.10485999 -0.25513253 -0.05880246 0.031987794
0002d0 d2 df 3b bd f1 35 39 bd 19 eb 13 3d d5 49 94 3d
       -0.04586775 -0.04521746 0.03611288 0.07240645
0002e0 34 28 3e be ea b2 74 3d ad df fb 3d 2e 7b 21 3e
       -0.18570024 0.05974094 0.12298522 0.15769646
0002f0 7f ec 5a 3d 76 be 6b bc b6 f7 45 3d 5c 24 b5 3d
       0.053448197 -0.014388671 0.04833194 0.088448256
000300 e0 e9 6d 3e 13 38 75 3d ea af ca bd d8 ae c8 bc
       0.23233747 0.05986793 -0.09896834 -0.024497434
000310 be 76 2e bd 3c 9e 99 bd f9 16 37 bd fb 25 ef 3c
       -0.04259371 -0.07500884 -0.044699643 0.029192915
000320 7e 28 9b 3b 16 63 92 3d 1a 43 02 3d 93 5d c3 3d
       0.0047350517 0.071478054 0.031802274 0.09539332
000330 41 0d 0e be bf 14 0c bc 71 30 9a bc f6 d0 9a 3b
       -0.13872243 -0.008549868 -0.018821927 0.004724617
000340 2b d6 f9 bd 15 e4 a0 3c 85 bb bf bd fe 55 59 bd
       -0.121990524 0.019640008 -0.093619384 -0.053060524
000350 b4 35 a3 3d 82 a1 20 3e a4 52 08 3d 5f 30 35 bd
       0.079692274 0.1568661 0.033281937 -0.044235583
000360 b6 84 9a 3e 3e 02 88 bd 35 7a 94 bd ed 01 9a 3c
       0.30179375 -0.06641053 -0.07249872 0.018799746
000370 b1 df 1b 3e 30 ab 5c 3e 1e 4c a2 bc d1 c1 fb 3c
       0.1522205 0.21549678 -0.019811686 0.030732067
000380 7a a3 e3 3d 18 a2 7b bd 8a 49 8d bd c5 2d bd 3d
       0.11115165 -0.06143388 -0.06898792 0.092372455
000390 cc c9 97 3c 49 9d 81 bd 97 f5 85 3e f4 9a 9c 3d
       0.018528841 -0.06328828 0.26163933 0.076467425
0003a0 88 a1 35 ba 55 d2 15 3d 1e b7 87 3b c0 68 1c 3e
       -0.0006928672 0.03657754 0.0041417023 0.15274334
0003b0 75 d1 55 3d f8 fe b0 bc a4 80 13 bb 58 95 ba bd
       0.052201707 -0.021605954 -0.0022507096 -0.09110516
0003c0 da 19 b7 3b 3f 6a 68 bd 20 44 26 bc dd ca 3f bd
       0.0055877985 -0.05674195 -0.010148078 -0.046824325
0003d0 3d d6 1b be 30 79 80 3d e3 e2 54 bd 9f a7 79 bd
       -0.15218444 0.06273115 -0.05197419 -0.06095087
0003e0 fd b4 a9 bd 97 c7 8f bd ca f0 9d bd d6 a4 09 be
       -0.08286474 -0.070204906 -0.077119425 -0.13441786
0003f0 0e 84 2f 3c c5 1f bc 3c f6 c1 8b bb 01 e3 ee 3c
       0.010712637 0.022964368 -0.0042650653 0.029160978

0.bias f4 [23]
000000 16 2e 23 bd a8 a4 30 3d 69 63 85 bd 5e c1 12 3e
       -0.039838873 0.04312578 -0.065131016 0.14331576
000010 cd 91 97 3c 2e 27 21 bd e3 29 f9 bd 96 fc 12 3e
       0.01850214 -0.039344005 -0.121661924 0.14354166
000020 0b 56 e2 bd 29 8d 03 be 22 a4 6c 3d 46 bb 9b bd
       -0.11051568 -0.12846817 0.057773717 -0.07604079
000030 f0 56 dc 3d 5f a2 f1 3c 8a cf b0 bd d1 b8 05 be
       0.107587695 0.02949637 -0.08633335 -0.13058783
000040 66 d0 c7 bd d8 93 11 3e ee 3c 84 3b 2c 65 b0 bd
       -0.09756546 0.14216554 0.0040355837 -0.08613047
000050 a0 44 00 3e 4c 4f 53 3d 0c 76 e1 3d
       0.12526178 0.051589295 0.11008844

1.weight f4 [23]
000000 05 e6 41 3f 09 a9 25 3f 55 60 31 3f 6d 91 3f 3f
       0.75741607 0.6471105 0.69287616 0.7483128
000010 2f d0 28 3f 3d db 1f 3f fc 07 1e 3f d8 91 45 3f
       0.6594266 0.62443906 0.61730933 0.77175665
000020 0f b3 37 3f e8 06 2d 3f 7b 7a 2d 3f b4 a2 33 3f
       0.71757597 0.67588663 0.67765015 0.7017014
000030 ec 97 3d 3f aa 5e 1d 3f 16 c0 66 3f 51 d5 27 3f
       0.7405994 0.6147257 0.9013685 0.6555987
000040 b8 a4 48 3f bc a9 6d 3f e3 71 46 3f 9d a1 52 3f
       0.7837634 0.9283712 0.7751753 0.8227785
000050 7e f8 37 3f d9 d4 26 3f 2e d0 42 3f
       0.71863544 0.6516853 0.76098907

1.bias f4 [23]
000000 d1 d2 a8 3e 15 59 3c 3f 8b eb ba 3e 0e b6 43 3e
       0.3297334 0.7357343 0.3650783 0.19112417
000010 ee 2b 93 3e 5a 57 10 3f a8 f8 6c 3e 23 d7 e8 ba
       0.28744453 0.5638329 0.2314173 -0.0017764311
000020 70 1c 4d 3c fe 19 12 3f 8a 40 9d 3e c9 04 ce 3d
       0.012518987 0.5707091 0.30713302 0.100595064
000030 6a cd 18 3e 10 1d 57 3e d6 dd 3d 3e b0 b3 2f 3e
       0.14922109 0.2100718 0.18541655 0.17158389
000040 30 af 4f 3c a5 6b 8d 3e f1 0d b3 3e ab b8 b2 3d
       0.012676045 0.2762119 0.34971574 0.08726629
000050 43 77 17 3e b3 28 5e 3e a1 09 2f 3e
       0.14791588 0.21695213 0.17093517

1.running_mean f4 [23]
000000 8f 4c 3e bc 58 5d c8 bb 38 f0 70 be 8d 0e c0 3e
       -0.011614933 -0.006114643 -0.23529136 0.375111
000010 d3 d8 37 3e 2f 61 41 bd c0 14 ab be 78 72 97 bd
       0.17953806 -0.047211822 -0.33414268 -0.0739488
000020 41 9a 1a bc d4 bc 35 be dd f8 2d be 1f d4 11 be
       -0.009436191 -0.17747813 -0.16989465 -0.14241074
000030 c5 0c 97 3e 94 66 df be e5 ec 04 be dd 54 7b 3e
       0.2950193 -0.43632948 -0.12980993 0.24544092
000040 c2 16 0c 3f e9 a2 96 be 05 1a ce bd c1 a9 21 bc
       0.54722226 -0.29421166 -0.100635566 -0.009867133
000050 26 97 17 3e 5e 65 a6 be cd 85 95 be
       0.14803752 -0.32499212 -0.29203644

1.running_var f4 [23]
000000 a6 2c c6 3c 76 d5 0e 3d 51 9c 6a 3d 18 15 32 3d
       0.024191212 0.03487154 0.05727798 0.043477148
000010 1c aa 94 3d 77 d7 b5 3c a7 d0 3e 3d 31 32 86 3d
       0.07259008 0.022197468 0.046585705 0.06552542
000020 1c 3c 0e 3d 52 b0 9a 3c 18 5f 3e 3d e6 ab 21 3d
       0.034725294 0.018882904 0.046477407 0.039470576
000030 ff 19 83 3d f3 61 25 3d 61 86 d3 3d 52 d0 24 3d
       0.06401443 0.040376615 0.10328365 0.040237732
000040 f3 a5 54 3d c5 33 9f 3d 68 0e 42 3d 59 0f a2 3d
       0.051916074 0.07773546 0.04737702 0.079130836
000050 39 6f 66 3d a2 25 62 3d 3d 62 13 3d
       0.056258414 0.05521167 0.03598236

3.weight f4 [11, 23]
000000 fb 03 28 3e 55 fa 98 3e b1 b4 f7 3d 07 eb cd 3d
       0.16407768 0.29878488 0.12095011 0.100545935
000010 d0 cb cf 3e 6a 2b c8 3d 97 33 79 bd 3f f5 1b 3e
       0.40585184 0.097739056 -0.060840216 0.15230273
000020 12 b8 0b be a2 fa c5 3d c5 65 90 3e 8e 68 ce bd
       -0.13644436 0.09666945 0.28202644 -0.10078536
000030 b0 dd a2 bc d8 26 c5 bc e3 66 19 3d 48 ff 72 3d
       -0.0198811 -0.024066374 0.037451636 0.059325486
000040 15 5a 16 bc a1 58 cd bd eb d9 e5 3d 08 90 0d 3e
       -0.009176751 -0.1002667 0.11223205 0.13824475
000050 e0 06 a2 3d 00 4b a2 3d f0 f9 37 bc fe ed 1b 3e
       0.079114676 0.07924461 -0.011229023 0.15227506
000060 98 40 b9 3d 59 b8 fc bc 25 48 c2 3d 3a 0b 42 3d
       0.090455234 -0.030849623 0.09486417 0.047373988
000070 73 6f 48 3d 3f 27 6a 3d fd c1 bf bc 63 ac 99 3a
       0.04893441 0.057166334 -0.02340793 0.0011724349
000080 26 9e a6 3e fe ec 12 3e c4 68 22 be 2e 25 d3 3d
       0.32542533 0.14348218 -0.15860277 0.10309826
000090 5e 61 69 3d 35 fc 2b 3e 00 75 8e bd 67 80 98 3c
       0.056977622 0.16795428 -0.0695591 0.018615915
0000a0 49 41 61 3e a3 8d 9a 3e 61 c6 1d 3d 0e 0e 1f bc
       0.2199756 0.30186185 0.038519267 -0.009707941
0000b0 37 cb f7 3d 24 19 3f bd 6d 14 f8 3d ff 20 57 3d
       0.12099307 -0.046654835 0.12113271 0.052521702
0000c0 ae ee d7 3d 41 fb f2 3c a6 db 0d 3e 9b eb 2e bd
       0.105435714 0.029660823 0.1385332 -0.04270516
0000d0 0e 82 73 bd db 48 a1 3d b6 ac 2f bc b5 83 a5 3e
       -0.0594502 0.07875224 -0.01072233 0.32327047
0000e0 c0 a7 14 3e 2b 72 60 3e 0a 1c bc bc 8a f1 21 3e
       0.14517117 0.21918552 -0.022962589 0.15814796
0000f0 7b 15 96 3c f5 eb 0b 3d 24 26 1c bd 5c 94 80 3e
       0.01832079 0.034160573 -0.03812231 0.2511319
000100 71 d6 86 3c 53 f5 0d 3e bd f6 ee bc b5 8d 49 be
       0.016459676 0.13863115 -0.029170388 -0.19682963
000110 17 b6 d7 3d 68 5a 06 3d 6d 37 6c 3e d0 63 43 3d
       0.10532778 0.032801062 0.23068018 0.04770261
000120 c2 46 5f be a5 de 77 3e 99 4a ee 3a 91 69 c6 3d
       -0.21804336 0.24206026 0.0018180191 0.09688104
000130 f4 9c 24 3d cc a2 8d b9 97 1a 6e bc 55 bd c2 3d
       0.040188745 -0.0002701491 -0.014532707 0.095087685
000140 a2 c1 a0 3a 5c 05 ed 3c c5 15 9d 3e c8 92 90 bc
       0.0012264738 0.02893322 0.3068067 -0.017648116
000150 84 e5 3b be a3 7e 86 bd f0 5e 0b 3d 72 29 74 3d
       -0.18349272 -0.06567123 0.034026086 0.059609838
000160 b1 01 7b 3e 6a 09 c4 3d 38 96 6d 3e a5 4b 82 3d
       0.24512364 0.09572108 0.23201835 0.06362084
000170 ec 40 c3 bd dd 4d 45 3e 5c 0a e7 3d cc 97 5f 3d
       -0.09533867 0.19267984 0.11281273 0.054588124
000180 e7 b6 5a 3d 2d f2 b7 3c d9 0b 06 bd d0 d3 34 3d
       0.053397086 0.022454346 -0.032726143 0.044147313
000190 7b ab 2a 3c db d7 ad 3d 49 8c 0c 3d 9d af 23 3c
       0.010416861 0.08488437 0.034313474 0.0099906
0001a0 ea 23 2b bc 29 e1 84 3d 4a 61 6d 3e 0e 08 a4 3c
       -0.010445574 0.064882584 0.23181644 0.020023372
0001b0 ff 94 ee bd 61 78 0e 3d c0 32 23 bd 24 08 f6 3e
       -0.116495125 0.03478277 -0.03984332 0.48053086
0001c0 bc b3 4c be bc c2 7f 3d d2 4d 17 3e a4 92 c0 3d
       -0.19990438 0.062441573 0.1477578 0.094029695
0001d0 a5 3e 74 3e c5 21 b2 bc 6a 9e 0a 3e 42 a8 f8 bc
       0.23852022 -0.021744618 0.13536993 -0.03035367
0001e0 e3 09 83 3e 8c 29 87 bd 65 90 40 3b 54 e5 0c 3d
       0.2559348 -0.06599721 0.002938294 0.03439839
0001f0 bd d9 83 3d 7c f5 a1 3d 6e 42 33 3e 80 8e 12 3d
       0.06438015 0.079081506 0.1750581 0.03578043
000200 5f 26 c1 3c 6c dd 2a bd f0 61 e9 bc 82 08 21 bd
       0.023577867 -0.04171507 -0.028489083 -0.039314754
000210 fc 44 9e 3e 56 b5 08 3e 00 6b 73 3e bc b9 e9 3d
       0.30912006 0.13350424 0.23771286 0.11412379
000220 cc d6 ce ba 82 27 0d 3e c8 38 a6 bd 00 68 55 bd
       -0.0015780567 0.13784602 -0.08116299 -0.052101135
000230 dc 1c 05 3e 0b 74 1e bc 89 fd 80 3c 36 4a 52 3d
       0.1299929 -0.0096712215 0.015745895 0.051340304
000240 1c b5 67 3e 65 d6 90 3e 5a b7 ac bd 3d df cb 3d
       0.22627681 0.2828857 -0.08433409 0.09954689
000250 a7 25 a2 3d 54 7c ca bc 01 b4 76 be d6 93 23 bb
       0.07917338 -0.024717487 -0.24092104 -0.0024959943
000260 47 c6 3d 3c 59 d5 0f be da 46 33 3e e6 94 f8 3d
       0.0115829175 -0.1404623 0.17507496 0.12137775
000270 bb 60 0b bb 16 2a ba 3d cc e2 6c 3d 29 b2 bb 3d
       -0.0021267373 0.090900585 0.057833478 0.09164841
000280 03 2f a4 be b7 49 18 bc 52 d2 b6 3e c3 a5 3d 3c
       -0.32067117 -0.009294919 0.35707337 0.011575165
000290 b8 3e 7d bd d2 f8 70 3e 2c 14 db 3d cc 9c 53 3d
       -0.06182739 0.23532417 0.10697207 0.051663205
0002a0 98 10 10 be d4 32 31 3d ba e0 70 3e 12 93 2d bd
       -0.1406883 0.043261364 0.23523226 -0.042376585
0002b0 dd 92 8d 3b 1c 43 2a 3e 32 e7 a6 3c d0 58 14 3c
       0.004320486 0.16627163 0.020373914 0.009054378
0002c0 1f 89 4d 3b 74 d7 1f 3e 0e 52 bd 3c 78 00 b3 3d
       0.0031362248 0.15609533 0.023110416 0.08740324
0002d0 ed 0e e9 3e bd 1c 9e 3d 07 3f 45 3d bf 2e 0e be
       0.455192 0.07720325 0.04815581 -0.1388502
0002e0 b5 72 ca 3d 9d ec d1 3d 48 21 27 3d 7a 58 44 be
       0.0988516 0.102502085 0.040803224 -0.19174376
0002f0 ae 11 0c 3e a5 9a 16 3e 1e ea 24 be d8 ac a4 bd
       0.1367862 0.1470743 -0.16104934 -0.0804078
000300 63 5e 29 bc 15 70 a2 bb 1c 3c dd 3d 9d 69 5d 3b
       -0.010337445 -0.004957209 0.108024806 0.0033784874
000310 68 d4 04 3e 92 3c 6f 3e 73 80 80 3e 95 1e 99 bd
       0.12971652 0.2336295 0.25098 -0.07476536
000320 1d 35 f8 3d 81 f3 f4 3d 2b 8c 76 3d a0 43 04 3d
       0.121195056 0.11960507 0.06019227 0.032291055
000330 99 7f 57 be 34 cc 0b bd 25 33 39 be 9c a6 ab bc
       -0.21044768 -0.03413029 -0.18085916 -0.020953469
000340 30 7a 8f 3d 90 20 2c 3e 64 03 ff 3d e3 0c 76 3d
       0.07005727 0.16809297 0.124518186 0.060070883
000350 ff 9e ea 3d bc 32 42 3e ae 45 53 be 49 ea 7c be
       0.11456107 0.18964666 -0.2063205 -0.24698748
000360 84 24 6e 3d c2 ac b0 3e fb 18 08 3d c7 74 47 3e
       0.058140293 0.34506804 0.03322695 0.19478141
000370 ba 61 bf 3c b8 30 20 bd 10 1c cd 3c 1a 2c 08 bd
       0.02336203 -0.03910896 0.025037795 -0.033245184
000380 32 35 f7 3d 06 e3 58 3d 30 dd 12 3d 4b e2 a8 3d
       0.12070693 0.05295088 0.035855472 0.08246287
000390 33 eb 59 3d 45 20 bd 3c e3 3c 38 3e 75 94 b9 3e
       0.05320282 0.023086676 0.17991976 0.36246076
0003a0 44 f5 45 3e 1e 9a 94 3c e9 05 11 bd c9 ef 04 bd
       0.19331843 0.018139895 -0.035406027 -0.03245524
0003b0 f9 fc ef 3d 39 6a 9f 3c 5f 51 b0 3c 6f 7e d7 bd
       0.117181726 0.01945983 0.021523176 -0.10522162
0003c0 88 4e 8e 3c a2 85 0f 3e ba 7c 4a 3d 20 c9 f9 b6
       0.017371431 0.1401582 0.049435355 -7.4441923e-06
0003d0 af 35 eb 3d 2f 2d 7d bd bb 2d b4 3d d1 28 86 3e
       0.11484849 -0.06181067 0.08797785 0.26203015
0003e0 87 33 e7 bb 8e 5b db bd 64 19 fa bc 4c 3d 86 3b
       -0.007055703 -0.10710822 -0.030529685 0.0040966626
0003f0 3c ad 75 bd
       -0.059979662

3.bias f4 [11]
000000 53 b4 a3 3e 1d 3a b1 3e 9b 3b af 3e d0 5b d5 3e
       0.31973514 0.3461465 0.34225163 0.4167161
000010 98 d5 23 3f 26 5c 42 3e 2a a1 99 3e d9 61 09 3f
       0.63997793 0.18980464 0.3000577 0.5366493
000020 8c f2 16 3f 55 09 9d 3e c9 17 67 3e
       0.5896385 0.30671182 0.22567667

5.weight f4 [23, 11]
000000 b5 95 8e be 4b 29 b3 bc bc 1d c4 bd e0 40 a2 3d
       -0.27848592 -0.021870276 -0.09575984 0.0792253
000010 84 70 58 be f4 28 47 be ba fc 54 3e 8d c6 21 3e
       -0.21136671 -0.19449216 0.20799533 0.15798397
000020 ac fd 11 3e 25 21 ea 3e 4a 71 63 3e 85 09 c6 3d
       0.14256924 0.45728412 0.22211185 0.096697845
000030 47 7d 7b be 2d 8a b3 be 57 30 19 3d 0f 5a 4c be
       -0.24559508 -0.35066357 0.037399616 -0.1995623
000040 87 bf 0f 3d e5 72 ba 3d 43 5a a9 be 78 0b 55 3e
       0.035094764 0.09103946 -0.33076677 0.20805156
000050 f7 06 4d 3d 91 82 7d 3e c4 ac aa 3d 14 ac 0e 3e
       0.05005547 0.24756838 0.08333734 0.1393283
000060 c1 f9 59 be 52 25 03 be 67 82 b1 be 3a 76 34 3e
       -0.2128668 -0.12807205 -0.34669802 0.17623225
000070 26 d9 00 be 41 e5 9e 3d 96 93 ed bd 7b 79 7e be
       -0.12582836 0.077585705 -0.116004154 -0.24851029
000080 92 5d 7c 3e cc 68 2f 3d 7f 9c 9a be 06 dd 35 3e
       0.24645069 0.04282455 -0.30197522 0.17760095
000090 ad b7 0b bf 67 de 2e bd 4d 05 10 be 41 b0 c6 3d
       -0.5457714 -0.04269257 -0.14064522 0.097015865
0000a0 b1 3e 31 3e 72 1c 66 3e 34 4d 21 be 63 45 3d 3e
       0.17309071 0.22471789 -0.15752107 0.184835
0000b0 bb 3c b8 be 66 fb b5 3e 0a 3a 78 be 73 22 12 be
       -0.35983834 0.35543364 -0.2424089 -0.14270954
0000c0 b7 0f 70 3e e8 84 a7 3d 27 94 17 3d 63 b7 23 be
       0.23443495 0.08179647 0.037006523 -0.15987925
0000d0 67 c4 e5 bd 20 2f 86 bd 87 3c 16 3d 49 fa ab 3d
       -0.112191014 -0.06551957 0.036678817 0.083973475
0000e0 2e 7a bc be d2 2c c5 3e 0f 74 69 3e bf 6d c4 be
       -0.36811966 0.38510758 0.22798179 -0.3836498
0000f0 01 f6 27 3e f9 3b 10 3d 86 47 52 3e 7e ff ef bd
       0.16402437 0.035213444 0.20535097 -0.11718653
000100 7b 2b 04 3d c5 69 a4 bc d7 06 8e 3e 25 79 34 3e
       0.03226803 -0.020069966 0.27739593 0.17624338
000110 78 f0 72 be f6 d3 4e 3d 48 4b 01 be 45 1d 00 bf
       -0.23724544 0.05049511 -0.12626374 -0.5004466
000120 8d c1 cb 3d 92 42 42 3e 6a ce 25 3e d4 f9 44 be
       0.09949026 0.18970707 0.16192022 -0.19235927
000130 eb 52 2f be ad 4e cf 3d 05 aa 98 3e 6a 0d 54 be
       -0.17121474 0.10122428 0.29817215 -0.20708242
000140 39 8c b2 be 3a f8 c0 3e 8a d2 fe 3d e5 3e db bd
       -0.34872606 0.37689382 0.12442501 -0.107053556
000150 90 93 99 be 49 0d 89 be 2b d5 74 3e 12 2c df 3c
       -0.29995394 -0.26767948 0.23909442 0.027242694
000160 4d 2a d4 be d3 ae e2 3e 1e 51 8c bd f5 37 61 3e
       -0.41438523 0.44274005 -0.068514094 0.21994002
000170 35 3b a2 bc 7c a5 6a 3e 45 43 ee 3d bd 04 bb bd
       -0.019803623 0.2291469 0.116339244 -0.09131763
000180 6e e6 21 3c 03 9c 74 be a1 66 62 3b 20 19 90 3e
       0.009881599 -0.23887639 0.0034546035 0.2814417
000190 71 c2 b5 3c 60 de 03 be a5 24 31 bd 89 00 9d be
       0.022187443 -0.12877798 -0.043247838 -0.3066447
0001a0 62 14 83 3e 03 31 9f be a4 19 8b be 5d c6 7c 3e
       0.25601488 -0.3109208 -0.27168 0.24685045
0001b0 45 2f 5e be 59 d1 b7 bd 0e 5c d9 3d 1a 1f 3f 3e
       -0.2169772 -0.08975477 0.10613261 0.18664208
0001c0 7b d2 a1 bd 51 31 21 be e9 30 f6 be 5a 48 18 3e
       -0.07901474 -0.15741469 -0.4808419 0.1487135
0001d0 c3 3c 25 3d 13 47 67 be 52 5c 32 3d 86 a0 29 bd
       0.04034115 -0.22585706 0.043545075 -0.041412853
0001e0 62 d3 5c 3e d3 f6 f6 bd 62 71 1a 3e 66 7b 56 3e
       0.21565011 -0.12058797 0.15082315 0.2094551
0001f0 75 59 73 be 29 14 c2 be 15 1e 88 bc ab 1b 35 3e
       -0.23764594 -0.37906006 -0.016615907 0.17686336
000200 be 60 65 be 79 87 3e 3e 35 12 b1 3d cf 05 a8 be
       -0.22400185 0.18606366 0.08646051 -0.32816932
000210 00 36 08 bd 5c 77 13 be fc b8 fc bd e7 de 6f 3d
       -0.033254623 -0.14401 -0.123399705 0.058562186
000220 1f 0a b2 3e 08 d6 f1 3d 87 fe 4d bd 9a f4 6f 3e
       0.34773347 0.11808401 -0.050291564 0.23433152
000230 1c f7 ae bd 40 86 7e bd 5e 7c 45 be b5 01 b7 be
       -0.08543226 -0.06213975 -0.19285724 -0.3574349
000240 3f 4b e6 3d 43 88 72 bd 0a 9d b2 3e c1 f1 a6 bd
       0.11244821 -0.05921198 0.34885436 -0.0815158
000250 14 5e 7f 3d 22 ac 42 bc 93 5d b4 3d a9 1b d6 3d
       0.06234558 -0.01188186 0.0880691 0.104544945
000260 cc 84 b7 be 0a ed 24 3e 1e 78 66 3e b8 58 b2 bd
       -0.35843503 0.16106048 0.22506759 -0.08708328
000270 bb 9c 70 3d 5d eb 5f bd ea 82 dd 3d 41 3a 2c 3e
       0.05874322 -0.05466782 0.108159855 0.16819097
000280 a0 2d a2 3c ad 45 2b be 62 97 a0 3c 6a ad c4 be
       0.019797146 -0.16725798 0.019603435 -0.38413554
000290 76 95 9b be a6 79 6b 3d c6 b1 35 be 7c cb 34 3e
       -0.30387467 0.05748906 -0.17743596 0.17655748
0002a0 04 a7 53 3d 31 9d ea 3e 27 6e 7b be 4a 86 60 bd
       0.05167295 0.45823053 -0.24553739 -0.054815568
0002b0 c4 27 82 3d fa 6b 60 3e 4c 45 5c 3c 96 2e 41 3e
       0.06355241 0.2191619 0.013444256 0.18865427
0002c0 3f 59 54 3e ab d8 aa 3d 82 0e 3a be f3 44 5b be
       0.2073717 0.083421074 -0.18169597 -0.21413021
0002d0 32 65 63 3d d4 48 37 bd 17 17 33 bb e3 0b 1f 3c
       0.05551643 -0.04474719 -0.0027326995 0.009707424
0002e0 5a 75 e8 be 40 1e 2b 3e 72 a7 36 be 86 4b ba bd
       -0.45402032 0.16710758 -0.17837313 -0.09096436
0002f0 b8 e0 c2 bd 85 1e 34 be 37 8e 46 bd 32 25 a7 3d
       -0.09515518 -0.17589767 -0.04847547 0.08161391
000300 b8 a6 66 3e 70 42 9a 3e 97 c8 b8 3e e5 ef 89 be
       0.22524536 0.30128813 0.36090538 -0.26940838
000310 b0 71 83 be be 14 b7 3d 04 55 c6 3d 1d f0 a9 3d
       -0.25672674 0.08939503 0.09684184 0.08297751
000320 2a 1a d9 3d 27 e1 23 3e 6c 71 f5 3d 24 3b aa bc
       0.106006935 0.16003858 0.11984524 -0.020780154
000330 fa 4e 8e 3e 02 64 7a be c9 2c 0c be 99 fa b6 bd
       0.2779463 -0.24452212 -0.13688959 -0.089345165
000340 18 31 26 3c 52 af a0 bd 5b 13 12 bd 62 64 5f be
       0.010143541 -0.0784594 -0.03566299 -0.21815637
000350 a8 5a 64 3d b6 4a a7 be d4 36 3e 3e 5b e4 a8 bd
       0.05575052 -0.32674187 0.18575603 -0.0824668
000360 f4 3b a9 be 32 f2 f8 3d 51 1d 8a 3d 88 c5 4c be
       -0.33053553 0.1215557 0.06743873 -0.19997227
000370 cf d0 d0 ba af ec 31 3e f2 3c 3f 3d 47 16 c9 bd
       -0.001593137 0.17375444 0.04668898 -0.09818702
000380 62 b4 64 be e3 76 bc bd b5 24 2f 3e da d0 ce be
       -0.22334436 -0.09202363 0.17103846 -0.40393716
000390 21 24 e8 3d ed d6 a6 3d c9 31 1a be 57 af 2f 3c
       0.11335016 0.081464626 -0.15058054 0.010722957
0003a0 70 fd 9e 3d a3 85 ca 3c b1 84 9b 3d ea da 90 be
       0.07763183 0.024721926 0.07593668 -0.28292018
0003b0 50 a8 7f be 40 19 36 be 90 df 46 be 02 33 e5 bd
       -0.2496655 -0.1778307 -0.1942122 -0.111913696
0003c0 e2 e0 99 bd ec d6 a0 3e 5f 50 88 be 3e 74 88 bc
       -0.07513596 0.31413972 -0.26623818 -0.016656991
0003d0 38 06 01 3d 3d a3 ed bd c7 1c e5 bd 99 2e 6b bd
       0.03150007 -0.11603401 -0.111871295 -0.057417486
0003e0 af 6b 0a bf a2 29 9d 3e b1 38 80 3d 05 b6 60 3e
       -0.5407056 0.30695826 0.06260813 0.21944435
0003f0 06 6e a3 bd
       -0.0797997

5.bias f4 [23]
000000 a2 d8 96 bd b8 f2 05 3e a2 d1 82 3e d8 6a 1d bd
       -0.07365538 0.13080871 0.25550562 -0.038431972
000010 68 de c9 3d c1 a8 19 be 5c 10 68 3e fb 99 91 be
       0.09856874 -0.15005781 0.2266249 -0.2843779
000020 e0 f0 90 bd 10 ce ce 3c 62 7b 6e be f0 8e 67 be
       -0.07077193 0.025244743 -0.23289254 -0.2261312
000030 46 e8 1c 3e a6 5e 83 be 69 bb 93 bb 20 a3 8b 3e
       0.1532298 -0.2565815 -0.004508425 0.27272892
000040 55 46 7f be 32 0d 99 3e dc 6e 74 3e 24 db a1 bd
       -0.24929173 0.2989288 0.23870414 -0.07903126
000050 d8 92 c9 3d 84 d0 a4 bd 31 fc 20 be
       0.09842461 -0.08047584 -0.15721203

6.weight f4 [23]
000000 b3 42 eb 3e 2a 36 0e 3f dc 3b f1 3e 5d b4 cb 3e
       0.45949325 0.555514 0.47115982 0.39786044
000010 39 02 24 3f ba 5b 32 3f 66 56 d8 3e 31 87 95 3f
       0.6406589 0.69671214 0.42253417 1.1681882
000020 e6 30 80 3f 4d dd 4b 3f aa 93 86 3f d7 99 28 3f
       1.0014923 0.79634553 1.0513813 0.6585974
000030 65 c8 56 3f 39 02 4e 3f c5 f9 29 3f f9 d9 06 3f
       0.8389953 0.8047214 0.66396743 0.5267635
000040 d5 aa cf 3e 88 7f de 3e ac b9 1e 3f 53 42 5b 3f
       0.40560022 0.43456674 0.6200206 0.8564808
000050 a9 e0 0c 3f 29 52 66 3f 49 66 ff 3e
       0.55030304 0.89969116 0.49882725

6.bias f4 [23]
000000 56 0f 24 3e 34 64 f2 3e f5 bf 09 3f b9 04 0b 3f
       0.16021475 0.47342074 0.5380853 0.5430408
000010 37 a3 b0 3e a0 13 fd 3e d8 b7 42 3f a2 8d 06 3e
       0.34499523 0.49429035 0.76061773 0.13139966
000020 a4 87 c2 bd 1e 7c db 3d d4 81 48 bd 13 39 8a 3e
       -0.09498528 0.10717033 -0.04895194 0.2699667
000030 b9 7e 7b be 45 d4 39 3e f1 88 86 3d cd f4 2c bb
       -0.2456006 0.1814738 0.06569088 -0.002639103
000040 91 a7 fa 3e f7 74 21 3f 81 8e 3c 3c ad fb 15 3e
       0.48955968 0.630691 0.011508585 0.14646788
000050 95 68 2d 3d 7f f4 5a 3e 47 33 75 3e
       0.042336065 0.2138233 0.23945342

6.running_mean f4 [23]
000000 eb 73 96 3d cb df c2 be ff b3 2a bd d0 cb 95 be
       0.07346328 -0.38061365 -0.041675564 -0.2925706
000010 ce 5b 2a be 6e 1c 05 bd 35 5d ed 3d f3 e2 8a be
       -0.16636583 -0.032497816 0.115900435 -0.27126274
000020 0d 3d 94 3c bb e2 9a be 18 3a 0d bf 49 15 3c bf
       0.018095518 -0.30251107 -0.5516677 -0.7346998
000030 53 b4 ba 3e d2 34 86 be 41 36 75 be 87 e9 63 3f
       0.364657 -0.26212174 -0.23946477 0.8902821
000040 2a 3d 16 bf f5 52 be 3e c2 ae b8 3e 6b ab 4e bf
       -0.5868708 0.37172666 0.3607083 -0.80730313
000050 54 3c bf be 0c d0 17 bf c6 d9 9e be
       -0.37350714 -0.5930183 -0.31025523

6.running_var f4 [23]
000000 22 2b 02 3d c8 33 71 3d 73 d5 ef 3c 1f b0 0b 3d
       0.031779416 0.058887273 0.029276585 0.03410351
000010 02 39 bd 3d ef 1e ba 3d e1 35 77 3d 59 e0 d0 3d
       0.09239389 0.09087931 0.060354117 0.10199041
000020 fa c7 b2 3d ad 85 b2 3d b4 4b b6 3d 99 a7 70 3d
       0.08729549 0.08716903 0.08901158 0.058753584
000030 9c 65 6a 3d 80 45 62 3d e2 61 de 3c 5b 4e 3f 3d
       0.05722581 0.05524206 0.027146284 0.046705585
000040 27 ab 05 3d 98 2b 81 3d 3e b5 9e 3c 92 1b 94 3d
       0.032633927 0.06307143 0.019373532 0.07231821
000050 30 7c 8b 3d 21 29 49 3d 9a 62 3b 3d
       0.06810796 0.04911149 0.04574833

8.weight f4 [46, 23]
000000 84 dd c9 3d 3d 07 f2 3e 2d b1 86 3c 2b df 29 3e
       0.09856704 0.47271147 0.016441906 0.16589038
000010 8e 68 03 3e bb 59 18 3d 1e bd 97 bd 56 a5 e7 bd
       0.12832853 0.03719495 -0.07409118 -0.11310832
000020 9d 20 69 3d 5b 89 69 be 5c 5d 93 3e fc bc a6 bd
       0.056915868 -0.22806303 0.28782165 -0.08141515
000030 a0 7d ad bd 77 51 32 3d 2d a9 7c 3c 6b 59 53 be
       -0.08471227 0.043534722 0.015421194 -0.20639579
000040 46 60 6b 3d c2 cc e6 3e eb 9e 0d bd 8d d9 50 3e
       0.05746486 0.45078093 -0.034575384 0.20395489
000050 77 8d 1b bd d0 a5 e5 be 7e 8d 17 be 82 06 0b bd
       -0.03797671 -0.44853067 -0.14800069 -0.033941753
000060 f2 8d 0c 3e 3a 6f 03 3d f7 7b 74 3d b6 40 5e 3c
       0.13726023 0.032088496 0.059688535 0.013565233
000070 73 dc ba 3d 74 58 e0 3c 27 9a 1c 3d 51 b7 0c 3d
       0.091240786 0.027385928 0.03823295 0.03435451
000080 fb 88 71 3d a0 2f 1d bd ea c6 18 bd 1a a7 1a 3e
       0.058968525 -0.038375497 -0.037299074 0.15102807
000090 57 7f 48 bc 41 0a 5d 3c 22 93 e0 bd d1 b8 69 3d
       -0.012237391 0.013491214 -0.10965563 0.05706102
0000a0 c5 2c 40 be 71 93 d5 bc 09 4f e8 3c 9f af e2 bd
       -0.18767078 -0.026071282 0.028358 -0.11068653
0000b0 df 45 8b bd 9e 47 a5 3d 5a 56 be 3c c7 dc 0d 3e
       -0.06800436 0.080703005 0.023234535 0.13853751
0000c0 73 2f 8e 3d 31 6d b3 3d ac 5c 3d bd 7a e9 37 3e
       0.06942644 0.08761061 -0.046230957 0.17960158
0000d0 7f 70 bf 3d 13 4f c3 3d d9 da ba bc 62 bc 1f 3e
       0.09347629 0.095365666 -0.022809433 0.15599206
0000e0 4b cb 3d be 7a dc b7 bd 16 de 37 3d 66 a7 ae bc
       -0.18534581 -0.089775994 0.044889532 -0.021320056
0000f0 f8 e5 87 bd db ae 43 bd 9d 4b 8b bd d4 9c 44 3c
       -0.0663566 -0.047774177 -0.068015315 0.012000281
000100 43 bf c3 3b 53 d4 8a 3c 60 d2 39 3d 60 29 b7 3c
       0.005973728 0.016946947 0.045366645 0.022358596
000110 bf 2d 6e 3d 50 36 86 bd aa 2b ae 3e cb a6 26 bd
       0.058149096 -0.06553328 0.34017688 -0.04068641
000120 f0 dc 6c 3e a4 31 0d bf 30 72 9a 3e 6d 09 51 3e
       0.23131156 -0.5515387 0.30165243 0.20413752
000130 aa 78 df 3d 50 e3 2c be 92 2a 1e bd c4 fc 21 be
       0.10911687 -0.16883588 -0.038614817 -0.15819079
000140 8a c8 79 be bb 95 bc 3d e4 86 f6 3d 82 c3 ae 3d
       -0.24392906 0.09208246 0.12037447 0.08533384
000150 8f a3 ea bc 88 d0 76 3e 19 2f 58 be 33 1c 66 be
       -0.028642444 0.24102986 -0.21111716 -0.22471695
000160 f6 97 c6 3c 29 38 9d 3d b9 40 0a 3d 4e 24 1e 3e
       0.024242382 0.07676727 0.03375313 0.15443537
000170 f6 7d d6 3d 8e f3 69 be b4 f5 46 be 12 f3 dc 3d
       0.10473244 -0.22846815 -0.19429666 0.107885495
000180 81 cf e8 3d fe 6b 11 bd cc bc 4b 3d 1f 1a 1d bd
       0.11367703 -0.03550338 0.049740598 -0.03835499
000190 3f b7 2d be af a0 0e bd aa 75 2e 3e 25 9a 1a be
       -0.16964434 -0.03482121 0.17037073 -0.15097864
0001a0 98 5a 43 3d 84 c6 77 3c 69 10 87 3d bb 8a 15 bd
       0.04769382 0.015123013 0.06594927 -0.036509257
0001b0 6e a7 d1 3d b7 c6 41 3e 38 23 5b 3d 65 8e 0c 3e
       0.10237013 0.1892346 0.053500384 0.13726194
0001c0 55 10 98 bc 71 8b 17 3c f0 6b 3a 3d ac 2a a7 be
       -0.018562475 0.009249554 0.045513093 -0.32649744
0001d0 a4 2a 57 3e 28 89 1d be f8 31 12 3f 88 7a 74 bd
       0.2101236 -0.15384352 0.57107496 -0.059687167
0001e0 1a 56 74 be 31 57 44 be 9a 3d c1 3d f1 c6 16 3e
       -0.2386097 -0.19173886 0.09435578 0.14724328
0001f0 db 77 a1 3e 42 0d 52 bc f9 27 29 3e 70 a2 23 b7
       0.31536755 -0.012820544 0.16519155 -9.7533775e-06
000200 e9 46 96 3d dc bf 75 3e e0 92 e4 3e 5e 73 d8 be
       0.07337744 0.2399897 0.44643307 -0.42275518
000210 c8 bb 96 be 54 8c aa bd 51 81 7b 3d 82 6d ad 3d
       -0.2944014 -0.08327547 0.061402623 0.084681526
000220 90 3e ad be b3 d5 3a 3e ac 99 99 3a 75 5b fb 3d
       -0.33836794 0.18245582 0.0011718771 0.122733034
000230 61 7a 3a 3d 2b ff 39 3d 90 56 08 bd c6 84 0f 3e
       0.045526866 0.045409363 -0.033285677 0.14015493
000240 5f 7f 86 3d e2 6c 95 3d af e5 ca bd 7a cf 18 3e
       0.06567263 0.072961584 -0.0990709 0.14922896
000250 f5 ea 0b be a9 b8 80 bd f8 6d b7 bb bc cd b9 bc
       -0.13663848 -0.06285221 -0.005597826 -0.02268111
000260 01 49 64 bd a4 38 98 3b 91 d0 57 bd d3 d3 2e 3d
       -0.055733684 0.004645424 -0.05268914 0.04268248
000270 61 cd 72 3b 05 53 ab 3c 15 a8 0c bd ea 37 0f 3d
       0.0037048685 0.02091361 -0.034339983 0.034965433
000280 df f9 6f 3d 15 71 9f 3d 56 89 28 3e 27 e2 68 3c
       0.058587905 0.077852406 0.1645864 0.014214075
000290 98 ba 96 3d 04 b1 81 3d f4 d2 55 be 5e 6c 3c 3f
       0.07359809 0.06332591 -0.20881253 0.73602855
0002a0 50 09 32 3e 05 5b 65 3e 6c a1 27 3e 68 48 08 be
       0.17386365 0.22398002 0.16370171 -0.13308871
0002b0 9c 54 98 bd f8 84 83 3d b7 7c ee 3b 84 59 2b bd
       -0.07438013 0.06421846 0.0072780508 -0.041833416
0002c0 47 d4 d0 3d 08 e2 ee 3c 8b 0c 39 bd 36 54 7e bd
       0.10196739 0.029160514 -0.045177978 -0.06209203
0002d0 88 8e e6 bc 94 b6 c3 3d 2e 9d d2 3b c5 9d bf bc
       -0.028144136 0.095563084 0.0064274287 -0.02339066
0002e0 bb 1d b2 3c 1b 77 9c 3e 5a e9 10 be d6 f0 86 3e
       0.021742692 0.3055962 -0.14151517 0.26355618
0002f0 ac 4b 9d bd 3c 78 6b 3e c4 cf 9e 3d ef 08 07 be
       -0.07680449 0.22995085 0.07754472 -0.13187002
000300 39 4b dd 3e 9e d6 ca 3d fc 7e b4 bd a8 58 dd bd
       0.43221453 0.09904216 -0.08813283 -0.108079255
000310 ae 42 3c bd fb 40 c3 be 80 c8 a7 bb d1 7f 8a 3e
       -0.04596203 -0.38135514 -0.005120337 0.2705064
000320 3c 36 ec 3e 63 03 4b be 3c ff c5 bd 38 8a 8f bd
       0.46135128 -0.1982551 -0.09667823 -0.07008785
000330 94 bb 8b be 03 fc 5b 3d 55 56 14 bc 46 e0 31 bd
       -0.27291548 0.053707134 -0.009053786 -0.043426774
000340 64 1c 77 bd ed f6 27 3c 92 d3 db 3d f1 17 f7 3d
       -0.06032981 0.010251743 0.10733713 0.12065113
000350 f0 f0 23 3d 83 76 2d 3d dc 16 4d 3e 3e 04 6f bd
       0.040024698 0.04234935 0.20028251 -0.058353655
000360 7a b1 11 3c 18 4d 10 3d 66 02 cd 3d a5 85 f1 bb
       0.008892411 0.035229772 0.10010223 -0.007370668
000370 c6 3a 95 3c 6b 2d 68 bc 0e 7a c9 bb 4c 85 61 3d
       0.018216502 -0.014170985 -0.0061485833 0.055058762
000380 6a 91 25 3e ae 39 db 3c 78 98 49 3d 88 9f 2d be
       0.16168752 0.026760902 0.04921767 -0.16955388
000390 4c 81 c4 3d f4 1e a0 3d 3f 20 2d bd 1d b4 8a bd
       0.09594974 0.07818404 -0.04226708 -0.06772635
0003a0 f3 63 63 3d 46 da e7 3d d1 17 d6 3d 01 c3 43 3d
       0.05551524 0.11320929 0.10453761 0.047793392
0003b0 5e e2 1e 3d 58 8a 69 3e 87 72 6c bd ff 4f 7a bc
       0.0387901 0.2280668 -0.05772641 -0.015277862
0003c0 47 e1 8e 3c 2c df b9 3d fc 08 7e 3b f1 d4 66 3c
       0.017441405 0.0907577 0.003876268 0.014088855
0003d0 36 c6 8e bc 83 eb c5 3b ca 47 34 3d 53 9e 02 3e
       -0.017428499 0.006040038 0.044013776 0.12755708
0003e0 c7 80 cc 3c d1 25 ce 3d 99 b0 33 be 4e ea a4 3d
       0.02496375 0.10065807 -0.17547835 0.080525026
0003f0 47 70 3c 3d 8d b5 d5 3d aa 97 07 be 81 f8 00 be
       0.046005514 0.10435019 -0.13241449 -0.12594797

8.bias f4 [46]
000000 2c b2 57 bb f8 8e fc 3e e5 08 96 3d 19 5b ba 3b
       -0.0032912595 0.49327826 0.07325915 0.005687129
000010 3e a6 2c 3e 95 c1 97 3e 08 b8 6b 3e 2a 02 bf 3a
       0.16860291 0.2963988 0.23019421 0.0014572788
000020 96 0e da bd 02 9d 69 3e 82 74 3b 3e 43 5c 95 3e
       -0.10647313 0.228138 0.18306163 0.29171953
000030 f8 f2 0d 3e bd bd 39 3b 88 0d 2d 3e 15 79 26 3e
       0.13862216 0.0028341853 0.16899693 0.16257127
000040 ab c5 5c 3e 71 93 35 3e 04 56 82 3e b7 e3 a2 3e
       0.2155978 0.17732026 0.2545625 0.31814358
000050 e4 6d 7c 3e 1a af 31 3f 11 4d 51 3e 9d 69 35 3f
       0.24651295 0.6940781 0.20439555 0.7086428
000060 4e 33 61 3e 13 51 56 3e 3f a8 84 3e 87 2c 91 3e
       0.21992227 0.20929365 0.25909612 0.28354284
000070 ca 99 59 3e 59 90 52 3f 52 e1 4f 3e 98 23 38 3e
       0.21250072 0.8225151 0.20300797 0.17982328
000080 5d 4e 7c 3d 34 01 60 3e 8d 23 46 3e 54 c7 87 3e
       0.06159817 0.21875459 0.19349499 0.26519263
000090 97 2c 7a be 73 0a 77 be bc c4 89 3e a2 60 46 be
       -0.24431072 -0.2412508 0.2690791 -0.193728
0000a0 17 ed 00 bd 77 83 8a 3e 89 a1 f8 3c 76 06 4c bd
       -0.031476106 0.27053425 0.030350463 -0.04981085
0000b0 da a5 91 3d 8d 8d 02 3f
       0.07111712 0.5099724
