online_prototype_monitoring/trained_models/autoencoder_model.pth (torch, 7167 bytes, 16 tensors)

0.weight f4 [8, 15]
0.08888937 0.088532485 -0.17988391 -0.18322843 -0.108543225 0.11840791 -0.14467221 0.37481424
0.17111193 0.020061228 0.27433795 0.14800885 0.064579785 0.0005929794 -0.0026502362 -0.035529874
0.30454952 0.17659351 -0.2668519 0.109706424 -0.2211757 -0.029794004 -0.026799051 -0.0014755412
0.069021374 -0.09406802 0.01092899 -0.038408816 -0.03655448 0.008332208 0.15088244 -0.37081802
-0.19351655 0.18930446 -0.14771497 0.19075869 0.14854096 0.00929809 0.08182273 -0.016619094
0.12599152 -0.040779505 0.04924455 0.074232236 0.04815686 0.0498669 0.1806371 0.20297888
0.34917572 0.0010949977 -0.18750185 -0.21458562 0.17720594 0.1126359 0.025752105 0.0036873452
-0.079031214 -0.003801093 0.070159085 -0.14121996 0.09632352 0.07145124 0.32446405 -0.06297083
-0.060720906 0.44699273 0.25430924 -0.05041415 0.042831633 -0.07678032 0.1036618 0.011293041
0.04738571 -0.054211132 0.109415546 -0.24505705 -0.38945705 -0.22773454 0.08237918 0.11468105
-0.08010413 -0.16001596 -0.02827587 0.014709535 -0.022117687 -0.11442381 0.013143951 -0.09322742
-0.09398006 0.040743053 -0.024054492 -0.03568723 0.104555316 0.14738889 0.04620088 -0.24673449
0.40227547 -0.0714379 -0.11111458 -0.11391496 -0.0023047687 -0.018152518 -0.036389176 -0.16335846
0.080910906 -0.20172441 -0.030591007 -0.1797653 -0.39224556 0.053712655 0.046663526 0.1183564
-0.07863965 -0.112644695 0.1623383 0.029750936 0.368484 -0.061947692 -0.06632639 0.080155075
00000000: a10b b63d 8550 b53d 7d33 38be 3ca0 3bbe
00000010: e94b debd d97f f23d f424 14be a7e7 bf3e
00000020: f737 2f3e 7257 a43c 0676 8c3e a28f 173e
00000030: 6842 843d 2d72 1b3a 96af 2dbb c687 11bd
00000040: eaed 9b3e eed4 343e d0a0 88be c3ad e03d
00000050: e27b 62be 8e12 f4bc af89 dbbc f266 c1ba
00000060: 145b 8d3d bca6 c0bd 820f 333c 9052 1dbd
00000070: 27ba 15bd d083 083c ed80 1a3e dcdb bdbe
00000080: 3429 46be 07d9 413e 9842 17be 3f56 433e
00000090: 1f1b 183e 0457 183c ad92 a73d c424 88bc
000000a0: ec03 013e 6908 27bd a7b4 493d 1207 983d
000000b0: 2140 453d 3c41 4c3d eff8 383e b2d9 4f3e
000000c0: 29c7 b23e 0786 8f3a 7c00 40be 55bc 5bbe
000000d0: 7975 353e a7ad e63d 14f6 d23c 63a7 713b
000000e0: 1edb a1bd c21b 79bb 91af 8f3d f79b 10be
000000f0: 4445 c53d 0755 923d 2720 a63e daf6 80bd
00000100: 7cb6 78bd 3bdc e43e d234 823e 117f 4ebd
00000110: 3970 2f3d 003f 9dbd a34c d43d 7206 393c
00000120: 8517 423d 7e0c 5ebd 4215 e03d 3cf0 7abe
00000130: ea66 c7be 3e33 69be 6ab6 a83d e6dd ea3d
00000140: a20d a4bd 39db 23be cca2 e7bc 4300 713c
00000150: 2730 b5bc 0857 eabd ba59 573c 04ee bebd
00000160: 9e78 c0bd 30e2 263d ed0d c5bc c62c 12bd
00000170: 1921 d63d 1ded 163e 223d 3d3d f7a7 7cbe
00000180: 0df7 cd3e 094e 92bd 0a90 e3bd 3f4c e9bd
00000190: 9a0b 17bb 97b4 94bc d10c 15bd 7147 27be
000001a0: 9eb4 a53d d890 4ebe fe99 fabc 6514 38be
000001b0: 69d4 c8be cd01 5c3d 4122 3f3d d764 f23d
000001c0: d30d a1bd 43b2 e6bd 033c 263e 3cb8 f33c
000001d0: efa9 bc3e ddbc 7dbd 21d6 87bd 5828 a43d

0.bias f4 [8]
0.0007155244 -0.09607664 -0.017892092 -0.17496324 -0.17722647 -0.1506337 -0.08838081 -0.20379144
00000000: 0892 3b3a d4c3 c4bd 7092 92bc 9029 33be
00000010: db7a 35be b83f 1abe 0001 b5bd b4ae 50be

1.weight f4 [8]
0.9144145 0.8485322 0.8795693 0.87919474 0.8271543 0.908194 0.98912823 0.82863915
00000000: 1217 6a3f 6839 593f 742b 613f e812 613f
00000010: 62c0 533f 677f 683f 8237 7d3f b221 543f

1.bias f4 [8]
0.030829526 -0.12230402 0.15485688 0.16953568 0.105898276 0.10022754 0.18278277 0.13963205
00000000: 348e fc3c 887a fabd cd92 1e3e c39a 2d3e
00000010: 32e1 d83d 1944 cd3d 682b 3b3e b4fb 0e3e

1.running_mean f4 [8]
-0.05811831 -0.07249203 -0.08036359 -0.18331665 -0.18501356 -0.06413592 -0.063561074 -0.12974739
00000000: 770d 6ebd b476 94bd aa95 a4bd 5cb7 3bbe
00000010: 3274 3dbe b159 83bd 4f2c 82bd 80dc 04be

1.running_var f4 [8]
0.026309626 0.06343876 0.06961689 0.058157377 0.061292086 0.07377847 0.030082643 0.049910773
00000000: 4987 d73c 2eec 813d 4d93 8e3d 6e36 6e3d
00000010: 690d 7b3d 2b19 973d e06f f63c 3d6f 4c3d

3.weight f4 [4, 8]
0.074260704 -0.11528185 0.10245413 0.049877614 -0.095801085 0.1988485 -0.04757272 -0.16709103
-0.22445256 -0.11726177 0.1773344 0.112163864 0.09093151 -0.13243991 0.09479199 -0.27051967
0.17533906 -0.032103907 0.090906285 0.07273255 0.1511874 -0.28495908 -0.108297385 -0.06346156
-0.011522089 -0.2120944 0.3109426 -0.15282834 0.114690125 -0.006912757 0.03411553 0.021220477
00000000: ff15 983d e418 ecbd 79d3 d13d 784c 4c3d
00000010: 5c33 c4bd f19e 4b3e 9ddb 42bd e919 2bbe
00000020: e4d6 65be f026 f0bd 2697 353e 2bb6 e53d
00000030: 4d3a ba3d 549e 07be 4e22 c23d 8e81 8abe
00000040: 158c 333e 637f 03bd 132d ba3d cef4 943d
00000050: dfd0 1a3e 28e6 91be 05cb ddbd 22f8 81bd
00000060: 25c7 3cbc 462f 59be de33 9f3e 087f 1cbe
00000070: a8e2 ea3d 6984 e2bb babc 0b3d 91d6 ad3c

3.bias f4 [4]
0.4381308 0.3262536 0.30754566 0.27516422
00000000: ae52 e03e b60a a73e a076 9d3e 53e2 8c3e

5.weight f4 [8, 4]
0.032182448 -0.1846578 -0.37153554 0.3467604 0.078704365 -0.019083433 -0.3182647 -0.24946697
0.23038664 -0.20764789 -0.035293486 -0.35844055 -0.3550145 0.15382129 0.29184115 -0.5582735
0.1865806 0.27433154 0.009232029 -0.18713215 0.3414945 0.1625694 0.19865344 -0.20083661
-0.27295798 0.002903483 0.09708086 -0.12959297 0.06826983 0.47778514 -0.18591967 -0.2040397
00000000: bed1 033d ef16 3dbe e839 bebe 948a b13e
00000010: c12f a13d dc54 9cbc 97f3 a2be 4574 7fbe
00000020: 7aea 6b3e a6a1 54be e78f 10bd 8585 b7be
00000030: 76c4 b5be 5483 1d3e 346c 953e 03eb 0ebf
00000040: fc0e 3f3e 2f75 8c3e f041 173c 929f 3fbe
00000050: 5ed8 ae3e 9878 263e cf6b 4b3e 1da8 4dbe
00000060: 26c1 8bbe 5d48 3e3b 54d2 c63d 05b4 04be
00000070: 0dd1 8b3d 41a0 f43e ba61 3ebe c8ef 50be

5.bias f4 [8]
0.0072961454 -0.029854119 0.12020564 0.14011681 -0.45412838 -0.18451887 0.42106473 0.19477749
00000000: 8114 ef3b a090 f4bc 602e f63d c87a 0f3e
00000010: 8483 e8be 84f2 3cbe cc95 d73e c073 473e

6.weight f4 [8]
0.8172509 0.5643535 0.56670177 0.8270815 0.9331707 0.6452772 0.9090188 0.9463307
00000000: 5b37 513f 7979 103f 5e13 113f 9dbb 533f
00000010: 46e4 6e3f e330 253f 75b5 683f bb42 723f

6.bias f4 [8]
0.2082647 0.36468658 0.6560653 0.19333598 0.20757753 0.89464796 0.28417692 0.70107466
00000000: 5743 553e 33b8 ba3e e5f3 273f def9 453e
00000010: 348f 543e a607 653f a37f 913e a179 333f

6.running_mean f4 [8]
-0.01225946 -0.13005392 0.06274414 -0.016384145 -0.3826746 -0.04943494 0.3223735 0.22541617
00000000: e7db 48bc db2c 05be 0080 803d 0b38 86bc
00000010: eded c3be 4b7c 4abd 240e a53e 7fd3 663e

6.running_var f4 [8]
0.013161003 0.0036642305 0.004781971 0.033034008 0.004111591 0.0041278894 0.005457233 0.010866627
00000000: 3fa1 573c 9623 703b 15b2 9c3b ab4e 073d
00000010: 86ba 863b 3f43 873b 97d2 b23b f009 323c

8.weight f4 [15, 8]
0.00052174093 -0.025089 0.021407092 -0.20160009 -0.0663606 0.050271105 0.14980026 0.06628828
-0.2645961 -0.0892086 -0.032423064 0.5171362 0.013324969 -0.10140487 0.33319786 0.02562727
-0.4652804 -0.011467795 -0.20667784 0.27352393 -0.14039457 0.15068744 0.46628195 0.1502089
0.14994524 -0.18404014 -0.26716465 -0.1255292 0.12735751 0.3214505 -0.20479475 0.34235114
-0.1251071 -0.27705383 -0.072414525 -0.3674654 0.27433315 0.07097894 -0.2759863 -0.29572195
-0.108284496 -0.69400674 -0.66605014 0.007969986 -0.09693745 0.36074734 0.03496107 -0.2625693
0.15335976 -0.06641732 -0.42811167 -0.3740822 0.07302494 -0.6783217 0.38686162 0.3472385
0.021014966 -0.15874033 0.3744249 0.00991019 0.13446203 0.2287106 0.020035194 -0.19656229
0.024324281 -0.17138712 0.07123371 -0.2298379 0.041406132 0.27512574 0.18465026 -0.14071551
0.03280953 -0.025331164 0.10548498 -0.1954371 -0.42801616 -0.1134872 0.16477357 -0.5104303
-0.0572482 0.064265735 -0.029166458 0.13033378 0.22016048 -0.05494595 -0.08157118 -0.2309921
0.043398023 -0.16757812 0.29193833 -0.17886846 -0.53799474 -0.39954424 0.12749676 -0.5203768
-0.012202346 -0.033303212 -0.050296668 -0.0049169613 -0.26678434 0.15641265 0.020280674 0.15106167
0.009807821 -0.08677653 0.013476344 -0.09017683 -0.16246867 0.101595856 0.08419218 0.116852
-0.010383561 0.13386714 -0.13430594 -0.025796754 -0.16488536 0.0832648 0.051873665 0.077171415
00000000: 71c5 083a 7287 cdbc ed5d af3c 4170 4ebe
00000010: 11e8 87bd 13e9 4d3d 3d65 193e 26c2 873d
00000020: 2479 87be 00b3 b6bd 0cce 04bd 0a63 043f
00000030: f950 5a3c 5bad cfbd e998 aa3e 48f0 d13c
00000040: 3c39 eebe 6be3 3bbc 5ba3 53be 540b 8c3e
00000050: 98c3 0fbe cf4d 1a3e 82bc ee3e 5dd0 193e
00000060: 3f8b 193e 0575 3cbe cec9 88be ba8a 00be
00000070: 026a 023e 2995 a43e b7b5 51be a648 af3e
00000080: 131c 00be 00da 8dbe 114e 94bd 6d24 bcbe
00000090: 6575 8c3e 685d 913d 144e 8dbe de68 97be
000000a0: 43c4 ddbd 6daa 31bf 4382 2abf 8b94 023c
000000b0: 2487 c6bd e0b3 b83e 5733 0f3d 7c6f 86be
000000c0: 570a 1d3e ce05 88bd 7431 dbbe b487 bfbe
000000d0: 1a8e 953d 7ea6 2dbf ba12 c63e 3fc9 b13e
000000e0: 9427 ac3c d38c 22be 9fb4 bf3e 595e 223c
000000f0: 6ab0 093e 1d33 6a3e d920 a43c a047 49be
00000100: b743 c73c 1b80 2fbe fbe2 913d a05a 6bbe
00000110: 7a99 293d 48dd 8c3e f514 3d3e ba17 10be
00000120: 4963 063d 4d83 cfbc 8208 d83d aa20 48be
00000130: ef24 dbbe fa6b e8bd 67ba 283e 8fab 02bf
00000140: 177d 6abd c19d 833d 7fee eebc 3876 053e
00000150: c071 613e 010f 61bd ca0e a7bd 3189 6cbe
00000160: 20c2 313d 9999 2bbe f178 953e 4b29 37be
00000170: 06ba 09bf 1091 ccbe 838e 023e 6a37 05bf
00000180: 59ec 47bc f368 08bd e103 4ebd 761e a1bb
00000190: f597 88be a32a 203e a823 a63c e9af 1a3e
000001a0: fcb0 203c e5b7 b1bd e2cb 5c3c a1ae b8bd
000001b0: 305e 26be 7d11 d03d f36c ac3d 1a50 ef3d
000001c0: d01f 2abc 7814 093e 7f87 09be b753 d3bc
000001d0: b5d7 28be bc86 aa3d 7b79 543d 0c0c 9e3d

8.bias f4 [15]
-0.81626016 -0.23229462 -0.057271425 -0.38933408 -0.63444585 0.43613678 0.3427397 -0.40200004
-0.07762744 0.06925951 0.071244024 0.12144647 -0.111308075 -0.123563945 -0.060019508
00000000: 6df6 50bf a4de 6dbe 7195 6abd cc56 c7be
00000010: 0b6b 22bf 524d df3e 947b af3e f3d2 cdbe
00000020: 23fb 9ebd eed7 8d3d 63e8 913d edb8 f83d
00000030: 7df5 e3bd 180f fdbd 04d7 75bd
